Assets/ML-Agents/results/color-hunt1/ColorHunter/checkpoint.pt (torch, 541666 bytes, 44 tensors)

network_body.observation_encoder.processors.0.normalizer.running_mean f4 [37]
98.54716 1.0223168 94.89088 0.019830408 0.97836375 0.021406382 0.97671914 0.021869076
0.97461456 0.029700253 0.96409804 0.03163861 0.9621046 0.022992792 0.973239 0.01736737
0.9814806 0.014591107 0.9852922 0.015562621 0.98392266 0.01963257 0.9795169 0.0029480457
0.99669904 0.0019712022 0.9975067 0.003786589 0.9964632 0.005507903 0.9952134 0.00911105
0.9903442 0.009170268 0.9898627 -0.0076335655 0.25002435
00000000: 2518 c542 47db 823f 21c8 bd42 6173 a23c
00000010: 0c76 7a3f 705c af3c 440a 7a3f c726 b33c
00000020: 5780 793f f24d f33c 21cf 763f 7d97 013d
00000030: 7d4c 763f 615b bc3c 3126 793f 0446 8e3c
00000040: 5042 7b3f 8a0f 6f3c 1c3c 7c3f 5dfa 7e3c
00000050: 5be2 7b3f 7cd4 a03c 9fc1 7a3f 0034 413b
00000060: ab27 7f3f 492f 013b 995c 7f3f 6c28 783b
00000070: 3618 7f3f a47b b43b 4ec6 7e3f 8346 153c
00000080: 3387 7d3f e43e 163c a467 7d3f fd22 fabb
00000090: 3103 803e

network_body.observation_encoder.processors.0.normalizer.running_variance f4 [37]
4.94359e+09 49240.246 4.5944827e+09 11821.337 10595.904 12926.535 11877.189 13197.901
13527.733 17707.62 19441.088 18828.957 20407.469 13906.619 14383.327 10521.054
9556.158 8579.949 7139.2954 9212.803 7762.21 11742.988 10259.626 1608.876
1774.0485 1116.1041 1374.3685 2324.8247 1612.4318 3321.1394 2056.7556 5441.4814
5318.39 5520.924 5697.5273 128648.94 158198.4
00000000: 9954 934f 3f58 4047 1fed 884f 59b5 3846
00000010: 9e8f 2546 24fa 4946 c294 3946 9b37 4e46
00000020: ef5e 5346 3d57 8a46 2de2 9746 ea19 9346
00000030: f06e 9f46 7a4a 5946 4fbd 6046 3764 2446
00000040: a250 1546 cc0f 0646 5d1a df45 36f3 0f46
00000050: ae91 f245 f47b 3746 814e 2046 081c c944
00000060: 8dc1 dd44 5583 8b44 cbcb ab44 324d 1145
00000070: d18d c944 3b92 4f45 178c 0045 da0b aa45
00000080: 1f33 a645 6487 ac45 380c b245 7844 fb47
00000090: 9a7d 1a48

network_body.processors.0.normalizer.running_mean f4 [37]
98.54716 1.0223168 94.89088 0.019830408 0.97836375 0.021406382 0.97671914 0.021869076
0.97461456 0.029700253 0.96409804 0.03163861 0.9621046 0.022992792 0.973239 0.01736737
0.9814806 0.014591107 0.9852922 0.015562621 0.98392266 0.01963257 0.9795169 0.0029480457
0.99669904 0.0019712022 0.9975067 0.003786589 0.9964632 0.005507903 0.9952134 0.00911105
0.9903442 0.009170268 0.9898627 -0.0076335655 0.25002435
00000000: 2518 c542 47db 823f 21c8 bd42 6173 a23c
00000010: 0c76 7a3f 705c af3c 440a 7a3f c726 b33c
00000020: 5780 793f f24d f33c 21cf 763f 7d97 013d
00000030: 7d4c 763f 615b bc3c 3126 793f 0446 8e3c
00000040: 5042 7b3f 8a0f 6f3c 1c3c 7c3f 5dfa 7e3c
00000050: 5be2 7b3f 7cd4 a03c 9fc1 7a3f 0034 413b
00000060: ab27 7f3f 492f 013b 995c 7f3f 6c28 783b
00000070: 3618 7f3f a47b b43b 4ec6 7e3f 8346 153c
00000080: 3387 7d3f e43e 163c a467 7d3f fd22 fabb
00000090: 3103 803e

network_body.processors.0.normalizer.running_variance f4 [37]
4.94359e+09 49240.246 4.5944827e+09 11821.337 10595.904 12926.535 11877.189 13197.901
13527.733 17707.62 19441.088 18828.957 20407.469 13906.619 14383.327 10521.054
9556.158 8579.949 7139.2954 9212.803 7762.21 11742.988 10259.626 1608.876
1774.0485 1116.1041 1374.3685 2324.8247 1612.4318 3321.1394 2056.7556 5441.4814
5318.39 5520.924 5697.5273 128648.94 158198.4
00000000: 9954 934f 3f58 4047 1fed 884f 59b5 3846
00000010: 9e8f 2546 24fa 4946 c294 3946 9b37 4e46
00000020: ef5e 5346 3d57 8a46 2de2 9746 ea19 9346
00000030: f06e 9f46 7a4a 5946 4fbd 6046 3764 2446
00000040: a250 1546 cc0f 0646 5d1a df45 36f3 0f46
00000050: ae91 f245 f47b 3746 814e 2046 081c c944
00000060: 8dc1 dd44 5583 8b44 cbcb ab44 324d 1145
00000070: d18d c944 3b92 4f45 178c 0045 da0b aa45
00000080: 1f33 a645 6487 ac45 380c b245 7844 fb47
00000090: 9a7d 1a48

network_body._body_endoder.seq_layers.0.weight f4 [128, 37]
-0.29851258 0.045817338 -0.02814907 0.029928366 -0.25325555 -0.008287265 0.14551261 -0.020885615
0.11169996 -0.06962832 -0.3293752 0.099268034 0.13529083 -0.28052902 0.028863074 -0.11083672
-0.016489789 0.10924217 -0.19859135 0.16071686 0.015720103 -0.0088072205 -0.30586752 -0.16565827
0.044320725 0.05534703 0.043679196 0.033759516 -0.012604068 -0.14227112 0.12441518 0.06889042
-0.28555223 -0.023911618 0.2262413 -0.023373019 -0.044928834 0.2624629 -0.09999075 0.092244
-0.059016123 -0.25507084 0.018676471 -0.0039007133 -0.4204663 0.18331929 -0.07136135 0.1209336
0.048369206 0.05233958 -0.28091574 -0.037793715 -0.15613005 -0.18764652 0.08583987 0.17283933
0.15627444 -0.039476767 0.12644085 0.1216574 -0.00088569627 0.46003172 -0.1455773 0.005161778
0.14697587 -0.022074234 -0.25591627 -0.3859724 0.122056544 -0.21838023 -0.03321913 0.32073113
-0.16293384 -0.12497719 -0.14205201 -0.0139933275 0.11591341 0.08338879 -0.1674003 -0.17911156
0.17308521 0.100707926 0.049135473 0.26693052 0.071624495 0.13966653 -0.050647985 -0.23589824
-0.20313528 0.08111267 -0.22354653 0.3562963 -0.21026412 -0.08039204 0.17626728 -0.18560554
0.25276056 -0.20907186 -0.006233683 0.10025345 -0.09871543 -0.068768896 -0.05504291 -0.0042608446
-0.23193412 0.13671917 0.13384186 0.18371844 -0.15414634 0.16280112 -0.004315783 0.2452995
0.05823639 0.108355045 0.06339144 0.018077603 -0.057935942 -0.14859913 0.01926397 0.3762903
0.116210245 0.15949556 -0.3623193 0.13122813 -0.07227491 0.017404892 -0.0049028755 0.17322817
0.12533069 -0.11538049 -0.0559336 0.004890592 -0.001750913 0.1442577 0.0026277716 -0.042900678
0.009197789 -0.051678818 0.099823974 -0.032952275 0.22304271 0.063182116 0.28692514 -0.13524888
0.05666035 0.04263876 -0.103902794 -0.040453963 -0.040293332 0.04415595 0.13762614 0.104897104
-0.046394076 -0.10031035 -0.19540685 -0.36097047 0.043617096 0.22216228 0.15728177 -0.22657368
0.20990853 0.065737225 -0.14462957 0.091897815 -0.010400904 -0.14460033 -0.2258095 -0.106549226
-0.046992563 -0.06136637 0.024802359 -0.0695214 -0.20554525 -0.1825204 0.023002287 0.06195068
-0.049634498 -0.0142499935 0.12564042 0.47349337 -0.15582031 0.2152655 -0.24768563 -0.016474647
-0.0748639 -0.09369105 -0.09899287 -0.22471936 0.0041398196 -0.2156831 0.16825883 -0.4036046
-0.0039150454 0.023498021 0.051434685 -0.04988691 -0.4412122 -0.18705821 0.26282188 -0.080304325
-0.07807103 0.0074099586 0.34887147 -0.12046455 -0.031181667 0.07451282 -0.111029744 0.021828061
0.44753388 0.03125115 -0.005385313 -0.061681956 0.105083644 0.04834556 -0.01873428 -0.026727198
-0.105100974 0.055278603 0.41880122 0.09135141 -0.008703584 -0.17378898 0.028938552 0.13246356
0.14356041 -0.12973094 0.3461019 0.07216629 -0.14776139 -0.036099568 -0.13299899 -0.0007256933
0.05188996 0.14551131 0.03574889 0.15472694 0.17374809 0.060443964 -0.0067427824 -0.057968456
-0.09175992 -0.0029998468 0.15378805 0.061419234 -0.07872809 -0.3079114 0.40126345 0.0064731003
-0.19571857 0.08914603 -0.18666828 0.18741915 -0.16415264 -0.13321307 -0.12145097 -0.21414171
00000000: a4d6 98be f6aa 3b3d e198 e6bc 552c f53c
00000010: b6aa 81be 4fc7 07bc 4201 153e 4f18 abbc
00000020: f3c2 e43d 4b99 8ebd dea3 a8be 0a4d cb3d
00000030: ae89 0a3e 80a1 8fbe 4172 ec3c 5dfe e2bd
00000040: 9815 87bc 5cba df3d 885b 4bbe f692 243e
00000050: 72c7 803c 294c 10bc ab9a 9cbe 52a2 29be
00000060: a689 353d 91b3 623d f5e8 323d 6b47 0a3d
00000070: 4b81 4ebc 85af 11be 63cd fe3d 6c16 8d3d
00000080: e733 92be 4ce2 c3bc cdab 673e c678 bfbc
00000090: 4c07 38bd 8a61 863e f3c7 ccbd 6cea bc3d
000000a0: e4ba 71bd a598 82be 66ff 983c 1ca3 7fbb
000000b0: 5c47 d7be 0db8 3b3e e625 92bd 09ac f73d
000000c0: ca1e 463d 0762 563d 30d4 8fbe 95cd 1abd
000000d0: 8ee0 1fbe 6926 40be d0cc af3d cbfc 303e
000000e0: 6806 203e 64b2 21bd b679 013e 8427 f93d
000000f0: 122e 68ba 4789 eb3e 3712 15be 2224 a93b
00000100: d880 163e 06d5 b4bc 7507 83be 2d9e c5be
00000110: c8f8 f93d 119f 5fbe c810 08bd df36 a43e
00000120: 21d8 26be 0af4 ffbd 1576 11be 4544 65bc
00000130: 0364 ed3d bec7 aa3d fc6a 2bbe 0569 37be
00000140: 403d 313e f53f ce3d 4742 493d 1eab 883e
00000150: ddaf 923d be04 0f3e 4374 4fbd 4f8f 71be
00000160: b202 50be 661e a63d 62e9 64be 786c b63e
00000170: 7a4f 57be 95a4 a4bd 697f 343e 610f 3ebe
00000180: d569 813e ef16 56be ec43 ccbb ae51 cd3d
00000190: 512b cabd b5d6 8cbd ad74 61bd 8e9e 8bbb
000001a0: 2380 6dbe 1c00 0c3e d70d 093e b020 3c3e
000001b0: 8ad8 1dbe 56b5 263e 696b 8dbb cb2f 7b3e
000001c0: 4889 6e3d 40e9 dd3d 5fd3 813d 7b17 943c
000001d0: 3d4e 6dbd 5f2a 18be 79cf 9d3c 1fa9 c03e
000001e0: a3ff ed3d ce52 233e ea81 b9be ab60 063e
000001f0: de04 94bd b494 8e3c 4da8 a0bb ba62 313e
00000200: b056 003e 9b4c ecbd a11a 65bd 4241 a03b
00000210: e47e e5ba 4ab8 133e b136 2c3b 9fb8 2fbd
00000220: 53b2 163c 2bad 53bd 8370 cc3d f7f8 06bd
00000230: 4f65 643e a065 813d dae7 923e af7e 0abe
00000240: af14 683d fba5 2e3d fdca d4bd 0eb3 25bd
00000250: 9f0a 25bd dfdc 343d deed 0c3e 4bd4 d63d
00000260: b707 3ebd 836f cdbd bc18 48be 1fd1 b8be
00000270: d7a7 323d 827e 633e 790e 213e ee02 68be
00000280: 43f2 563e 3da1 863d c619 14be ec34 bc3d
00000290: 8e68 2abc 1c12 14be 9b3a 67be 7b36 dabd
000002a0: 467b 40bd 4e5b 7bbd 512e cb3c 3c61 8ebd
000002b0: 747a 52be a1e6 3abe 4b6f bc3c ffbf 7d3d
000002c0: 8b4d 4bbd ce78 69bc e2a7 003e b96d f23e
000002d0: 5c8f 1fbe 8f6e 5c3e 4da1 7dbe d7f5 86bc
000002e0: 3f52 99bd 18e1 bfbd c6bc cabd d51c 66be
000002f0: 53a7 873b 08dc 5cbe 0b4c 2c3e 43a5 cebe
00000300: c849 80bb ec7e c03c 2dad 523d 3756 4cbd
00000310: 91e6 e1be 308c 3fbe 9790 863e 9876 a4bd
00000320: b4e3 9fbd 3dcf f23b 489f b23e 1eb6 f6bd
00000330: b270 ffbc 2d9a 983d 9063 e3bd c3d0 b23c
00000340: 2923 e53e 3501 003d 4877 b0bb 38a6 7cbd
00000350: 1836 d73d fe05 463d a278 99bc fff2 dabc
00000360: 2e3f d7bd d16b 623d 1d6d d63e 7316 bb3d
00000370: 7a99 0ebc bdf5 31be 8b10 ed3c 87a4 073e
00000380: 8001 133e 30d8 04be 4534 b13e ebcb 933d
00000390: c34e 17be 24dd 13bd e330 08be 743c 3eba
000003a0: 918a 543d eb00 153e 6e6d 123d bd70 1e3e
000003b0: 05eb 313e 1794 773d 8ff2 dcbb 5570 6dbd
000003c0: a0ec bbbd 1499 44bb 9d7a 1d3e bc92 7b3d
000003d0: 313c a1bd 90a6 9dbe 6772 cd3e 4d1c d43b
000003e0: 736a 48be 3292 b63d f825 3fbe ceea 3f3e
000003f0: a117 28be 0269 08be 49bb f8bd f747 5bbe

network_body._body_endoder.seq_layers.0.bias f4 [128]
0.013120745 0.013530912 0.0027305651 -0.0037970843 -0.005588824 0.004859068 -0.009622969 0.0019423215
0.014684038 0.019344458 0.002377939 0.014914944 -0.0071776714 0.007879092 -0.0006941308 0.0076185092
-0.002071252 -0.004786724 -0.0098872855 0.010397717 -0.012241312 0.011563589 0.00052121945 -0.018432789
0.016011454 0.013803483 0.018897125 -0.019331027 0.009116068 0.0036613208 0.007115895 0.013384819
0.0056472393 0.00077162596 -0.019487392 0.005785522 -0.004828602 -0.015901972 -0.010775015 0.013817419
0.0016013568 0.014606322 -0.0012664811 0.023773314 0.005020523 0.009061725 -0.005332646 -0.006457081
0.0028699657 0.005202594 -0.02280389 -0.0032882057 0.00897647 0.011801823 -0.004066264 -0.00038193006
-0.0107160015 8.931831e-05 0.0042641037 -0.0044894144 0.002565281 -0.0052273725 0.0015913069 0.005896532
-0.008240581 0.010192869 0.0043831826 0.0052181105 -0.00652292 -0.011652874 -0.008560345 0.014153797
0.0023821888 -0.0067710755 0.0036289787 8.42028e-05 0.0054774648 -0.002559081 0.008978182 0.00766115
0.009997917 0.011207407 0.0006601666 -0.0019744162 0.007016769 -0.0040185354 0.017505474 0.0054489346
0.0026119603 -0.023189541 -0.0114805 0.015131592 0.025765017 -0.00037075576 -0.002962848 -0.00018266188
0.029888526 0.01770454 0.008111478 -0.018001022 0.0063707763 0.007429053 0.0059747403 0.0017438299
-0.015166258 -0.0022173247 0.012061168 0.00600441 -0.0046420335 0.0037070615 0.010914332 0.025559595
0.005254854 -0.0019549099 0.006140879 0.017680824 -0.006598427 -0.009098518 -0.01866131 0.005912589
-0.003619514 -0.011140106 0.022606824 0.0036884136 0.0033922473 0.0011689916 0.026849411 0.019533161
00000000: 65f8 563c c2b0 5d3c 48f3 323b 81d8 78bb
00000010: 7422 b7bb d138 9f3b a8a9 1dbc 7f95 fe3a
00000020: 5295 703c 4578 9e3c 32d7 1b3b cf5d 743c
00000030: ac32 ebbb 4f17 013c 54f6 35ba b0a4 f93b
00000040: d8bd 07bb f4d9 9cbb 48fe 21bc 305b 2a3c
00000050: c98f 48bc 3575 3d3c 72a2 083a 5c00 97bc
00000060: 742a 833c 0128 623c 25ce 9a3c 1a5c 9ebc
00000070: 8f5b 153c c5f2 6f3b 742c e93b 004c 5b3c
00000080: 7a0c b93b f146 4a3a 06a4 9fbc 7a94 bd3b
00000090: 4039 9ebb da44 82bc b089 30bc 7562 623c
000000a0: 9ee4 d13a 5b4f 6f3c 0e00 a6ba 41c0 c23c
000000b0: 3383 a43b a177 143c 7abd aebb ec95 d3bb
000000c0: 0916 3c3b 867a aa3b 39cf babc f07e 57bb
000000d0: 0b12 133c 6f5c 413c 4b3e 85bb c93d c8b9
000000e0: 2b92 2fbc 6750 bb38 e5b9 8b3b f01b 93bb
000000f0: 461e 283b 614a abbb 6693 d03a b237 c13b
00000100: 8003 07bc feff 263c cda0 8f3b affc aa3b
00000110: 38be d5bb b2eb 3ebc b040 0cbc 54e5 673c
00000120: 7f1e 1c3b e6df ddbb 29d4 6d3b 0996 b038
00000130: 4e7c b33b 41b6 27bb 3a19 133c 620a fb3b
00000140: 4ece 233c 469f 373c 080f 2d3a 3565 01bb
00000150: edec e53b ebad 83bb a467 8f3c fa8c b23b
00000160: 6c2d 2b3b fef7 bdbc b518 3cbc 7fea 773c
00000170: 2811 d33c ff61 c2b9 572c 42bb ed88 3fb9
00000180: c8d8 f43c 1d09 913c 01e6 043c e176 93bc
00000190: f2c1 d03b 6a6f f33b c1c7 c33b 3991 e43a
000001a0: e67b 78bc 8950 11bb 359c 453c a4c0 c43b
000001b0: 331c 98bb 2cf2 723b 07d2 323c 5b62 d13c
000001c0: e930 ac3b f21d 00bb 6d39 c93b 60d7 903c
000001d0: 9e37 d8bb f311 15bc 9bdf 98bc 64be c13b
000001e0: 5e35 6dbb fe84 36bc f231 b93c 50b9 713b
000001f0: 7750 5e3b d938 993a 4cf3 db3c 0204 a03c

network_body._body_endoder.seq_layers.2.weight f4 [128, 128]
0.029412692 0.11553726 -0.082882255 0.004450603 -0.04076337 -0.013566888 0.048386313 0.033475943
0.006227254 -0.061414238 0.030468604 0.04287554 0.100600734 -0.032137442 -0.069571555 0.06976226
-0.002809763 0.09050906 0.009301666 -0.13402517 -0.07920122 -0.17307717 -0.1726039 0.042683393
0.18068993 0.09535426 -0.056781422 -0.0030828745 -0.019870184 0.01638941 0.0013238855 0.046468694
-0.122665405 -0.0744089 0.0043696417 0.19072703 0.049912088 0.19137813 -0.1620522 0.028446835
0.054273456 -0.16796404 -0.03761322 -0.039919537 -0.1776462 -0.006280613 -0.01469335 -0.07130221
-0.00017624146 0.052084543 0.010720443 0.022475755 -0.061183013 -0.11339668 0.057602927 0.038693305
-0.0386775 0.10753535 0.010163868 0.1590129 0.09060275 0.022344833 -0.016248094 -0.027830621
0.01372821 -0.04382611 -0.09490424 -0.12895891 0.025612582 -0.02535178 0.036991667 -0.13462633
0.015751155 0.038915414 0.15562628 0.12867524 0.06854094 0.030760976 0.04343876 0.03783679
0.012271803 0.035870098 -0.0019423442 0.014128261 -0.04781111 -0.017311025 -0.022001022 -0.08992069
-0.11391242 -0.034033358 0.056577653 -0.020277115 0.017164038 0.09877456 -0.121693075 0.010910319
0.08381445 0.05571696 0.011838013 0.010112701 0.05623729 0.008041704 0.07073396 0.16672704
-0.08887941 0.010492799 -0.04394095 -0.14294058 0.06192984 0.1758994 0.01466119 0.046461012
0.10981171 -0.092760056 -0.014996007 -0.021191502 0.1550096 0.06977813 0.08199551 -0.027849592
0.074641876 -0.018213546 -0.0023487024 0.17347594 0.056281775 -0.023930818 0.0039619734 -0.09577022
0.04965468 0.035741005 -0.05466476 0.10568365 -0.049536377 -0.041969292 0.08972678 0.036978528
-0.034191303 -0.009664714 -0.029059723 0.058452275 -0.11000016 -0.007857781 -0.0009083446 0.06932994
0.057569284 0.008070153 0.026524315 0.06961232 -0.041962024 -0.20617802 0.04472737 0.1769665
0.047241125 -0.016865646 -0.011241512 -0.0252563 0.19097897 -0.08697341 -0.049219478 0.080263406
-0.07586567 0.059856582 0.04607715 0.006007175 -0.041148186 0.03626767 0.0014596612 0.020828564
-0.05719809 0.10778494 0.0063598 -0.09721128 0.1018369 -0.11466666 0.06597863 0.04548296
0.030341022 0.023488093 -0.062014773 0.07228177 -0.0073220236 -0.02230123 0.14050576 0.05630914
-0.121381305 0.03380859 -0.04277878 -0.07814124 0.09092193 0.012118982 0.122139975 0.046785273
-0.032080214 0.047077686 0.14302918 0.05806156 0.070489556 -0.015039445 -0.13601892 0.003419943
0.03551684 0.053658742 0.03473214 -0.12979583 -0.09175749 0.104761936 0.04889786 -0.009891658
0.053736076 0.10203137 0.06251576 0.120475315 -0.009076639 0.024687609 0.13457759 -0.017159693
0.14372194 -0.019018045 0.13603751 0.08046921 -0.035850074 0.12418319 -0.12354309 -0.12918395
-0.07130523 -0.15868542 -0.08281338 -0.10531142 -0.088039145 0.033349574 -0.098421 0.021734739
0.063918486 -0.061022766 -0.09083277 -0.016617376 0.03840383 -0.08333166 -0.052362 0.009566729
-0.009086707 -0.093672685 -0.11312756 -0.024430072 0.089485645 0.03229231 -0.013517717 0.06468097
-0.16350797 -0.02384974 0.0025048933 -0.030959941 -0.04062206 -0.058910515 -0.017516881 -0.11683966
00000000: e3f2 f03c cd9e ec3d 2cbe a9bd 5dd6 913b
00000010: 7ef7 26bd a747 5ebc ba30 463d 121e 093d
00000020: fe0d cc3b 7f8d 7bbd 4b99 f93c 439e 2f3d
00000030: c207 ce3d 8da2 03bd 887b 8ebd 84df 8e3d
00000040: 0024 38bb d05c b93d 0466 183c e53d 09be
00000050: 4034 a2bd 243b 31be 14bf 30be c8d4 2e3d
00000060: c806 393e 1849 c33d a393 68bd 0d0a 4abb
00000070: ccc6 a2bc 1543 863c 3a86 ad3a f555 3e3d
00000080: 0038 fbbd b263 98bd 362f 8f3b f24d 433e
00000090: 9e70 4c3d a1f8 433e 03f1 25be 5609 e93c
000000a0: d84d 5e3d c4fe 2bbe 5210 1abd ab82 23bd
000000b0: e3e8 35be 9acd cdbb 60bc 70bc e506 92bd
000000c0: 75cd 38b9 9a56 553d cca4 2f3c 131f b83c
000000d0: 0a9b 7abd 853c e8bd 0cf1 6b3d df7c 1e3d
000000e0: 4c6c 1ebd 7e3b dc3d 5a86 263c 47d4 223e
000000f0: ef8d b93d 830c b73c b91a 85bc 0bfd e3bc
00000100: 49ec 603c 0283 33bd 275d c2bd ce0d 04be
00000110: 7ad1 d13c 89ae cfbc 9384 173d 7cdb 09be
00000120: 9108 813c c565 1f3d 7f5c 1f3e 71c3 033e
00000130: 315f 8c3d 71fe fb3c d7ec 313d c0fa 1a3d
00000140: ac0f 493c 86ec 123d 4296 feba 397a 673c
00000150: 95d5 43bd dacf 8dbc 7d3b b4bc 5728 b8bd
00000160: ea4a e9bd 9066 0bbd f8bd 673d 311c a6bc
00000170: 999b 8c3c 514a ca3d 383a f9bd 32c1 323c
00000180: e9a6 ab3d 7837 643d 3af4 413c beaf 253c
00000190: 1359 663d 5ac1 033c f7dc 903d 7eba 2a3e
000001a0: 6806 b6bd fde9 2b3c 6dfb 33bd 045f 12be
000001b0: 25aa 7d3d f91e 343e 7d35 703c e74d 3e3d
000001c0: f6e4 e03d fcf8 bdbd d0b1 75bc cd99 adbc
000001d0: d6ba 1e3e d6e7 8e3d 43ed a73d d424 e4bc
000001e0: d7dd 983d 9334 95bc b0ec 19bb ada3 313e
000001f0: b887 663d 900a c4bc 71d3 813b 2d23 c4bd
00000200: b562 4b3d 2965 123d 28e8 5fbd ab70 d83d
00000210: a8e6 4abd fee7 2bbd adc2 b73d cc76 173d
00000220: 2e0c 0cbd c058 1ebc a80e eebc a76b 6f3d
00000230: c447 e1bd ecbd 00bc f91d 6eba dbfc 8d3d
00000240: c5cd 6b3d ad38 043c 8549 d93c e790 8e3d
00000250: 5fe0 2bbd 5520 53be 0c34 373d b536 353e
00000260: e97f 413d d329 8abc 522e 38bc 4de6 cebc
00000270: fe8f 433e 1d1f b2bd 5d9a 49bd 2461 a43d
00000280: 765f 9bbd 2d2c 753d 65bb 3c3d d6d7 c43b
00000290: 008b 28bd 698d 143d 1a52 bf3a aaa0 aa3c
000002a0: 8b48 6abd 5abe dc3d df65 d03b b516 c7bd
000002b0: dd8f d03d 5bd6 eabd ce1f 873d 574c 3a3d
000002c0: bc8d f83c 1a6a c03c 3403 7ebd 7708 943d
000002d0: 96ed efbb 12b1 b6bc bee0 0f3e 6aa4 663d
000002e0: c396 f8bd e07a 0a3d cd38 2fbd 8408 a0bd
000002f0: 4735 ba3d b28e 463c 8624 fa3d eaa1 3f3d
00000300: 8b66 03bd 88d4 403d 3e76 123e f5d1 6d3d
00000310: d45c 903d 0168 76bc 8b48 0bbe 1f21 603b
00000320: 1b7a 113d 45c9 5b3d 4a43 0e3d 33e9 04be
00000330: 5aeb bbbd 6d8d d63d 1f49 483d 9f10 22bc
00000340: 5c1a 5c3d d3f5 d03d 4308 803d c3bb f63d
00000350: 2fb6 14bc ab3d ca3c b5ce 093e 7c92 8cbc
00000360: d82b 133e bbcb 9bbc 6b4d 0b3e 0bcd a43d
00000370: 87d7 12bd c253 fe3d 2904 fdbd cc48 04be
00000380: 7a08 92bd 6e7e 22be 109a a9bd 84ad d7bd
00000390: de4d b4bd 9099 083d f390 c9bd 0d0d b23c
000003a0: b2e7 823d 02f3 79bd 8806 babd 2a21 88bc
000003b0: 564d 1d3d caa9 aabd 8979 56bd c5bd 1c3c
000003c0: 69e0 14bc 77d7 bfbd 6caf e7bd 9321 c8bc
000003d0: 4044 b73d f144 043d 6a79 5dbc 7577 843d
000003e0: a26e 27be 8860 c3bc 2329 243b b49f fdbc
000003f0: 5163 26bd 274c 71bd 907f 8fbc a249 efbd

network_body._body_endoder.seq_layers.2.bias f4 [128]
-0.011014236 0.007978077 0.010426426 0.0026530838 0.014672856 0.011952113 0.0049218764 0.004525462
-0.0051515256 -0.0014491349 0.017659318 0.0045961575 -0.0011310403 0.0068879738 -0.0076256953 -0.0037731577
0.002297905 -0.011493114 -0.013492068 -0.0134573085 -0.018847214 0.0067804377 -0.01806677 0.0074426923
-0.008229785 0.006617749 0.010869061 0.00774938 -0.0131134 0.008931285 -0.0014196042 -0.008187939
0.0012434544 -0.016291771 -0.009304619 0.007666604 -0.011094909 0.005498613 0.0040575494 0.0014615501
0.0092305 0.007858751 -0.0058694915 0.011052958 0.01805277 0.0040054503 -0.0035653333 -0.0067257243
-0.004424562 0.008499631 -0.008195786 0.012432801 0.0067312727 0.008281205 -0.0045465934 -0.0016984827
7.1640105e-05 0.011360194 -0.013280328 -0.0049521253 0.010625545 0.025920594 0.009296773 -0.0045094024
-0.021731619 0.011364057 0.028345423 0.01253539 -0.006961353 0.0017417896 0.015211559 0.005667626
-0.0008114516 -0.036093816 -0.011006138 -0.009246729 -0.010259049 0.0017544185 0.0064388476 -0.007207117
0.006686694 0.01448632 0.000107765605 -0.0011643774 -0.010093318 0.0058497214 -0.015868595 0.020799793
0.015025311 -0.0073809675 0.002061184 0.017247058 -0.01311868 0.015437608 -0.011024806 0.0039874148
-0.0012700289 -0.0022907776 -0.013004682 -0.023691043 0.0052196393 0.0055643567 0.0042060725 0.008527535
0.008446483 0.0027477713 0.00050862296 -0.013513759 -0.0042220806 0.004916579 -0.01823851 0.014720314
-9.541494e-05 0.008945084 -0.0030540493 0.009933791 -0.0008499793 0.013999167 -0.007853251 0.00076000404
0.02708101 -0.0081102075 0.017886275 -0.00045720983 0.010834888 0.004522651 0.010564069 0.008675427
00000000: 0e75 34bc 7bb6 023c 9ad3 2a3c 5cdf 2d3b
00000010: 6b66 703c ccd2 433c b147 a13b 544a 943b
00000020: 21ce a8bb e6f0 bdba 46aa 903c 5d9b 963b
00000030: 6a3f 94ba 83b4 e13b f8e0 f9bb 1547 77bb
00000040: 7398 163b 9d4d 3cbc d60d 5dbc 0b7c 5cbc
00000050: 7965 9abc 6f2e de3b c300 94bc d4e1 f33b
00000060: 38d6 06bc b4d9 d83b 2514 323c 83ee fd3b
00000070: 96d9 56bc 8654 123c 0312 baba b526 06bc
00000080: 68fb a23a 5276 85bc 6772 18bc 2338 fb3b
00000090: 6cc7 35bc b62d b43b 31f5 843b 7c91 bf3a
000000a0: 863b 173c fec1 003c dd54 c0bb 7717 353c
000000b0: 67e3 933c 2740 833b 5ea8 69bb 7763 dcbb
000000c0: ebfb 90bb 0942 0b3c 9e47 06bc f2b2 4b3c
000000d0: 0292 dc3b e4ad 073c 97fb 94bb 9f9f deba
000000e0: 7d3d 9638 1b20 3a3c bc95 59bc 7045 a2bb
000000f0: c416 2e3c 6d57 d43c 7e51 183c 9cc3 93bb
00000100: 8206 b2bc 4f30 3a3c a934 e83c 3d61 4d3c
00000110: 101c e4bb c34c e43a e739 793c 7eb7 b93b
00000120: 98b7 54ba 1cd7 13bd 1753 34bc 987f 17bc
00000130: 9215 28bc 84f4 e53a f8fc d23b ae29 ecbb
00000140: 0e1c db3b 0858 6d3c 3800 e238 069e 98ba
00000150: 725e 25bc 05af bf3b dbfe 81bc 5464 aa3c
00000160: b92c 763c 0bdc f1bb ee14 073b b449 8d3c
00000170: bbef 56bc 05ee 7c3c 63a1 34bc dca8 823b
00000180: 1977 a6ba df20 16bb 9711 55bc b813 c2bc
00000190: 8209 ab3b 3555 b63b 18d3 893b 13b7 0b3c
000001a0: 1e63 0a3c f413 343b 1c55 053a d068 5dbc
000001b0: 6159 8abb 411b a13b ed68 95bc 792d 713c
000001c0: 8119 c8b8 678e 123c 7226 48bb 57c1 223c
000001d0: 25d1 5eba c35c 653c ecaa 00bc 023b 473a
000001e0: ffd8 dd3c ade0 04bc 3d86 923c aab5 efb9
000001f0: d084 313c bf32 943b eb14 2d3c 6123 0e3c

action_model._continuous_distribution.log_sigma f4 [1, 3]
-0.0012182813 0.004736946 -0.0025492301
00000000: bdae 9fba 6238 9b3b fc10 27bb

action_model._continuous_distribution.mu.weight f4 [3, 128]
0.02015594 0.00029535452 -0.05152267 0.018964682 -0.021715231 -0.033429585 0.07593559 -0.005620591
0.032370105 -0.0016289854 -0.016575482 -0.022022096 0.022228727 -0.016774725 0.018851323 0.00094928424
-0.00011872086 0.017790342 0.026179021 0.01786481 0.0068235574 0.008057195 0.012989824 -0.000965453
-0.004113809 -0.02656062 -3.9751947e-05 -0.023158597 0.012582481 -0.025946377 0.00782932 0.005989658
-0.03428626 0.0101956185 -0.018379396 0.0067013605 0.030298002 -0.008501684 0.006907831 -0.0018759151
-0.01843736 -0.014484053 0.018269975 0.03469377 0.003631886 -0.012456601 0.016404444 0.008870465
0.027917255 -0.032632235 -0.016766004 -0.02099085 -0.031050744 -0.007670223 0.00029507483 0.055721115
-0.031302627 -0.02956607 0.00038211088 0.0247589 -0.029292144 0.0038013575 -0.012151701 0.014160479
0.028180677 -0.014635696 -0.0038820875 0.015653074 0.026457008 0.019252934 -0.03216004 -0.0017189773
0.07197839 0.0023289078 0.014850702 -0.010560903 -0.00019099661 0.035061855 -0.00652431 -0.005699932
-0.03386152 -0.0031344956 0.0045936927 -0.0018186972 0.010316776 0.009896008 0.020946944 -0.03006285
-0.008879247 -0.0039189183 -0.015549258 -0.044044506 0.01726694 -0.048945803 0.0035608867 0.03533903
-0.0035271423 -0.017557569 0.029976038 0.017345734 -0.0012233945 -0.0066646556 0.032404725 -0.018028608
-0.0014006355 -0.0016816426 0.04684095 0.013608513 0.00022986058 0.032390684 0.030159853 -0.025169961
0.03910439 -0.012916571 0.0058754524 -0.0078566335 0.017710362 0.001681243 -0.011768102 -0.010218792
-0.014731517 0.014522199 -0.022072285 0.026068715 -0.0051079905 0.011017527 -0.010110791 -0.007182679
0.016582346 -0.00035788125 -0.004106 -0.03182227 -0.00077723246 0.009368363 0.0076210327 -0.01523505
0.0005424321 0.037007745 0.0021072754 -0.034970235 0.047040805 0.0055291415 0.007245197 -0.0048898747
-0.0066783703 -0.0034641859 -0.030098788 0.010625899 -0.011309121 0.018959248 0.014267516 -0.04635973
0.01871906 -0.0006742545 0.0047697397 -0.0018905672 -0.031883903 -0.011189583 -0.01550729 0.006234962
-0.0032305687 -0.0004542993 -0.011430414 -0.0062909466 0.009383725 -0.021424139 -0.03864912 -0.027164152
-0.005387051 0.008072635 -0.010289724 0.045400597 0.041933753 -0.015459723 -0.011422349 -0.008687449
0.013604455 -0.0027700462 3.8255876e-05 -0.008588097 0.020615961 0.006435947 -0.002410773 0.0017529251
0.011231504 -0.033696197 -0.02599505 -0.034261376 -0.033290453 0.009678941 0.0049972343 0.01849413
-0.010404134 -0.032368362 -0.029289942 -0.0364636 -0.041106082 0.006525928 0.038336556 -0.011117952
0.0022659139 -0.0015448292 0.022308964 0.025357315 0.032242134 -0.011244716 0.019682273 0.0046808952
0.0005909018 -0.0030154698 0.046422884 -0.019974548 0.0039450163 0.036350384 -0.017628374 0.010467391
-0.059362546 0.008842496 0.014380325 -0.0011314562 0.009514684 0.0044377623 -0.0019421843 0.0035897063
0.007663689 0.01802606 0.031692017 -0.003090656 -0.023784086 -0.021536823 0.046137653 0.010230414
0.02644776 -0.02207142 0.011958336 0.01879726 0.022428393 0.020273658 -0.011580433 0.019331163
0.011081007 -0.021851035 0.026488839 0.01331765 0.004906814 0.003998017 0.009198471 0.0066788574
-0.00822968 0.017078422 -0.0091550285 0.00030745997 0.0011874251 -0.0020273374 -0.02828696 0.03685215
00000000: 121e a53c d0d9 9a39 6f09 53bd d25b 9b3c
00000010: 24e4 b1bc 76ed 08bd 1e84 9b3d ef2c b8bb
00000020: 8496 043d ae83 d5ba 4ec9 87bc af67 b4bc
00000030: 0519 b63c 266b 89bc 176e 9a3c 63d9 783a
00000040: c7f9 f8b8 0dbd 913c 6375 d63c 3959 923c
00000050: 2698 df3b 5302 043c 45d3 543c 7416 7dba
00000060: 22cd 86bb a895 d9bc 54bb 26b8 19b7 bdbc
00000070: c026 4e3c 7f8d d4bc 8c46 003c e544 c43b
00000080: c06f 0cbd 860b 273c 6390 96bc 1697 db3b
00000090: 8433 f83c a64a 0bbc 165b e23b 44e1 f5ba
000000a0: f209 97bc 854e 6dbc eaaa 953c 0e1b 0e3d
000000b0: f004 6e3b c516 4cbc 9d62 863c 6d55 113c
000000c0: bab2 e43c 61a9 05bd dc58 89bc 01f5 abbc
000000d0: 215e febc 7e56 fbbb 46b4 9a39 d33b 643d
000000e0: 2f37 00bd 8b34 f2bc 0e56 c839 2dd3 ca3c
000000f0: 14f6 efbc 3220 793b ee17 47bc 5b01 683c
00000100: 2adb e63c 8fca 6fbc 9f6a 7ebb e03a 803c
00000110: 5ebc d83c 54b8 9d3c 3fba 03bd 4f4f e1ba
00000120: 6869 933d 97a0 183b 5c50 733c a307 2dbc
00000130: 4346 48b9 059d 0f3d e1c9 d5bb 7fc6 babb
00000140: 61b2 0abd 1c6c 4dbb b086 963b 5a61 eeba
00000150: b207 293c de22 223c ed98 ab3c 5e46 f6bc
00000160: 437a 11bc 456a 80bb 51c2 7ebc 0368 34bd
00000170: 6673 8d3c 657b 48bd c45d 693b a9bf 103d
00000180: a127 67bb e4d4 8fbc 4f90 f53c a418 8e3c
00000190: 4f5a a0ba 2f63 dabb d1ba 043d bbb0 93bc
000001a0: 8795 b7ba 906a dcba 4cdc 3f3d 3ef6 5e3c
000001b0: bb06 7139 18ac 043d cc11 f73c 3c31 cebc
000001c0: ed2b 203d 07a0 53bc de86 c03b 1cb9 00bc
000001d0: 5215 913c 275d dc3a ffce 40bc b86c 27bc
000001e0: 765c 71bc 84ee 6d3c f0d0 b4bc 0f8e d53c
000001f0: ee60 a7bb dc82 343c bba7 25bc ae5c ebbb
00000200: b3d7 873c 02a2 bbb9 a08b 86bb 1258 02bd
00000210: 30bf 4bba c37d 193c dbb9 f93b 6e9c 79bc
00000220: 0132 0e3a 6f95 173d 371a 0a3b f33c 0fbd
00000230: dcad 403d cd2d b53b 1e69 ed3b 3e3b a0bb
00000240: 3bd6 dabb 6507 63bb bc91 f6bc 4018 2e3c
00000250: e449 39bc 6d50 9b3c 4dc2 693c b3e3 3dbd
00000260: b758 993c 74c0 30ba 7a4b 9c3b e9cc f7ba
00000270: b298 02bd 8354 37bc 4a12 7ebc a74e cc3b
00000280: f3b7 53bb 052f eeb9 a246 3bbc 4924 cebb
00000290: 32be 193c ad81 afbc 8a4e 1ebd 5b87 debc
000002a0: dc85 b0bb 1643 043c 3b96 28bc faf5 393d
000002b0: bac2 2b3d c74a 7dbc ce24 3bbc cd55 0ebc
000002c0: 38e5 5e3c aa89 35bb ef74 2038 17b5 0cbc
000002d0: cee2 a83c a3e4 d23b 0ffe 1dbb 68c2 e53a
000002e0: 5804 383c 0605 0abd 92f3 d4bc a855 0cbd
000002f0: 925b 08bd 6c94 1e3c d7bf a33b 0081 973c
00000300: 1a76 2abc b094 04bd 76f1 efbc db5a 15bd
00000310: da5e 28bd 74d7 d53b cb06 1d3d 1228 36bc
00000320: ba7f 143b de7b caba 4ac1 b63c 25ba cf3c
00000330: 5410 043d c23b 38bc b83c a13c 3262 993b
00000340: c0e6 1a3a 309f 45bb ec25 3e3d aaa1 a3bc
00000350: 3245 813b 24e4 143d 6169 90bc 6c7f 2b3c
00000360: 2426 73bd 1ee0 103c 749b 6b3c 5f4d 94ba
00000370: 7ae3 1b3c a66a 913b e490 feba 4741 6b3b
00000380: af1f fb3b 63ab 933c 7dcf 013d 9a8c 4abb
00000390: d8d6 c2bc fe6d b0bc d6fa 3c3d 779d 273c
000003a0: f9a8 d83c 1fcf b4bc e6ec 433c b6fc 993c
000003b0: c0bb b73c f114 a63c dbbb 3dbc 635c 9e3c
000003c0: 1d8d 353c f100 b3bc 1fff d83c 4632 5a3c
000003d0: 57c9 a03b cc01 833b 2fb5 163c 51da da3b
000003e0: c8d5 06bc 0ce8 8b3c f9fe 15bc 9432 a139
000003f0: 60a3 9b3a 14dd 04bb 0eba e7bc 48f2 163d

action_model._continuous_distribution.mu.bias f4 [3]
-0.011044565 -0.0047628125 -0.0071297465
00000000: 43f4 34bc 5e11 9cbb a6a0 e9bb

exp_avg f4 [128, 37]
4.579651e-05 2.4497842e-06 -2.3308854e-05 1.157941e-05 -1.7655273e-05 -1.0216893e-05 1.3833658e-06 7.114808e-05
-8.3344414e-05 -0.00010141209 -7.126924e-06 -9.681673e-07 -2.3118611e-05 -1.16555075e-05 1.9354067e-05 1.8560486e-05
-1.7593527e-05 -9.087014e-05 7.071742e-05 -4.7381804e-05 8.376977e-05 -1.5275691e-06 1.9685123e-05 2.5979003e-05
-1.49012e-05 1.5815942e-05 -4.9070713e-06 -0.000101206475 3.2648713e-05 -6.7115448e-06 1.0405945e-05 -5.182772e-05
6.2205336e-06 4.231791e-05 -3.5042503e-05 -4.3334418e-05 -4.3086628e-05 -3.977568e-05 8.831686e-06 -0.0001911386
1.1558599e-05 -7.867543e-05 -1.0421842e-05 8.176293e-05 4.830763e-06 -2.856558e-05 2.9067127e-05 -9.387414e-05
-5.2260464e-05 0.00017853601 -1.4454239e-05 -1.4835972e-05 -6.401393e-05 0.0001615636 -3.234099e-05 6.631062e-05
-0.00018338 0.0004243798 6.281985e-05 -6.085917e-05 3.1402687e-06 -4.3356313e-06 1.1707507e-06 -0.000395849
-0.0002488308 8.883896e-05 2.2209548e-05 4.9888182e-05 -0.0004757429 0.00041290873 6.853483e-06 -1.803165e-05
-0.00031861357 8.7093304e-07 2.4100033e-05 2.775563e-06 -2.7030703e-05 3.5940284e-05 -3.147671e-05 1.6507815e-05
-1.6670187e-05 -9.834584e-05 9.336189e-05 2.2955326e-05 -8.730593e-06 1.7487728e-06 -2.7125518e-05 1.875866e-05
-7.2150397e-07 2.8077975e-05 -6.601732e-05 -8.7997e-07 -0.000118118696 1.844977e-05 -5.509637e-05 8.491074e-06
-1.572238e-05 -2.3102179e-05 3.9300117e-05 -2.2226732e-05 0.00021952014 1.0037938e-05 -1.4608988e-05 1.2253353e-05
7.4727322e-06 4.3237824e-06 2.3026954e-05 2.7969507e-05 -4.7021364e-05 2.4562729e-05 -7.3057163e-06 -1.8827128e-05
-1.8212183e-06 3.368688e-05 -2.1713058e-05 1.6715529e-05 8.618873e-06 4.929124e-06 2.9100947e-05 -5.0104172e-05
-1.127514e-05 -4.1687214e-05 -2.668402e-05 1.9927465e-05 -4.7423702e-05 2.5994965e-05 -2.190946e-06 6.1754863e-06
-3.156257e-05 0.000106380205 -3.0771604e-05 8.033429e-05 2.5843943e-05 -2.2848244e-05 1.76506e-05 -5.1342307e-05
7.523727e-06 -0.00017919928 -8.0003345e-05 5.9175232e-05 -2.1951932e-05 4.8950687e-06 4.6990266e-05 -7.2784744e-05
-1.8323168e-05 -1.7370576e-06 -1.5287938e-05 -5.8188252e-06 -0.00014370585 -4.646677e-06 3.653022e-05 -5.158096e-05
6.837266e-05 7.635667e-06 -5.733061e-05 -4.1863434e-05 3.516387e-05 7.964187e-05 -0.00015231282 1.2648636e-05
-0.00013225887 -7.4517106e-05 5.8475493e-05 1.6858545e-05 -9.505236e-05 -9.61441e-06 3.787568e-05 -3.6402147e-05
7.027354e-05 -8.24851e-05 4.0638435e-05 -3.3713262e-05 5.0573826e-06 -2.5132425e-05 0.00014536099 -5.467391e-07
5.3919823e-05 8.232469e-06 -6.8734025e-06 0.00030738613 -0.00031740003 -0.00013221567 8.305619e-05 4.4793804e-05
5.400007e-05 -6.735096e-05 2.6476157e-06 4.2396034e-05 -3.1309148e-05 7.254326e-05 -6.934753e-05 -2.8171122e-05
-8.224448e-06 4.673653e-06 8.1892555e-05 -4.069473e-05 -2.0048428e-05 -5.0999035e-05 -6.820656e-05 6.876958e-05
1.5495045e-05 -4.449492e-05 -1.3645331e-06 -6.144888e-05 7.0148067e-06 -2.2823042e-05 -4.3377404e-05 -1.0639425e-05
-0.00012840574 0.00012208038 -0.00013539736 0.0002616728 0.00010131994 -2.8992472e-05 5.3901284e-05 -5.6158868e-05
8.7898625e-05 -9.1292306e-05 -7.89214e-05 7.1939576e-05 -2.2393599e-05 7.076257e-05 5.655963e-05 -3.1117884e-07
-5.7093634e-06 -8.889306e-06 4.3166533e-06 6.469709e-05 -6.6129534e-05 -4.007495e-05 1.8899751e-05 -2.9940398e-05
3.5001816e-05 -8.195755e-06 1.0463225e-05 5.429987e-05 -3.2902364e-05 -1.4124832e-05 2.9388328e-05 7.403415e-05
-5.2566444e-05 -7.7811765e-06 -0.00013977739 3.6566395e-05 -8.27804e-05 -1.9347312e-06 3.031439e-06 1.9174153e-05
-5.5638004e-05 4.86721e-05 8.095307e-06 -7.7296056e-05 5.065979e-05 -4.5545843e-05 2.1995242e-05 1.1981928e-05
00000000: a115 4038 f966 2436 6287 c3b7 3045 4237
00000010: 691a 94b7 3969 2bb7 16ac b935 5635 9538
00000020: 31c9 aeb8 34ad d4b8 d023 efb6 faf1 81b5
00000030: d7ee c1b7 068c 43b7 8b5a a237 57b2 9b37
00000040: d095 93b7 8991 beb8 204e 9438 d3bb 46b8
00000050: 8ead af38 e006 cdb5 7b21 a537 7ced d937
00000060: 2b00 7ab7 7aac 8437 6ca7 a4b6 d03e d4b8
00000070: 4af0 0838 bb33 e1b6 3295 2e37 9761 59b8
00000080: fab9 d036 837e 3138 9afa 12b8 fac1 35b8
00000090: eab7 34b8 d0d4 26b8 cd2b 1437 616c 48b9
000000a0: ceeb 4137 8dfe a4b8 78d9 2eb7 2478 ab38
000000b0: f017 a236 1ea0 efb7 2ed5 f337 4cde c4b8
000000c0: 3f32 5bb8 6535 3b39 7c80 72b7 04e8 78b7
000000d0: 383f 86b8 6669 2939 e0a5 07b8 3e10 8b38
000000e0: b249 40b9 4b7f de39 26be 8338 0943 7fb8
000000f0: 68bd 5236 ca7a 91b6 b022 9d35 f489 cfb9
00000100: 8175 82b9 0e4f ba38 a44e ba37 073f 5138
00000110: 226d f9b9 ac7b d839 f8f6 e536 ac42 97b7
00000120: 970b a7b9 10ca 6935 6d2a ca37 cf43 3a36
00000130: febf e2b7 96be 1638 dc05 04b8 437a 8a37
00000140: f4d6 8bb7 053f ceb8 48cb c338 3090 c037
00000150: 9d79 12b7 60b7 ea35 9b8b e3b7 ea5b 9d37
00000160: 60ad 41b5 fe88 eb37 c772 8ab8 1437 6cb5
00000170: 7eb6 f7b8 94c4 9a37 4717 67b8 e374 0e37
00000180: 8ee3 83b7 8dcb c1b7 2ed6 2438 8b73 bab7
00000190: fd2e 6639 9e68 2837 2019 75b7 c093 4d37
000001a0: 48be fa36 0215 9136 022a c137 0fa0 ea37
000001b0: ce38 45b8 0f0c ce37 a023 f5b6 f3ee 9db7
000001c0: 9670 f4b5 034b 0d38 7024 b6b7 5338 8c37
000001d0: c799 1037 da64 a536 cf1d f437 f226 52b8
000001e0: 5c2a 3db7 4ed9 2eb8 7fd7 dfb7 e829 a737
000001f0: d0e8 46b8 c30f da37 2a08 13b6 0637 cf36
00000200: 0d62 04b8 7018 df38 c210 01b8 2579 a838
00000210: 72cb d837 3baa bfb7 6010 9437 6258 57b8
00000220: 5374 fc36 71e7 3bb9 78c7 a7b8 ec32 7838
00000230: 6a25 b8b7 5240 a436 6a17 4538 03a4 98b8
00000240: b4b4 99b7 d824 e9b5 993e 80b7 543f c3b6
00000250: bfaf 16b9 a7ea 9bb6 0638 1938 a258 58b8
00000260: 4b63 8f38 f11a 0037 4676 70b8 8596 2fb8
00000270: eb7c 1338 6705 a738 29b6 1fb9 7a35 5437
00000280: f8ae 0ab9 1146 9cb8 9543 7538 736b 8d37
00000290: d956 c7b8 944d 21b7 b4dc 1e38 82ae 18b8
000002a0: d25f 9338 dafb acb8 3073 2a38 5767 0db8
000002b0: 96b2 a936 79d3 d2b7 0b6c 1839 a0c3 12b5
000002c0: f827 6238 2f1e 0a37 14a2 e6b6 ab28 a139
000002d0: b668 a6b9 60a3 0ab9 742e ae38 fbe0 3b38
000002e0: 227e 6238 c53e 8db8 b1ad 3136 65d2 3138
000002f0: f151 03b8 5e22 9838 ac6e 91b8 0651 ecb7
00000300: bcfb 09b7 60d2 9c36 bbbd ab38 a2af 2ab8
00000310: ac2d a8b7 cce7 55b8 1e0a 8fb8 6338 9038
00000320: 5bfb 8137 0ea0 3ab8 0025 b7b5 1ede 80b8
00000330: bb60 eb36 1c74 bfb7 22f0 35b8 fc7f 32b7
00000340: a7a4 06b9 b402 0039 74f9 0db9 2131 8939
00000350: bb7b d438 dc34 f3b7 1014 6238 208c 6bb8
00000360: 3756 b838 2f74 bfb8 9b82 a5b8 44de 9638
00000370: e3d9 bbb7 5e66 9438 713a 6d38 1810 a7b4
00000380: 0f93 bfb6 4723 15b7 c5d7 9036 fcad 8738
00000390: 06af 8ab8 2616 28b8 e88a 9e37 8428 fbb7
000003a0: eace 1238 8080 09b7 368b 2f37 0bc0 6338
000003b0: a500 0ab8 b1f9 6cb7 f486 f637 c842 9b38
000003c0: ca7a 5cb8 e68b 02b7 3591 12b9 de5e 1938
000003d0: 649a adb8 6ed6 01b6 ba6f 4b36 2ed8 a037
000003e0: da5c 69b8 4525 4c38 14d1 0737 011a a2b8
000003f0: 897b 5438 7a08 3fb8 6c82 b837 fd05 4937

exp_avg_sq f4 [128, 37]
5.0014087e-08 4.834042e-10 5.836794e-08 9.392464e-08 7.614141e-08 1.0193321e-08 1.0817925e-08 1.7560883e-08
3.1488142e-08 7.1852874e-08 1.12915316e-07 2.6450829e-08 2.5360587e-08 1.1941462e-08 1.9629384e-08 2.8879931e-08
3.7204835e-08 1.9168861e-07 1.5303421e-07 1.4124812e-07 1.3024243e-07 3.0497736e-07 3.369869e-07 5.5474003e-09
9.337526e-09 1.3962043e-08 1.988009e-08 1.5356672e-08 1.2389828e-08 5.7383307e-09 5.727619e-09 6.1986094e-07
6.175074e-07 2.5040316e-07 2.6080036e-07 2.4756142e-07 4.720863e-08 1.668832e-07 1.3193949e-09 1.8649204e-07
2.5389897e-07 3.022779e-07 1.6242015e-07 1.630088e-07 9.206483e-09 1.9490878e-08 5.1521933e-08 6.218624e-08
1.1794108e-07 1.2463818e-07 2.8533874e-08 9.4701385e-08 6.409176e-08 1.7950836e-07 1.9012823e-07 1.0019694e-07
4.471269e-07 4.822475e-07 7.2252476e-07 7.7440853e-07 1.3460894e-08 4.9581463e-09 3.6314017e-08 1.7991208e-07
1.7533732e-07 1.4359479e-07 8.7688804e-08 1.4306401e-07 1.402822e-06 1.4130001e-06 9.201288e-08 8.284755e-08
6.412626e-07 1.1468178e-07 2.2668543e-08 3.778982e-10 2.0767509e-08 1.9912056e-08 1.8620602e-08 5.6257705e-09
6.3775203e-09 2.3780618e-08 2.0704318e-08 5.3118967e-08 4.2701224e-08 3.8276436e-08 4.74185e-08 8.798139e-09
1.8268768e-08 3.1585593e-08 3.852979e-08 4.780209e-08 3.9401996e-08 1.6238916e-08 1.5060156e-08 1.08187805e-08
1.02715765e-08 1.33979015e-08 1.8146167e-08 3.8106027e-08 7.194017e-08 1.1062917e-08 1.1378721e-08 1.39383065e-08
1.6205151e-08 8.33036e-08 7.509808e-08 1.05429585e-07 1.2082985e-07 5.9669205e-08 4.378677e-08 2.6412646e-08
2.1078207e-10 2.5004327e-08 2.7449264e-08 2.0702409e-08 2.9020667e-08 3.6869544e-08 4.9701083e-09 2.8176934e-09
1.573924e-08 1.1678831e-08 2.5445483e-09 3.7756505e-09 9.433459e-09 1.2509565e-08 3.8275836e-09 4.6115067e-09
3.9656367e-08 2.9466715e-08 2.998357e-08 3.20264e-08 8.370078e-08 8.8444935e-08 1.8344348e-08 2.133613e-08
2.6583459e-08 5.6646623e-08 1.0390233e-08 8.407784e-09 2.3064679e-08 1.773325e-08 2.2146904e-07 2.0844259e-07
7.690351e-08 8.043637e-08 9.062879e-08 2.607129e-08 5.8513237e-08 3.9108067e-10 5.1312146e-08 5.0923898e-08
4.5430703e-08 2.040921e-08 3.4707533e-08 9.417345e-09 2.1239904e-08 5.6066852e-08 3.5383106e-08 2.6935018e-08
1.5626895e-08 5.7499605e-08 6.682326e-08 5.0325927e-08 5.241415e-08 1.3010028e-07 1.0643471e-07 1.2565636e-07
1.2341556e-07 2.867523e-07 3.0542594e-07 3.2930988e-08 4.2258403e-08 1.09087255e-08 2.6152753e-08 2.5804868e-08
2.2758066e-08 1.6114253e-08 1.4800931e-08 7.2897257e-07 6.933574e-07 3.6703042e-07 4.1019956e-07 2.867854e-07
5.798113e-08 5.3607657e-08 4.4569454e-10 5.9857435e-08 8.4606626e-08 9.820965e-08 1.4355744e-07 1.5918393e-07
5.8137005e-08 7.0040954e-08 3.0598546e-08 4.4291184e-08 1.3945668e-08 3.6779777e-08 6.2960225e-08 6.4619925e-08
3.9820474e-08 4.5444615e-08 2.511865e-07 1.9578022e-07 1.6484854e-07 1.08200936e-07 9.191088e-08 9.8883625e-08
2.5772715e-07 2.5592524e-07 2.1010906e-07 2.436408e-07 1.9907086e-08 1.909356e-08 1.0046232e-08 1.9236428e-08
1.7010389e-07 1.6297007e-07 2.678974e-07 2.4736497e-07 1.73342e-07 1.739203e-07 2.2392932e-08 2.8946723e-10
2.1810527e-08 1.4244282e-09 1.6442625e-09 3.2425e-08 3.6135756e-08 1.7152162e-08 2.7973499e-08 1.996989e-08
2.1599057e-08 3.867299e-08 3.3447193e-08 3.5422776e-08 2.6103745e-08 2.4399025e-08 2.0885091e-08 2.6640357e-08
2.471027e-08 4.121347e-08 4.4665e-08 1.2091039e-07 1.2596524e-07 6.0083044e-10 7.810316e-10 1.3398882e-08
3.109469e-08 1.1388257e-08 1.2116401e-08 1.3202247e-08 9.674939e-09 1.13992556e-07 1.2898258e-07 7.3584715e-08
00000000: 12cf 5633 8ce0 0430 3bb0 7a33 9eb3 c933
00000010: 2f83 a333 b31e 2f32 bdd9 3932 cad8 9632
00000020: 943d 0733 894d 9a33 da7b f233 fd35 e332
00000030: 85d8 d932 1b27 4d32 799d a832 a413 f832
00000040: 26cb 1f33 f7d2 4d34 b951 2434 fda9 1734
00000050: c4d8 0b34 c5bb a334 20eb b434 739b be31
00000060: e06a 2032 b7dd 6f32 c8c4 aa32 aee9 8332
00000070: 0adb 5432 e42a c531 abcc c431 8564 2635
00000080: c9c2 2535 266f 8634 2104 8c34 95e8 8434
00000090: 70c2 4a33 8130 3334 1556 b530 8b3e 4834
000000a0: 9c4f 8834 c248 a234 b665 2e34 8507 2f34
000000b0: 8a2a 1e32 e56c a732 f748 5d33 3f8b 8533
000000c0: cb46 fd33 48d4 0534 a71a f532 a35e cb33
000000d0: d1a2 8933 e2be 4034 0d26 4c34 da2b d733
000000e0: a70c f034 cc73 0135 86f3 4135 f3e0 4f35
000000f0: a341 6732 515c aa31 aff7 1b33 db2d 4134
00000100: 5b44 3c34 092f 1a34 6e4f bc33 239d 1934
00000110: 9948 bc35 50a6 bd35 9e98 c533 ece9 b133
00000120: 3b23 2c35 fa46 f633 a7b8 c232 72c0 cf2f
00000130: 3c64 b232 130b ab32 23f3 9f32 cd4c c131
00000140: 4321 db31 2246 cc32 47d9 b132 ec24 6433
00000150: 7e66 3733 6365 2433 31a9 4b33 a026 1732
00000160: 72ed 9c32 baa8 0733 f47b 2533 f44e 4d33
00000170: f43a 2933 c17d 8b32 a25d 8132 80dd 3932
00000180: df76 3032 982c 6632 d8df 9b32 05aa 2333
00000190: 877d 9a33 390f 3e32 257c 4332 5275 6f32
000001a0: 8133 8b32 a3e4 b233 9b45 a133 8768 e233
000001b0: 75bd 0134 7e23 8033 1010 3c33 06e2 e232
000001c0: e1c1 672f 19c9 d632 92c9 eb32 14d5 b132
000001d0: 1f49 f932 7e5a 1e33 89c5 aa31 63a1 4131
000001e0: f432 8732 0ba4 4832 2bdc 2e31 f9ba 8131
000001f0: cb10 2232 a6e9 5632 c883 8331 3e73 9e31
00000200: a352 2a33 fe1d fd32 49c7 0033 668d 0933
00000210: febe b333 1eef bd33 a693 9d32 a546 b732
00000220: a559 e432 9f4b 7333 ba80 3232 d371 1032
00000230: c41f c632 d453 9832 f2cc 6d34 43d0 5f34
00000240: 2726 a533 5dbc ac33 b49f c233 5ff3 df32
00000250: fc4f 7b33 b6ff d62f 4d62 5c33 6bb7 5a33
00000260: 961f 4333 5450 af32 5611 1533 ecc9 2132
00000270: 0b73 b632 28ce 7033 23f8 1733 bb5e e732
00000280: e83b 8632 7cf5 7633 7a80 8f33 f125 5833
00000290: f81d 6133 b1b1 0b34 1a91 e433 28ec 0634
000002a0: 3684 0434 f0f2 9934 6cf9 a334 0170 0d33
000002b0: 9b7f 3533 1569 3b32 83a6 e032 81a9 dd32
000002c0: 847d c332 9e6b 8a32 2f47 7e32 9dae 4335
000002d0: 281f 3a35 470c c534 6639 dc34 7cf7 9934
000002e0: ed06 7933 3e3e 6633 ee05 f52f f98a 8033
000002f0: fcb0 b533 53e7 d233 c524 1a34 25ec 2a34
00000300: 50b2 7933 6c69 9633 756b 0333 ac3a 3e33
00000310: b295 6f32 cbf7 1d33 c034 8733 2ec5 8a33
00000320: 1307 2b33 e22e 4333 cfda 8634 a837 5234
00000330: 3901 3134 185c e833 8a60 c533 d959 d433
00000340: c05d 8a34 1966 8934 579a 6134 bdcd 8234
00000350: 2500 ab32 2f03 a432 cc97 2c32 5a3d a532
00000360: cda5 3634 dffc 2e34 8ad3 8f34 95cd 8434
00000370: e31f 3a34 d9be 3a34 945a c032 e422 9f2f
00000380: db59 bb32 9dc5 c330 58fc e130 aa43 0b33
00000390: af33 1b33 0156 9332 604a f032 418a ab32
000003a0: d488 b932 6719 2633 94a7 0f33 c123 1833
000003b0: be3a e032 0696 d132 cd66 b332 c4d6 e432
000003c0: 7542 d432 b102 3133 b0d5 3f33 98d3 0134
000003d0: 1041 0734 af27 2530 36b0 5630 e830 6632
000003e0: f98c 0533 15a6 4332 7f28 5032 19d0 6232
000003f0: d536 2632 12cc f433 767e 0a34 a005 9e33

exp_avg f4 [128]
-5.2111205e-05 -0.00016816989 -4.4440905e-05 2.5848398e-05 8.200143e-05 -4.429733e-05 8.854314e-06 2.6872509e-05
-2.3350993e-05 -4.2415748e-05 1.7910712e-05 -6.731077e-05 7.427041e-06 -5.9773673e-05 -5.7096557e-05 2.5696329e-05
5.9860457e-05 -2.5457135e-05 -6.95529e-05 -3.5221787e-05 -5.063612e-07 -2.2429922e-05 1.5972964e-05 3.607883e-05
-5.0307644e-05 3.0644973e-05 3.1143205e-05 3.3490228e-06 -1.4229676e-05 2.048659e-05 -0.000114839466 -3.9333132e-05
6.405399e-05 -6.795487e-05 -4.5337387e-05 -5.157882e-05 -2.9944735e-05 3.6802558e-06 3.1028899e-06 -2.4189201e-05
-5.7324633e-05 -6.524292e-05 4.3049615e-05 -6.51562e-05 -6.681812e-07 -2.9288125e-05 5.783839e-06 -8.598476e-07
-1.09859475e-05 3.5284982e-05 3.1832646e-05 6.3935135e-05 -7.483831e-05 2.4241734e-05 4.7593938e-05 2.4448473e-05
-1.1191408e-05 1.1518021e-05 -0.00016701633 1.8011564e-05 -1.2539472e-05 9.351164e-06 5.6009023e-05 7.142198e-05
-2.0291265e-05 -6.500694e-05 -5.9533595e-06 -3.4243138e-05 1.3160734e-05 -4.7119054e-05 3.9149283e-05 -2.8824306e-05
-5.2191554e-05 5.107101e-06 -1.2794483e-05 -2.4446592e-05 -0.00014729825 3.186081e-05 4.1836756e-05 -9.456277e-06
2.2210694e-05 -2.6299627e-05 2.1058231e-05 8.616712e-05 -0.00010041579 3.505879e-05 7.241303e-05 2.4860181e-05
-5.7377143e-05 1.5702786e-05 -2.6385322e-05 -8.485729e-05 -3.280656e-05 3.2923257e-05 -2.152946e-05 -4.3886128e-05
8.903291e-06 5.607625e-05 -8.430062e-06 8.820414e-05 3.0648956e-05 -1.5107378e-05 -7.4920026e-05 2.2178583e-05
-9.577161e-08 -4.7940015e-05 -8.6332344e-05 -4.5293193e-05 -3.8632177e-05 -1.7223538e-05 -5.4981538e-06 -0.00010100795
-5.4733642e-05 -4.281709e-05 5.340037e-05 -0.00014460801 -2.1076403e-05 6.505713e-05 -1.0483465e-05 -1.5878592e-05
-1.7697672e-05 1.3216951e-05 -2.8205037e-05 -3.8024304e-05 -2.756651e-05 5.2213058e-05 -3.914687e-06 4.4227818e-07
00000000: fb91 5ab8 c356 30b9 0f66 3ab8 03d5 d837
00000010: 2ff8 ab38 e5cb 39b8 fd8c 1437 466c e137
00000020: e0e1 c3b7 90e7 31b8 f63e 9637 3229 8db8
00000030: cc35 f936 7eb5 7ab8 f67a 6fb8 728e d737
00000040: ad12 7b38 c88c d5b7 eedc 91b8 1bbb 13b8
00000050: e0ec 07b5 e427 bcb7 aefd 8537 5953 1738
00000060: 6c01 53b8 ca88 0038 c39f 0238 c6bf 6036
00000070: febb 6eb7 9eda ab37 f8d5 f0b8 a1f9 24b8
00000080: b954 8638 fe82 8eb8 a628 3eb8 5656 58b8
00000090: d431 fbb7 50fa 7636 3e3b 5036 eae9 cab7
000000a0: db6f 70b8 07d3 88b8 2c90 3438 78a4 88b8
000000b0: 105d 33b5 c5af f5b7 cc12 c236 47d0 66b5
000000c0: 4950 38b7 f6fe 1338 0b84 0538 ea14 8638
000000d0: 83f2 9cb8 ba5a cb37 9a9f 4738 b216 cd37
000000e0: bbc2 3bb7 863d 4137 1b21 2fb9 8a17 9737
000000f0: 9f60 52b7 f2e2 1c37 3beb 6a38 62c8 9538
00000100: 2937 aab7 5654 88b8 f8c2 c7b6 4aa0 0fb8
00000110: eccc 5c37 b3a1 45b8 3934 2438 bacb f1b7
00000120: 41e8 5ab8 aa5d ab36 e3a7 56b7 a812 cdb7
00000130: 1374 1ab9 49a2 0538 e079 2f38 67a6 1eb7
00000140: 1a51 ba37 059e dcb7 35a6 b037 9fb4 b438
00000150: 5196 d2b8 170c 1338 73dc 9738 d58a d037
00000160: 3da8 70b8 7ab9 8337 0c56 ddb7 69f5 b1b8
00000170: c799 09b8 1417 0a38 2a9a b4b7 5f12 38b8
00000180: 585f 1537 6a33 6b38 d76e 0db7 3dfa b838
00000190: 118d 0038 b275 7db7 621e 9db8 250c ba37
000001a0: 00ab cdb3 3313 49b8 530d b5b8 32f9 3db8
000001b0: fc08 22b8 447b 90b7 c87c b8b6 3bd4 d3b8
000001c0: cd91 65b8 8096 33b8 36fa 5f38 eba1 17b9
000001d0: 3bcd b0b7 486f 8838 24e2 2fb7 0433 85b7
000001e0: 7675 94b7 5fbe 5d37 db99 ecb7 497c 1fb8
000001f0: a13e e7b7 58ff 5a38 e85a 83b6 4072 ed34

exp_avg_sq f4 [128]
4.819474e-08 1.5570458e-07 1.9929587e-08 2.1713447e-08 5.5946135e-08 5.1482328e-08 2.2634225e-08 3.533696e-08
6.6415615e-09 2.052075e-08 7.190332e-08 4.4156092e-08 1.1433567e-07 2.5758046e-08 2.0094344e-08 5.50633e-08
6.517662e-08 3.745365e-08 2.1578778e-08 4.3558742e-08 7.418746e-09 3.7507917e-08 6.745588e-08 9.576936e-09
3.864491e-08 3.291514e-08 2.4079753e-08 5.9776095e-09 5.625423e-08 1.8318369e-08 3.6208526e-08 2.278798e-08
6.004432e-08 3.2032844e-08 8.363573e-09 3.5710475e-08 8.503674e-09 2.2781308e-08 2.0727619e-08 2.9502022e-08
2.646755e-08 3.14452e-08 3.187094e-08 2.7422642e-08 2.486854e-08 6.376548e-08 3.0427607e-08 2.7923534e-08
3.724291e-08 6.322024e-08 1.6709334e-08 6.84305e-08 8.373352e-09 2.1467997e-08 6.952525e-08 6.9304384e-08
7.2822126e-09 2.1266368e-08 4.7789822e-08 3.424898e-08 2.2590354e-08 3.021973e-08 7.207182e-08 5.5314956e-08
3.4747554e-08 5.9333875e-08 1.824067e-08 3.4098598e-08 1.748742e-08 5.6763554e-08 1.5600792e-08 2.4208518e-08
1.987151e-08 1.8019477e-08 3.283385e-08 1.5461723e-08 3.027487e-08 3.8980087e-08 1.556536e-07 1.6420879e-08
1.41122785e-08 1.3653336e-08 1.8188741e-08 2.6344686e-08 6.826766e-08 1.6417784e-08 2.1704444e-08 1.8074221e-08
7.9154404e-08 2.3257456e-08 1.01365325e-08 9.401241e-08 1.7028636e-08 1.9833886e-08 1.801102e-08 3.197396e-08
1.3639006e-08 1.2454878e-07 2.4658734e-08 4.243718e-08 6.941496e-08 4.9739635e-09 4.0826453e-08 2.6619832e-08
2.6300288e-08 4.4390305e-08 3.7336946e-08 3.0829195e-08 5.826181e-08 1.4308335e-08 2.5391017e-08 6.9000386e-08
5.601818e-08 1.9853251e-08 3.3968078e-08 1.0371019e-07 2.2269424e-08 2.021768e-08 1.834881e-08 3.036502e-08
9.5161194e-09 6.804012e-09 4.5985537e-08 9.468327e-09 2.67696e-08 7.7923595e-08 2.6863265e-08 2.1412825e-08
00000000: adfe 4e33 c02f 2734 a031 ab32 6084 ba32
00000010: 6d49 7033 6b1d 5d33 306d c232 66c5 1733
00000020: cb33 e431 9b45 b032 4569 9a33 23a6 3d33
00000030: b388 f533 8b42 dd32 ee9b ac32 bd7e 6c33
00000040: 3af7 8b33 b9dc 2033 3c5c b932 5815 3b33
00000050: fbe7 fe31 6418 2133 43dc 9033 cf87 2432
00000060: 87fa 2533 945e 0d33 f0d7 ce32 9c63 cd31
00000070: 2e9c 7133 855a 9d32 b283 1b33 4cbf c332
00000080: b7f1 8033 7c94 0933 62af 0f32 1560 1933
00000090: 8e17 1232 a0b0 c332 840c b232 a26b fd32
000000a0: c25a e332 5d0e 0733 78e2 0833 078f eb32
000000b0: 7f9e d532 71ef 8833 82af 0233 80dc ef32
000000c0: 03f5 1f33 b2c3 8733 3788 8f32 11f4 9233
000000d0: 64da 0f32 a068 b832 e94d 9533 7dd4 9433
000000e0: 0537 fa31 3dad b632 7741 4d33 2719 1333
000000f0: b70c c232 f2ca 0133 e7c5 9a33 7093 6d33
00000100: 573d 1533 49d6 7e33 a8af 9c32 ce73 1233
00000110: 3e37 9632 30cc 7333 8102 8632 18f3 cf32
00000120: eab1 aa32 40c9 9a32 3305 0d33 b0d0 8432
00000130: 9207 0233 0f6b 2733 bc21 2734 e50d 8d32
00000140: 7572 7232 0290 6a32 773d 9c32 944c e232
00000150: 8b9a 9233 1707 8d32 9470 ba32 a241 9b32
00000160: 98fb a933 b0c7 c732 f124 2e32 dee3 c933
00000170: 5e46 9232 2d5f aa32 a7b6 9a32 be53 0933
00000180: fc50 6a32 b5bb 0534 21d1 d332 2c44 3633
00000190: 4711 9533 72e7 aa31 2959 2f33 a1a9 e432
000001a0: f2ea e132 a8a7 3e33 685c 2033 0f69 0433
000001b0: 8a3b 7a33 b9d0 7532 701b da32 5d2d 9433
000001c0: a498 7033 c389 aa32 4ce4 1133 48b7 de33
000001d0: fb4a bf32 26ab ad32 769d 9d32 b16a 0233
000001e0: 567c 2332 b9c8 e931 a281 4533 24aa 2232
000001f0: f9f2 e532 f356 a733 f2c0 e632 4def b732
