Assets/ML-Agents/results/color-hunt1/ColorHunter/ColorHunter-3590.onnx (onnx, 101559 bytes, 8 tensors)

network_body.observation_encoder.processors.0.normalizer.running_mean f4 [55]
0	0x3d293bb9	0.04131672
1	0x00000000	0.0
2	0x3eee1b3a	0.46505147
3	0x3d51e034	0.051239207
4	0x3f7b19b8	0.9808612
5	0x3cb6eae5	0.022328803
6	0x3d8fb825	0.07017545
7	0x3f790e68	0.9728761
8	0x3cf9e1dd	0.030503208
9	0x3d58b836	0.052910052
10	0x3f7abb1e	0.9794177
11	0x3cbba412	0.022905383
12	0x3d59dc37	0.05318853
13	0x3f7ad0a2	0.979746
14	0x3cc12f50	0.02358213
15	0x3d77843e	0.06042885
16	0x3f7b27c8	0.98107576
17	0x3cf27cc5	0.02960051
18	0x3d032c21	0.032024506
19	0x3f7ba8ff	0.9830474
20	0x3c69ccc4	0.014270011
21	0x3d28d02b	0.04121415
22	0x3f788681	0.97080237
23	0x3c87b4e6	0.016565751
24	0x3d27ac2b	0.040935677
25	0x3f785c9d	0.97016317
26	0x3c9828ce	0.018574145
27	0x3c8fb825	0.017543862
28	0x3f7cce49	0.98752266
29	0x3c080d99	0.008304023
30	0x3be4203c	0.0069618504
31	0x3f7ec0b3	0.99512786
32	0x3b514abf	0.0031935421
33	0x3c2d602a	0.010582009
34	0x3f7e6b39	0.9938236
35	0x3b9d8ac4	0.004807802
36	0x3c1fb029	0.00974659
37	0x3f7e9928	0.9945245
38	0x3b8fd7be	0.004389732
39	0x3c36802c	0.011138957
40	0x3f7e2066	0.99268186
41	0x3ba654b6	0.0050760163
42	0x3ba44028	0.005012531
43	0x3f7f4469	0.9971376
44	0x3b081f5e	0.002077065
45	0x3c869820	0.01642996
46	0x3f7e5c89	0.9935995
47	0x3be5dce1	0.007014856
48	0x3c68b03b	0.014202173
49	0x3f7e1d37	0.9926333
50	0x3bd0eacb	0.0063756458
51	0x3f503c19	0.813417
52	0x3e4a8589	0.19777502
53	0xbda2ae5c	-0.07943413
54	0x3e9c5d3e	0.30539888

network_body._body_endoder.seq_layers.0.weight f4 [128, 55]
0	0x3e7be55b	0.24599211
1	0x3c0f810a	0.008758793
2	0xbdadc28b	-0.08484372
3	0x3e1d0bcb	0.1533653
4	0x3c0b5912	0.008505123
5	0xbed4d441	-0.41568187
6	0xbdaa0362	-0.083014265
7	0xbda83ba9	-0.08214504
8	0x3e067acb	0.1313278
9	0xbdd91165	-0.10599021
10	0x3baa6970	0.0052005574
11	0xbd90af4f	-0.070646875
12	0x3e147217	0.14496647
13	0x3e46cb5a	0.1941351
14	0x3da9a223	0.08282878
15	0x3c9fb35f	0.01949471
16	0x3bdcf032	0.0067425007
17	0xbd239f00	-0.039946556
18	0x3d97141c	0.073768824
19	0xbdcde085	-0.10052589
20	0x3d8a2649	0.067455836
21	0x3e2e7d8f	0.17040084
22	0x3dd5c42c	0.104378074
23	0xbe1382bd	-0.14405341
24	0xbe684a35	-0.22684558
25	0xbe1c86d9	-0.15285815
26	0xbd9b5112	-0.07583822
27	0xbe5d1c67	-0.21592866
28	0xbdd4e6b3	-0.10395565
29	0x3de5e1cd	0.11224709
30	0xbdd3b896	-0.10337941
31	0x3d42a8a8	0.047524124
32	0xbe92863e	-0.28618044
33	0x3cce22db	0.025163105
34	0x3a72cde2	0.00092622463
35	0xbcf42816	-0.02980427
36	0x3e0af6a6	0.13570651
37	0x3c69dbf0	0.014273629
38	0x3e44f1b9	0.19232835
39	0x3eaf973b	0.34295067
40	0xbe360a1a	-0.17777291
41	0x3cb534c1	0.022119882
42	0x3d4c032c	0.049807712
43	0xbd254dbc	-0.040357336
44	0x3deb9c08	0.1150437
45	0x3e4a0165	0.19727094
46	0xbe3c2f71	-0.18377472
47	0x3d59cb42	0.053172357
48	0xbe2843e0	-0.16432142
49	0x3e0aab57	0.13541923
50	0x3be53497	0.0069947946
51	0xbd1186ae	-0.03552883
52	0x3e51c749	0.20486178
53	0x3eae54a7	0.3404896
54	0xbe7218ea	-0.23642316
55	0x3db73579	0.08945746
56	0x3e07e674	0.13271505
57	0xbd801ed8	-0.06255883
58	0xbd602346	-0.05472114
59	0xbd6a9d8c	-0.057279155
60	0x3d3f8493	0.046757292
61	0x3e208fc9	0.1567985
62	0x3e000ba2	0.12504438
63	0xbebc36c9	-0.36760548
64	0xbd3bfcc5	-0.045895357
65	0xbe37e6b2	-0.17959097
66	0xbc163614	-0.009168167
67	0xbd04d8c9	-0.032433305
68	0xbda747b7	-0.081679754
69	0xbe3a6451	-0.1820233
70	0x3d9e16e5	0.077192105
71	0xbc80af0b	-0.015708467
72	0xbe0c44b8	-0.13698089
73	0xbb9f1e1b	-0.004855884
74	0x3d242332	0.040072627
75	0xbddf8367	-0.10913735
76	0xbcd6d3db	-0.026224067
77	0xbd8de809	-0.06929023
78	0x3da8d315	0.08243386
79	0x3dbd0f2a	0.09231408
80	0xbe25b3ec	-0.16181916
81	0x3e49d1ed	0.19708987
82	0x3d4be405	0.049778003
83	0xbbc298ec	-0.00593864
84	0xbe079b35	-0.132428
85	0x3c89b600	0.016810417
86	0x3c89a08a	0.016800184
87	0xbdf1d8f0	-0.11808956
88	0x3d197053	0.037460636
89	0xbde5def5	-0.11224166
90	0xbe124df2	-0.14287546
91	0x3dcb8226	0.09936933
92	0xbe2a19dd	-0.16611429
93	0x3c090231	0.008362339
94	0xbc6fdf8d	-0.014640701
95	0xbcba8241	-0.022767188
96	0xbe217790	-0.15768266
97	0xbd89f710	-0.067365766
98	0x3e129ec3	0.14318375
99	0x3e415aa8	0.18882239
100	0xbd3eee53	-0.046614002
101	0xbd44db8b	-0.048060935
102	0x3d0b5131	0.034012977
103	0x3d786ba7	0.06064954
104	0xbe1df887	-0.15426837
105	0xbd9322c0	-0.071843624
106	0x3e404849	0.18777575
107	0x3e67bf85	0.22631653
108	0x3e1266e7	0.14297067
109	0xbce7dd87	-0.028303875
110	0xbe1ed209	-0.1550981
111	0xbe8facd8	-0.28061557
112	0x3dabd512	0.08390249
113	0x3d5a298f	0.05326229
114	0xbe31b4bd	-0.17354102
115	0x3d83b842	0.06431629
116	0xbdaf043e	-0.08545731
117	0xbe06c853	-0.13162355
118	0xbdddd3b2	-0.10831393
119	0x3dc553eb	0.09635147
120	0x3d72bae9	0.059260283
121	0xbcb4ae10	-0.022055656
122	0x3e309438	0.17244041
123	0xbe843ccd	-0.25827637
124	0x3dd4c134	0.10388413
125	0x3da4fa0c	0.08055505
126	0xbd9c66a1	-0.076367624
127	0xbd804f73	-0.06265154
128	0xbe8bd5a5	-0.27311435
129	0x3c975821	0.01847464
130	0x3e99f0a9	0.30066422
131	0xbde5a342	-0.112127796
132	0x3b879a0b	0.0041382364
133	0x3e49af8f	0.19695877
134	0xbe5929a8	-0.21207297
135	0x3e98126b	0.29701552
136	0x3dcd618e	0.10028373
137	0xbb88faf1	-0.004180305
138	0x3d279f89	0.04092363
139	0xbd7b7c9b	-0.06139813
140	0xbe1d6808	-0.15371716
141	0x3df28ec5	0.118436374
142	0x3de23844	0.11045888
143	0x3e7321e2	0.23743394
144	0xbdccf7c6	-0.100081965
145	0x3e043975	0.12912543
146	0x3cbca037	0.023025615
147	0x3d6cce94	0.057814196
148	0x3e4e4760	0.20144415
149	0x3d51aa77	0.05118796
150	0xbd01746f	-0.03160518
151	0xbe962ac3	-0.293295
152	0x3e186c86	0.14885148
153	0x3e7dcaa9	0.2478434
154	0x3e5f9a6c	0.21836251
155	0xbe6b5f51	-0.22985579
156	0xbce44310	-0.02786401
157	0x3d04c30a	0.032412566
158	0x3cfc11fb	0.030770293
159	0xbe12c80b	-0.14334123
160	0x3d2a302e	0.041549854
161	0x3d767245	0.06016757
162	0xbdc9125a	-0.098179534
163	0x3e5a9742	0.21346763
164	0xbca7b6a0	-0.020472825
165	0xbd8f626b	-0.070011936
166	0x3d9bf990	0.0761596
167	0x3d641da4	0.05569233
168	0xbde5cb59	-0.11220426
169	0xbe3557ff	-0.17709349
170	0xbd81bc5e	-0.06334756
171	0x3d3d5133	0.046220016
172	0x3db6780f	0.08909618
173	0x3df489d3	0.119403504
174	0x3d1cbd92	0.038266726
175	0x3c960d8c	0.018317007
176	0xbd232709	-0.03983215
177	0x3d9f21f5	0.07770149
178	0x3e22877c	0.15871996
179	0xbeb09f54	-0.34496558
180	0xbe722387	-0.23646365
181	0xbddad688	-0.1068545
182	0x3d79dd19	0.06100187
183	0xbe964715	-0.29351106
184	0x3e5d0b2c	0.21586293
185	0x3e31c908	0.17361844
186	0x3d9dcdcc	0.07705268
187	0xbda49823	-0.0803683
188	0xbeba14a3	-0.3634387
189	0x3e0602bd	0.13086982
190	0x3d1d8d06	0.03846457
191	0xbdccdbeb	-0.100028835
192	0xbe136583	-0.14394192
193	0x3e4de44d	0.20106621
194	0x3d190695	0.037359793
195	0xbd68966e	-0.056784086
196	0xbd8a9e73	-0.06768503
197	0xbe2742da	-0.16334096
198	0xbe584f32	-0.2112396
199	0xbdfde0d5	-0.12396399
200	0x3e38f5ec	0.18062562
201	0xbcba0417	-0.022707028
202	0x3e28f509	0.16499723
203	0xbde20b16	-0.11037271
204	0x3c26a8fc	0.010172125
205	0x3c43ccd7	0.011950693
206	0x3e7e2e27	0.24822293
207	0x3d3eb68f	0.04656082
208	0xbe25116e	-0.1611993
209	0x3e226872	0.15860155
210	0xbd7ca762	-0.061683066
211	0x3dc36c89	0.09542186
212	0x3e0e0af8	0.13871372
213	0x3e33f3e6	0.17573509
214	0xbd65ffbf	-0.0561521
215	0xbe17d14a	-0.14825931
216	0x3dcdb9f0	0.100452304
217	0x3da0b9e9	0.078479595
218	0xbddba715	-0.10725228
219	0x3d6d4823	0.057930123
220	0x3da8adfe	0.082363114
221	0xbdb90175	-0.09033481
222	0x3e0d11c8	0.13776314
223	0x3e583d2f	0.2111709
224	0x3d992f6c	0.07479748
225	0x3de4bda9	0.11168987
226	0xbe206af6	-0.15665802
227	0xbcd19243	-0.025582438
228	0xbd3d9278	-0.04628226
229	0x3e8aca31	0.27107385
230	0x3dd9af2a	0.10629113
231	0x3e55c690	0.20876527
232	0xbcd96f35	-0.026542285
233	0xbde5d1fa	-0.112216905
234	0xbdbad9bb	-0.0912356
235	0xbe8ba770	-0.27276182
236	0xbdb38751	-0.08766044
237	0xbc2a3093	-0.010387558
238	0xbc9f1eb5	-0.019423822
239	0x3d44384e	0.04790526
240	0x3e1cb1a7	0.15302144
241	0x3d8d7792	0.06907572
242	0x3d0f794c	0.035027787
243	0x3d2380c7	0.039917734
244	0xbd16bbb6	-0.03680011
245	0xbb71c76e	-0.003689255
246	0x3ed8bccd	0.42331544
247	0x3d7b8e76	0.06141516
248	0x3c4c7b84	0.01248062
249	0x3d1bb3e1	0.038013343
250	0x3d904470	0.070443034
251	0x3e3f7631	0.1869743
252	0x3dd100b5	0.10205213
253	0xbd5cfec9	-0.05395392
254	0xbe62a5b5	-0.22133525
255	0xbd66a396	-0.05630835

network_body._body_endoder.seq_layers.0.bias f4 [128]
0	0x00000000	0.0
1	0x00000000	0.0
2	0x00000000	0.0
3	0x00000000	0.0
4	0x00000000	0.0
5	0x00000000	0.0
6	0x00000000	0.0
7	0x00000000	0.0
8	0x00000000	0.0
9	0x00000000	0.0
10	0x00000000	0.0
11	0x00000000	0.0
12	0x00000000	0.0
13	0x00000000	0.0
14	0x00000000	0.0
15	0x00000000	0.0
16	0x00000000	0.0
17	0x00000000	0.0
18	0x00000000	0.0
19	0x00000000	0.0
20	0x00000000	0.0
21	0x00000000	0.0
22	0x00000000	0.0
23	0x00000000	0.0
24	0x00000000	0.0
25	0x00000000	0.0
26	0x00000000	0.0
27	0x00000000	0.0
28	0x00000000	0.0
29	0x00000000	0.0
30	0x00000000	0.0
31	0x00000000	0.0
32	0x00000000	0.0
33	0x00000000	0.0
34	0x00000000	0.0
35	0x00000000	0.0
36	0x00000000	0.0
37	0x00000000	0.0
38	0x00000000	0.0
39	0x00000000	0.0
40	0x00000000	0.0
41	0x00000000	0.0
42	0x00000000	0.0
43	0x00000000	0.0
44	0x00000000	0.0
45	0x00000000	0.0
46	0x00000000	0.0
47	0x00000000	0.0
48	0x00000000	0.0
49	0x00000000	0.0
50	0x00000000	0.0
51	0x00000000	0.0
52	0x00000000	0.0
53	0x00000000	0.0
54	0x00000000	0.0
55	0x00000000	0.0
56	0x00000000	0.0
57	0x00000000	0.0
58	0x00000000	0.0
59	0x00000000	0.0
60	0x00000000	0.0
61	0x00000000	0.0
62	0x00000000	0.0
63	0x00000000	0.0
64	0x00000000	0.0
65	0x00000000	0.0
66	0x00000000	0.0
67	0x00000000	0.0
68	0x00000000	0.0
69	0x00000000	0.0
70	0x00000000	0.0
71	0x00000000	0.0
72	0x00000000	0.0
73	0x00000000	0.0
74	0x00000000	0.0
75	0x00000000	0.0
76	0x00000000	0.0
77	0x00000000	0.0
78	0x00000000	0.0
79	0x00000000	0.0
80	0x00000000	0.0
81	0x00000000	0.0
82	0x00000000	0.0
83	0x00000000	0.0
84	0x00000000	0.0
85	0x00000000	0.0
86	0x00000000	0.0
87	0x00000000	0.0
88	0x00000000	0.0
89	0x00000000	0.0
90	0x00000000	0.0
91	0x00000000	0.0
92	0x00000000	0.0
93	0x00000000	0.0
94	0x00000000	0.0
95	0x00000000	0.0
96	0x00000000	0.0
97	0x00000000	0.0
98	0x00000000	0.0
99	0x00000000	0.0
100	0x00000000	0.0
101	0x00000000	0.0
102	0x00000000	0.0
103	0x00000000	0.0
104	0x00000000	0.0
105	0x00000000	0.0
106	0x00000000	0.0
107	0x00000000	0.0
108	0x00000000	0.0
109	0x00000000	0.0
110	0x00000000	0.0
111	0x00000000	0.0
112	0x00000000	0.0
113	0x00000000	0.0
114	0x00000000	0.0
115	0x00000000	0.0
116	0x00000000	0.0
117	0x00000000	0.0
118	0x00000000	0.0
119	0x00000000	0.0
120	0x00000000	0.0
121	0x00000000	0.0
122	0x00000000	0.0
123	0x00000000	0.0
124	0x00000000	0.0
125	0x00000000	0.0
126	0x00000000	0.0
127	0x00000000	0.0

network_body._body_endoder.seq_layers.2.weight f4 [128, 128]
0	0xbe0ded8a	-0.13860145
1	0x3d4c3ae4	0.04986085
2	0xbe060eb9	-0.13091554
3	0xbcbf5660	-0.023356616
4	0xbd4acd41	-0.04951215
5	0xbd28de9a	-0.041227914
6	0x3d43a81b	0.04776774
7	0x3ddb7eb4	0.10717526
8	0xbda52f37	-0.08065646
9	0xbe381f72	-0.17980745
10	0xbd83eeb8	-0.06442016
11	0x3d853012	0.06503309
12	0x3bece2d9	0.007229191
13	0xbdabbe80	-0.08385944
14	0x3dc46d6b	0.09591182
15	0x3dc0d976	0.094164774
16	0xbd76776e	-0.06017249
17	0xbd6814e9	-0.056660566
18	0x3dc8d365	0.09805945
19	0x3d10161d	0.03517734
20	0x3d8770bf	0.066133015
21	0x3cbdaac7	0.023152722
22	0x3d8c5af9	0.06853289
23	0x3dd3646f	0.103218906
24	0xbe117d60	-0.14207983
25	0x3ce84e50	0.028357655
26	0xbd61dd0b	-0.055142444
27	0x3e212ed9	0.15740527
28	0xbde15479	-0.1100244
29	0xbd7f2e2d	-0.062299896
30	0xbdff2605	-0.124584235
31	0x3d1e1a97	0.038599577
32	0x3c11abe2	0.008891078
33	0xbd0c550a	-0.034260787
34	0x3def4305	0.11682705
35	0xbde71660	-0.112835646
36	0xbc6f3979	-0.014601105
37	0xbd7633e2	-0.060108073
38	0x3e8bd7f6	0.27313203
39	0xbc9cca03	-0.019139295
40	0xbb932b70	-0.004491262
41	0xbda0e627	-0.07856398
42	0x3ddd6807	0.10810857
43	0xbcddc6de	-0.027072366
44	0x3a5f87d9	0.0008527018
45	0xbc8b5613	-0.017008817
46	0xbcef91d8	-0.029244348
47	0x3e0ac600	0.13552094
48	0xbd1b8e3e	-0.03797745
49	0x3e54bbfd	0.20774837
50	0xbd223953	-0.03960545
51	0x3d94c335	0.07263795
52	0x3dfcc88b	0.12342938
53	0xbdf33e02	-0.118770614
54	0x3d8b03a9	0.067878075
55	0xbb15edab	-0.0022877257
56	0xbbf1982d	-0.007372877
57	0x3bcffc4e	0.0063472157
58	0x3bebbc78	0.007194098
59	0x3e246e06	0.16057596
60	0xbbf843bc	-0.007576434
61	0x3ce2eef4	0.027701832
62	0x3de5b08d	0.11215315
63	0x3d49ea01	0.04929543
64	0xbaec3375	-0.0018020706
65	0xbe01a275	-0.12659629
66	0x3d7efe45	0.06225421
67	0x3dc9d2a8	0.098546326
68	0xbd6d1d5c	-0.057889327
69	0x3df4f55e	0.119608626
70	0xbdb2bc84	-0.08727363
71	0xbdf44e69	-0.11929018
72	0xbc5470dc	-0.012966361
73	0xbde39670	-0.11112678
74	0xbda9b11a	-0.082857326
75	0xbd97ae15	-0.074062504
76	0x3e0f2c00	0.13981628
77	0xbce4fc3d	-0.027952308
78	0x3e01e2ed	0.12684222
79	0xbe0754ad	-0.13215895
80	0x3d6bb059	0.057541225
81	0x3cbcafb6	0.023033004
82	0x3dc98416	0.098396465
83	0x3c22142e	0.0098925065
84	0x3da55f0a	0.08074768
85	0x3d160378	0.0366244
86	0xbce13e31	-0.027495475
87	0x3db1e862	0.08686902
88	0xbccaf1ed	-0.024773562
89	0x3d9c5c01	0.07634736
90	0xbabafd1d	-0.0014266107
91	0x3bc4b0ae	0.006002507
92	0x3c61982d	0.013769192
93	0x3d97c224	0.07410076
94	0xbc88e70e	-0.016711738
95	0x3d177d78	0.03698489
96	0xbdcbaeff	-0.09945487
97	0x3d8488c4	0.064713985
98	0x3dd7161b	0.10502263
99	0xbd27ba13	-0.04094894
100	0x3dbc462a	0.0919307
101	0xbcf210a8	-0.029548958
102	0xbe484943	-0.19559197
103	0x3dcdef43	0.10055401
104	0xbcc30f57	-0.023811026
105	0xbd5197c7	-0.051170137
106	0x3c015ae7	0.007895208
107	0x3ceaec90	0.028677255
108	0x3e072ae3	0.13199954
109	0xbda4241b	-0.08014699
110	0x3db4e040	0.08831835
111	0x3e48673e	0.19570634
112	0xbd0d4d8d	-0.034497786
113	0x3cf1b795	0.029506484
114	0xbd313c6d	-0.043270517
115	0xbb98d28a	-0.00466377
116	0x3b43fa56	0.002990385
117	0x3d2ca185	0.042146225
118	0xba83c718	-0.0010053841
119	0x3de55db3	0.11199512
120	0x3d312781	0.043250564
121	0x3d981716	0.07426278
122	0xbd535732	-0.051596828
123	0xbe362db8	-0.17790878
124	0xbd769ac8	-0.060206205
125	0xbd5c3835	-0.05376454
126	0x3cb82347	0.022477759
127	0xbdf786e0	-0.12086272
128	0xbc8e107b	-0.017341843
129	0x3b04681b	0.0020203653
130	0xbdc5a4cb	-0.096505724
131	0xbda48b37	-0.080343656
132	0x3d487bf8	0.04894635
133	0xbd7ed769	-0.06221715
134	0x3df06d93	0.117396496
135	0x3db3ac94	0.08773151
136	0x3cbfbb6d	0.023404801
137	0xbbc9ee27	-0.006162423
138	0xbcd762b7	-0.026292188
139	0xbbaa093f	-0.0051890905
140	0x3e6d13fc	0.23152155
141	0x3cb1e29b	0.0217145
142	0x3d8f7a2a	0.07005723
143	0xbd791497	-0.06081065
144	0x3d4c07f6	0.04981228
145	0x3d4b4ab4	0.04963179
146	0xbbdd930a	-0.006761913
147	0xbddf13c0	-0.10892439
148	0x3d997c8c	0.074944586
149	0x3e1f8fc2	0.15582183
150	0xbc940a1f	-0.018071232
151	0xbe058a72	-0.13041094
152	0x3dcc28b4	0.09968701
153	0x3dc323cd	0.09528313
154	0xbd1a349c	-0.03764783
155	0xbd1cc2ac	-0.03827159
156	0x3d7e9fdc	0.062164173
157	0x3da942be	0.08264683
158	0x3c0b8105	0.008514647
159	0xbd2e17e7	-0.042503264
160	0x3c88d0d2	0.016701136
161	0x3d9f2664	0.07770994
162	0x3d8a6e3c	0.06759307
163	0xbda97bcf	-0.08275568
164	0x3ca32aac	0.019917808
165	0xbccafc5f	-0.024778543
166	0xbd35db8d	-0.044398833
167	0x3d68b066	0.05680885
168	0x3c9d45b3	0.019198274
169	0x3c982a58	0.018574879
170	0xbd510aee	-0.051035814
171	0xbd081dcc	-0.03323154
172	0xbdc14a00	-0.094379425
173	0x3dedbddb	0.11608478
174	0xbc30b846	-0.010786122
175	0xbd140d1c	-0.036145315
176	0x3dd47035	0.10372964
177	0x3dacce96	0.08437841
178	0xbc26f2e1	-0.010189743
179	0xbe4fb949	-0.20285524
180	0xbd926a34	-0.07149163
181	0xbcca134c	-0.024667405
182	0x3d2a35be	0.04155516
183	0xbd347675	-0.044058282
184	0x3dc040ae	0.09387337
185	0xbe4698a7	-0.1939417
186	0xbd8dd93e	-0.06926201
187	0xbd24a194	-0.040193155
188	0x3d26bee2	0.040709384
189	0xbde08135	-0.10962144
190	0x3db08cec	0.08620629
191	0xbdf488da	-0.11940165
192	0x3d3c8e6b	0.046034258
193	0xbcb90ed7	-0.022590084
194	0x3c96ff0b	0.01843216
195	0xbd39f02e	-0.04539507
196	0x3dae516d	0.085116245
197	0xbdb52e0a	-0.08846672
198	0x3b76a942	0.0037637507
199	0xbc71939c	-0.0147446655
200	0xbd242b5b	-0.04008041
201	0x3df9f08d	0.122040845
202	0xbdcaf068	-0.09909135
203	0x3c0724ce	0.008248521
204	0xbd72c4eb	-0.059269827
205	0x3e1ba72e	0.15200493
206	0xbd300b87	-0.042979743
207	0x3d560984	0.05225517
208	0x3c203403	0.009778026
209	0xbd299c6c	-0.04140894
210	0xbe0449ed	-0.12918825
211	0xbd82ae51	-0.063809045
212	0x3ceec76a	0.029147822
213	0x3e36cc21	0.17851306
214	0x3de1f658	0.110333145
215	0xbca687f5	-0.020328501
216	0x3ca2b99e	0.0198639
217	0x3cd69282	0.026192907
218	0xbda37a35	-0.079822935
219	0xbae3a3cc	-0.0017367541
220	0x3e47c17f	0.19507407
221	0xbe126830	-0.14297557
222	0xbd61da38	-0.05513975
223	0x3e5d3311	0.21601512
224	0x3d0464bd	0.032322634
225	0x3e08d9db	0.13364355
226	0x3d8cfb84	0.0688391
227	0x3d884e6a	0.06655581
228	0x3d9c9449	0.07645471
229	0x3d0ce5e8	0.034398943
230	0x3da82d13	0.08211722
231	0xbd0c9574	-0.034322217
232	0xbbb80445	-0.0056157433
233	0xbdf31d66	-0.11870842
234	0x3e1e23b2	0.15443304
235	0x3db6c46a	0.08924182
236	0x3cfb30ed	0.030662978
237	0xbddbbad4	-0.10728994
238	0x3d978c10	0.07399762
239	0xbd0596a4	-0.032614365
240	0xbd996abd	-0.07491062
241	0xbc9ecb36	-0.019384008
242	0xbb841367	-0.0040306333
243	0x3de59ac1	0.112111576
244	0xbc9f05fa	-0.01941203
245	0x3bdcbdd0	0.0067364946
246	0xbd10dbeb	-0.03536598
247	0xbe661438	-0.2246865
248	0xbdafe48e	-0.08588515
249	0x3da7322c	0.081638664
250	0x3cad3c80	0.021147013
251	0xbd6aeb97	-0.057353582
252	0xbcc2fcf1	-0.023802252
253	0x3da14226	0.07873945
254	0xbdf8cd22	-0.12148501
255	0xbce64a45	-0.028111586

action_model._continuous_distribution.log_sigma f4 [1, 3]
0	0x00000000	0.0
1	0x00000000	0.0
2	0x00000000	0.0

action_model._continuous_distribution.mu.weight f4 [3, 128]
0	0xbab124ea	-0.001351503
1	0x3ce8a8d8	0.028400823
2	0xbb586510	-0.0033019222
3	0x3cd239c7	0.025662316
4	0xbcf1c6dd	-0.02951377
5	0x3b0c1659	0.0021375625
6	0xbb9704e7	-0.0046087387
7	0x3afeeae8	0.001944867
8	0x3c6cc1a5	0.014450465
9	0x3c0c4054	0.008560259
10	0x3af09a8f	0.0018356609
11	0x3bd775cf	0.006575323
12	0x3bcc8a99	0.006242108
13	0x3cb43e55	0.022002378
14	0xba9f92e0	-0.001217451
15	0xbbdde907	-0.006772164
16	0x3ca9ef11	0.020743879
17	0xbcedd8ca	-0.029034037
18	0xbbe2134b	-0.0068992726
19	0xbc288f58	-0.010288082
20	0x3ca8be6c	0.020598613
21	0x3caa5f84	0.020797499
22	0xbd22a013	-0.03970344
23	0x3c142065	0.009040927
24	0x3bef1860	0.007296607
25	0xbc346d6c	-0.011012416
26	0xbbab4cc7	-0.0052276584
27	0xbc9f22d0	-0.01942578
28	0xbc980881	-0.018558742
29	0x3bf9c9f3	0.007622951
30	0x3d115081	0.035477165
31	0x3c95d72b	0.018291077
32	0xbd261e0d	-0.040556002
33	0xbcb7bf8b	-0.022430202
34	0xbc7fee3a	-0.0156207625
35	0x3c4e4fad	0.012592238
36	0x3ba419dd	0.005007966
37	0xbcc1f88f	-0.023678092
38	0xbc8a73fb	-0.016901007
39	0xbc76fc50	-0.015074804
40	0xbc11ab34	-0.008890916
41	0xbc89084b	-0.016727587
42	0xbb8e92d7	-0.004351001
43	0xbcc5f728	-0.024165705
44	0xbbb24913	-0.00544084
45	0xbb808666	-0.0039222715
46	0xbc1967b7	-0.009363106
47	0xbc8dc984	-0.017308004
48	0x3c081c15	0.0083074765
49	0x3b91b7e7	0.0044469717
50	0x3c4dddb3	0.012565064
51	0xbc46c12b	-0.012131016
52	0x3c9c66c6	0.019091975
53	0xbb9abb55	-0.0047220387
54	0x3bf523bd	0.007481067
55	0x3cba99af	0.02277836
56	0x3a291034	0.0006449253
57	0xbbcde3b8	-0.0062832497
58	0xbce096ed	-0.027415717
59	0xbc095194	-0.008381266
60	0xbcfbe1c7	-0.030747307
61	0xbaa9f509	-0.0012966703
62	0x3b8e1233	0.0043356656
63	0x3c05bd55	0.008162816
64	0xbc2ece3a	-0.010669285
65	0x3cc2cc8b	0.023779174
66	0xbc86542f	-0.016397564
67	0x3b3cf0b8	0.0028830003
68	0x3c3a12b5	0.011356999
69	0x3c801fb2	0.015640114
70	0xbc96cc1c	-0.018407874
71	0x3ba5212c	0.005039355
72	0x3c922e66	0.01784439
73	0xbc03a5ec	-0.008035164
74	0xbc75c838	-0.015001349
75	0x3bcb80ec	0.006210437
76	0x3c2f3183	0.010692957
77	0xbd28393b	-0.041070204
78	0x3be0558b	0.006846135
79	0x3d3524f0	0.04422468
80	0xbd106a07	-0.035257366
81	0xbd093720	-0.033499837
82	0xbd289b9f	-0.041164037
83	0xbc22fc93	-0.009947914
84	0xbbd00ee0	-0.0063494295
85	0xb89e978b	-7.562254e-05
86	0x3c60e7ba	0.013727123
87	0xbbcde442	-0.006283314
88	0x3bf37522	0.007429735
89	0x3ab231ef	0.0013595204
90	0xbb91e162	-0.0044519166
91	0x3b07a0d2	0.0020695222
92	0xbc04418b	-0.008072267
93	0xbc5db898	-0.01353278
94	0xbb668e48	-0.003518002
95	0x3c870637	0.016482456
96	0xbc4c3c33	-0.0124655245
97	0xbbbfce56	-0.0058534546
98	0x3c3ef9c5	0.011656229
99	0x39e1b050	0.00043046707
100	0xbcb80281	-0.022462131
101	0xbc51bb35	-0.012800981
102	0x3bcb1127	0.006197113
103	0xbc5a4a20	-0.013323337
104	0xbbad0ebb	-0.005281297
105	0x3b104d60	0.0022018775
106	0x3c30ed87	0.010798818
107	0xba9d0f37	-0.0011982684
108	0x3b190c37	0.0023353228
109	0xbbc41b77	-0.0059847194
110	0x3bc97f9f	0.006149247
111	0x3bab7db7	0.0052334922
112	0x3c9c4d02	0.019079689
113	0x3c0df482	0.008664252
114	0x3c6cf22f	0.014462038
115	0x3c3ff982	0.011717202
116	0x3b28cdef	0.0025757512
117	0x3c09c88b	0.00840963
118	0xbc9d5847	-0.019207133
119	0x39db83bd	0.00041869088
120	0x3c956dbb	0.0182408
121	0xbc3fa37b	-0.011696692
122	0x3d151f87	0.03640702
123	0x3cb2538a	0.02176835
124	0x3ce948d2	0.028477106
125	0x3c2f4436	0.010697415
126	0x394344d3	0.00018622288
127	0x3cb27d49	0.021788256
128	0x3d065a5f	0.03280103
129	0xbbf50fe2	-0.0074787
130	0xbc1029ef	-0.00879906
131	0x3c541edf	0.012946813
132	0xbd0d580f	-0.034507807
133	0xbc3e0a64	-0.011599157
134	0x3cf4ff60	0.029906929
135	0x3c295f3f	0.01033765
136	0xbc9d8410	-0.019228011
137	0x3c0ccabd	0.008593258
138	0xbcb5d0c8	-0.022194281
139	0xbc85232b	-0.016252121
140	0xbc4ef878	-0.012632482
141	0x3c5ef4bd	0.013608155
142	0x3cfb8dbf	0.030707238
143	0x3bbb9b41	0.005725295
144	0xbc37fbcd	-0.011229468
145	0xbc5f64e5	-0.013634895
146	0x3c22ddd6	0.009940585
147	0x3cf3b312	0.029748473
148	0x3d33ca3a	0.04389403
149	0xba4251f7	-0.00074127264
150	0x3c7f676d	0.0155886235
151	0xbc81d663	-0.015849298
152	0xbb087e8a	-0.0020827376
153	0xbc3e1aff	-0.011603116
154	0x3d18e93d	0.03733181
155	0xbbf17a53	-0.0073693185
156	0xbd0bbc12	-0.034114905
157	0xbcad4c3b	-0.021154514
158	0xbcc18e85	-0.023627529
159	0x3c3708cb	0.01117153
160	0xbce17fbd	-0.02752673
161	0x3cdfc592	0.027315889
162	0x3d189364	0.037249938
163	0xbd149034	-0.036270335
164	0x3c943149	0.018089907
165	0x3c9ec1b8	0.019379482
166	0x3cdef5d8	0.027216837
167	0xbc400003	-0.011718753
168	0x3cef3e25	0.029204438
169	0xbc5f5efa	-0.013633484
170	0x3cb33875	0.021877507
171	0x3c42f025	0.011898075
172	0x3afbc097	0.0019207177
173	0xbb93891c	-0.0045024287
174	0x3c8044d6	0.015657824
175	0xbbd1695a	-0.0063907327
176	0x3c94e475	0.018175343
177	0x3b9edeec	0.0048483517
178	0x3ceaf712	0.028682265
179	0xbcf70460	-0.030153453
180	0xbd0550ca	-0.03254775
181	0xbc75a303	-0.014992478
182	0x3a04426b	0.00050452974
183	0x39da9b13	0.0004169574
184	0xbaa84f53	-0.0012841023
185	0xba47890b	-0.00076116686
186	0xbca25054	-0.019813694
187	0x3c569b40	0.013098538
188	0xbc700678	-0.01464998
189	0xbc5dc88b	-0.013536583
190	0x3c364690	0.011125222
191	0xbb19675a	-0.002340755
192	0xbbe86eca	-0.007093285
193	0x3d28cd3f	0.041211363
194	0xbd20e63e	-0.039282076
195	0xbc2a50e8	-0.010395266
196	0x3ccfd565	0.02537031
197	0x3c84840c	0.016176246
198	0x3be98723	0.0071267053
199	0x3c0e46b9	0.008683854
200	0xbd00092f	-0.03125876
201	0xba2def77	-0.00066351093
202	0xbaeb8403	-0.001796842
203	0xbaa40ef3	-0.0012516662
204	0xbcaa48b1	-0.020786615
205	0x3cdb5b10	0.02677682
206	0x3cfd85a3	0.030947512
207	0x3c58549a	0.013203764
208	0x3bbf4e43	0.005838187
209	0xbbdc3510	-0.0067201927
210	0xbb9b8a9b	-0.0047467477
211	0xbcb5f6a7	-0.02221234
212	0xbc38ccbb	-0.01127928
213	0xbba11783	-0.004916133
214	0xbbe8a1ff	-0.0070993896
215	0xba8a7f95	-0.0010566587
216	0xbc616bf2	-0.013758646
217	0xbbb4a8e5	-0.005513298
218	0x3b2811ae	0.0025645304
219	0x3d13b959	0.036065433
220	0x3c3a28e9	0.011362293
221	0xbc7f7dd8	-0.015593968
222	0x3cc70d42	0.024298314
223	0x3be6d935	0.007044936
224	0xbcfbbd42	-0.030729894
225	0xbbb61d8d	-0.005557722
226	0x3b847507	0.004042271
227	0x3c73caa8	0.01487986
228	0x3c0a1ade	0.008429257
229	0x3c9d11ef	0.01917359
230	0xbbea1eb5	-0.007144774
231	0xbc87b394	-0.016565122
232	0xbc073724	-0.008252893
233	0x3b8ecad9	0.0043576774
234	0x3d02ccc7	0.031933572
235	0x3cfe73c5	0.031061063
236	0xbbb6a111	-0.0055734
237	0xbd50baaa	-0.050959267
238	0xbb73d3e7	-0.003720516
239	0xbc115d53	-0.008872348
240	0xbc91f4ad	-0.017816866
241	0xbc424654	-0.011857588
242	0x3ca45268	0.020058826
243	0x3c782005	0.015144353
244	0x3ae254d3	0.0017267711
245	0xbcbe7aef	-0.023251979
246	0x3d4d0555	0.050053913
247	0x3b64c087	0.0034904794
248	0xbcae0437	-0.021242244
249	0x3ca4dadc	0.020123892
250	0x3b926ee4	0.0044687856
251	0xbb62275a	-0.0034508319
252	0x3c196c2c	0.009364169
253	0x3d141647	0.036154058
254	0x38e37608	0.000108461885
255	0xbb76cd3d	-0.0037658953

action_model._continuous_distribution.mu.bias f4 [3]
0	0x00000000	0.0
1	0x00000000	0.0
2	0x00000000	0.0

onnx::Div_51 f4 [55]
0	0x3d41f321	0.047351006
1	0x3c88b44f	0.01668754
2	0x3eff844a	0.49905616
3	0x3e626c33	0.22111587
4	0x3dc7947c	0.09745118
5	0x3dc8c8d6	0.098039314
6	0x3e8310b8	0.25598693
7	0x3de28a86	0.110615775
8	0x3de7ee70	0.11324775
9	0x3e65dccb	0.22447507
10	0x3dcbe1a2	0.099551454
11	0x3dcb45a3	0.099253915
12	0x3e666df6	0.22502884
13	0x3dd6e135	0.104921736
14	0x3dd0d7f3	0.10197439
15	0x3e749894	0.23886329
16	0x3dd3e4fd	0.103464104
17	0x3df41c89	0.11919505
18	0x3e351945	0.17685421
19	0x3dd99259	0.10623617
20	0x3da60e8b	0.081082426
21	0x3e4c45a1	0.19948436
22	0x3e133c91	0.14378573
23	0x3da8ff79	0.082518525
24	0x3e4b9d6c	0.1988427
25	0x3e160a61	0.14652397
26	0x3dbc8af1	0.092061885
27	0x3e0784cd	0.13234253
28	0x3dcb9cc0	0.09942007
29	0x3d846393	0.06464305
30	0x3dadae25	0.08480481
31	0x3d85943a	0.065224126
32	0x3d2b8aac	0.041880295
33	0x3dd4538e	0.10367499
34	0x3d8a2b7c	0.06746575
35	0x3d4b3722	0.049613126
36	0x3dcc1527	0.09964972
37	0x3d89bb21	0.06725145
38	0x3d429abb	0.047510844
39	0x3dd9a431	0.1062702
40	0x3da0e165	0.078554906
41	0x3d505f54	0.050872162
42	0x3d949daf	0.07256638
43	0x3d579ea7	0.052641537
44	0x3d0acd4a	0.033887185
45	0x3e034a30	0.12821269
46	0x3d72bcfe	0.05926227
47	0x3d6bc0fd	0.057557095
48	0x3df4b98e	0.11949454
49	0x3d92da02	0.07170488
50	0x3d65fb22	0.056147702
51	0x3e871170	0.2638049
52	0x3e684d98	0.2268585
53	0x3ec3a304	0.3821031
54	0x3ee32da5	0.44370762
