Assets/ML-Agents/results/color-hunt1/ColorHunter/ColorHunter-516623.onnx (onnx, 102012 bytes, 9 tensors)

network_body.observation_encoder.processors.0.normalizer.running_mean f4 [55]
00000000: bc73 c33e 534a 9b3e fc2f ee3e bf14 863d
00000010: 2a1c 773f f5a7 053d 040c b73d 6600 733f
00000020: c0e0 393d 2394 f13d 64e9 6d3f 3a1c 753d
00000030: df5f 043e d380 6b3f 665a 873d 11f5 003e
00000040: 6107 6c3f f3cd 853d a6de c83d 6f79 703f
00000050: e633 4f3d 259c ab3d dcdb 723f ba8e 2f3d
00000060: 8400 a13d 4330 743f dbd0 233d 9d38 983d
00000070: 3c7b 753f 02b6 183d 7e32 943d 7a54 763f
00000080: 358f 163d 20ff 4c3b 6a65 7f3f 68a0 bc3a
00000090: d7c2 2b3b 7c79 7f3f 745f 9e3a bd09 f23b
000000a0: 36c2 7e3f d3ff 723b 4cec 983c 741c 7c3f
000000b0: 2f34 113c 8d9b a63c bb10 7c3f 1603 203c
000000c0: ddc9 2f3c 105d 7e3f 2226 b03b 344c 393f
000000d0: e35b a33e e5a7 4bbd 3aad e63e
0.38174236 0.30330142 0.46520984 0.06546926 0.9652735 0.03263088 0.08937839 0.9492248
0.045380354 0.11795833 0.9293425 0.059841372 0.12927197 0.91993445 0.06609039 0.12593485
0.9219876 0.06533422 0.09808092 0.9393529 0.050586604 0.083793916 0.9486673 0.042860724
0.078614265 0.9538614 0.039994102 0.07432673 0.95891166 0.03728295 0.07236193 0.9622265
0.036757667 0.0031279996 0.9976412 0.0014391067 0.0026208663 0.99794745 0.0012082891 0.007386415
0.9951509 0.0037078753 0.018667363 0.98480916 0.008862539 0.020337844 0.9846303 0.009766361
0.01072928 0.9936075 0.0053756395 0.723819 0.31906042 -0.049720664 0.45054036

network_body._body_endoder.seq_layers.0.weight f4 [128, 55]
00000000: e71f bfbd 7838 e3bd a34e 163e 173b b63c
00000010: b322 f03d 1e5f eabd 0635 563e 57be 133e
00000020: 424d 173d dd07 e7bc 98e3 853c f261 d53d
00000030: 67ee 963d a4c2 df3d 8eec b2bd 49ac 16be
00000040: 5245 3f3e 4ebc f2be b48a d23d dcb9 90bb
00000050: 8cb2 e53c 452c 10be 30dd 50be e1b2 613d
00000060: 45c5 9a3d bb87 6e3e 6ddf d3bb 00ed 43bd
00000070: 4b22 153e de6e 953e 7e04 8ebe b7a8 80be
00000080: 339d a5bd 29ee 653d 8157 8e3e d969 a8be
00000090: 95cf 423e a280 91bd b4b0 e83d 5794 03be
000000a0: f647 313e 241a be3e 9e4e 603d 7f83 34bd
000000b0: 0f53 ed3d be57 48be 81cc 0c3d 1198 cdbd
000000c0: cefa aabc 4b08 c33d 20a6 693c 3ef4 f43b
000000d0: 816e 0a3d 3877 143d 41f6 223e 617b 86bd
000000e0: 55bc 30bd a771 44bc 0717 99bc 12ec 1e3e
000000f0: 7c55 83bc f4fd a13c 6564 643e 5bc1 25bd
00000100: fa01 3d3d 1e7d 39be 4fd4 7f3c b488 7f3d
00000110: 2767 51bd f08a 723e 2921 b03d 25a6 cb3d
00000120: 6cfa 903d 0082 863d 40d2 dbbd 412f eb3d
00000130: 4f5a 683d 3d63 c83c 5e4b 9a3d f20b c13e
00000140: 7cc2 b7bb 15af d0bd 723a 4e3e 4628 953d
00000150: 37e0 243e 57e8 8cbd fd19 2d3c 5778 943d
00000160: 5204 fcbd b154 b5bd 508a a83e 03b7 06be
00000170: 16b1 8a3b a47d 103e 0b1f 86be 2eee 153a
00000180: bb06 f6bd 07f6 613c 636e a43d a4a3 61bd
00000190: af90 343e e69b 62bd 6c13 ad3d 3461 843e
000001a0: 4f79 0e3e c503 4dbe 7200 e0bd df34 bfbb
000001b0: d27f 4a3c 57d6 6e3e 2a18 d43d 74d9 1dbb
000001c0: 1efd 83bd ac1e 8f3e 725f 1d3e b7c4 3b3e
000001d0: a29b 2bbd 5ea7 a33d b167 cd3d 3241 723c
000001e0: c51c e13c 8101 0e3e 3a76 b23d 615a 283d
000001f0: d264 f2bc b1ef 6abd 7ca9 bcbd 944d cabd
00000200: 1c77 2c3e a8f1 643e 56b5 023e 487c 80be
00000210: 63c7 73bd 6290 183e 8216 0ebe 0567 54be
00000220: 7a16 b93e e680 003e 4200 8c3d 08f6 e43d
00000230: 2b03 033d 18d6 2abe 275a d6bd 5d04 523e
00000240: 0d0a 143d dfa2 003b dadd 3dbe 9c84 6a3d
00000250: cc6a 573c 3d8f f73d cb14 0fbe 2c63 f23c
00000260: 747b a83d 02be 9e3c 92fc d9bc 9c85 28bd
00000270: aee2 d7bd 3df4 9b3d 400a 543e 5173 213e
00000280: fc80 233d aeef a2bb a805 bfbd bbf1 13bd
00000290: 5ce5 8abc f35d c4bd 2fc6 16be 9ad1 103d
000002a0: 2df9 d13d afe8 0ebe 5e51 e2bd e7fd e3bc
000002b0: a1de 97be c8f6 8ebe 47ee 0bbe 663c ce3d
000002c0: 14af c6be 7cd8 ba3d 3351 243c 95cd 34bd
000002d0: e7ee edbd b046 a0bb 8752 12be a707 f03d
000002e0: e160 a13d 9fc7 873d 1b66 073e 7e80 e03d
000002f0: dc30 373d fcfe 0dbe 48ed 0b3e 67cd 10be
00000300: 3f86 e4b9 074e 07be 93f7 073c f330 4e3e
00000310: a6c4 52bd a099 873d 5cd8 ebbd 02c2 e83c
00000320: df0f f5bd 139e 05be a288 7abd 5e62 293e
00000330: 069f e9bc 7ce5 363e 0804 403e e3c6 6f3d
00000340: 115b 96bd d4eb 04bd 0c70 8c3d f42b fd3d
00000350: c982 333e 4116 a83d 3a9d 943e 3ca9 f73d
00000360: 11a9 5dbe 0e1a b83c ba3b 8b3e 976e b1bd
00000370: aec3 65be 2c48 6c3d 40b6 c8bc 050f afbe
00000380: 4f52 aebc f487 873d 4d1d 483e 3e77 9dbd
00000390: b1c0 e53c d0de 133c 3db1 0bbe 0d57 d6be
000003a0: b1a6 9c3d 1038 d4bd fa1a 5dbe 3ac3 28bb
000003b0: 02af 0fbe 3c61 013d 8b9f 2d3d 5afa 7c3d
000003c0: ef8e 1f3e 7bad 7e3b c2f4 a73d 436a 933d
000003d0: 1749 e6bd 10e8 fdbd 899a bebd 75fb 823e
000003e0: 2832 f6bc 98a8 7dbd a5af 813d ff9e 99bd
000003f0: 5486 04be c974 3dbe 2563 ec3d 938a 413d
-0.09332257 -0.11094755 0.14678435 0.022244973 0.11725368 -0.114439234 0.20918664 0.14428078
0.036938913 -0.028201992 0.016343877 0.10419072 0.073696904 0.10925797 -0.087365255 -0.14714159
0.18678787 -0.4740929 0.10280362 -0.0044166874 0.02803924 -0.14079387 -0.20396876 0.055102233
0.075571574 0.23293965 -0.0064658434 -0.047833443 0.14563863 0.29186147 -0.27737802 -0.2512872
-0.08086624 0.05613533 0.27801135 -0.32893255 0.19024499 -0.07104613 0.113618284 -0.12849556
0.17312607 0.3712932 0.054762475 -0.044070717 0.11588108 -0.19564721 0.034374718 -0.1003877
-0.020871546 0.09523066 0.014260799 0.007475405 0.03379679 0.03624651 0.15914251 -0.065665014
-0.043148357 -0.011989987 -0.018687738 0.15519741 -0.016031973 0.019774415 0.22303922 -0.0404676
0.046144463 -0.18114135 0.015614583 0.06238623 -0.051123764 0.23685813 0.08600075 0.09943799
0.07079014 0.06567764 -0.107334614 0.11483622 0.05672675 0.024461383 0.075339064 0.37704426
-0.005607901 -0.10189644 0.20139483 0.07283072 0.16101156 -0.06880253 0.010565278 0.072495155
-0.123055115 -0.08854044 0.32918024 -0.13155751 0.004232536 0.14110428 -0.2619556 0.00057193905
-0.120130025 0.013791568 0.08028867 -0.0550877 0.17633317 -0.055324458 0.0845097 0.2585541
0.13913463 -0.20020969 -0.10937585 -0.00583516 0.012359576 0.23323952 0.103561714 -0.002408591
-0.06444763 0.27953088 0.15368441 0.1833676 -0.04189647 0.07990907 0.10029543 0.014786052
0.027479539 0.13867761 0.08713956 0.041101817 -0.02958909 -0.057357494 -0.09212014 -0.09878078
0.16842312 0.2235781 0.12764487 -0.2509482 -0.059516322 0.14898828 -0.13875774 -0.20742424
0.3614996 0.12549171 0.06835987 0.11179739 0.031985443 -0.16683233 -0.10466414 0.20509477
0.036142398 0.0019628329 -0.18541661 0.057255372 0.013148021 0.120878674 -0.13972776 0.029588304
0.08226672 0.019377712 -0.026609693 -0.041143045 -0.105412826 0.07614944 0.20707035 0.15766646
0.03991793 -0.0049724197 -0.09327251 -0.036119204 -0.01695507 -0.09588232 -0.14724039 0.03535614
0.10252605 -0.13955949 -0.11050676 -0.027831031 -0.2966204 -0.27922654 -0.13665114 0.10070114
-0.3880545 0.09123322 0.010029125 -0.04414137 -0.11617833 -0.004891239 -0.14289294 0.117202096
0.07879806 0.066298716 0.13222544 0.10962008 0.04472433 -0.138668 0.13664734 -0.14140855
-0.0004358757 -0.13213359 0.008298772 0.2013586 -0.05145707 0.066210985 -0.11515877 0.028412823
-0.11965918 -0.13048582 -0.06116546 0.1654143 -0.028518211 0.17860979 0.18751538 0.058539283
-0.07341588 -0.032451466 0.06857309 0.12361899 0.1753036 0.082073696 0.29026204 0.12092826
-0.21646525 0.022473361 0.27194005 -0.086636715 -0.22437927 0.057686016 -0.024500966 -0.34191146
-0.021279482 0.06617728 0.19542427 -0.07688759 0.028045984 0.009025291 -0.1364183 -0.4186329
0.07648981 -0.103622556 -0.21592322 -0.002575113 -0.14031604 0.03158687 0.04238848 0.06176219
0.15581869 0.0038860727 0.08200981 0.07198002 -0.112444095 -0.12397778 -0.09306819 0.2558247
-0.030053213 -0.06192836 0.0633233 -0.07501029 -0.12941867 -0.18501581 0.11542348 0.047251295

network_body._body_endoder.seq_layers.0.bias f4 [128]
00000000: 142c 8e3d e00d d93c 6457 afbc f20f 163d
00000010: fe60 d7bc fb60 a83d 7b09 4abb 0154 7b3c
00000020: d0cc 973d b7c5 76bc 316b 87bc 5f58 043d
00000030: 9977 d6bc 2071 913d 634b 153d 2dae 4fbd
00000040: 8159 e6bc a62c ea3c 2e96 643d 449d 1fba
00000050: 4ce0 f53c 103a 5e3d b29e bbbc c9c0 933d
00000060: f9a1 6c3d f189 d13c 6f65 713d 2ccd 7e3b
00000070: b66a 123d f564 ab3c 8425 afbc dc93 c63c
00000080: 8f42 a83c 570b ed3c 5259 1ebd 8cd5 e43d
00000090: 1ddb 873d 372c a23d 5612 9dbc 7a6f aa3b
000000a0: 31c4 903d 1b60 813c d893 fbbc 4e64 ab3c
000000b0: f765 523c e396 24bd e208 a93d d06c b6bc
000000c0: 83dd a1bc d932 9a3d f39f 4b3d 71f6 bdbd
000000d0: f475 fcbc 7028 313d 87a2 cabb f278 413d
000000e0: 97f5 0a3d a1ea 09bb aafc b43c c6e5 04bd
000000f0: 462c 543c 09cf a43d 0d9f 593c 4294 913c
00000100: 96f1 7bbc 72c3 173d 7b78 633c be5d c4bc
00000110: ea79 d73c 0765 953d 44b7 1a3d 7dfd 88bd
00000120: fdca 0ebd 367d 30bd 77f9 1b3b a369 453c
00000130: 8495 343d 2c57 b1ba 3bc1 393c 910a 4a3b
00000140: 9df5 623c 806e 083c 01b8 01bd f919 40bd
00000150: 3c39 933d 8b68 643d 9dcf 313b 5ad8 0c3d
00000160: 407b 18bd 2d7d a33d 2cc6 1e3d 4781 70bc
00000170: 740c 2a3d adc6 bb3b 4a54 873c 63d3 c8bc
00000180: d36d 2f3d 986c 8d3d d8c9 61bc 835d 51bc
00000190: 94d2 753d a096 c23c 46b5 d4bc 8a4c 5e3c
000001a0: 0847 16bc e16b 14bd 7bce 193d 42ae 673d
000001b0: 0a0d e4bc f44d 1b3d ad53 933d 7890 a9ba
000001c0: 2955 533d 6315 a4ba 0d6b 8bbb c344 8c3c
000001d0: 2c8e babb 5a09 b23b 36d4 e5bc e9b3 0f3d
000001e0: 065d 813c da26 8f3d b7b1 82bd 3df6 5ebd
000001f0: 1649 273d 552c 4ebc d2fc 953d 907e 7ebc
0.06942001 0.026495874 -0.021403976 0.0366363 -0.026291367 0.082216226 -0.0030828405 0.015339852
0.07412112 -0.015061787 -0.016530605 0.03231084 -0.026180075 0.07101655 0.036448848 -0.050703216
-0.02811885 0.028585743 0.055807285 -0.0006088803 0.03001418 0.05425459 -0.02290282 0.07214505
0.057771657 0.02557847 0.058934625 0.0038879616 0.0357463 0.020922164 -0.021380194 0.024240427
0.02053955 0.028936071 -0.0386594 0.11173543 0.066335894 0.079185896 -0.019173782 0.0052012773
0.070686705 0.015792897 -0.030710146 0.020921852 0.012841693 -0.04018296 0.082536474 -0.022268683
-0.019758945 0.0752923 0.049713086 -0.092755206 -0.030817963 0.043251455 -0.0061839256 0.047234483
0.03392562 -0.002104439 0.022093136 -0.03244569 0.012950009 0.08047301 0.01328255 0.01777089
-0.015377423 0.037051626 0.013883705 -0.023970481 0.02630325 0.0729466 0.037772432 -0.06688974
-0.034861553 -0.04308816 0.0023799816 0.012049112 0.0440879 -0.0013530008 0.011337574 0.0030829052
0.013852504 0.0083271265 -0.03166962 -0.04689977 0.07188651 0.055763762 0.0027131804 0.034386016
-0.037226915 0.0798286 0.03876321 -0.01467926 0.041515782 0.005730471 0.016519684 -0.02451486
0.042829346 0.06905478 -0.013781033 -0.012778643 0.060015276 0.023753464 -0.025965344 0.013568053
-0.009172209 -0.036235694 0.03755043 0.05656267 -0.027838249 0.03791614 0.07193694 -0.0012936732
0.051594887 -0.0012518581 -0.004254705 0.017122632 -0.0056932177 0.0054332437 -0.028055292 0.035083685
0.015791427 0.06989832 -0.06381553 -0.05443405 0.040841185 -0.012583812 0.07323612 -0.015533105

network_body._body_endoder.seq_layers.2.weight f4 [128, 128]
00000000: 73a2 b4bc 6f32 ccbd 4245 4dbd a7a9 9cbd
00000010: a010 cebc 4949 e1bd a576 a6ba 02b3 1239
00000020: efcf 183e 757d 44bd c087 80bc 8e1c 10be
00000030: 7d4d a93d ca39 d8bd 25fa eebd 40f7 023e
00000040: 6f23 e23d 705f 12be f480 0a3e 38fa 603d
00000050: 5190 eb3d 602b 5c3b 12af 2e3e acc3 de3d
00000060: 3066 bbbb 7772 54bd 8f1a 50bd 889c 87bd
00000070: 8880 9b3d af20 0b3e 001c 293d 3361 1fbd
00000080: b158 9cbd 3284 c13c 2d7d 1ebc 37bd d2bd
00000090: 722e c5bd 32a5 0cbe 5caa 8a3d b62e 81bc
000000a0: 491b b1bd ec17 ff3c cd70 d83c d518 a43c
000000b0: e6f2 c83d 3af8 753c 17d9 5ebb 7e58 04bd
000000c0: 7f97 41be 9c72 1ebd d90e 2ebd eb44 e4bd
000000d0: 1ef2 203d 0d6f ea3d 2679 153d 4ee1 c53d
000000e0: 5ad6 c2bc 924a 05bd 26fd 39bd 515a 0d3e
000000f0: 32b4 813c 8618 413e 6cc5 e3bd d1c1 533d
00000100: 8c8e ce3c 2230 a83d 1a35 023e 1eac 5ebd
00000110: cb56 b2bd dc6b ca3c cb18 33bd 1cab c5bd
00000120: ef0b 6cbc 58cd b03d 047e b13d eb9d 0e3e
00000130: d7bf a7bd f534 303d 5137 5cbd fbf9 1bbd
00000140: d1e8 043d 6e56 ebbd 404d 1aba 850c 283e
00000150: 8c34 4fbd 3c8d 77be 4350 7abd ff52 ef3d
00000160: e426 ad3d f25e 893d ac91 98bd a4d3 d93d
00000170: 1b8d 0bbe 1472 76be e060 b6bc 443f d63c
00000180: c526 ed3d ac74 be3d 60d5 8abc 0f2b d9bd
00000190: 8876 883d 22d3 233e 1b65 d7bc be77 17be
000001a0: 0c4c f3bd cd90 92bc bcd8 11be 37c5 4fbd
000001b0: 9c8d 563d 1d27 633d ca74 0c3e c070 143b
000001c0: a51c 033c 4313 1f3e 1174 083a b50b c2bd
000001d0: f07e 213b 0561 63bd 7b91 6ebd 9ce6 003e
000001e0: 71b1 c5bd 30c9 a03d 536a 3eba dcf7 953e
000001f0: ac55 363c 7cb2 0f3c 07a8 09be f71d cebc
00000200: 1920 973b f317 57be bf49 5fbd 0d03 02bd
00000210: 2534 07be 33ed f0bd 1a8f 863d 89e9 5ebd
00000220: b5da e03c 4ea4 8c3d 7085 083e 2d10 db3d
00000230: a923 22bd 2403 c83c 753a 13bd fe47 afbd
00000240: e136 09bb ae00 32b9 06d0 1d3e 43b8 2e3e
00000250: 269d c43d 73a4 a2bc 90d8 94bb 21a3 b6bd
00000260: 3553 bc3c cee6 e5bd 4a7e 3c3d 589e cebd
00000270: 57f1 27bd df0c 973c c229 3b3d cba0 9c3d
00000280: 3807 833d 3fbf 87bc a632 1a3d 2f42 b13d
00000290: 3547 993d 1aca 0dbe a2e0 0bbd f022 87bd
000002a0: 57c2 c63c d926 e4bd 7d7d 0cbd c6df e93c
000002b0: 3bfd 84ba ee3f ac3d b75b 993d ada1 48be
000002c0: 54a5 18be 53eb 413d 4dc1 cabb 3dd0 f8bd
000002d0: e2a5 ca3d 7d28 81be c3ac 023e d90c d03d
000002e0: d4e1 b93d 3065 d7bd f4ab 923d ffce c93d
000002f0: 7670 18bd 0d06 583b 9bd9 5c3e deb6 ccbd
00000300: 22bf b03d b4ae f33d 11e2 13be 0904 403d
00000310: 6224 56bd 164c acbd 2148 883d 403f 7f3d
00000320: 115e b53d dc45 f1bd 24f3 19be 9cbf 4c3e
00000330: 134c 37bc 40a9 053e 588d 09bd 5828 2fbd
00000340: 2453 223c 297f 393e 61ed ae3d 062e f43b
00000350: f8f0 50bd 8820 b7bd c174 e0bd 2b6e 463d
00000360: 4cbe ccbd ef2a 59bc d5e8 0cbb 8a43 8a3c
00000370: 613e 12bc 7499 19bb 8374 cbbc cb2e e93b
00000380: 0e9a 42bc c221 abbc 3a57 2e3e 5865 5f3e
00000390: a5ae ed3c eae1 67bd 6466 3f3d 1166 4e3e
000003a0: ec39 83bd 34c2 803d 37f3 f03d d86d a93c
000003b0: c5fc b3bd cb67 923b 375d 73bd b0c6 f43d
000003c0: 51f5 073e ed25 c03d e4ff c0bd 90ad 4e3e
000003d0: ab9f dbbd 3bf4 183c b6a5 a6bd 356d 6fbd
000003e0: 83a8 babc 16e3 253d 953c 143d d94e 24bd
000003f0: 30eb 343d e74a 25bc ad4f 033d eedd 133d
-0.022050118 -0.09970557 -0.050114878 -0.07649546 -0.025154412 -0.11000306 -0.0012700154 0.0001399033
0.1492307 -0.047971208 -0.01568973 -0.14073393 0.08266733 -0.105578974 -0.11668805 0.12789631
0.11041915 -0.14294219 0.13525754 0.054926127 0.115021355 0.003359519 0.17058972 0.10877165
-0.005718969 -0.051866975 -0.05080658 -0.06621653 0.07592875 0.13586687 0.04128647 -0.038911056
-0.07634104 0.023622606 -0.009673399 -0.10289996 -0.09627999 -0.13734892 0.06770775 -0.015769344
-0.08647782 0.031139337 0.026420975 0.020031372 0.09811954 0.015012795 -0.0034003907 -0.032310955
-0.18905447 -0.03868352 -0.04249463 -0.111459576 0.0392934 0.114469625 0.03649249 0.09662114
-0.023783851 -0.03254182 -0.045407437 0.13803984 0.015832994 0.18857011 -0.111216396 0.05169851
0.025214456 0.082123056 0.12715569 -0.054363362 -0.08707961 0.024709634 -0.043724816 -0.09651777
-0.014407142 0.08632916 0.08666614 0.13927428 -0.081908874 0.043019254 -0.05376369 -0.038080197
0.032448594 -0.114910945 -0.0005886145 0.16411026 -0.050587222 -0.2417497 -0.0611117 0.11685752
0.084546834 0.067075625 -0.0744966 0.1063607 -0.13628046 -0.24066955 -0.02226299 0.026153214
0.1157966 0.09299597 -0.016947448 -0.10603916 0.06663233 0.1599851 -0.026293328 -0.14791772
-0.11879739 -0.017891312 -0.14242834 -0.050725188 0.052381143 0.055457223 0.13716426 0.0022650212
0.008002435 0.15534692 0.00052052835 -0.09474889 0.002464231 -0.055512447 -0.05824421 0.1258797
-0.09652985 0.078508735 -0.00072637683 0.29290664 0.011128824 0.008770581 -0.13443004 -0.025160773
0.0046119806 -0.2100523 -0.05451369 -0.03174119 -0.13203485 -0.11763992 0.06570263 -0.054421935
0.027448038 0.06867276 0.13332152 0.10696445 -0.03958479 0.02441556 -0.03594442 -0.08558653
-0.0020937251 -0.00016975656 0.15411386 0.17062478 0.09600286 -0.019853806 -0.004542418 -0.08917833
0.022988895 -0.11225663 0.046018876 -0.100887954 -0.041001644 0.018438755 0.04569412 0.07647856
0.06397861 -0.016570685 0.03764596 0.08655202 0.07484285 -0.13846627 -0.034149773 -0.06598461
0.02426259 -0.11140222 -0.034299362 0.028549086 -0.0010146269 0.08410631 0.07488196 -0.19592924
-0.14906818 0.047343563 -0.006187594 -0.12149093 0.09894921 -0.25226203 0.12761216 0.101587005
0.090762764 -0.10517347 0.07161704 0.098539345 -0.037216626 0.003296259 0.21567385 -0.09995817
0.08630206 0.11898556 -0.14441706 0.04687885 -0.05228079 -0.0841295 0.066543825 0.06231618
0.08855832 -0.11780903 -0.15034157 0.19994968 -0.011187571 0.13052845 -0.03358206 -0.042763084
0.009907518 0.18114914 0.0854137 0.0074517755 -0.051011056 -0.08941752 -0.10959769 0.048444908
-0.09997234 -0.013254865 -0.0021501083 0.016877908 -0.008926005 -0.0023437412 -0.02483583 0.007116174
-0.01187755 -0.02089012 0.17025462 0.21816003 0.029013941 -0.056611933 0.046728507 0.20156123
-0.06407532 0.06287041 0.117651395 0.02068226 -0.08788446 0.0044679395 -0.05941507 0.11951959
0.13277175 0.09382234 -0.09423807 0.20183396 -0.107238136 0.009335573 -0.081370756 -0.058453757
-0.02278543 0.04049977 0.036190588 -0.040114257 0.044169605 -0.010088659 0.032058407 0.03610032

network_body._body_endoder.seq_layers.2.bias f4 [128]
00000000: b8d8 8d39 23c2 b03c 37f2 a63d 94c1 9c3b
00000010: 7114 023d a2ce 823d ede9 48bc bfc3 42bc
00000020: 9744 133d 9c4b 48bc 1cf2 823d de0e 293d
00000030: 3b94 83bd cab8 64bd fccc 0dbd 8ec9 c83c
00000040: 2f74 b7bc ef29 46bc 1887 183d cd16 3fbd
00000050: d417 103c d7aa 3f3d 2006 ef3b 6f52 0c3d
00000060: fc58 ea3c 61c3 693d a5f4 443d b717 6ebc
00000070: 4b7c f33c 6f33 613d ed56 efbc 2659 47bd
00000080: c3d0 4dbd 145b 163d d75a 4dbd 3daa 47bd
00000090: d8d5 01bd a040 b0bc f852 083d 3720 233d
000000a0: fbf2 07bd 2f7e b33c b305 a2bd 8c04 1ebd
000000b0: 4615 773d e2c0 44bd 9f97 5b3d fdf5 1b3d
000000c0: 40e0 c63b fa09 98bc e7f9 763d ea6c 613d
000000d0: 88df 503d d37e 89bc 79a7 6f3d 1c85 dbbc
000000e0: 17d7 12bd c5e6 ecbc b4bf 09bd ce4d 5bbd
000000f0: 0d32 913d 9ff7 bfbb f1da 5dbd 6c72 13bb
00000100: d634 35bd 29a3 7b3d 14c7 18bc efe4 22bd
00000110: 942c af3d ce20 8d3d 1257 453b 5b95 b1bc
00000120: caf4 85bc 2805 af3d 4eb9 f03c 6587 11bd
00000130: 814e 6bbd 9b33 253d 9518 743d d71b 2f3c
00000140: 05ca 0d3d 5061 6d3d acb8 83bd fa19 90bd
00000150: 5b58 0cbd 80d1 0c3d 5652 5a3c 012a 9cbc
00000160: aea0 c2bc f5b5 dfbc 11c0 13bd e98d 3fbd
00000170: c1ca d63c da87 32bd 6a47 71bc ede2 a2bd
00000180: a452 0fbd ba1d 5f3d 1101 87bd 0c02 36bc
00000190: 762b 3f3c f640 0f3d 0435 293d 2713 343c
000001a0: 9d5f 15bd d313 003d c8de 9c3c f178 7a3c
000001b0: ae4d 7abd 69aa 52bd b647 733d 8d0e b73c
000001c0: 057e 593c ccdc 583d e5c3 113d d584 83bd
000001d0: 7ed3 353c 3ade 44bd 9f5f fd3c 1c49 8abd
000001e0: cd0c 093d ee41 1d3d f454 5fbd 0b24 993d
000001f0: 3cb4 e8bc 5cd4 553d f939 bfbd dc59 9bbd
0.00027055084 0.021576947 0.081516676 0.0047838185 0.031757776 0.06387068 -0.0122628035 -0.01188749
0.035954084 -0.012225058 0.06393835 0.041273944 -0.06424757 -0.05584029 -0.034619316 0.024510171
-0.022394268 -0.012094959 0.03723821 -0.046652604 0.008794744 0.046793785 0.0072944313 0.034258302
0.028606884 0.057071093 0.048084874 -0.014532021 0.029722353 0.05498069 -0.029216254 -0.048669003
-0.05024792 0.036707953 -0.05013546 -0.048746336 -0.031698078 -0.02151519 0.03328225 0.039825644
-0.03319071 0.021910755 -0.07911243 -0.038578555 0.060323022 -0.04803551 0.053611394 0.03807639
0.006069213 -0.018559445 0.06029692 0.05503551 0.050994426 -0.016784107 0.058509324 -0.02679687
-0.035849657 -0.028918633 -0.033630088 -0.053540997 0.070896246 -0.005858376 -0.054163877 -0.002249862
-0.04423984 0.0614349 -0.009324808 -0.03976911 0.085534245 0.068910226 0.0030111712 -0.021677664
-0.016352076 0.08545905 0.029385235 -0.035529513 -0.057447914 0.040332418 0.059593756 0.01068779
0.03461649 0.057954133 -0.06431708 -0.07036205 -0.03426395 0.034379482 0.0133252945 -0.019062998
-0.023758259 -0.027308444 -0.03607184 -0.046766195 0.026219727 -0.04358659 -0.014726499 -0.07953439
-0.03499092 0.05447171 -0.06592 -0.011108886 0.011668077 0.03497406 0.041310325 0.010990894
-0.036468137 0.031268906 0.0191492 0.015287624 -0.061109237 -0.051432047 0.05939456 0.022345806
0.013274674 0.052944943 0.03558721 -0.0642182 0.011097787 -0.048063494 0.030929385 -0.06752226
0.033459473 0.038392954 -0.054524377 0.07477578 -0.028406255 0.052204475 -0.09337229 -0.07585499

action_model._continuous_distribution.log_sigma f4 [1, 3]
00000000: d7ae 8ebc 8584 c9bb f68d 09bd
-0.017417355 -0.0061498308 -0.03358265

action_model._continuous_distribution.mu.weight f4 [3, 128]
00000000: d227 d93b 31d2 273c e671 563d 3e1e 1a3b
00000010: 7752 bf3c d3b7 a83c 1988 04bd 11be 05bd
00000020: 4d16 de3c c3d3 1dbd bbaf 803d 846b 333d
00000030: 889c 46bd 72cd 71bd 59d6 d6bc bc19 483c
00000040: 23f2 8ebc fb4e 1cbd ecbb b73c adb1 15bd
00000050: acfa c6bb 9a2f c03c 011f 253c 5599 d53b
00000060: b3e3 1d3c 40bd 2d3d 2ab8 363d 7f37 10bb
00000070: d682 cc3c 08a3 1a3d 7510 3dbc 7516 82bc
00000080: f189 fcbb 7564 7a3c a223 8ebc 006a 01bd
00000090: 7b8e 1dbd 3523 12bc 7a21 223c fe5f d23c
000000a0: 306b 7fbb 0c93 173c c728 6abd bd8a 49bd
000000b0: e36a 483d e902 1ebd 4afc 273d e4e9 c63c
000000c0: 46ec 10bc 2551 2dbd 1659 553d 530e 5f3d
000000d0: bcaf 143d ca61 c4bc f8f6 493d a70e a9bc
000000e0: 2981 4abd 5276 aebc d7ac abbc d533 86bd
000000f0: 1c6e 873d 49c8 2e3c 472f 57bd 68f7 89bc
00000100: d46b 0fbd 743a 3c3d 9d48 d8bb eaa1 c1bc
00000110: f26a 803d b9f4 563d 6d1d b638 df26 0bbc
00000120: ecda 12bb 793a ac3d d878 233c 8ce8 a5bc
00000130: d0e9 4dbd d46a 423b 0208 203d 54e5 3a3c
00000140: 6624 093c 34db 453d f7d6 3fbd 142e 0ebd
00000150: 35f4 13bd fb11 543c 3972 8f3c b14f 59bb
00000160: 61f7 0cbc 7490 c3bc 5615 dcbc 4422 58bc
00000170: beb7 413c d650 04bd 666a 5abc c73e b4bd
00000180: b415 e7bc 14e6 263d 3bb5 03bd 94d9 543c
00000190: 0f5e f13b c387 853c eec2 033d bc36 a33c
000001a0: 6922 84bc 26ec 083c 56b1 8aba fbb2 0a3c
000001b0: 8b26 c8bc 4c50 b8bc 8b63 393d 328f 253c
000001c0: fe98 99bc 778b 073d 0cf7 863c d3c0 88bd
000001d0: eebd 1c3b 059c 45bd e539 ae3c 83ea 3cbd
000001e0: ac2d 063d 99a3 6a3c 0c12 6dbd 963c 673d
000001f0: d877 d3bc 3a67 213d be87 71bd 4cd8 4abd
00000200: 8908 993c fc4e c1bc 4c67 4abd be02 013d
00000210: 13c9 733d a95e 0fbd 6694 19bd 3d19 8f3d
00000220: c803 18bd 66c3 58bd 8f65 6ebc b041 c03c
00000230: de52 0b3b df9d dd3a 9e80 093d 98f7 96bc
00000240: 086f 1dbc f2fe 88bc b054 48bc 76bf 6d3c
00000250: ea85 41bd 8b8a 063d e3c5 38bd 5fa5 82bd
00000260: 54f4 bbbc 8acf 9bbb 7e5c a83c 1b3a b2bb
00000270: cbb9 b2bc ad62 45bd be78 283c bfce 1d3c
00000280: cbb8 fbbb 0600 06bc 036e a23a fd96 873c
00000290: e6bc d6bc c61f 0a3d b87d bbbb a374 f53c
000002a0: 87eb 24b9 97f8 a3bc 13a7 1abc f030 f939
000002b0: 2526 5a3d 8890 24bc de15 203c 422f 66bd
000002c0: b6c7 e6bc c0c7 ecbc 9453 c1bb db42 a73c
000002d0: d9ad 3a3c ad86 3bbc dda3 873c f5b2 b53c
000002e0: 016d ccbc bbd6 dcbc 5048 af3b a4fd e4bc
000002f0: 0a53 0fbd f465 54ba e977 1ebc e10f 2bbc
00000300: 66f1 9cbc 8b09 813c 69dd 673d 5ba1 adbc
00000310: 459f 1ebd 6e1d b6bc 6e6d 953c b042 143d
00000320: 714e ed3b 0345 4bbd 3003 d83b 978e 343d
00000330: c1af e7bb 8cdd 32bd 3b48 b73b f8d9 3fbd
00000340: c676 dfbc 95f7 443c 32a5 903c 8365 223b
00000350: f163 e1bc b5e4 403d 00df 59bb 21bb f23c
00000360: c4c0 83bc 3326 d1bc 2d48 ddbb 7676 7a3c
00000370: 3e04 60bc d775 613c a45f 8abc 8d62 1f3c
00000380: 933e 1f3c 0db9 b3ba 80f1 bf3a 9a3f 383c
00000390: 82a0 03bd 9cb4 a3ba e648 613c 467e 393d
000003a0: 70bc 33bc 467b f3bc c6e1 7abd e161 423c
000003b0: 3011 f0bb 5882 923c caa0 723a df32 1f3c
000003c0: c3b3 a6bd 8b3d 4ebd 023e 2cbd 0ae3 0abd
000003d0: 7508 64bc 469c 6e3c ab01 113d 6066 4b3a
000003e0: 4fb6 21bd a744 05bd 3a3a 0f3d cb35 053d
000003f0: 6bf1 713c 0e2f d63c d4b8 0b3c d6de 3f3c
0.0066270614 0.010242985 0.052354716 0.002351656 0.023354752 0.020595467 -0.032356355 -0.032651965
0.027110243 -0.03853203 0.06283518 0.043803707 -0.048489124 -0.05903382 -0.026225256 0.012213167
-0.017449444 -0.03816126 0.022428475 -0.036546398 -0.006072363 0.023460198 0.010078193 0.0065185227
0.009636807 0.04241681 0.044609226 -0.0022005734 0.024964731 0.037753135 -0.011539568 -0.015879849
-0.0077068736 0.01528274 -0.017350975 -0.03159523 -0.038465958 -0.008919527 0.009895677 0.025680538
-0.00389738 0.009251367 -0.057167795 -0.049204577 0.04893006 -0.038576994 0.041012086 0.02428145
-0.0088453945 -0.042313714 0.052086912 0.05445702 0.036300406 -0.02397241 0.049307793 -0.02063687
-0.049439583 -0.021296654 -0.02095644 -0.06552855 0.066127986 0.010667869 -0.05253532 -0.016841605
-0.035014942 0.045954183 -0.006600453 -0.023636777 0.06270398 0.05247948 8.683917e-05 -0.008493154
-0.002240832 0.0840959 0.009977542 -0.020252489 -0.05027181 0.0029665725 0.039070137 0.011407215
0.0083704945 0.04830475 -0.046835866 -0.034711912 -0.036121566 0.01294374 0.01751052 -0.0033159072
-0.008603902 -0.023872592 -0.026865643 -0.013191763 0.011823593 -0.032303654 -0.013331031 -0.08801036
-0.028208591 0.040746763 -0.032155257 0.012991328 0.007365949 0.016300088 0.03216832 0.01992356
-0.01612969 0.008357083 -0.0010581415 0.008465524 -0.024432441 -0.022499226 0.045260947 0.010104941
-0.01874971 0.03309199 0.016475223 -0.06677403 0.0023916918 -0.048244495 0.02126784 -0.046122085
0.0327584 0.014321231 -0.05787854 0.056454264 -0.025813982 0.039405085 -0.058967344 -0.049522683
0.018680828 -0.023597233 -0.049414918 0.031496756 0.05951793 -0.035002384 -0.03749504 0.06987236
-0.03711298 -0.05292072 -0.014550581 0.023468822 0.002125911 0.0016908011 0.033569925 -0.018428609
-0.009608991 -0.01672313 -0.012227222 0.01451098 -0.04724685 0.03284697 -0.045110594 -0.06379198
-0.022943653 -0.004754965 0.020551916 -0.0054390556 -0.021817109 -0.048189808 0.010282693 0.009631812
-0.007681941 -0.0081787165 0.0012392405 0.016551489 -0.02621312 0.033721708 -0.005721774 0.029962843
-0.00015728 -0.020015998 -0.009439248 0.00047529442 0.053259034 -0.010044225 0.009770839 -0.056197412
-0.028171401 -0.028903842 -0.005899856 0.020417621 0.011393988 -0.011445683 0.016557628 0.02218006
-0.02495432 -0.02695786 0.0053491965 -0.027952977 -0.0349913 -0.00081023504 -0.0096721435 -0.010440798
-0.019158076 0.01575162 0.056607638 -0.021195104 -0.03872611 -0.02223083 0.018240657 0.03619641
0.007242017 -0.04962636 0.006592177 0.044081297 -0.007070512 -0.043668315 0.0055933273 -0.04683873
-0.027278315 0.012021919 0.017656896 0.0024779744 -0.027513476 0.047093112 -0.003324449 0.029630246
-0.016083129 -0.02553091 -0.006752989 0.015287032 -0.013672886 0.013761005 -0.016891308 0.009728086
0.009719509 -0.0013711766 0.0014644116 0.011245633 -0.032135494 -0.0012489739 0.0137502905 0.04528644
-0.01097022 -0.029721867 -0.06125047 0.011864156 -0.0073262677 0.017884418 0.0009255527 0.009716718
-0.081397556 -0.05035166 -0.042051323 -0.033907928 -0.013918032 0.014563626 0.03540198 0.00077590905
-0.039480504 -0.032536175 0.03496764 0.032522004 0.014767031 0.026145484 0.008527953 0.011710843

action_model._continuous_distribution.mu.bias f4 [3]
00000000: 0298 8f3d 4866 2ebc 2c66 24bb
0.07011415 -0.010644503 -0.0025085313

onnx::Div_51 f4 [55]
00000000: 1635 e13e e322 d93e 3753 da3e c64a 7d3e
00000010: c3fe 243e 0903 043e c711 923e d02f 433e
00000020: 584c 1c3e bd26 a53e d15f 613e e9c3 303e
00000030: 15c7 ab3e a9af 6e3e 7dc0 393e dede a93e
00000040: 24f5 6b3e f1f1 3a3e 6748 983e 8a8b 543e
00000050: e116 263e b8dd 8d3e 4605 463e 37de 183e
00000060: 9dcc 893e 9d45 3c3e 3953 133e e74c 863e
00000070: 324a 313e b61b 0d3e 79a7 843e 71d1 273e
00000080: 9cd4 0d3e 0ecb 643d c14e 3b3d da1b d93c
00000090: 9b7e 513d 2386 303d 93ba c53c f862 af3d
000000a0: e55c 813d cc9a 383d 2e9a 0a3e 9235 ee3d
000000b0: 6b26 873d 408c 103e 4311 ec3d 35b6 8f3d
000000c0: 9703 d33d 1c1c 903d 4992 5d3d 74ee 9d3e
000000d0: 8c6f 973e 9d48 da3e 0b0e ec3e
0.43985814 0.4240943 0.42641613 0.24735555 0.16112809 0.12891783 0.28529188 0.19061208
0.15263498 0.32256117 0.22009207 0.17262234 0.33550325 0.23309197 0.18139835 0.33177847
0.23042732 0.18256356 0.2974274 0.20756355 0.16219665 0.2770822 0.19337949 0.14928518
0.2691392 0.1838593 0.14387216 0.26230547 0.1731346 0.13780102 0.25909021 0.1638849
0.13850635 0.05585771 0.045729402 0.026502538 0.05114613 0.043096673 0.024136817 0.08563799
0.06316546 0.0450695 0.13535377 0.116313115 0.065991245 0.14116001 0.1152673 0.07017175
0.10303419 0.070366114 0.054094587 0.30845988 0.2957729 0.42633525 0.46104464
