Assets/ML-Agents/results/color-hunt1/ColorHunter/ColorHunter-114674.pt (torch, 597834 bytes, 44 tensors)

network_body.observation_encoder.processors.0.normalizer.running_mean f4 [55]
0	0x3ec356c8	0.38152146
1	0x3e94a437	0.29031536
2	0x3eee35c8	0.46525407
3	0x3d5921b1	0.053010646
4	0x3f7a71d2	0.97829926
5	0x3cdb07f6	0.026737195
6	0x3d074895	0.033028204
7	0x3cfcc10b	0.030853769
8	0x3d1ce787	0.03830674
9	0x3d4ca150	0.049958527
10	0x3f7af223	0.9802572
11	0x3cd4aeff	0.02596235
12	0x3cfe8f9d	0.03107434
13	0x3d0090c9	0.031388078
14	0x3d148269	0.03625718
15	0x3d5b740d	0.05357747
16	0x3f7a6a45	0.97818404
17	0x3ce2898e	0.027653482
18	0x3cff3065	0.031151006
19	0x3d0c8dcf	0.034314927
20	0x3d1c72c8	0.0381954
21	0x3d8df670	0.0693177
22	0x3f77f7be	0.968624
23	0x3d147315	0.036242563
24	0x3d2f887a	0.042854764
25	0x3d2724e9	0.040806685
26	0x3d4922a9	0.04910532
27	0x3d97fb48	0.07420975
28	0x3f777ec7	0.9667782
29	0x3d1eda21	0.038782243
30	0x3d2f160c	0.042745635
31	0x3d381731	0.044943992
32	0x3d5039c9	0.05083636
33	0x3d88b63d	0.06675384
34	0x3f787d5a	0.9706627
35	0x3d0b0f18	0.03394994
36	0x3d239e64	0.039945975
37	0x3d2e92bc	0.042620406
38	0x3d3dcb61	0.046336535
39	0x3d74f4ca	0.05980376
40	0x3f79b71e	0.9754504
41	0x3cff21d6	0.031144064
42	0x3d148785	0.036262054
43	0x3d1961be	0.03744673
44	0x3d2700c2	0.040772207
45	0x3d72594f	0.059167203
46	0x3f7a19e6	0.9769577
47	0x3cf4f361	0.029901208
48	0x3d102fb5	0.035201747
49	0x3d13ec7c	0.0361142
50	0x3d253d12	0.040341444
51	0x3d44736f	0.04796165
52	0x3f7b4754	0.98155713
53	0x3ccaa943	0.024738913
54	0x3ce89cf3	0.028395152

network_body.observation_encoder.processors.0.normalizer.running_variance f4 [55]
0	0x46aedfb6	22383.855
1	0x469ec52b	20322.584
2	0x46a578a5	21180.322
3	0x45b3ee0d	5757.7563
4	0x44b79090	1468.5176
5	0x44ca2e1b	1617.4408
6	0x4559c0b5	3484.0442
7	0x454e9021	3305.008
8	0x45782b45	3970.7043
9	0x45aa1e4c	5443.787
10	0x44a91a88	1352.8291
11	0x44ce83cd	1652.1188
12	0x454d9d59	3289.8342
13	0x45527d84	3367.8447
14	0x456b1b7f	3761.7185
15	0x45b5be8a	5815.8174
16	0x44ba4b83	1490.3597
17	0x44d84fdc	1730.4956
18	0x454dd3af	3293.2302
19	0x456641f9	3684.1233
20	0x457667f2	3942.4966
21	0x45e737ea	7398.9893
22	0x4506c97e	2156.5933
23	0x450cf1b8	2255.1074
24	0x458c1ef7	4483.8706
25	0x4586ebac	4317.459
26	0x459bd286	4986.3154
27	0x45f63bc4	7879.4707
28	0x450a77b4	2215.4814
29	0x45174f9c	2420.9756
30	0x458a5aa8	4427.332
31	0x45930d2b	4705.646
32	0x459e0086	5056.0654
33	0x45df480a	7145.005
34	0x44f3f36f	1951.6073
35	0x44ff35b8	2041.6787
36	0x45823bab	4167.4585
37	0x458c40cf	4488.101
38	0x45921f9d	4675.9517
39	0x45c986ee	6448.866
40	0x44c9bf7a	1613.9836
41	0x44f3a644	1949.1958
42	0x456e74a0	3815.289
43	0x45782f41	3970.9534
44	0x4580e3cf	4124.476
45	0x45c7845a	6384.544
46	0x44bb1280	1496.5781
47	0x44dfe084	1791.0161
48	0x4566fdad	3695.8547
49	0x456f93db	3833.241
50	0x457fbdb0	4091.8555
51	0x45a3a9ad	5237.2095
52	0x44984c61	1218.3868
53	0x44c1402c	1546.0054
54	0x453d17de	3025.4917

network_body.processors.0.normalizer.running_mean f4 [55]
0	0x3ec356c8	0.38152146
1	0x3e94a437	0.29031536
2	0x3eee35c8	0.46525407
3	0x3d5921b1	0.053010646
4	0x3f7a71d2	0.97829926
5	0x3cdb07f6	0.026737195
6	0x3d074895	0.033028204
7	0x3cfcc10b	0.030853769
8	0x3d1ce787	0.03830674
9	0x3d4ca150	0.049958527
10	0x3f7af223	0.9802572
11	0x3cd4aeff	0.02596235
12	0x3cfe8f9d	0.03107434
13	0x3d0090c9	0.031388078
14	0x3d148269	0.03625718
15	0x3d5b740d	0.05357747
16	0x3f7a6a45	0.97818404
17	0x3ce2898e	0.027653482
18	0x3cff3065	0.031151006
19	0x3d0c8dcf	0.034314927
20	0x3d1c72c8	0.0381954
21	0x3d8df670	0.0693177
22	0x3f77f7be	0.968624
23	0x3d147315	0.036242563
24	0x3d2f887a	0.042854764
25	0x3d2724e9	0.040806685
26	0x3d4922a9	0.04910532
27	0x3d97fb48	0.07420975
28	0x3f777ec7	0.9667782
29	0x3d1eda21	0.038782243
30	0x3d2f160c	0.042745635
31	0x3d381731	0.044943992
32	0x3d5039c9	0.05083636
33	0x3d88b63d	0.06675384
34	0x3f787d5a	0.9706627
35	0x3d0b0f18	0.03394994
36	0x3d239e64	0.039945975
37	0x3d2e92bc	0.042620406
38	0x3d3dcb61	0.046336535
39	0x3d74f4ca	0.05980376
40	0x3f79b71e	0.9754504
41	0x3cff21d6	0.031144064
42	0x3d148785	0.036262054
43	0x3d1961be	0.03744673
44	0x3d2700c2	0.040772207
45	0x3d72594f	0.059167203
46	0x3f7a19e6	0.9769577
47	0x3cf4f361	0.029901208
48	0x3d102fb5	0.035201747
49	0x3d13ec7c	0.0361142
50	0x3d253d12	0.040341444
51	0x3d44736f	0.04796165
52	0x3f7b4754	0.98155713
53	0x3ccaa943	0.024738913
54	0x3ce89cf3	0.028395152

network_body.processors.0.normalizer.running_variance f4 [55]
0	0x46aedfb6	22383.855
1	0x469ec52b	20322.584
2	0x46a578a5	21180.322
3	0x45b3ee0d	5757.7563
4	0x44b79090	1468.5176
5	0x44ca2e1b	1617.4408
6	0x4559c0b5	3484.0442
7	0x454e9021	3305.008
8	0x45782b45	3970.7043
9	0x45aa1e4c	5443.787
10	0x44a91a88	1352.8291
11	0x44ce83cd	1652.1188
12	0x454d9d59	3289.8342
13	0x45527d84	3367.8447
14	0x456b1b7f	3761.7185
15	0x45b5be8a	5815.8174
16	0x44ba4b83	1490.3597
17	0x44d84fdc	1730.4956
18	0x454dd3af	3293.2302
19	0x456641f9	3684.1233
20	0x457667f2	3942.4966
21	0x45e737ea	7398.9893
22	0x4506c97e	2156.5933
23	0x450cf1b8	2255.1074
24	0x458c1ef7	4483.8706
25	0x4586ebac	4317.459
26	0x459bd286	4986.3154
27	0x45f63bc4	7879.4707
28	0x450a77b4	2215.4814
29	0x45174f9c	2420.9756
30	0x458a5aa8	4427.332
31	0x45930d2b	4705.646
32	0x459e0086	5056.0654
33	0x45df480a	7145.005
34	0x44f3f36f	1951.6073
35	0x44ff35b8	2041.6787
36	0x45823bab	4167.4585
37	0x458c40cf	4488.101
38	0x45921f9d	4675.9517
39	0x45c986ee	6448.866
40	0x44c9bf7a	1613.9836
41	0x44f3a644	1949.1958
42	0x456e74a0	3815.289
43	0x45782f41	3970.9534
44	0x4580e3cf	4124.476
45	0x45c7845a	6384.544
46	0x44bb1280	1496.5781
47	0x44dfe084	1791.0161
48	0x4566fdad	3695.8547
49	0x456f93db	3833.241
50	0x457fbdb0	4091.8555
51	0x45a3a9ad	5237.2095
52	0x44984c61	1218.3868
53	0x44c1402c	1546.0054
54	0x453d17de	3025.4917

network_body._body_endoder.seq_layers.0.weight f4 [128, 55]
0	0xbc659c93	-0.014014381
1	0x3d140892	0.036140986
2	0xbdfd6dd5	-0.123744644
3	0x3d41ad7b	0.047284584
4	0xbd8554ec	-0.06510338
5	0xbdca49c2	-0.098773494
6	0x3e297e44	0.16552073
7	0xbde0b362	-0.109717146
8	0xbd4c2c74	-0.04984708
9	0x3d2a8723	0.041632783
10	0x3c31e448	0.010857649
11	0xbd3ff00d	-0.04685979
12	0x3e8a805f	0.27051064
13	0x3d901913	0.070360325
14	0xbe1d2fb5	-0.1535023
15	0xbb06e83a	-0.0020585195
16	0xbe045950	-0.12924695
17	0xbec532ef	-0.38515422
18	0xba8a424f	-0.0010548326
19	0xbc4a225b	-0.012337293
20	0x3e3a09da	0.1816782
21	0xbe0dabdf	-0.13835095
22	0x3bdc6b2a	0.006726642
23	0xbd2fa771	-0.042884294
24	0xbd029b36	-0.031886302
25	0xbd94ca87	-0.072651915
26	0xbc9d6d0e	-0.01921704
27	0x3d8fbd27	0.070185
28	0x3ddc7792	0.10764994
29	0x3e098932	0.13431242
30	0x3e393148	0.18085206
31	0xbec54101	-0.38526157
32	0xbe5656da	-0.20931569
33	0xbd781573	-0.06056733
34	0xbc8c1e27	-0.017104222
35	0x3e05a339	0.13050546
36	0xbe4c7d41	-0.19969656
37	0x3d4dfea8	0.050291687
38	0x3c46428b	0.012100826
39	0x3e06ffb8	0.13183486
40	0x3b489eaa	0.003061215
41	0x3d97bd6e	0.07409178
42	0xbc5e7be4	-0.0135793425
43	0x3deced93	0.11568751
44	0xbd421ef0	-0.047392786
45	0x3e5e980d	0.2173769
46	0x3e53b278	0.20673549
47	0xbd5e3f31	-0.054259483
48	0x3c944b7a	0.018102396
49	0xbdbcbfe0	-0.09216285
50	0x3d885697	0.06657141
51	0xbcf71b00	-0.030164242
52	0xbb22746e	-0.0024788636
53	0x3d4b5281	0.04963923
54	0x3e73465f	0.23757313
55	0xbe8114b2	-0.25211102
56	0x3d46873f	0.048468824
57	0x3d4a550c	0.049397513
58	0xbd97e5ec	-0.07416901
59	0xbc454d3d	-0.012042341
60	0xbda58f20	-0.080839396
61	0x3d5dca67	0.054148104
62	0xbcbacfac	-0.022804104
63	0x3cf19605	0.02949048
64	0xbe62bed3	-0.22143106
65	0xbe3a915a	-0.1821951
66	0xbe0df913	-0.13864546
67	0x3e584fd7	0.21124206
68	0x3da9686a	0.082718685
69	0x3dfe94ca	0.12430723
70	0x3e3e1a7d	0.18564792
71	0xbe256c60	-0.16154623
72	0xbc463b94	-0.0120991655
73	0xbb458888	-0.0030141193
74	0xbdc03480	-0.093850136
75	0xbd13ea68	-0.03611222
76	0x3dd20520	0.10254884
77	0xbe435052	-0.19073609
78	0xbda7a6f1	-0.081861384
79	0x3dceb291	0.100926526
80	0x3d59639d	0.053073514
81	0x3d8dba87	0.06920343
82	0x3d631864	0.055443183
83	0xbbf7b6e1	-0.0075596427
84	0x3d5cec3e	0.053936236
85	0xb9ee6d9b	-0.0004547656
86	0x3e1f0eca	0.15532985
87	0x3e05fc19	0.13084449
88	0xbd95b1da	-0.07309313
89	0x3cb5c5b6	0.022189002
90	0x3e01cacb	0.12675016
91	0xbdfc2c6c	-0.1231316
92	0x3d2d7ccf	0.042355355
93	0xbe893276	-0.2679631
94	0xbe2dfc0a	-0.16990677
95	0xbef3112e	-0.47474045
96	0xbea43b60	-0.3207655
97	0x3db1e302	0.086858764
98	0x3dcb4de0	0.09926963
99	0x3d297f58	0.04138121
100	0x3e1d35ee	0.15352604
101	0xbc977d6f	-0.018492429
102	0xbdabd8d2	-0.083909646
103	0x3ce618d7	0.028088016
104	0xbdcc03d0	-0.09961665
105	0xbe0a242d	-0.13490362
106	0xbc57679a	-0.013147259
107	0xbe9cc772	-0.30620915
108	0x3c977df4	0.018492676
109	0xbdad9d24	-0.08477238
110	0x3e475bfa	0.1946868
111	0x3e2c0f24	0.1680265
112	0x3db394f3	0.08768644
113	0x3da37a11	0.07982267
114	0xbd7f4048	-0.062317163
115	0x3e151f74	0.1456278
116	0x3df9a68c	0.121899694
117	0xbd8418a9	-0.06450016
118	0xbd7c94b9	-0.06166527
119	0xbdd29af7	-0.102834634
120	0xbcbfacc3	-0.023397809
121	0xbe4d76f4	-0.20064908
122	0xbdc1dd5d	-0.0946605
123	0x3d84d3d7	0.06485718
124	0x3db407ba	0.08790536
125	0x3d46f2ca	0.048571385
126	0x3d926a18	0.07149142
127	0x3d61147d	0.05495118
128	0x3dd72966	0.10505943
129	0xbd046dd7	-0.032331314
130	0x3c5ba56b	0.013406138
131	0x3d91c778	0.07118124
132	0xbd2137ff	-0.039360043
133	0x3e9039ef	0.281692
134	0xbd6993c6	-0.057025693
135	0x3e4b6ea0	0.19866419
136	0xbdb5331e	-0.088476405
137	0xbd3c0ba4	-0.04590954
138	0x3d55d89b	0.052208524
139	0xbe945573	-0.28971443
140	0xbe1f2a70	-0.15543532
141	0x3de3153f	0.11088037
142	0xbe0e9e0b	-0.13927476
143	0x3e80eed1	0.25182202
144	0xbd992841	-0.07478381
145	0xbc063d8f	-0.008193388
146	0x3e582bf1	0.21110512
147	0xbde4b301	-0.11166955
148	0x3edf764e	0.43644947
149	0x3d806afb	0.06270405
150	0x3da4247c	0.08014771
151	0x3cfd0570	0.030886382
152	0x3d26e602	0.040746696
153	0x3dda2474	0.10651484
154	0x3d9d8888	0.07692057
155	0xbdd7ce88	-0.105374396
156	0xbd418cd3	-0.04725344
157	0x3de66485	0.11249641
158	0x3dd41e3d	0.1035733
159	0xbc80dfa3	-0.015731638
160	0x3e1f59b3	0.15561561
161	0x3e5057a7	0.20345937
162	0xbde216e2	-0.11039521
163	0xbdb4865a	-0.08814688
164	0xbe52a573	-0.20570926
165	0xbe5fbe5d	-0.21849962
166	0x3e8e0d86	0.27744693
167	0x3e05ffd1	0.13085867
168	0xbe33201a	-0.17492715
169	0xbd26ade1	-0.040693168
170	0xbe8308d3	-0.2559267
171	0xbaee1f1f	-0.0018167234
172	0x3d97ed2e	0.07418285
173	0xbe3fcf06	-0.18731317
174	0x3d87852f	0.066172
175	0x3dae25e4	0.08503321
176	0xbe77db21	-0.24204685
177	0xbe8a6034	-0.27026522
178	0x3d65a6a7	0.056067135
179	0xbe0cf31e	-0.13764617
180	0x3cb4c838	0.022068128
181	0xbe24129e	-0.16022727
182	0x3baec321	0.00533332
183	0xbe1278f4	-0.14303952
184	0xbd67b5ca	-0.056569852
185	0xbe1d572c	-0.15365285
186	0xbe0b2e43	-0.13591866
187	0x3d9b4baf	0.07582795
188	0x3d71b723	0.059012543
189	0x3e46cd2a	0.19414201
190	0x3c90d603	0.017680174
191	0xbd3dc86c	-0.046333715
192	0xbe0e4076	-0.13891777
193	0xbc7faf91	-0.015605823
194	0x3dc52f76	0.09628193
195	0xbdead07c	-0.114655465
196	0xbe1c7b5d	-0.15281434
197	0x3dd565b2	0.104197875
198	0x3d9c44f0	0.07630336
199	0x3dc924b9	0.098214574
200	0x3d80966f	0.06278693
201	0xbdbd9a85	-0.09257988
202	0x3dbfb8e0	0.09361434
203	0xbe089e32	-0.13341597
204	0xbdbab665	-0.0911682
205	0x3e004209	0.1252519
206	0xbda89412	-0.08231367
207	0xbe6342a8	-0.22193396
208	0x3ce94eac	0.028479896
209	0xbce209f3	-0.027592635
210	0xbe8aea68	-0.27131963
211	0x3dba3fba	0.09094186
212	0xbe7809d5	-0.242225
213	0xbe38f0f0	-0.1806066
214	0xbebf1a2c	-0.37324655
215	0xbe1937da	-0.14962712
216	0xbde3d40d	-0.1112443
217	0xbdbdb578	-0.09263128
218	0xbd810ffa	-0.063018754
219	0x3d99eead	0.07516227
220	0x3e56dee6	0.20983467
221	0xbe159b85	-0.14610107
222	0xbca9aff6	-0.020713788
223	0xbdd88f2c	-0.10574183
224	0xbd825165	-0.06363181
225	0x3e8c8a55	0.2744929
226	0xbdb27e08	-0.08715445
227	0x3e8043ac	0.2505163
228	0xbe619bcc	-0.22032088
229	0xbd4ef1a6	-0.050523423
230	0xbd4a139e	-0.049335115
231	0xbc06db95	-0.008231063
232	0x3e350a86	0.17679796
233	0x3d054059	0.03253207
234	0xbe77d27b	-0.24201386
235	0x3cab3aae	0.020902004
236	0x3cfe5311	0.031045469
237	0x3d8e4904	0.069475204
238	0x3c9108a3	0.017704314
239	0x3dde20d6	0.10846107
240	0x3caa962c	0.02082356
241	0xbdf4f223	-0.119602464
242	0x3ca813e5	0.020517299
243	0xbda0e0c4	-0.07855371
244	0xbd647042	-0.05577112
245	0x3daa635f	0.08319735
246	0x3e11b899	0.14230575
247	0x3dcd2227	0.1001628
248	0xbd3d7b84	-0.04626037
249	0x3cf75246	0.030190598
250	0xbd82b3fa	-0.06381984
251	0xbd7d500f	-0.061843928
252	0x3d7d8c42	0.06190134
253	0xbe4e4799	-0.201445
254	0x3e05e1a4	0.13074356
255	0xbdc8c2eb	-0.09802803

network_body._body_endoder.seq_layers.0.bias f4 [128]
0	0xbb54d6d6	-0.0032476685
1	0xbc2eecaf	-0.010676547
2	0x3b671b5b	0.0035264108
3	0x3c639883	0.013891342
4	0x3c07208e	0.008247508
5	0x3a48ad7c	0.0007655246
6	0x3bbd570a	0.005778198
7	0xbc1d45a3	-0.009599122
8	0x3c083e1a	0.008315587
9	0x3af8ebcc	0.0018991171
10	0xbac6d6e0	-0.0015170239
11	0x3b727bc7	0.0037000047
12	0x3b637519	0.0034707247
13	0x3c0f42da	0.008743966
14	0xbb8bd38e	-0.0042671626
15	0xbad50d63	-0.00162546
16	0x3c6971ec	0.0142483525
17	0xbbb22cd3	-0.0054374724
18	0xbb5c694e	-0.0033632102
19	0x3b84a6df	0.004048213
20	0xbbf1311f	-0.007360592
21	0xbbf425e4	-0.007450806
22	0x3bf38217	0.0074312794
23	0x3c19047b	0.009339447
24	0xb986d016	-0.00025713508
25	0x3b86e8a1	0.004117087
26	0xbb6e7822	-0.0036387523
27	0xbb5e7d6a	-0.0033949264
28	0x3c00f4ef	0.007870897
29	0x3ba682f3	0.0050815283
30	0xba82a919	-0.0009968608
31	0xbad66450	-0.00163568
32	0xbc061ccc	-0.008185577
33	0x3baad0ef	0.005212895
34	0x3b4c7d38	0.0031202566
35	0xb9e2985a	-0.0004321959
36	0xbc1cc3e0	-0.009568185
37	0x3a1e1202	0.0006029905
38	0xbb53dad3	-0.0032326474
39	0x3b4744d7	0.0030406022
40	0xbc1a3992	-0.00941314
41	0x3ba83428	0.0051331706
42	0x3c224271	0.009903536
43	0xbc2a1f97	-0.010383508
44	0xbb8aec38	-0.0042395853
45	0xbb9b7ceb	-0.004745116
46	0x3c165e89	0.009177812
47	0x3b4c537d	0.0031177693
48	0xbb6ededf	-0.003644876
49	0x3b96c2f7	0.0046008783
50	0xbb276991	-0.00255451
51	0xbb372bda	-0.0027949722
52	0x3b559bf8	0.0032594185
53	0xbbb837aa	-0.00562187
54	0x3bb66735	0.0055665025
55	0xbbee79ab	-0.0072776875
56	0xba808410	-0.0009804983
57	0x3bedbe45	0.007255348
58	0x3b90a709	0.0044144434
59	0xbc749278	-0.014927499
60	0x3c1f4b38	0.009722523
61	0xbb400255	-0.0029298265
62	0xbc7fa4c3	-0.015603247
63	0xbc5a1405	-0.013310437
64	0x3b68c28e	0.0035516354
65	0xbab7cdce	-0.0014023127
66	0x3a986326	0.0011626228
67	0x3c064698	0.008195542
68	0x3afa7c13	0.0019110463
69	0xbb73f00b	-0.0037221934
70	0xbbb35b64	-0.005473541
71	0x3b547d49	0.0032423309
72	0xbb07de3e	-0.0020731832
73	0xbb5fbd25	-0.0034139839
74	0x3b6fc1a9	0.0036583936
75	0xbb30b22f	-0.0026961674
76	0x3c649ce2	0.013953419
77	0xbb1d09d1	-0.002396215
78	0xbc00dd67	-0.007865286
79	0x3b38abd7	0.0028178596
80	0xbbc43190	-0.0059873536
81	0x3b270528	0.002548525
82	0xbbaddac2	-0.005305619
83	0x3c5799ea	0.013159255
84	0x3b0fe51d	0.002195663
85	0xbc001c1e	-0.007819204
86	0xbb57d6b6	-0.0032934374
87	0xbb573adf	-0.0032841486
88	0xbc11c093	-0.008896011
89	0x3b9eb04c	0.0048427936
90	0xbb769d1f	-0.0037630273
91	0xbc203352	-0.009777861
92	0x3c81d977	0.015850766
93	0x3c073883	0.00825322
94	0x3c3f2e41	0.011668743
95	0x3bd3015e	0.006439372
96	0x3b9b7dca	0.00474522
97	0xbbb67b1c	-0.005568875
98	0x3b31179a	0.0027022124
99	0x3b6a35c1	0.0035737606
100	0x3b16907d	0.0022974305
101	0x3c4ed883	0.012624863
102	0xbb3f6874	-0.0029206546
103	0x387b07e0	5.9850398e-05
104	0x3b0a90c6	0.002114342
105	0xbc6daa91	-0.014505998
106	0xbb8d55e7	-0.004313219
107	0xbab1a603	-0.0013553504
108	0xbc14bc88	-0.0090781525
109	0x3c1ffb54	0.009764511
110	0x3bad39dd	0.005286439
111	0xbb8fc740	-0.004387766
112	0x3b5b949b	0.0033505324
113	0xbb9a63ca	-0.004711603
114	0x3b700be0	0.0036628172
115	0xbbc099a1	-0.005877689
116	0xbc44c94f	-0.012010886
117	0xbc2c4d56	-0.010516485
118	0xbc3d2535	-0.011544515
119	0x3b2771c7	0.0025549994
120	0x3beee30f	0.007290251
121	0x3b58b7a8	0.0033068452
122	0x3ae3dde7	0.0017384858
123	0x3ba55a4f	0.005046166
124	0x3b10135d	0.0021984198
125	0xbc3058ad	-0.010763329
126	0xbb022b28	-0.001986215
127	0xbc47ef9e	-0.012203125

network_body._body_endoder.seq_layers.2.weight f4 [128, 128]
0	0x3cc65143	0.02420867
1	0x3b5eb51b	0.003398246
2	0x3b242e6e	0.0025052088
3	0x3cfa601d	0.030563409
4	0x3d768551	0.060185734
5	0x3dba8cbc	0.09108874
6	0x3d98bce5	0.07457904
7	0x3d94f771	0.07273758
8	0x3e09a69c	0.13442463
9	0xbe27b89b	-0.16379015
10	0x3d1a6d16	0.03770169
11	0xbc1f5f90	-0.009727374
12	0xbd5ad852	-0.053428955
13	0x3b6ffef9	0.0036620481
14	0x3da37f6c	0.07983288
15	0xbcade6cc	-0.021228217
16	0x3e2fbf36	0.17162785
17	0x3e0a170a	0.13485351
18	0xbc3acb50	-0.011401013
19	0xbe4538a4	-0.19259888
20	0xbdc6f01e	-0.097137675
21	0x3dc898bd	0.097947575
22	0x3d65b976	0.056085072
23	0x3c4ea62f	0.012612863
24	0xbe5764a6	-0.21034488
25	0xbd5a7ba0	-0.053340554
26	0x3bdb1eb7	0.006687011
27	0x3dbba95c	0.09163162
28	0xbbee1e69	-0.0072668088
29	0xbe1b073e	-0.15139481
30	0x3e2478d5	0.16061719
31	0xbd8d9f32	-0.0691513
32	0xbc9d0396	-0.019166749
33	0x3c9a1cdb	0.018812587
34	0xbd717301	-0.058947567
35	0x3cc7472a	0.024325926
36	0x3e07d810	0.13266015
37	0x3d96ea15	0.07368866
38	0x3c014dbc	0.0078920685
39	0x3d477b01	0.04870129
40	0xb9b2037f	-0.0003395341
41	0xbe24dea7	-0.1610056
42	0xbbb96a7c	-0.005658446
43	0xbd636f69	-0.05552617
44	0x3d8d3585	0.06894974
45	0xbd65ec4c	-0.056133553
46	0x3da26ae0	0.07930541
47	0x3cc256ad	0.02372297
48	0x3c7adfc2	0.015312137
49	0x3d6e46c6	0.058172964
50	0xbdd764d2	-0.10517277
51	0x3de363e7	0.11103039
52	0xbb288aab	-0.0025717418
53	0x3d54b899	0.05193386
54	0xbe3df08b	-0.18548791
55	0xbd8ac612	-0.0677606
56	0x3dcd40dd	0.10022137
57	0xbc2c56d6	-0.01051875
58	0xbdd07a2a	-0.10179551
59	0xbd92b2a9	-0.07162983
60	0xbdd00544	-0.10157254
61	0x3e15d9fd	0.14633937
62	0x3da3bb46	0.07994704
63	0xbd8631fa	-0.06552501
64	0xbc1a1f58	-0.009406887
65	0xbdfb6715	-0.12275521
66	0x3dc72efa	0.09725757
67	0xbc54008d	-0.012939584
68	0xbc67df3c	-0.014152344
69	0xbd97e866	-0.07417373
70	0x3cf65221	0.030068459
71	0xbd8a551c	-0.067545146
72	0xbd262af6	-0.040568314
73	0xbce4716a	-0.027886111
74	0x3d80a1db	0.062808715
75	0x3d7c342d	0.061573196
76	0xbdc0bb3b	-0.094107114
77	0xbca6e169	-0.020371156
78	0xbb8a8e8b	-0.004228418
79	0xbd935372	-0.0719365
80	0x3c8e9e89	0.01740958
81	0x3d012733	0.031531524
82	0x3d98612c	0.07440409
83	0xbd210b35	-0.03931733
84	0xbe2d859a	-0.16945496
85	0x3e0f48c1	0.13992597
86	0x3de96e26	0.11397962
87	0xbd1d39d7	-0.03838524
88	0xbd5581c3	-0.052125704
89	0x3b453990	0.0030094124
90	0xbb0c54ab	-0.002141277
91	0x3df97c65	0.121819295
92	0xbdba477c	-0.09095666
93	0xbd2e09e1	-0.04248989
94	0x3dccf58f	0.10007774
95	0x3d7f996f	0.062402185
96	0x3d27be51	0.040952984
97	0x3d9fb288	0.07797724
98	0xbd312d0a	-0.043255843
99	0x3d649939	0.055810187
100	0x3e240e1d	0.16021009
101	0xbdddf77f	-0.10838222
102	0x3ba08a6b	0.004899313
103	0x3c949fd6	0.018142622
104	0x3e010d3b	0.12602703
105	0x3de91c28	0.113823235
106	0x3d297a83	0.041376602
107	0xbc5b2472	-0.013375388
108	0xbd8fee68	-0.07027894
109	0x3df73bdb	0.120719634
110	0x3cf79ff3	0.030227637
111	0x3e273ed3	0.1633256
112	0x3d801c4e	0.06255399
113	0x3dcb86c7	0.09937816
114	0x3d212cd1	0.03934938
115	0xbd110de9	-0.035413656
116	0xbd9819b6	-0.07426779
117	0xbc934846	-0.017978799
118	0x3d164ce6	0.03669443
119	0x3d49743a	0.049183108
120	0x3bf59198	0.007494163
121	0x3dd8b2cc	0.10580978
122	0xbd8be293	-0.06830325
123	0x3d4cd9fd	0.050012577
124	0x3d9289d4	0.07155195
125	0xbcdd591c	-0.02702003
126	0xbc144a99	-0.009050989
127	0x3d4959d0	0.049157917
128	0xbc8a9d36	-0.016920667
129	0xbd014f62	-0.031569846
130	0x3ddcb0ec	0.10775933
131	0xbd71d356	-0.059039436
132	0x3d9c6ac2	0.0763755
133	0xbc955b26	-0.01823194
134	0x3d2f9525	0.042866845
135	0x3e17dd25	0.14830454
136	0x3c00e337	0.007866672
137	0x3d9fda58	0.07805318
138	0x3cb3f4c6	0.021967303
139	0xbd41feb7	-0.047362056
140	0x3e083aa2	0.13303617
141	0xbc3c9b7a	-0.011511678
142	0x3d91f6ae	0.071271285
143	0x3c8916ed	0.016734565
144	0xbd66f378	-0.056384534
145	0xbdb3ffd2	-0.08789028
146	0x3bd90a79	0.006623563
147	0x3db4607c	0.088074654
148	0x3cbcc110	0.023041278
149	0x3d2eb4b0	0.042652786
150	0x3e0971d1	0.13422324
151	0xbd8639af	-0.06553971
152	0xbd0be138	-0.034150332
153	0x3c6b343b	0.014355714
154	0xbc2abf54	-0.010421593
155	0xbcf5787b	-0.029964676
156	0x3cfd68fb	0.030933848
157	0xbde69f49	-0.1126085
158	0x3d8ef4e4	0.06980303
159	0xbc8d4467	-0.01724453
160	0x3b334147	0.002735214
161	0x3dfd95f2	0.123821154
162	0x3d9afbf4	0.075675875
163	0x3dc4edca	0.09615667
164	0xbe17f5c7	-0.1483985
165	0xbd7b5d39	-0.0613682
166	0xbdda108e	-0.10647689
167	0xbadc737d	-0.0016819086
168	0x3cc06204	0.023484237
169	0x3d58ffb6	0.05297824
170	0x3c8c1fc0	0.017104983
171	0x3d66c60e	0.056341223
172	0xba121121	-0.00055720104
173	0x3c6e3191	0.014538185
174	0xbd2e1a4a	-0.04250554
175	0x3b241727	0.0025038214
176	0x3e34261c	0.17592663
177	0xbe2a027c	-0.1660251
178	0xbe0de411	-0.13856532
179	0xbd371a4b	-0.04470281
180	0xbddc9a11	-0.10771573
181	0x3d8aecd1	0.067834504
182	0xbe0c4ca3	-0.1370111
183	0xbba58e75	-0.0050523826
184	0x3d5ac795	0.053412993
185	0x3d32d8e4	0.043663874
186	0xbca3a396	-0.019975465
187	0xbe6ab375	-0.2292002
188	0x3e22c367	0.15894853
189	0x3d341c06	0.043972038
190	0xbe0500d6	-0.129886
191	0xbc46f1f5	-0.012142648
192	0x3cf59048	0.029976025
193	0x3d9941be	0.074832425
194	0xbc8a1165	-0.016853997
195	0x3d8d23d5	0.068916
196	0xbd40b72a	-0.04704968
197	0xbd70691f	-0.058694
198	0x3d773c4a	0.06036023
199	0xbc109f51	-0.0088270465
200	0x3dc5a7ef	0.096511714
201	0x3e0bb5c3	0.13643555
202	0x3d1b91f7	0.037981
203	0x3d28397c	0.041070446
204	0x3d079fd9	0.033111427
205	0xbb48ad52	-0.0030620885
206	0x3de585c9	0.11207158
207	0xbd5ccde4	-0.05390729
208	0x3df4e745	0.11958174
209	0xbe13e0a2	-0.1444116
210	0x3e624514	0.22096664
211	0xbe3ce9c2	-0.18448547
212	0xbe2c3a26	-0.16819057
213	0x3dc5c0f9	0.09655947
214	0x3e70612f	0.23474573
215	0x3e24635e	0.1605353
216	0xbd04d90d	-0.03243356
217	0xbd0a1cb3	-0.033718776
218	0xbdffa52c	-0.12482676
219	0x3c59e1ca	0.013298461
220	0x3e6adec4	0.22936541
221	0x3df70b58	0.120627105
222	0xbc153d36	-0.009108832
223	0x3e06d950	0.13168836
224	0xbd095c5e	-0.033535354
225	0xbdb6c881	-0.08924962
226	0xbe0c85cf	-0.13722919
227	0xbd8c881f	-0.068619005
228	0xb99f22f9	-0.000303529
229	0x3d94e769	0.072707005
230	0xbe050ce6	-0.12993202
231	0x3dd9147f	0.105996124
232	0x3d4c559f	0.049886342
233	0xbd63f4fa	-0.05565355
234	0x3db70138	0.08935779
235	0xbe6e8967	-0.23294602
236	0xbd87dc72	-0.066338435
237	0xbde6dad3	-0.11272206
238	0x3d7bab03	0.061442386
239	0xbca35468	-0.019937709
240	0x3d6f77b9	0.058463786
241	0xbdfa0c32	-0.12209357
242	0x3dc9cb7d	0.098532654
243	0xbe1c2191	-0.1524718
244	0xbdb25949	-0.08708436
245	0x3c83d5dd	0.016093189
246	0x3d880d7a	0.066431955
247	0x3d23c68a	0.039984263
248	0x3ca477d3	0.020076668
249	0x3e251815	0.16122468
250	0xbbde6881	-0.00678736
251	0x3e919312	0.28432518
252	0xbc9b2aa6	-0.018941235
253	0x3cacebbe	0.021108504
254	0x3cab64de	0.02092212
255	0xbc0648a4	-0.00819603

network_body._body_endoder.seq_layers.2.bias f4 [128]
0	0xbbdd934c	-0.006761944
1	0xbae84576	-0.0017720896
2	0x3aeb14f2	0.0017935319
3	0x3840984a	4.5918197e-05
4	0xbbf3c65e	-0.0074394187
5	0x3c2502d6	0.010071477
6	0xbbf27650	-0.007399358
7	0xbb5ea13b	-0.0033970613
8	0xbb91890f	-0.0044413875
9	0x3c032937	0.008005432
10	0x3b732ba7	0.0037104876
11	0x3c1c4c14	0.009539623
12	0xbba5abb1	-0.0050558676
13	0xbc13de3a	-0.009025151
14	0x3b0062d6	0.001959016
15	0xbc45ebd2	-0.01208015
16	0x3bac3e54	0.0052564535
17	0x3bd1ff23	0.0064085885
18	0x3be672c4	0.007032724
19	0xbb1d700c	-0.0024023084
20	0xbc34674a	-0.011010954
21	0x3a900086	0.0010986484
22	0x3b3c1242	0.0028697406
23	0x3bab5106	0.0052281646
24	0xbbfe800b	-0.0077667288
25	0x3b965786	0.0045880703
26	0x3c081f89	0.0083083
27	0x3c00ec35	0.007868816
28	0xbbcc46df	-0.0062340344
29	0x3b9b5cc3	0.0047412827
30	0xbb46a1f7	-0.003030894
31	0xbc2d5141	-0.0105784545
32	0x3a35316f	0.0006911968
33	0x3b229fa2	0.0024814387
34	0x3b0f0071	0.0021820331
35	0x3bf5b8cd	0.0074988366
36	0xbbe8b8a2	-0.007102088
37	0xbc0f8c18	-0.008761428
38	0xbb84f4be	-0.004057496
39	0xbbedf8db	-0.007262332
40	0x3be271bf	0.0069105322
41	0x3bdda602	0.0067641744
42	0xb9928909	-0.0002794939
43	0xbb7bd99d	-0.0038429268
44	0xbafae26d	-0.0019140966
45	0xbbe05ef2	-0.006847256
46	0x3b3b8cb6	0.0028617806
47	0x3ad6f10f	0.0016398745
48	0x3aad89ee	0.0013239959
49	0xbadd1ad8	-0.0016868962
50	0x3c442dd1	0.011973814
51	0xbbbf03a1	-0.00582929
52	0x3c282f56	0.010265192
53	0x3b1491ee	0.0022669989
54	0x3bf72a4e	0.007542885
55	0x3c6c17ad	0.014409942
56	0xbbe51b11	-0.006991752
57	0x3c15b291	0.009136812
58	0xbc58e260	-0.013237566
59	0xbbcbe1ad	-0.006221971
60	0xbc2c84c2	-0.010529699
61	0xbc32f34b	-0.010922263
62	0x397ac7c4	0.00023916276
63	0x3b59e952	0.0033250642
64	0xbbb261ed	-0.0054438026
65	0xbb0c3bd7	-0.0021397972
66	0xbaac6773	-0.0013153389
67	0x3b16bccf	0.0023000722
68	0x39e24ef6	0.0004316491
69	0x3b729096	0.003701245
70	0x3b50c086	0.0031853034
71	0xb980e691	-0.00024585848
72	0xba84b372	-0.001012428
73	0x3b2fe869	0.0026841408
74	0xba53dc28	-0.0008081817
75	0xbbe11364	-0.0068687666
76	0xbbe4e904	-0.0069857854
77	0x3b397b5a	0.0028302283
78	0x3be74a40	0.007058412
79	0xbbda24c6	-0.0066572158
80	0x3ba8f676	0.0051563336
81	0x3c20a41b	0.009804751
82	0x3c6e4094	0.014541764
83	0x3bde5cae	0.0067859506
84	0xbacd7d7c	-0.0015677656
85	0xbc57ac9e	-0.013163714
86	0xbc04d70f	-0.008107915
87	0x3bb1b6ac	0.0054233875
88	0xbba53f46	-0.005042943
89	0xba5c182f	-0.00083959376
90	0x3ba30ae2	0.0049756626
91	0xbad149e8	-0.001596746
92	0x3b99eb39	0.00469723
93	0x3be0a384	0.00685543
94	0x3b288891	0.0025716166
95	0x3ac90fc4	0.0015339782
96	0xbbe8c68f	-0.007103748
97	0x3bdb9c4f	0.006701983
98	0x3a63e451	0.00086933846
99	0x3b7d9707	0.0038694756
100	0x3bbad9b9	0.005702224
101	0x3bcdd5a1	0.00628157
102	0x3af1efb6	0.001845828
103	0xbbc541fb	-0.0060198284
104	0x3bb0d181	0.0053960686
105	0x3be30fe4	0.0069293845
106	0xbb8504be	-0.004059403
107	0xbbb2235c	-0.005436344
108	0x39f5f3b3	0.00046911612
109	0x3c4f3477	0.012646786
110	0xbb36d5d2	-0.0027898443
111	0x3b4257ae	0.0029654312
112	0xbc13a5bb	-0.009011681
113	0xbb145db1	-0.0022638852
114	0xbabf6ea1	-0.0014605114
115	0x3b52831f	0.0032121611
116	0x3ba7663c	0.005108623
117	0xbb4ddd12	-0.0031412286
118	0x39f772ab	0.00047196946
119	0x3c334531	0.0109417895
120	0xbb7e93a6	-0.003884533
121	0xbbb92d98	-0.005651187
122	0x3aab4291	0.0013066103
123	0x3be65da3	0.0070302053
124	0x3bea9e03	0.0071599497
125	0xbb1a1ddc	-0.0023516333
126	0x3c0f0f5d	0.00873169
127	0x3b32d3a4	0.0027286792

action_model._continuous_distribution.log_sigma f4 [1, 3]
0	0xbbbb2755	-0.005711476
1	0x3aff4b95	0.0019477481
2	0x3c008368	0.00784383

action_model._continuous_distribution.mu.weight f4 [3, 128]
0	0xbc858a52	-0.016301308
1	0xbb940057	-0.004516642
2	0x3d21f98b	0.039544623
3	0xbc085c29	-0.008322754
4	0x37dec18e	2.6554593e-05
5	0x3d01a3f6	0.031650506
6	0xbcdfafab	-0.027305445
7	0xbd148d45	-0.036267538
8	0xbbfb7643	-0.00767401
9	0x3c39869b	0.011323596
10	0x3cde3a6c	0.027127467
11	0x3c3991b6	0.011326244
12	0xbcd8d909	-0.026470678
13	0xbd0b6296	-0.034029566
14	0xbcdf6820	-0.02727133
15	0xbb95b5ef	-0.0045688073
16	0x3c0a89d8	0.008455716
17	0x3cf1b3aa	0.029504616
18	0x3beb146a	0.0071740644
19	0xbc81f986	-0.015866052
20	0xbbc98c62	-0.006150768
21	0x3b231eb4	0.0024890127
22	0x3c6c35a4	0.014417086
23	0xb954eb3a	-0.00020305524
24	0xbc6a4b9e	-0.014300255
25	0xbcab15d0	-0.020884424
26	0x3d12d1be	0.035844557
27	0x3c2bc682	0.01048434
28	0x3b31795a	0.0027080388
29	0x3c3261e4	0.010887597
30	0xbca35084	-0.019935854
31	0xbcc7be2c	-0.024382673
32	0x3d0534de	0.03252112
33	0xbc1127bd	-0.008859572
34	0x3cfa9c6c	0.030592166
35	0x3c6573a0	0.014004618
36	0xbc6f7b95	-0.014616867
37	0xbb0ef454	-0.0021813111
38	0x3d022887	0.03177693
39	0xbb8e257d	-0.004337965
40	0x3c434de2	0.011920424
41	0x3c9b4b0f	0.01895669
42	0x3b91f08e	0.004453725
43	0x3bf5a2e2	0.007496224
44	0x3ca19da3	0.019728487
45	0xbc032cdf	-0.008006304
46	0xbbf9aeae	-0.0076197004
47	0xbba8e20d	-0.0051539005
48	0x3c660472	0.014039146
49	0x3abc6156	0.001437227
50	0x3c56d60f	0.013112559
51	0x3be3a2b6	0.006946887
52	0x3ccf5ade	0.025311884
53	0x3ce9cd7a	0.028540362
54	0xbc29a28e	-0.010353697
55	0xbd09c2b0	-0.033632934
56	0x3a46c20f	0.00075820176
57	0x3bea251c	0.007145537
58	0xba0ac691	-0.0005293871
59	0x3c31cbb1	0.0108517865
60	0xbd01190c	-0.031518027
61	0x3bb6827a	0.0055697532
62	0x3c2dbaa3	0.01060358
63	0xbc271e5c	-0.010200109
64	0x3c5658c6	0.013082689
65	0x3ce9e475	0.02855132
66	0xbd163598	-0.036672205
67	0xbbbee8a6	-0.0058260737
68	0xbc6fafd0	-0.014629319
69	0x3c7428ae	0.014902277
70	0x3b881431	0.0041527976
71	0x3c142b41	0.009043516
72	0xbce0b69d	-0.027430827
73	0x3c920acf	0.01782742
74	0xbccd9f02	-0.025100235
75	0x3b01c847	0.0019803212
76	0x3c0479da	0.008085692
77	0x3a2b4cfa	0.0006534603
78	0x3c4cea65	0.012507056
79	0xbc8e8a9e	-0.017400082
80	0x3c7d9dd1	0.015479521
81	0xbc1366fe	-0.008996723
82	0x3b18b436	0.0023300773
83	0x3bc013c3	0.005861731
84	0x3c3978d8	0.011320315
85	0xbc82abc5	-0.015951047
86	0x3bf0760c	0.007338291
87	0x3ce70e5a	0.028205086
88	0x3b70ff47	0.003677325
89	0x3b41e160	0.0029583797
90	0x3c2cae87	0.010539657
91	0x3bda3956	0.006659667
92	0x3c79eb9b	0.015253927
93	0x3cd56cba	0.026052821
94	0xbca38609	-0.019961374
95	0xbcf7554a	-0.030192036
96	0x3b083438	0.0020783078
97	0x3c62260d	0.013803017
98	0xbb0fc565	-0.0021937725
99	0x3cd5962b	0.026072582
100	0x3cbcf825	0.023067543
101	0x3cc3cbc3	0.023900872
102	0x3b6f7a48	0.003654139
103	0x3bbc9876	0.0057554794
104	0x3c474e36	0.012164643
105	0x3c83fc0f	0.016111402
106	0xb9f6d37d	-0.00047078347
107	0xbc8bae02	-0.017050747
108	0xbcff465c	-0.03116148
109	0x3ccc5d87	0.024946941
110	0xbc02ab21	-0.007975371
111	0xbc8e1b79	-0.017347084
112	0xbc71a2d5	-0.014748295
113	0xbcdaabc7	-0.026693238
114	0xbd0da76c	-0.034583494
115	0xbcadc3ce	-0.021211531
116	0x3cfafac3	0.03063715
117	0xbd236c5d	-0.039898265
118	0x3b5eaee5	0.0033978757
119	0x3b75e326	0.0037519424
120	0xbc955202	-0.018227581
121	0x3b92fd6b	0.004485776
122	0xbc32362d	-0.010877174
123	0xbacfa7c7	-0.0015842848
124	0x3b9b083b	0.0047312058
125	0x3baebdd7	0.0053326893
126	0x3c0bda62	0.008535953
127	0xba6fdec5	-0.0009150322
128	0x3cd58ab8	0.026067123
129	0xbbba35bf	-0.0056826766
130	0x3aa48a72	0.0012553467
131	0xbc98d611	-0.018656762
132	0xbc2eaf3f	-0.010661899
133	0xbc42e03d	-0.011894283
134	0x3d1b4224	0.037904873
135	0x3cc5a665	0.024127195
136	0x3cc03a9c	0.023465447
137	0xbcd68a5f	-0.026189027
138	0x3c8c9feb	0.017166099
139	0x3c87ab98	0.016561314
140	0xbb7ea7b6	-0.0038857288
141	0xbc93e285	-0.018052349
142	0xbca59c5b	-0.020216158
143	0x3c31c26b	0.0108495755
144	0xbc278512	-0.0102245975
145	0xbc8370c0	-0.016044974
146	0xbc5ffa5e	-0.013670532
147	0x3b6c8c68	0.003609443
148	0xbb94f0a5	-0.0045452886
149	0x3c9ceab9	0.019154893
150	0x3d43fa8a	0.047846355
151	0xbd45b398	-0.048266977
152	0x3b753712	0.0037416858
153	0xbca8312e	-0.020531263
154	0xbbd3c5cc	-0.006462788
155	0xbc0a681d	-0.008447674
156	0xbc658fb7	-0.014011315
157	0xbc3ab4b7	-0.011395625
158	0x3d19182e	0.037376575
159	0x3bd80c68	0.006593276
160	0xbc56f56a	-0.013120035
161	0xbbe88785	-0.0070962333
162	0x3c1f50f7	0.009723893
163	0xbcad70ca	-0.021171946
164	0xbc3bffb3	-0.011474538
165	0x3c2a1a25	0.01038221
166	0x3cd917db	0.026500633
167	0x3c233cba	0.009963209
168	0xbcb0a2d2	-0.021562014
169	0xbaf32416	-0.0018550183
170	0x3beb5b3d	0.0071825073
171	0xbbdef0ad	-0.006803593
172	0x3c808c3e	0.015691873
173	0x3c408fdb	0.011753048
174	0xbce5a766	-0.028033923
175	0xbc06db26	-0.00823096
176	0x3ca14b96	0.019689362
177	0x3d266c6e	0.04063075
178	0xbc24f737	-0.010068706
179	0x3d35ba29	0.04436699
180	0x3bf9b7bd	0.0076207803
181	0x3cc5ef2f	0.024161903
182	0xbcb32bdd	-0.021871502
183	0xbd0a6177	-0.033784356
184	0x3c57eab0	0.013178512
185	0xbcf33bb0	-0.029691547
186	0x3c17a84b	0.009256433
187	0xbb03ad43	-0.0020092286
188	0x3b3f64d0	0.0029204376
189	0xbb360d4e	-0.0027778926
190	0xbaf86796	-0.001895177
191	0xbc4febdb	-0.01269051
192	0x3cf6878a	0.030093927
193	0x3c9f4290	0.01944092
194	0x3b92f9ff	0.0044853683
195	0xbd0fcdce	-0.03510838
196	0xbc6e1ac0	-0.014532745
197	0xbc8246d3	-0.015902912
198	0xbd351f30	-0.044219196
199	0xbc073183	-0.008251551
200	0x3ce44afc	0.027867787
201	0x3c9bd468	0.019022182
202	0x3c43a755	0.0119417505
203	0xbc5724f8	-0.013131373
204	0xbbd54f06	-0.0065096645
205	0x3d2a62d1	0.041598145
206	0xbccbc8bb	-0.02487599
207	0x3c3ef9d4	0.011656243
208	0xbb1b5df4	-0.0023707123
209	0xbc8e007b	-0.017334213
210	0xbc67e36a	-0.014153341
211	0xbc918ce4	-0.017767377
212	0x3b641531	0.003480267
213	0x3caa44e6	0.020784806
214	0xbb85bf05	-0.004081609
215	0x3c8a9ff1	0.01692197
216	0xba824633	-0.0009939134
217	0xbcb06594	-0.021532811
218	0x3c3ffe06	0.011718279
219	0xbc5f9c36	-0.013648083
220	0xbc8100da	-0.015747476
221	0xbc818ec3	-0.015815144
222	0xbc7d08b6	-0.015443971
223	0xbc38fa8b	-0.011290203
224	0x3ca76c3b	0.02043735
225	0xbc85d299	-0.016335772
226	0xbb175149	-0.0023089221
227	0xbb4c4ee4	-0.0031174952
228	0xbb73f844	-0.0037226835
229	0xbcc6fc23	-0.02429015
230	0x3cc86b47	0.024465216
231	0x3c4b835b	0.012421454
232	0xbb38cec3	-0.0028199411
233	0x398e7000	0.00027167797
234	0x3c180b90	0.0092801
235	0x3c752552	0.014962511
236	0x3cc5ede2	0.024161283
237	0xbabb6610	-0.0014297385
238	0xbd0ebc31	-0.034847442
239	0x3c362c22	0.0111189205
240	0x3cb27e9d	0.02178889
241	0x3b4b8497	0.0031054372
242	0xbcfb804b	-0.030700823
243	0x3c837725	0.016048023
244	0x3c4d05cb	0.012513588
245	0xbb7b3366	-0.0038330196
246	0x3cbb8d95	0.02289466
247	0xbc08474d	-0.008317781
248	0x3ca725d5	0.020403782
249	0x3d282d39	0.041058753
250	0x3c6a9fb6	0.014320305
251	0xbccf446d	-0.025301183
252	0xbb0abba3	-0.002116897
253	0xbce94a44	-0.028477795
254	0x3b733a52	0.003711362
255	0xbca93829	-0.020656662

action_model._continuous_distribution.mu.bias f4 [3]
0	0x3bb9f9be	0.0056755235
1	0xbb57048d	-0.003280911
2	0xbc1906a0	-0.009339958

exp_avg f4 [128, 55]
0	0xb86e97f0	-5.6885125e-05
1	0x388b6104	6.646107e-05
2	0xb82216eb	-3.8645154e-05
3	0x384808a1	4.7691752e-05
4	0xb5f11d6c	-1.7964462e-06
5	0x382c1fee	4.1037732e-05
6	0x36fc8858	7.5260577e-06
7	0x34ba0d00	3.4654659e-07
8	0x378f88da	1.7110655e-05
9	0x382a0e0c	4.054424e-05
10	0x3885d823	6.382193e-05
11	0x37a67594	1.9843494e-05
12	0x388280d5	6.22288e-05
13	0xb89e98b5	-7.562471e-05
14	0x375afdae	1.3052877e-05
15	0xb7942986	-1.766231e-05
16	0xb7386f14	-1.0993117e-05
17	0xb7260808	-9.896241e-06
18	0xb72ab121	-1.0174031e-05
19	0x34181080	1.4162106e-07
20	0xb767c43a	-1.38143605e-05
21	0xb5d67128	-1.5977175e-06
22	0xb68b839b	-4.1578437e-06
23	0x35aa7bec	1.2702053e-06
24	0xb78de576	-1.691536e-05
25	0xb68dd56b	-4.2269726e-06
26	0xb7387624	-1.0994761e-05
27	0x388408a4	6.29586e-05
28	0xb7d63191	-2.553387e-05
29	0x385e6dc9	5.303117e-05
30	0x388326c1	6.253785e-05
31	0xb6137eb8	-2.1978467e-06
32	0x378c0dd4	1.669574e-05
33	0x376f05cc	1.424686e-05
34	0xb715132a	-8.885554e-06
35	0x36d8dd98	6.4630985e-06
36	0xb703b67c	-7.850696e-06
37	0xb805d9aa	-3.1912386e-05
38	0x3771550e	1.4384523e-05
39	0xb8ad2161	-8.2555e-05
40	0x389403e3	7.057914e-05
41	0xb893c938	-7.046986e-05
42	0xb8c63cfc	-9.452735e-05
43	0xb8cc8496	-9.752174e-05
44	0xb8a5c414	-7.9043355e-05
45	0xb7855629	-1.5894957e-05
46	0x38467d9a	4.7323854e-05
47	0xb793a6c3	-1.760142e-05
48	0xb7f4c975	-2.9180877e-05
49	0xb83c9364	-4.495996e-05
50	0xb7a4eec8	-1.9661515e-05
51	0xb798ca31	-1.8213965e-05
52	0x383800d8	4.3869804e-05
53	0xb81601ba	-3.5764395e-05
54	0x3829ed99	4.051402e-05
55	0xb62900bb	-2.5183388e-06
56	0xb5a8880d	-1.2556571e-06
57	0xb5cf9114	-1.5464925e-06
58	0x384e1dff	4.9142163e-05
59	0xb83d9b1d	-4.5205572e-05
60	0x3833d3b8	4.2874104e-05
61	0x3899e5c5	7.3384064e-05
62	0x3857a1ef	5.1410807e-05
63	0x388b2144	6.634233e-05
64	0x381bfbd0	3.71894e-05
65	0xb7bd92f7	-2.2598992e-05
66	0x37f0f050	2.8722134e-05
67	0x380b3e60	3.3198274e-05
68	0x37a2b41a	1.9395771e-05
69	0x379d10b0	1.872363e-05
70	0x3821bcc2	3.8561186e-05
71	0xb7c50446	-2.348622e-05
72	0x380f95d5	3.42334e-05
73	0x37c13a86	2.3034645e-05
74	0xb7c0d7cf	-2.2988677e-05
75	0xb7464363	-1.1817409e-05
76	0xb88f5eab	-6.836405e-05
77	0x38a7f080	8.007977e-05
78	0xb87a4414	-5.9668047e-05
79	0xb884ebc2	-6.338164e-05
80	0xb886c52b	-6.426343e-05
81	0xb86584ba	-5.4721466e-05
82	0xb78f7329	-1.7100554e-05
83	0x38285b99	4.013963e-05
84	0xb7fe6030	-3.032395e-05
85	0xb7801742	-1.526962e-05
86	0xb897df8c	-7.24188e-05
87	0xb785a8ec	-1.5933496e-05
88	0xb7224d7a	-9.673991e-06
89	0x37837e29	1.5675165e-05
90	0xb70fa880	-8.562696e-06
91	0xb6b275a0	-5.3185067e-06
92	0xb81a9632	-3.685634e-05
93	0xb7142474	-8.829975e-06
94	0xb65ca6a0	-3.2879543e-06
95	0x372fc460	1.0476535e-05
96	0xb65af750	-3.2628486e-06
97	0xb6865980	-4.0039304e-06
98	0xb80de045	-3.3825887e-05
99	0xb737bb84	-1.0951309e-05
100	0xb82a19b1	-4.0555085e-05
101	0x37fbb1f9	3.0004407e-05
102	0xb825e878	-3.955557e-05
103	0xb7c2ba3e	-2.3213328e-05
104	0xb8869f00	-6.419234e-05
105	0xb82952b4	-4.0369763e-05
106	0xb81bf11d	-3.7179434e-05
107	0x37e385f6	2.712289e-05
108	0xb81684e1	-3.588654e-05
109	0x3703fa2e	7.866458e-06
110	0xb78f7b4a	-1.710434e-05
111	0x3780f15b	1.5371179e-05
112	0xb74b525c	-1.2118919e-05
113	0x37fea008	3.035368e-05
114	0x376bf66e	1.4064468e-05
115	0x37e941b4	2.780636e-05
116	0x36b62283	5.4280404e-06
117	0xb720e1e2	-9.589336e-06
118	0x3808dc0b	3.2629858e-05
119	0xb7ef5734	-2.8531627e-05
120	0x37e5d0e7	2.7396205e-05
121	0xb7be95c4	-2.2719505e-05
122	0xb8a55558	-7.8837096e-05
123	0xb894c782	-7.094351e-05
124	0xb821db6f	-3.8589755e-05
125	0x382c6434	4.1101317e-05
126	0x36db11da	6.528787e-06
127	0x3821470e	3.8451566e-05
128	0x373a7aba	1.1115038e-05
129	0x3853fe5f	5.054322e-05
130	0x3780357c	1.5283695e-05
131	0x386753d9	5.515278e-05
132	0xb8afe4f2	-8.387295e-05
133	0x38405fa3	4.5865436e-05
134	0x379329ba	1.7543196e-05
135	0x3857f1e7	5.1485284e-05
136	0x37f94344	2.9714436e-05
137	0xb795ad63	-1.7842924e-05
138	0x3770fd83	1.436414e-05
139	0xb77eb76d	-1.5182287e-05
140	0xb7a212f2	-1.9320727e-05
141	0xb7798466	-1.4872383e-05
142	0xb78ccc94	-1.6784565e-05
143	0xb7e1a3c6	-2.6898353e-05
144	0x3887a923	6.468806e-05
145	0xb7864c1b	-1.6009484e-05
146	0xb715562f	-8.901158e-06
147	0xb80e0cb6	-3.3867276e-05
148	0x371b008a	9.238845e-06
149	0xb6b3a360	-5.353635e-06
150	0x379a7214	1.8411352e-05
151	0xb72fb180	-1.047214e-05
152	0xb83b1510	-4.460389e-05
153	0x37ea100e	2.790245e-05
154	0x34e6ad00	4.2966712e-07
155	0x388d2b6f	6.731494e-05
156	0xb691b8e4	-4.342861e-06
157	0x3858d82a	5.169973e-05
158	0x38065917	3.203106e-05
159	0x38c8cade	9.57453e-05
160	0x38b9ff28	8.869014e-05
161	0x37b31d8d	2.1352223e-05
162	0x37a0de16	1.9176903e-05
163	0x3598aff0	1.1376087e-06
164	0x38246d5d	3.92025e-05
165	0xb74590df	-1.1775845e-05
166	0x36db7ea3	6.541451e-06
167	0x37476c33	1.1886516e-05
168	0xb68b1edf	-4.1461167e-06
169	0x35dc3736	1.6407346e-06
170	0xb64be5a6	-3.038303e-06
171	0xb701bfa2	-7.733617e-06
172	0xb607dd96	-2.0245548e-06
173	0xb6ddf340	-6.6146313e-06
174	0x3705b458	7.969407e-06
175	0x3512c2e6	5.4672853e-07
176	0x36ccc387	6.102436e-06
177	0xb66e5eb6	-3.5519893e-06
178	0x3610f235	2.1598655e-06
179	0xb6747bb7	-3.6430845e-06
180	0xb781dd24	-1.5480975e-05
181	0x3838b16c	4.4034256e-05
182	0xb705468a	-7.943841e-06
183	0xb65aeff3	-3.26242e-06
184	0xb54a7770	-7.542467e-07
185	0xb751003b	-1.2457424e-05
186	0x36bb741a	5.5865503e-06
187	0xb6f6b15f	-7.35202e-06
188	0x36510e94	3.1151912e-06
189	0xb6f5bfc2	-7.3238925e-06
190	0x372ec17e	1.0416259e-05
191	0xb6bb34f5	-5.5791993e-06
192	0xb6d106c2	-6.229472e-06
193	0x36bac02e	5.5656046e-06
194	0xb7022e90	-7.759445e-06
195	0xb760f919	-1.3409438e-05
196	0xb80eb403	-3.4023087e-05
197	0xb7b51ea8	-2.1591157e-05
198	0xb30e7000	-3.3163815e-08
199	0x371908d1	9.121563e-06
200	0x3448e5c0	1.8710034e-07
201	0x37c1f890	2.3123139e-05
202	0x37903ee8	1.719543e-05
203	0x374d7262	1.2245584e-05
204	0x3705ee46	7.982895e-06
205	0xb6f0a26a	-7.171465e-06
206	0x36c8f994	5.989519e-06
207	0xb5964230	-1.1195134e-06
208	0xb5476d70	-7.429253e-07
209	0xb5ae1d78	-1.2972587e-06
210	0xb694bd47	-4.4327785e-06
211	0x36a54c97	4.9262994e-06
212	0xb6819442	-3.861759e-06
213	0xb62ad519	-2.5456013e-06
214	0xb61ad139	-2.3069572e-06
215	0xb63f8327	-2.8537559e-06
216	0xb8778452	-5.9012622e-05
217	0x3841df79	4.622291e-05
218	0xb84cdb68	-4.8841728e-05
219	0xb812af8a	-3.4972596e-05
220	0x378da429	1.6884953e-05
221	0x3736686d	1.0872359e-05
222	0xb7bdf8df	-2.2646445e-05
223	0xb89de48f	-7.528916e-05
224	0x387768f4	5.8987134e-05
225	0xb8967277	-7.173878e-05
226	0xb7e2cf7a	-2.7037913e-05
227	0xb8275b2a	-3.9900806e-05
228	0xb8321820	-4.2460975e-05
229	0x3834f885	4.3146796e-05
230	0xb885ee9c	-6.386379e-05
231	0x381085e8	3.4456985e-05
232	0x383a53d3	4.4423923e-05
233	0x389339dc	7.0202834e-05
234	0x384de2f0	4.908716e-05
235	0x379a2ad8	1.8378181e-05
236	0x3847e37c	4.765716e-05
237	0x37aeb28c	2.0825559e-05
238	0x37acdd3c	2.0607018e-05
239	0x38784318	5.9190294e-05
240	0x3830b4b1	4.2129952e-05
241	0x365f8530	3.3307115e-06
242	0x35b4ac40	1.3461176e-06
243	0x371647e4	8.957435e-06
244	0x36b464f8	5.3761723e-06
245	0x370d64e4	8.427745e-06
246	0x36d9e7a8	6.4940723e-06
247	0xb8ae5440	-8.312659e-05
248	0x382136f7	3.843658e-05
249	0xb8884abb	-6.498905e-05
250	0xb8198eab	-3.6610913e-05
251	0xb7ae56a0	-2.0782754e-05
252	0xb7e2652a	-2.6988408e-05
253	0x374e169f	1.2283824e-05
254	0xb785240e	-1.5871625e-05
255	0x3733a4a6	1.0707567e-05

exp_avg_sq f4 [128, 55]
0	0x3236bf98	1.0637358e-08
1	0x3287d9bb	1.581508e-08
2	0x3247bd7b	1.1626407e-08
3	0x340a8cac	1.2903428e-07
4	0x343ae365	1.7405326e-07
5	0x3408aab8	1.2728094e-07
6	0x343fc48d	1.7859766e-07
7	0x343bf211	1.7503795e-07
8	0x344139d4	1.7995563e-07
9	0x34334422	1.669546e-07
10	0x3451144d	1.9472027e-07
11	0x341bcf55	1.4510927e-07
12	0x34653165	2.1345257e-07
13	0x34573fd2	2.0046653e-07
14	0x34616d1a	2.0994449e-07
15	0x33040906	3.074185e-08
16	0x331d5f0d	3.664086e-08
17	0x32d46d2e	2.4729697e-08
18	0x331da670	3.6705785e-08
19	0x33264d75	3.8720334e-08
20	0x332d22e6	4.031144e-08
21	0x312c032b	2.5031095e-09
22	0x311a8ccd	2.2489985e-09
23	0x31044ccf	1.9252189e-09
24	0x3117560d	2.2022306e-09
25	0x31062dfc	1.9525705e-09
26	0x31095158	1.9982362e-09
27	0x3209c8a2	8.020068e-09
28	0x3166594b	3.3520162e-09
29	0x31f22604	7.047449e-09
30	0x31fc2520	7.338386e-09
31	0x30aeb362	1.271115e-09
32	0x32002573	7.459096e-09
33	0x32a31eeb	1.8989757e-08
34	0x32ad13d3	2.0148866e-08
35	0x3295995c	1.7415623e-08
36	0x320ef86d	8.321973e-09
37	0x329fe732	1.8615172e-08
38	0x325c32ef	1.2817266e-08
39	0x33262ba5	3.868958e-08
40	0x33305c51	4.1062155e-08
41	0x330e0e64	3.307504e-08
42	0x32e5d1cb	2.6754511e-08
43	0x33217342	3.759056e-08
44	0x32f21fc9	2.8186962e-08
45	0x328b604a	1.6225517e-08
46	0x32976829	1.762608e-08
47	0x3273e1ea	1.41958285e-08
48	0x326306b8	1.3214667e-08
49	0x326e652f	1.387643e-08
50	0x3251a599	1.2203054e-08
51	0x3321ff91	3.771817e-08
52	0x32d2384b	2.4472817e-08
53	0x32f77d72	2.881163e-08
54	0x331e4416	3.6849165e-08
55	0x30d7fbe4	1.57149e-09
56	0x311d5b96	2.2898567e-09
57	0x30e7cce4	1.6865696e-09
58	0x32431cff	1.1357087e-08
59	0x328431a9	1.5389405e-08
60	0x32375427	1.0671136e-08
61	0x3280d38c	1.4997362e-08
62	0x32777bd7	1.440545e-08
63	0x328774aa	1.5769121e-08
64	0x32798ad6	1.4525275e-08
65	0x32940c79	1.723514e-08
66	0x325119c5	1.217126e-08
67	0x3292f97c	1.711009e-08
68	0x328ec5e9	1.6620975e-08
69	0x329de7dd	1.8382645e-08
70	0x31f82c98	7.2228197e-09
71	0x3210d71a	8.430812e-09
72	0x31c9203b	5.853534e-09
73	0x3205354b	7.753736e-09
74	0x31f8fc08	7.2464026e-09
75	0x3210c994	8.427737e-09
76	0x32180509	8.848709e-09
77	0x324cee76	1.1928583e-08
78	0x31f07bdc	6.9990005e-09
79	0x323523be	1.05437135e-08
80	0x32368058	1.0622976e-08
81	0x32272114	9.7282005e-09
82	0x32331c35	1.0425585e-08
83	0x3240971d	1.121023e-08
84	0x3212ef50	8.552732e-09
85	0x32280a7f	9.781274e-09
86	0x32226df4	9.4546415e-09
87	0x322f0e1d	1.018955e-08
88	0x31a5c6d1	4.824735e-09
89	0x31d6d4b1	6.2524e-09
90	0x317c8cae	3.6750794e-09
91	0x31bc4886	5.479765e-09
92	0x3199b874	4.473856e-09
93	0x31873b4c	3.9357584e-09
94	0x31ba76d0	5.42682e-09
95	0x31ea484d	6.818516e-09
96	0x317ce923	3.680335e-09
97	0x31c2e411	5.6720713e-09
98	0x31c9d3b5	5.8739382e-09
99	0x31b04ebe	5.131226e-09
100	0x31b597e6	5.285062e-09
101	0x31ce05a7	5.9960317e-09
102	0x318c8f5b	4.090834e-09
103	0x31dba953	6.392989e-09
104	0x31dbf2bd	6.401335e-09
105	0x31c8a7b9	5.839834e-09
106	0x31be0e50	5.531355e-09
107	0x3191caae	4.2430974e-09
108	0x319bc36e	4.5333115e-09
109	0x31a18a09	4.7014095e-09
110	0x31a27dcb	4.7291215e-09
111	0x31c8a084	5.8390146e-09
112	0x31a2ac94	4.7344404e-09
113	0x32ff8e20	2.9750538e-08
114	0x32fa2bdd	2.9123777e-08
115	0x32eb1b56	2.7370032e-08
116	0x331350ff	3.429977e-08
117	0x330a4a11	3.2197992e-08
118	0x332107b7	3.749275e-08
119	0x32a2d400	1.8955689e-08
120	0x32c88ce0	2.3347127e-08
121	0x32880fe7	1.5839715e-08
122	0x32b72c58	2.1324169e-08
123	0x32bed987	2.2217831e-08
124	0x32ce0524	2.3983894e-08
125	0x3229c750	9.882413e-09
126	0x322bcb88	9.999788e-09
127	0x32015ba2	7.529623e-09
128	0x3242629b	1.13147065e-08
129	0x323ce814	1.0995809e-08
130	0x3259ef06	1.268541e-08
131	0x32709663	1.4004033e-08
132	0x32727e6c	1.4114999e-08
133	0x323d45e7	1.1017142e-08
134	0x32621291	1.3159153e-08
135	0x3286d2d1	1.5695521e-08
136	0x32669891	1.3422452e-08
137	0x32078495	7.88818e-09
138	0x3246bd59	1.15681695e-08
139	0x31c6e8f6	5.789043e-09
140	0x322a5ba5	9.91614e-09
141	0x32263b59	9.675966e-09
142	0x32245ac8	9.566698e-09
143	0x3318bbf8	3.5561214e-08
144	0x3316615c	3.5013144e-08
145	0x33022b16	3.030717e-08
146	0x32fe42bd	2.959984e-08
147	0x32fb6653	2.9266777e-08
148	0x331233b9	3.4040315e-08
149	0x32e4ef83	2.665161e-08
150	0x3302eb75	3.048213e-08
151	0x32b9ae61	2.1616133e-08
152	0x32b39a7e	2.0908598e-08
153	0x32ce1d66	2.3994925e-08
154	0x32b3ee0f	2.09466e-08
155	0x32c2b34b	2.2666105e-08
156	0x32d4f47e	2.479123e-08
157	0x329fa929	1.8586961e-08
158	0x32d83348	2.516903e-08
159	0x32af34d8	2.0396712e-08
160	0x32c371c5	2.2752724e-08
161	0x328a2f20	1.6086744e-08
162	0x32858844	1.5545204e-08
163	0x324ae1e7	1.1809312e-08
164	0x3282fcb6	1.5248911e-08
165	0x30f27b95	1.7642942e-09
166	0x31543dab	3.0885114e-09
167	0x30d46d24	1.545605e-09
168	0x2f5f6c51	2.0320214e-10
169	0x2f26a0bd	1.5154718e-10
170	0x2f4393e7	1.7787692e-10
171	0x2f095c8b	1.2492955e-10
172	0x2f006d02	1.168026e-10
173	0x2f0a8a82	1.2600235e-10
174	0x30238822	5.949251e-10
175	0x3011c5a9	5.3031585e-10
176	0x300584a5	4.857362e-10
177	0x2f15dc2e	1.3629695e-10
178	0x2f659f14	2.0883945e-10
179	0x2f2511ec	1.501303e-10
180	0x3100ff9e	1.8771753e-09
181	0x311ba1b6	2.264739e-09
182	0x30d7fd13	1.5715237e-09
183	0x2fa419f5	2.984987e-10
184	0x30316749	6.4539e-10
185	0x3032b7f7	6.501745e-10
186	0x31a43860	4.7794373e-09
187	0x31b68918	5.312483e-09
188	0x31972e96	4.3999746e-09
189	0x318b1c17	4.048626e-09
190	0x3180db16	3.7501975e-09
191	0x318072a8	3.738325e-09
192	0x31b5f409	5.295537e-09
193	0x31a2292b	4.719501e-09
194	0x31b52aff	5.2726814e-09
195	0x31708b6d	3.500385e-09
196	0x3122ed31	2.370893e-09
197	0x31b3fb0e	5.2381273e-09
198	0x30e30a60	1.6519373e-09
199	0x30d40106	1.5425321e-09
200	0x30e1b6fc	1.6422912e-09
201	0x303084b5	6.4217015e-10
202	0x30bfdb65	1.3959435e-09
203	0x30329c8c	6.497849e-10
204	0x2fc7f883	3.6374467e-10
205	0x2f9ce9a3	2.8542244e-10
206	0x2fc1d674	3.5258874e-10
207	0x2ece7f07	9.39036e-11
208	0x2f860d1f	2.438378e-10
209	0x2f5e1a6f	2.0200173e-10
210	0x2f09e571	1.2541591e-10
211	0x2eb9336a	8.421959e-11
212	0x2efbe440	1.1454704e-10
213	0x2ebed845	8.678617e-11
214	0x2e9535fb	6.7853244e-11
215	0x2ebb465e	8.516275e-11
216	0x31d0d99f	6.0783374e-09
217	0x3171da35	3.5194152e-09
218	0x319aad75	4.5017097e-09
219	0x31c09b91	5.6056213e-09
220	0x31cc801d	5.951746e-09
221	0x31782fb2	3.6115861e-09
222	0x319ee3eb	4.6243165e-09
223	0x328062e3	1.494613e-08
224	0x32765226	1.4337763e-08
225	0x3273c6fd	1.4189706e-08
226	0x322946bf	9.8531805e-09
227	0x32604dbb	1.305619e-08
228	0x325483a0	1.2369952e-08
229	0x31dba347	6.3923014e-09
230	0x32088ae0	7.947818e-09
231	0x31b97698	5.397691e-09
232	0x320004fb	7.451713e-09
233	0x3203877e	7.656011e-09
234	0x32019476	7.542544e-09
235	0x326eefec	1.3907975e-08
236	0x3286e9c7	1.5705963e-08
237	0x324819de	1.1647414e-08
238	0x32381b37	1.07163975e-08
239	0x327b1623	1.4615156e-08
240	0x325886ad	1.26034765e-08
241	0x3213f547	8.612296e-09
242	0x324ee5b0	1.2043003e-08
243	0x31ea4a13	6.8187176e-09
244	0x32259e54	9.640264e-09
245	0x324a9dd7	1.1793836e-08
246	0x3228ed37	9.8328234e-09
247	0x3287029e	1.5717259e-08
248	0x3289de14	1.6049889e-08
249	0x327bed54	1.4664085e-08
250	0x325bd9f7	1.2797037e-08
251	0x3243abc4	1.1389549e-08
252	0x328be705	1.6286785e-08
253	0x2fd3a3c2	3.8497033e-10
254	0x2fa6a18f	3.0310018e-10
255	0x2fa6461f	3.0245048e-10
