Assets/ML-Agents/results/color-hunt1/ColorHunter/ColorHunter-499978.onnx (onnx, 92652 bytes, 9 tensors)

network_body.observation_encoder.processors.0.normalizer.running_mean f4 [37]
00000000: 0189 c442 eea2 823f fe3e bd42 009b 9c3c
00000010: 4ced 7a3f 7573 923c f3f4 7a3f 1d78 903c
00000020: 38f5 7a3f a10b b33c 0f78 793f 25ef c93c
00000030: 27c1 783f bdde a23c d96d 7a3f 27d0 813c
00000040: d504 7c3f 7176 473c bf26 7d3f b7cc 3f3c
00000050: 013e 7d3f a84b 7b3c 0e58 7c3f 1d63 ac3a
00000060: bba2 7f3f ec24 5b3a 6dbd 7f3f 2182 083b
00000070: 1676 7f3f 8468 473b 4943 7f3f 6b46 5c3b
00000080: 841d 7f3f 13b4 af3b 1899 7e3f f2de 47bc
00000090: 3d0d 5c3e
98.267586 1.0205972 94.62303 0.019116879 0.98018336 0.01787732 0.9803001 0.0176354
0.98030424 0.021856131 0.9744882 0.024650166 0.9716973 0.0198816 0.97823864 0.015846325
0.98444873 0.012174235 0.98887247 0.011706523 0.98922735 0.015337862 0.9857186 0.0013152097
0.9985768 0.0008359689 0.99898416 0.0020829516 0.9978956 0.0030427286 0.99712044 0.0033611308
0.9965441 0.0053620427 0.9945235 -0.01219915 0.21489425

network_body._body_endoder.seq_layers.0.weight f4 [128, 37]
00000000: 6dab 99be 4f66 3b3d a110 0cbd ff54 8e3c
00000010: b20f 7fbe 74a5 18bc 4eaf 163e 6683 a0bc
00000020: 7303 db3d d9b0 8bbd b12e a7be 0d2d c33d
00000030: a52f 053e 63c0 90be 3faa d73c 080c dbbd
00000040: e572 acbc 6113 de3d 8b20 4abe 420c 273e
00000050: e7a6 683c e36f 5ebc b4a6 99be d491 1dbe
00000060: a909 123d a435 803d 80f9 1a3d 74a4 303d
00000070: 94a1 25bc c4bc 0dbe bfa8 fb3d 3045 8b3d
00000080: 819d 92be 9107 96bc b99e 613e 440c b0bc
00000090: 0a08 49bd 7271 843e ffd3 d0bd dff7 c93d
000000a0: 3db3 71bd 9bd7 84be bd8b 3c3c f3d9 e63b
000000b0: 5945 dbbe 2c80 473e 6aeb 93bd 1a76 fe3d
000000c0: 37b0 1d3d 9a3f 6f3d 57d0 8fbe 99fe 2bbd
000000d0: cd26 1bbe 189a 43be 14ce a93d 8a29 313e
000000e0: 7e1a 223e afdb 1abd 4eac ef3d dddb 053e
000000f0: f6ef cfbb 93ab ee3e db35 12be 3bd0 553b
00000100: c798 073e 982d 28bc 1589 88be e3d7 c1be
00000110: 82f2 ea3d a5ae 5abe f4c8 d0bc f304 a13e
00000120: 733e 22be 9d89 0bbe 6638 11be 37d0 0ebc
00000130: 4a66 ed3d 709b 963d e8a9 22be 3945 32be
00000140: d88f 2d3e 0ceb d63d 8026 2a3d 6841 893e
00000150: 5176 8d3d d5e8 113e ed7a 5dbd 00a6 73be
00000160: 1327 4cbe 22c2 a13d 96aa 66be 75ac b53e
00000170: 884a 58be 738d a2bd 091c 343e 2f57 3dbe
00000180: a41d 813e 4aaf 4ebe d458 21bc 582b cb3d
00000190: 88d4 c8bd 47c2 6bbd 8409 6dbd b800 003b
000001a0: 3158 71be dda8 0b3e a95a 073e fcdf 3e3e
000001b0: 9a12 20be b32b 2a3e dff7 02bb 85e2 753e
000001c0: d39f 623d 41c9 ea3d f06f 893d f209 3c3c
000001d0: 21e0 8abd 36b5 0ebe 9997 683c f0bf c33e
000001e0: a480 f03d ca4f 263e ef9b b8be 98cc ff3d
000001f0: 800e 88bd 8ecb 3f3c 77bf ebbb 1bb9 363e
00000200: e96a f23d 4092 e0bd 5bd3 8bbd 6c6d a03c
00000210: 7d8c 3dbc ff2c 1d3e d3f5 193b 4a64 2ebd
00000220: 9463 593c 5242 62bd f685 c93d 4de6 fabc
00000230: fd6a 553e 97d9 9b3d 3672 903e 4b81 05be
00000240: b80a 723d 8394 253d 1fa4 cabd c6f3 53bd
00000250: 3248 30bd fd78 333d 8783 083e 6d72 e93d
00000260: 81eb 50bd 2570 d7bd 2f6b 44be b75e b7be
00000270: 92db 1e3d da45 603e c5d1 273e 69c8 5ebe
00000280: f230 4b3e 7725 8e3d 2a35 18be 1d85 c23d
00000290: 807a 62bc a45e 12be 91d6 65be f443 e1bd
000002a0: cedd 27bd d94e 74bd 691f a93c ba6f 8cbd
000002b0: bc6a 4dbe c83b 39be b102 eb3c 2d2b 633d
000002c0: 61e0 46bd 04a1 53bc c0fb f93d 8e83 f33e
000002d0: 092e 21be 3332 563e fa33 78be f3fb a6bc
000002e0: d6c8 86bd 1ce4 b1bd b491 c5bd e460 6dbe
000002f0: fd72 363c a491 5ebe 43a9 303e cae9 d1be
00000300: c54c 58ba 0753 983c 0042 313d 9c98 4bbd
00000310: 8bd8 e0be d27d 40be fe16 863e 31bf a4bd
00000320: 70a8 9abd 4a2c 433b abd1 b43e 75e8 fcbd
00000330: 060d febc 7080 9d3d 38b0 dfbd 0818 6e3c
00000340: 9ed6 e73e 754f e13c a7d8 62bb d7c8 7bbd
00000350: b732 ee3d 0f42 1b3d d84f 42bc 433d 04bd
00000360: cacb debd aa31 713d 42c4 d33e 44d9 c53d
00000370: d7f6 8ebc a781 2ebe 5a92 023d 51d7 053e
00000380: 105d 163e 2cc0 0abe b5b9 b33e 8c59 973d
00000390: 162b 1bbe 400b 14bd d997 0abe 2edb 983b
000003a0: 2f61 3a3d 3f36 153e 8419 023d 3f7d 193e
000003b0: b6b7 3b3e 74d7 603d c877 1cbb be0e 7dbd
000003c0: 765a b3bd 02a6 7dbb 090f 1a3e 3667 703d
000003d0: cad9 9abd 2947 9ebe 3e0c cd3e d1ad d13b
000003e0: 7036 4abe cdad ca3d af9c 46be 6555 463e
000003f0: 2c1e 2dbe 6576 0fbe b791 e6bd 5a34 5abe
-0.300136 0.045751866 -0.034195546 0.017374514 -0.24908331 -0.009316791 0.14715311 -0.019593906
0.10694017 -0.068208404 -0.3265281 0.09530077 0.13006456 -0.2827178 0.026326297 -0.10695654
-0.02105088 0.1084354 -0.19738977 0.1631327 0.014199949 -0.013576481 -0.30009997 -0.1538766
0.035653744 0.06260231 0.037835598 0.043125585 -0.010109324 -0.1384154 0.12288045 0.06800306
-0.2863579 -0.018314155 0.22033204 -0.021490224 -0.049079932 0.25867802 -0.10196685 0.09861731
-0.059008826 -0.25945744 0.011507926 0.0070450245 -0.42826346 0.19482487 -0.07222636 0.1242487
0.03849813 0.058410265 -0.28088638 -0.04199085 -0.1515152 -0.19101751 0.082912594 0.17301002
0.15830418 -0.037807163 0.117027864 0.13072152 -0.0063457442 0.46615276 -0.14278357 0.0032625336
0.13241874 -0.010264777 -0.26667085 -0.3786002 0.11472036 -0.21355684 -0.025486447 0.31449088
-0.15844135 -0.13626714 -0.1418167 -0.0087166345 0.11591776 0.07353866 -0.15885127 -0.17409219
0.16949403 0.104940504 0.041540623 0.26807714 0.06907333 0.14248975 -0.05407231 -0.23793793
-0.1993678 0.07898356 -0.22526011 0.35483137 -0.21122181 -0.079371355 0.1758882 -0.18490289
0.25217927 -0.20184055 -0.009847838 0.099203765 -0.09806162 -0.057558324 -0.057870403 0.0019531678
-0.23568799 0.13638635 0.13218178 0.18640131 -0.15632096 0.16618232 -0.0019984168 0.24012192
0.0553282 0.114641674 0.067108035 0.0114769805 -0.067810304 -0.13936314 0.0141963 0.38232374
0.11743286 0.16241375 -0.36056468 0.12490195 -0.06643391 0.011706246 -0.0071944552 0.1784405
0.11836798 -0.10965395 -0.06827422 0.019583426 -0.01156914 0.15349196 0.002349247 -0.04257611
0.01326837 -0.05523903 0.09840004 -0.030627394 0.20841594 0.07609861 0.28212136 -0.13037603
0.059092253 0.040424835 -0.09894585 -0.051746152 -0.0430376 0.043816555 0.13331424 0.11398778
-0.051005844 -0.10519437 -0.19181512 -0.3581445 0.038783617 0.21901646 0.16388614 -0.21756138
0.1984289 0.069407396 -0.1486403 0.094980456 -0.013823152 -0.14293915 -0.22445132 -0.10999289
-0.040983014 -0.059645507 0.02064486 -0.06857248 -0.20060247 -0.18089211 0.028687807 0.055461098
-0.04855383 -0.012916807 0.122062206 0.47561306 -0.15740217 0.20917587 -0.24238577 -0.02038381
-0.06581275 -0.086860865 -0.09646931 -0.23181492 0.011135814 -0.21735245 0.17252068 -0.4099868
-0.00082511856 0.018594278 0.043275833 -0.049706087 -0.4391521 -0.18797997 0.26189417 -0.08044279
-0.07551658 0.0029781037 0.35316214 -0.12349025 -0.03101207 0.07690513 -0.10922283 0.014532097
0.45280927 0.027503708 -0.0034613998 -0.061470833 0.11630767 0.037904795 -0.011859857 -0.032284986
-0.108787134 0.058885254 0.4136067 0.09660581 -0.017451687 -0.17041646 0.031877853 0.13070418
0.14683938 -0.1354987 0.3510262 0.073901266 -0.15153155 -0.03614354 -0.13534488 0.0046648
0.045502838 0.14571474 0.031762615 0.14989184 0.18331799 0.054892972 -0.0023875106 -0.061781637
-0.087574884 -0.0038703685 0.15044798 0.05869218 -0.07561071 -0.30913666 0.40048403 0.0063988944
-0.19747329 0.09896431 -0.19395708 0.19368513 -0.16906041 -0.14010008 -0.11258262 -0.21309033

network_body._body_endoder.seq_layers.0.bias f4 [128]
00000000: cd13 333c 46e8 853c 1a74 35bb 0690 ca37
00000010: c849 c7bb 8d49 6dba 95d1 debb 01e1 1abc
00000020: 4319 383c 716e 8d3c 44e1 403b 0fd4 dc3b
00000030: eeff 0abc d537 863b f4c9 bdbb a836 023b
00000040: a953 c0bb 103b adbb a83b 83bc 3c17 fb3b
00000050: 4c78 2abc 697c c13b 4d96 3e3b 1585 4fbc
00000060: b669 8d3c 9b14 723c bab3 bf3c 743f 53bc
00000070: 6227 8b3c 038f 723b ce92 0a3c 78aa 703c
00000080: 78a5 6a3b dba9 42ba 5d71 0abc 41ee f83b
00000090: 5638 30bc 8d1e 56bc ce88 2bbc dce5 8f3c
000000a0: 022f 00bb f9c5 1f3c 9874 d33a c1db 583c
000000b0: ea8b d539 9ed7 b63b 3b5a 27bb 2c6c 04bb
000000c0: 7cd4 ef3a 46bf f03b 2ae1 68bc 2218 3138
000000d0: 4fc2 953b 60e9 653c 2e5e 233a bfd7 2d3c
000000e0: 5ea1 54bc 00ea 143a 894e 90ba bec8 9cbb
000000f0: f864 fa3b b184 08bc a796 2c3c a3d9 0d3c
00000100: e6e7 6cbb 7f30 083b 1b14 543c 9d47 dd3b
00000110: 11cc efbb c9ec 84bc 33b1 53bc de07 703b
00000120: cc52 a9b9 c406 d3b8 c37d ab3b 3b21 03bc
00000130: b13c 28bb cbaa 8dbb 432e 6b3c 8574 92bb
00000140: 8e7f 283c 597d f23b 1f9b 5e3c cc35 13ba
00000150: 342e 113c 6860 6fbb 41af c93b ac60 95ba
00000160: e14a 133c ee5d a9bc 6b53 a4bc 9afb b83b
00000170: eba5 d83c ae38 dabb ff90 0abc 4624 d43b
00000180: 79c3 be3c 39b3 9b3c 812a ec3a 0c13 19bc
00000190: 35a7 833c e58c 8f3b e95a 4c3b e1ee 8abb
000001a0: aa50 a2bc 4377 09bc 8c01 073c a665 373b
000001b0: 5e47 04bc fd0d 5e3c f9c1 a33b db57 d23c
000001c0: c2c7 f63b e057 07bc f563 b73b 19ab 5a3c
000001d0: e1c7 eabb f439 fcba cbeb 7cbc 3365 89b9
000001e0: 2938 073a 2978 62bc 7207 103c bddf e23a
000001f0: 4479 d23b e848 d13b 69c0 a13c 37b1 9b3c
0.010930014 0.016346108 -0.002768761 2.4147343e-05 -0.0060817935 -0.00090517924 -0.0067998865 -0.009453059
0.011236492 0.017264577 0.0029431144 0.0067391465 -0.00848387 0.004096011 -0.005791897 0.0019869003
-0.005869348 -0.005286582 -0.016019657 0.007662682 -0.010404658 0.0059047234 0.0029081285 -0.012666007
0.017262321 0.014775421 0.02340113 -0.012893546 0.016986553 0.003701151 0.0084578525 0.01468908
0.0035804193 -0.0007425823 -0.0084498795 0.0075967615 -0.010755619 -0.013068807 -0.0104696285 0.01756566
-0.001955927 0.00975179 0.001613277 0.013235987 0.0004073077 0.005579903 -0.002553596 -0.0020206077
0.0018297578 0.0073470203 -0.01421384 4.2222564e-05 0.0045702825 0.014032692 0.00062319904 0.01061052
-0.012977926 0.00056806207 -0.0011009733 -0.0047846725 0.007641431 -0.008332417 0.010533965 0.008657846
-0.0036148964 0.002078086 0.012944247 0.0067529217 -0.007318028 -0.01622619 -0.012920666 0.0036625783
-0.0003229588 -0.00010062524 0.005233498 -0.008003528 -0.002567094 -0.0043233386 0.014354291 -0.0044694566
0.010284318 0.0074001965 0.013586788 -0.00056156213 0.008861113 -0.0036525968 0.006154925 -0.0011396608
0.0089900205 -0.020674672 -0.020059308 0.0056452276 0.026446303 -0.006659589 -0.008457421 0.0064740507
0.023286568 0.019006358 0.0018018038 -0.00934292 0.016070941 0.0043808096 0.0031182116 -0.0042399024
-0.019813854 -0.008390251 0.008240115 0.0027984171 -0.008073656 0.01355314 0.0049974886 0.025676658
0.007531137 -0.008260697 0.0055966326 0.013346457 -0.0071649407 -0.0019243346 -0.015437077 -0.00026206076
0.000515821 -0.013822594 0.008790838 0.0017309111 0.0064231474 0.006386865 0.019745069 0.019005401

network_body._body_endoder.seq_layers.2.weight f4 [128, 128]
00000000: 1b93 063d 3349 ea3d be9f aabd 5f4e 3d3b
00000010: 20e1 27bd 8aaa 48bc 93ce 373d d915 073d
00000020: e925 3a3c d684 65bd 347b 043d ae6d 363d
00000030: d68e ce3d fc79 00bd 898a 95bd c87b 9e3d
00000040: 2741 ebbb 0a7d bf3d fc32 163c 3602 07be
00000050: e940 94bd f71d 32be babf 2fbe 00fd 213d
00000060: 3fe8 3b3e 649f cb3d b9c5 54bd 28c0 ab3a
00000070: 7b73 bdbc 797b c13c 4ca4 1a3b 7ec3 453d
00000080: 4c9b ebbd 8c31 91bd 3e1a 553c 4715 403e
00000090: 09df 673d 536c 443e 08cf 27be bfe4 f73c
000000a0: 0b7c 673d 54cf 2abe 7bae 1ebd 145b 1cbd
000000b0: fcf4 3abe b260 9cba adea a8bc 6425 88bd
000000c0: e81f 65bb 84e0 613d b25b 183c e9cb ba3c
000000d0: 5b26 63bd ca04 debd 094d 6f3d 2b4c 1a3d
000000e0: 93bb 1cbd be2f cb3d 6f93 333c 56cd 263e
000000f0: f71e bf3d aa6f ab3c 85d0 9ebc b527 e7bc
00000100: 89cc 763c 9826 2abd a26e b9bd 4b23 05be
00000110: 7fe0 e73c 364f 9abc 3cad 2d3d 0301 0bbe
00000120: 096d 5d3c 4515 3c3d a330 233e b1ef 053e
00000130: 9ead 953d 31e4 fe3c 4d2c 373d c922 1f3d
00000140: ebeb e83b 432f 1a3d 3b83 a4bb 3725 af3c
00000150: 55f5 27bd b910 88bc 40bf 93bc 383e b1bd
00000160: 15bc efbd ba90 03bd 0397 6f3d 7ed5 67bc
00000170: e202 b33c 8486 b13d d971 f9bd e02e ff3b
00000180: d368 be3d 749e 6c3d 6aee 8d3c 251f 4a3c
00000190: c683 763d f1e8 3e3c 96d1 9e3d 2941 2e3e
000001a0: d72d afbd 18c9 663c 31b7 4fbd 19d1 15be
000001b0: 70de 763d 96d9 363e 0ac4 a33c 7c17 463d
000001c0: 6745 f33d 2117 b1bd 0048 50bc bdd1 b6bc
000001d0: e117 223e 0839 973d 114b a73d 72d1 d1bc
000001e0: 2f70 a93d 91c7 25bc cd5c 943a 4db4 363e
000001f0: 7afb 803d 5074 9ebc 2ee9 273c 9f85 c5bd
00000200: 2400 443d 1c65 133d 5cb8 47bd 44ed dc3d
00000210: 2a4b 38bd f14a 28bd 1357 bb3d 5b82 383d
00000220: a847 1fbd 4fdc 21bc 6f99 bebc 5d73 8f3d
00000230: 8536 dbbd 4cbc 3bbc d114 f9ba 7c15 9d3d
00000240: f223 833d cf86 c13b 5088 db3c 3286 943d
00000250: 4c1b 30bd 6914 4bbe a2e1 403d 0dfa 383e
00000260: 5e2b 523d cbd7 abbc 26a0 2fbc 5dd2 05bd
00000270: 8de0 493e 4cf2 bdbd 1ee6 46bd bb9e a63d
00000280: 34e6 95bd 2322 803d 7bf9 2c3d 1f11 7b3b
00000290: 6fa3 29bd dcd5 293d 5598 b2b9 88f9 933c
000002a0: c069 5dbd 1bc9 e33d 8359 193c 2a19 bfbd
000002b0: 52c5 e03d da92 eabd 671a 8a3d 07f7 2e3d
000002c0: 926a eb3c be0c cd3c 1ee1 7cbd 1d05 993d
000002d0: d629 bbbb 9bbe d6bc d840 0e3e c0f8 733d
000002e0: 0ce8 f2bd 9d48 303d 6a25 1bbd b4aa a3bd
000002f0: 2702 b73d 4e96 473c 1124 023e 4314 503d
00000300: d902 04bd 7208 533d 151c 113e df9b 783d
00000310: 7243 913d 7d7f b5bc def9 0ebe 6adc b23b
00000320: f99e 233d 13e1 4d3d a1a9 1a3d 4910 05be
00000330: fa58 babd c56c e43d 476e 4b3d 391f afbb
00000340: 4191 693d 0e9b cf3d d057 893d 43d9 ef3d
00000350: 1872 eebb a2ca e53c 9e03 113e cabf f7bb
00000360: 06ac 143e 5857 79bc 11fd 0d3e 1473 b03d
00000370: 407c 17bd 4226 043e 1770 eebd 6ac9 00be
00000380: a8b0 8fbd 6259 24be d3a6 a8bd db7f d8bd
00000390: 310f b7bd 121c f83c 4a3d babd 9b8f f63c
000003a0: ee27 823d b749 6bbd 3bdb b0bd 64a7 aabc
000003b0: eedf 273d cdfa abbd 85c9 4ebd 94f1 963b
000003c0: eee0 e3bb 8e8c c9bd 1fd8 e7bd cf46 9fbc
000003d0: f975 b73d 8cdc ad3c b487 3abc d03d 883d
000003e0: 9ea6 23be d910 debc d10d e03a 1783 00bd
000003f0: 4b94 1ebd e2fa 72bd 6477 73bc e03f e4bd
0.032855134 0.11439743 -0.0833125 0.0028885824 -0.04098618 -0.012247691 0.04487474 0.03297982
0.011361578 -0.056034885 0.03234406 0.044538192 0.100858375 -0.031366333 -0.07301814 0.07738453
-0.0071793976 0.09350021 0.009167429 -0.13184437 -0.07238943 -0.17394243 -0.17162982 0.03954792
0.18350314 0.09942511 -0.051946376 0.0013103532 -0.023126354 0.023618447 0.0023596464 0.04828214
-0.1150423 -0.070895284 0.013006745 0.18758117 0.056609187 0.19181947 -0.1638757 0.030260442
0.05651478 -0.16680652 -0.038740616 -0.038172796 -0.18257517 -0.0011930673 -0.020619715 -0.06647757
-0.0034961645 0.055145755 0.009299206 0.02280231 -0.0554565 -0.10840757 0.058423076 0.037670296
-0.038264822 0.099212155 0.010960444 0.16289267 0.09332078 0.020927269 -0.01938654 -0.028217176
0.015063413 -0.041540712 -0.09054305 -0.13001744 0.02830529 -0.018836599 0.042401537 -0.13574605
0.013514766 0.04591872 0.15936522 0.13079716 0.073085055 0.03111467 0.044719983 0.038851533
0.0071082017 0.03764273 -0.0050205267 0.02138005 -0.04100545 -0.016609536 -0.018035531 -0.086544454
-0.11705796 -0.032120444 0.058493625 -0.014150022 0.02185196 0.08668235 -0.12179918 0.0077875704
0.092973374 0.0577683 0.017325599 0.012336527 0.060184263 0.011652217 0.07754819 0.17017044
-0.08553665 0.01408603 -0.050711814 -0.14630546 0.060270727 0.1785644 0.01999094 0.04836224
0.11878472 -0.086469896 -0.012712479 -0.022316808 0.15829422 0.07383925 0.08168615 -0.025612567
0.082733504 -0.010118381 0.0011319161 0.17842217 0.06297965 -0.019342571 0.010248465 -0.09644627
0.047851697 0.035985097 -0.048759803 0.10787442 -0.044993557 -0.041087095 0.091474675 0.04504619
-0.038886696 -0.009879186 -0.023266522 0.07004426 -0.10703758 -0.011458468 -0.0019003396 0.076701134
0.064033404 0.005905963 0.026798397 0.07252158 -0.042994782 -0.19832005 0.04709018 0.18064137
0.05131089 -0.020976922 -0.010719335 -0.03267132 0.19714566 -0.0927473 -0.0485593 0.08135744
-0.073192984 0.06256511 0.04223011 0.0038309766 -0.041415628 0.041463718 -0.00034064302 0.018063322
-0.05405593 0.11122342 0.00935972 -0.093309715 0.10975136 -0.11453791 0.06743317 0.042716052
0.02873734 0.02503049 -0.061738126 0.074716784 -0.0057117743 -0.026213935 0.13891923 0.0595634
-0.11860666 0.043038 -0.037877478 -0.079915434 0.089359574 0.0121818315 0.1270907 0.050800573
-0.03222928 0.051521726 0.14170869 0.060695525 0.07092942 -0.022155518 -0.13962504 0.0054584043
0.03994653 0.050263476 0.037759427 -0.12994494 -0.09099002 0.11153559 0.049665716 -0.005344298
0.05702329 0.10136996 0.06706202 0.11711361 -0.0072767846 0.028050724 0.14161536 -0.007560705
0.14518747 -0.015218578 0.13866068 0.086156994 -0.03698373 0.12905219 -0.11642473 -0.12576833
-0.070161164 -0.16049722 -0.08234944 -0.105712615 -0.089384444 0.030286822 -0.09093721 0.030097773
0.06355272 -0.057443347 -0.08635565 -0.020831771 0.04098504 -0.08397446 -0.050485153 0.004606435
-0.006954304 -0.09841262 -0.11320519 -0.019442944 0.089580484 0.021223329 -0.011384893 0.06652415
-0.15981528 -0.027107643 0.0017093961 -0.031375017 -0.038715642 -0.05932129 -0.014860008 -0.11144996

network_body._body_endoder.seq_layers.2.bias f4 [128]
00000000: fcbe c0bb 07b5 6f3c 5d59 803b d644 2f3c
00000010: 01b1 5b3c 2398 023c 6765 973c c9f7 c1bb
00000020: 621b ae3b 463f e0bb 3652 513c 4a73 28ba
00000030: f323 5e3b 8d31 183c 83a3 8abb 1b4e c63a
00000040: 5809 953b 790c 94bb a3d2 45bc 2a68 ffbb
00000050: f67e 0cbc a754 f43b 10ef 32bc dfe6 5a3b
00000060: 41b4 11bc ce4c 9fb9 5a39 103c 02fe abba
00000070: 489a 43bc 6177 a4bb d7c2 ecba ef1a 78bc
00000080: 2722 2ebb 1d2e 07bc 377d 2dbc 7f63 813c
00000090: ebd6 a8bb e735 1f3c e9f7 12b9 fa2a 893a
000000a0: f9ff 443c 0d97 703b f25e 983a e153 833c
000000b0: bfba a73c 581b 9ebb 72c7 943b f463 adbb
000000c0: 2f52 5ebb 6d66 c33b 0c75 68bc 9ecf 813c
000000d0: 3c5f d03a fc3c 313c 13d9 06bc cc8a 2b3b
000000e0: 8222 20bc 5ba6 273c 2d03 ecbb d09a 643a
000000f0: 21e4 553c bb4c fa3c db6a ea3a 40e2 b2bb
00000100: 4bd2 07bc 28e3 873b a380 cf3c 3e8d 993c
00000110: 630b 1fbb d997 0a3c 3c4d 683c 5759 023c
00000120: bd88 383b c0ee d7bc b018 3bbc 8322 81bc
00000130: fab5 39bc 8420 ed3b d80c 8e3b 9b93 ffbb
00000140: c96d fcba cf59 7e3c 8158 5f3b 8cbe 61bb
00000150: e310 aeba 6f74 193c 4969 dbbb 04b4 9c3c
00000160: 2ccf 413c 5e4b 3cbc c46e cbbb d88f 0b3c
00000170: 5a5f b3bb 87fc c03b 8cc5 fbbb a4b8 2b3c
00000180: 53a9 84bb b2c0 2fbc 0529 5fbc e1ff 16bc
00000190: c91a 3a3c 46f1 253c 2c1e 133c 347b 1e3b
000001a0: ada1 883b e765 363b 40dc c23b c4d6 67bc
000001b0: 292e 05bc 7fdc 183c bdd8 14bc e32f 323c
000001c0: 0e6d 0e3c 73c8 0d3c 5029 f53a 39bd 003c
000001d0: f9b2 7a3b f86d 593c 4352 43bc e165 05bc
000001e0: 8064 fe3b ad34 2aba 36b1 7d3c 980a de3b
000001f0: e73c 3e3b 3278 4f3a fb38 c63b 92e3 d23b
-0.005882142 0.014630563 0.003916903 0.010697564 0.0134089 0.0079708425 0.01848097 -0.005919431
0.005313323 -0.0068434803 0.012775948 -0.0006425871 0.003389594 0.009289158 -0.004230918 0.0015129478
0.004548233 -0.0045180884 -0.0120741455 -0.0077943997 -0.008575192 0.0074563804 -0.010921255 0.003340177
-0.008893074 -0.00030384067 0.008802736 -0.0013121965 -0.011938639 -0.005019114 -0.0018063438 -0.01514314
-0.002657065 -0.00825074 -0.010588936 0.015794514 -0.0051525733 0.009717441 -0.00014015999 0.0010465079
0.012023919 0.0036711127 0.0011624976 0.016031208 0.02047479 -0.004825037 0.0045403773 -0.0052914564
-0.0033923497 0.005963138 -0.014188062 0.01584607 0.0015897523 0.010817762 -0.008230465 0.0026175259
-0.009773852 0.010232533 -0.007202527 0.00087205786 0.013054878 0.030554166 0.0017884629 -0.0054591
-0.008289884 0.004146952 0.025329893 0.018744107 -0.0024268262 0.008459055 0.01417857 0.007955871
0.0028157674 -0.026358962 -0.01141946 -0.015763527 -0.0113348905 0.007236542 0.004335027 -0.0077995784
-0.0019258793 0.015524342 0.0034079852 -0.003444585 -0.0013280179 0.009366139 -0.0066959006 0.019128807
0.011829179 -0.011492578 -0.0062082727 0.008518182 -0.0054740133 0.0058894786 -0.0076834615 0.0104810335
-0.0040485053 -0.0107270945 -0.01362062 -0.00921628 0.011358925 0.010128325 0.0089793615 0.0024182322
0.004169664 0.0027831735 0.005946666 -0.014150325 -0.008128681 0.009329914 -0.009084878 0.010875675
0.008692993 0.008653748 0.0018704329 0.007857614 0.0038253649 0.0132708475 -0.011921468 -0.008141966
0.0077634454 -0.00064928347 0.015484145 0.006776165 0.0029028 0.0007914334 0.006049273 0.00643582

action_model._continuous_distribution.log_sigma f4 [1, 3]
00000000: 9973 303b e2c9 58ba 3ef0 c1ba
0.002692437 -0.0008269829 -0.0014796329

action_model._continuous_distribution.mu.weight f4 [3, 128]
00000000: b4a9 b63c 2f52 bebb a5df 33bd d8d3 833c
00000010: fc17 abbc c039 06bd 8065 a43d 9760 a7bb
00000020: 253c 043d 10e3 25bb d142 94bc 7d24 a9bc
00000030: 9dd8 b43c 44d2 95bc ea14 683c cd93 7c3b
00000040: 0953 923a dbb3 2c3c 2078 c03c 4723 703c
00000050: 82c4 0b3c 695c a33a 08bf 473c c3a9 df38
00000060: e4dd 90bb f69f e4bc 4ea5 95ba 4720 a9bc
00000070: dca6 a83c dea2 bebc 13cd 373b 14b1 ba3b
00000080: f8fa 19bd 31cb 423c 36ff 15bc d12c 173a
00000090: 306e da3c fe1b ca3a 5d9e 423c 0aa2 a7bb
000000a0: 9173 cbbc c37f 86bc d689 923c 7a4a f13c
000000b0: 91ad 5d3b e303 56bc 805b 6f3c d8ee 253c
000000c0: bb48 c23c 41fa 0bbd b4fd acbc 7b8a b3bc
000000d0: fb97 febc cb96 e4bb ffeb 1f3b d695 6a3d
000000e0: 58ce e3bc dbb2 d0bc 3246 1f3b 6040 c83c
000000f0: 7637 d0bc b1a5 ed39 4cc0 7bbc 760c e33b
00000100: 041f 173d 6167 84bc 8a30 82ba 01d0 6e3c
00000110: 2434 ea3c e7b5 693c dd7c 19bd 79f5 d3bb
00000120: 7993 7b3d cf60 f93b 0641 663c 1b1f 28bc
00000130: 6f25 253a d1f6 e83c 09e3 1cbc 6f2b 2bbc
00000140: fdd4 00bd b4e5 8fbb 4a01 8c3a e748 c6bb
00000150: c661 323c 13ff 333b 2f55 6a3c 66b7 d7bc
00000160: 867b 1ebc 1370 dbbb 2bab 88bc 1330 14bd
00000170: cec6 b33c 1566 4ebd 269c 393b cb9f f63c
00000180: 220d 86bb 575e 94bc 7bbf a93c 9db8 933c
00000190: 92d8 8aba 7973 9cbb f235 fa3c e3ef aabc
000001a0: af7c d2bb ab5c de3a 3852 2b3d 0554 1e3c
000001b0: 56ca feb9 aa93 d13c a416 073d 788a 9bbc
000001c0: bb8f 123d 6f46 e2bb 55eb 1b3c 69b3 2bbc
000001d0: 9548 f83b 42ad 9cba 69fa 4cbc 7ebc 45bc
000001e0: d0cb 63bc daaf 3a3c 9e11 c1bc 202b af3c
000001f0: adba 0dbc fbe1 e13b 49b9 17bc cf77 54bc
00000200: c2fb b03c 2a53 9bba 16a4 c3bb 9c68 12bd
00000210: dc87 6abb c251 373c ce0a 2e3c 54dc e4bb
00000220: d0c6 ecbb 6374 1e3d 3f90 0e3c e3f9 00bd
00000230: 2aea 543d 9ef0 c13b eb1a 0c3c f6e1 d6bb
00000240: 5b1b 1abc 8edd 98bb 1e5e fdbc e6bb 363c
00000250: 6b59 62bc dd21 483c dd35 503c f4fa 27bd
00000260: d58c 843c 2f9a 943a 84dd 6c3c 92a1 553b
00000270: 7f8b 0cbd e408 2cbc 10fa 4bbc 3db4 e03b
00000280: 2b5e 75bb edd5 213b 12b6 93bc 3522 3ebc
00000290: c7b1 4c3c e710 bdbc f471 e9bc ecb0 e6bc
000002a0: b748 36bb f9be 843c a1a9 69bc 0f99 423d
000002b0: 9852 173d cb2d 6dbc c0ab 6bbc b204 fcbb
000002c0: 2044 a93c 6672 9dba b60d cbba eb53 4cbc
000002d0: 0fdf 9e3c 5a26 ae3a 2a29 d73a 0af0 643c
000002e0: 412f b63b f506 0fbd aa54 f9bc 82f6 0bbd
000002f0: 42d5 11bd 25ce 043c 692f 543c 9002 953c
00000300: e0c7 50bc 950d c4bc 4064 d7bc 3f9e 23bd
00000310: c6d5 34bd bb7a 1a3a 691b 293d 3198 5bbc
00000320: 1a29 883b ab9b c8bb 34e7 d63c cecc b93c
00000330: 766b 143d 588d 62bc e1ee 3d3c d7f1 a53b
00000340: a319 26ba db47 b1bb d6d4 443d 38d1 a0bc
00000350: 3b7e 213b 47bd 233d 0499 a0bc 084a cf3b
00000360: 9924 64bd 03aa 363c 3825 463c 17f0 50bb
00000370: ec0d 6b3c 1594 f23a 397e 1dba 5c9f d53a
00000380: 8890 b63b 76da fd3b 3139 df3c 0f2f e2ba
00000390: 7dc7 cbbc bf77 c5bc a574 3b3d f7fe 2d3c
000003a0: 4a19 fc3c 049f aabc ae4d 593c 5fc1 6c3c
000003b0: 2843 eb3c 27fc 903c aa51 6dbc fdc8 a83c
000003c0: d706 943b 3b31 c2bc 7cd9 c43c 44f3 413c
000003d0: 3506 b63b b62f 373b 6364 413b b3b9 383c
000003e0: 1282 de3a da17 4f3c b48a 7bbc d577 37bb
000003f0: 339a 91ba 610c 8a3b c3f7 e0bc 6097 193d
0.022297718 -0.005808137 -0.043914456 0.016092226 -0.02088546 -0.03276992 0.08027172 -0.00510795
0.03228392 -0.0025312342 -0.018098267 -0.020647282 0.022075946 -0.018288739 0.014165143 0.0038540245
0.0011163662 0.010540928 0.02349478 0.014656848 0.008530738 0.0012463453 0.0121915415 0.00010665089
-0.0044209827 -0.027908307 -0.0011417062 -0.020645274 0.020587377 -0.02327102 0.0028045818 0.005697379
-0.037592858 0.011889265 -0.009155085 0.0005766871 0.02666387 0.0015419719 0.011878577 -0.005115752
-0.02483538 -0.016418343 0.01788799 0.029454459 0.0033825377 -0.01306245 0.014609218 0.010127746
0.023716321 -0.034174208 -0.021117069 -0.021916619 -0.03107833 -0.0069759837 0.002440214 0.0572718
-0.027808353 -0.02547591 0.0024303314 0.024444759 -0.02541707 0.00045327612 -0.015365671 0.0069289757
0.036894813 -0.016162576 -0.0009932679 0.014575959 0.028589316 0.01426456 -0.037472595 -0.0064684716
0.061419938 0.0076104174 0.014053589 -0.010261322 0.00062998285 0.028438004 -0.009575614 -0.010447367
-0.03145312 -0.0043913964 0.0010681537 -0.006051171 0.010887569 0.0027465269 0.014302536 -0.026332568
-0.009673005 -0.00669671 -0.016683182 -0.03617866 0.021945383 -0.05039032 0.0028321831 0.030105492
-0.004090921 -0.018111391 0.020721188 0.018032366 -0.0010593107 -0.0047745076 0.030543301 -0.02086634
-0.006423555 0.0016964873 0.041826457 0.0096635865 -0.00048597407 0.025583107 0.032980576 -0.018986925
0.035781603 -0.006905369 0.009516557 -0.010479786 0.007577012 -0.001195349 -0.012510874 -0.012068866
-0.013903573 0.011394465 -0.02356797 0.021382868 -0.008650464 0.006893394 -0.009260484 -0.012968018
0.021604422 -0.0011850346 -0.0059704883 -0.035744295 -0.0035786545 0.011188926 0.010622693 -0.006984273
-0.0072258487 0.038685214 0.008701383 -0.03148831 0.05198113 0.0059185764 0.00855134 -0.0065576984
-0.009405936 -0.0046650833 -0.030928668 0.011153197 -0.013815264 0.012215105 0.0127081545 -0.041010812
0.016180435 0.0011337454 0.01445711 0.0032597524 -0.03431272 -0.010500167 -0.012449756 0.0068574236
-0.0037440162 0.002469416 -0.018031154 -0.011604835 0.012493557 -0.023079349 -0.02849672 -0.028160535
-0.0027814338 0.016204344 -0.014261634 0.04750925 0.036944002 -0.01447625 -0.01438421 -0.0076909894
0.020662367 -0.0012012243 -0.0015491757 -0.0124711795 0.019393472 0.0013286576 0.0016415466 0.013973245
0.0055598323 -0.034918744 -0.030435879 -0.034170635 -0.03560377 0.008105789 0.012950757 0.018189698
-0.012742966 -0.023932258 -0.02629292 -0.039945837 -0.044149183 0.0005892922 0.041285906 -0.0134029845
0.0041552903 -0.0061220727 0.026233293 0.022680666 0.036235295 -0.013827644 0.011592598 0.00506423
-0.00063362176 -0.005410177 0.04805454 -0.019631013 0.002464189 0.03997543 -0.019604214 0.006325964
-0.055698965 0.011148932 0.012093835 -0.0031881386 0.014346581 0.0018507267 -0.00060078833 0.0016298103
0.0055714287 0.00774699 0.02724895 -0.0017256456 -0.024875397 -0.024104951 0.045765538 0.01061987
0.030773778 -0.020827778 0.013263149 0.0144504 0.028718546 0.01769836 -0.014484802 0.020603651
0.004517417 -0.023705116 0.024029486 0.011837784 0.005554939 0.0027952022 0.0029509298 0.011274743
0.001697602 0.012639964 -0.015352894 -0.002799501 -0.0011108577 0.0042129015 -0.027461892 0.037497878

action_model._continuous_distribution.mu.bias f4 [3]
00000000: 8ccd 4fbb 29fa 8ebb 0514 47bc
-0.003170821 -0.0043633175 -0.012150769

onnx::Div_51 f4 [37]
00000000: 694c 8e42 3cec 563e 0c05 8a42 7313 df3d
00000010: a1f6 ce3d 5c72 d73d 1ba1 d23d 2f94 d83d
00000020: 00e8 d33d 4104 f03d 498c f33d 7762 ff3d
00000030: d86c 003e 3bf1 e53d 9b0b e03d 3fec cb3d
00000040: 8210 b83d c4b1 af3d ad3e 983d 4442 ac3d
00000050: 312a 923d 9230 c73d d702 a93d 9171 d83c
00000060: 1a8d dd3c f4bc ae3c d392 be3c 0be6 1b3d
00000070: 84c3 073d 9626 343d 5f5d 183d 0313 3e3d
00000080: 0ce9 2e3d 4193 6e3d 0768 5d3d 04d7 a63e
00000090: cce0 c13e
71.14924 0.20988554 69.00986 0.108923815 0.101056345 0.10519859 0.10284635 0.10575139
0.10346985 0.11719561 0.11891992 0.124699526 0.1254152 0.11227652 0.109397136 0.0995717
0.089875236 0.08578828 0.074338295 0.08411077 0.071369536 0.09726061 0.08252495 0.02642134
0.027044822 0.021330334 0.02326337 0.038061183 0.033145443 0.04398211 0.03719842 0.04640485
0.04270272 0.0582459 0.054054286 0.3258592 0.3786682
