Assets/ML-Agents/results/color-hunt1/ColorHunter/ColorHunter-94609.onnx (onnx, 102012 bytes, 9 tensors)

network_body.observation_encoder.processors.0.normalizer.running_mean f4 [55]
0.4014068 0.29368734 0.49423265 0.044043947 0.9847136 0.022622997 0.04944511 0.983636
0.025102232 0.04524889 0.9857251 0.022569634 0.046739258 0.9837461 0.02570029 0.050047554
0.9820039 0.02625556 0.055078756 0.9808155 0.028426673 0.066472836 0.97448903 0.035486102
0.07218058 0.9719188 0.038875356 0.062815785 0.974329 0.033571173 0.05875702 0.9778361
0.030900847 0.0019765354 0.9981747 0.0009444113 0.0023887514 0.997873 0.001073209 0.006838592
0.9970399 0.0035053736 0.006183281 0.99636686 0.00305753 0.007049994 0.9962674 0.0036561172
0.007578483 0.9967911 0.0038445662 0.84528756 0.25543696 0.043349218 0.35951486
00000000: 3185 cd3e 305e 963e 100c fd3e 6d67 343d
00000010: 3116 7c3f dd53 b93c f586 4a3d 92cf 7b3f
00000020: 32a3 cd3c e656 393d 7b58 7c3f f4e3 b83c
00000030: aa71 3f3d c9d6 7b3f 6a89 d23c aafe 4c3d
00000040: 9c64 7b3f e615 d73c 439a 613d b916 7b3f
00000050: 0edf e83c e922 883d 1d78 793f e059 113d
00000060: 69d3 933d accf 783f c43b 1f3d 90a5 803d
00000070: a06d 793f ed81 093d 33ab 703d 7753 7a3f
00000080: c623 fd3c c388 013b 6188 7f3f 5f92 773a
00000090: 998c 1c3b 9b74 7f3f ebaa 8c3a 4416 e03b
000000a0: 023e 7f3f 69ba 653b 1f9d ca3b e611 7f3f
000000b0: d760 483b a303 e73b 610b 7f3f 789b 6f3b
000000c0: ec54 f83b b42d 7f3f 1ef5 7b3b c464 583f
000000d0: a2c8 823e f38e 313d 5512 b83e

network_body._body_endoder.seq_layers.0.weight f4 [128, 55]
-0.060879778 -0.0004502121 -0.06928899 -0.17149423 -0.046883907 -0.093968146 -0.13977703 -0.1479685
-0.05162481 0.238913 -0.058722056 0.03375618 -0.13497733 -0.21090709 -0.013836494 0.1979914
0.07136775 -0.10560028 0.09921085 0.1823304 -0.05353796 0.049490742 0.048674572 -0.14134184
0.2744172 -0.06865143 -0.27782056 0.021733526 0.2848651 0.2802885 -0.3058754 0.0033273038
0.07332508 -0.049658503 0.050651133 -0.14968212 0.031489354 -0.18811771 0.08886807 0.091928326
-0.06128154 0.08584624 0.17182134 0.0642326 0.098556 0.0853039 0.06369085 0.036385786
0.10911744 0.066282056 0.078767434 -0.16499786 -0.13315377 -0.08793366 0.16798028 -0.088005446
0.25690478 -0.21477954 0.15500125 0.13633044 0.03369141 0.08662384 -0.02211383 -0.119913355
0.13265799 0.02363826 0.16299182 0.13342835 0.046110917 -0.06916979 -0.06252572 0.037713442
-0.20709957 0.059731986 -0.039264068 -0.2238416 0.035613704 0.037895206 0.057578463 0.1621242
-0.032585442 -0.122324035 0.052028976 0.09241146 -0.03876409 0.09716078 -0.17419878 0.23931867
-0.188137 0.06523728 0.4131721 0.07025828 0.18386154 0.21640623 0.40939018 -0.2043432
-0.06668296 -0.0053742556 0.10220979 -0.13695711 0.445682 -0.30740792 -0.31346723 0.23438002
0.0377305 0.102234915 0.29959887 0.33858827 -0.014377554 0.02032802 0.043865167 0.115371
-0.11597763 -0.1399332 -0.0924983 -0.066628225 0.088221796 0.097851984 0.041258052 -0.27761477
0.16485715 0.22323635 -0.34528917 0.18434423 0.13213073 -0.08418536 -0.074060425 0.12804422
-0.09656962 -0.18984252 0.052239083 -0.20060913 0.05836735 -0.24896935 0.2117835 -0.0421911
0.004443245 0.1273024 0.173194 -0.08739113 0.17582844 0.02604761 0.16912425 0.07908611
-0.28948212 -0.09718 -0.00037381114 0.12504973 0.06055997 0.047648776 0.13044044 0.2029084
0.056979038 0.039581854 -0.14846376 -0.044592276 0.04646784 -0.30439055 0.020266052 -0.1403352
0.104551174 0.15226781 -0.25715622 -0.1527143 0.083118774 -0.0858045 -0.039019853 -0.29771426
-0.16234586 0.06113879 0.14953285 0.27671218 -0.05965115 -0.19066931 0.02813764 0.3096979
-0.07345799 0.21196346 -0.13972561 -0.17031768 -0.10322757 -0.06812637 -0.18869646 0.09172666
0.12709896 -0.062469166 -0.12925167 -0.05845241 0.074680805 -0.0016404479 0.039699964 -0.032071102
-0.0011899639 -0.20001614 0.055842407 0.04265293 -0.12507053 -0.07323801 -0.11913819 -0.06844994
-0.14238885 -0.28410015 -0.027480062 0.07080333 0.006423355 0.13101882 0.034199364 -0.16009796
-0.092419855 -0.21035115 -0.2530905 0.12402224 -0.019385587 -0.06660159 -0.11650773 0.053481977
0.19075963 0.17428662 -0.13548696 0.008509315 0.070590705 -0.15647843 -0.112030245 0.13152298
0.10971261 0.060861044 0.096169576 -0.115784444 0.1905002 -0.09430686 0.013280829 -0.06871093
0.042367663 0.09563047 0.08512691 -0.06334456 -0.15557542 -0.040675957 -0.13473572 -0.19243105
-0.10682932 -0.047863353 0.09636003 0.13549666 -0.13057975 -0.028881105 0.061244134 -0.14439702
-0.07234791 -0.08696387 -0.10700145 -0.10348771 0.11409492 0.12957303 0.07995938 -0.011307044
00000000: 135d 79bd 720a ecb9 63e7 8dbd 2f9c 2fbe
00000010: 5709 40bd 5f72 c0bd b621 0fbe 0e85 17be
00000020: 8974 53bd 9ca5 743e 8a86 70bd ec43 0a3d
00000030: 7f37 0abe 07f8 57be 76b2 62bc 42be 4a3e
00000040: 4129 923d f644 d8bd 0f2f cb3d d2b4 3a3e
00000050: 9f4a 5bbd ceb6 4a3d fd5e 473d eabb 10be
00000060: 6980 8c3e 1f99 8cbd 7f3e 8ebe 820a b23c
00000070: d7d9 913e f981 8f3e b39b 9cbe e50e 5a3b
00000080: 762b 963d b766 4bbd 9077 4f3d 4546 19be
00000090: fbfa 003d eea1 40be 7600 b63d eb44 bc3d
000000a0: 5a02 7bbd 27d0 af3d eff1 2f3e 628c 833d
000000b0: bad7 c93d d0b3 ae3d 5970 823d 4309 153d
000000c0: f778 df3d e3be 873d d250 a13d 33f5 28be
000000d0: 7659 08be 9016 b4bd 0603 2c3e 333c b4bd
000000e0: 0689 833e 2bef 5bbe a6b8 1e3e 359a 0b3e
000000f0: 0100 0a3d d767 b13d 1028 b5bc 2295 f5bd
00000100: 7fd7 073e 06a5 c13c 54e7 263e 71a1 083e
00000110: cdde 3c3d e4a8 8dbd 7c0d 80bd 6979 1a3d
00000120: e911 54be 87a9 743d 5cd3 20bd bb36 65be
00000130: addf 113d 0138 1b3d 65d7 6b3d e303 263e
00000140: 5078 05bd 0685 fabd 561c 553d 3842 bd3d
00000150: 18c7 1ebd 3bfc c63d 2a61 32be f40f 753e
00000160: fca6 40be 209b 853d 4b8b d33e 93e3 8f3d
00000170: 3346 3c3e 9899 5d3e 979b d13e 583f 51be
00000180: 1391 88bd 861a b0bb 5e53 d13d 7c3e 0cbe
00000190: 6e30 e43e 9264 9dbe c77e a0be 5101 703e
000001a0: 4c8b 1a3d 8a60 d13d 0665 993e 715b ad3e
000001b0: d58f 6bbc f386 a63c f6ab 333d a147 ec3d
000001c0: ae85 edbd a64a 0fbe c06f bdbd 6174 88bd
000001d0: a1ad b43d 9f66 c83d 34fe 283d 8623 8ebe
000001e0: 50d0 283e 1298 643e bec9 b0be bcc4 3c3e
000001f0: 474d 073e 6069 acbd feac 97bd 061e 033e
00000200: 4bc6 c5bd 1466 42be a6f8 553d 7b6c 4dbe
00000210: 9a12 6f3d d2f1 7ebe c6dd 583e 93d0 2cbd
00000220: a498 913b 8f5b 023e c559 313e 1ffa b2bd
00000230: 5f0c 343e cc61 d53c e82e 2d3e e6f7 a13d
00000240: 0037 94be 4f06 c7bd 15fc c3b9 090d 003e
00000250: bb0d 783d 5d2b 433d 2e92 053e 38c7 4f3e
00000260: da62 693d 9520 223d e206 18be 64a6 36bd
00000270: 1055 3e3d 14d9 9bbe fe04 a63c 08b4 0fbe
00000280: ed1e d63d 18ec 1b3e fba9 83be 2361 1cbe
00000290: 2d3a aa3d 45ba afbd 48d3 1fbd 016e 98be
000002a0: fe3d 26be ab6c 7a3d 241f 193e 38ad 8d3e
000002b0: c454 74bd d13e 43be e880 e63c b990 9e3e
000002c0: 2571 96bd f30c 593e 3b14 0fbe c267 2ebe
000002d0: fa68 d3bd d785 8bbd a539 41be 30db bb3d
000002e0: 3b26 023e abdf 7fbd 8d5a 04be cb6b 6fbd
000002f0: 40f2 983d 4c04 d7ba 6e9c 223d fd5c 03bd
00000300: 90f8 9bba 08d1 4cbe 02bb 643d d7b4 2e3d
00000310: 7d12 00be cffd 95bd b9fe f3bd 7b2f 8cbd
00000320: 62ce 11be 9375 91be de1d e1bc 5601 913d
00000330: 027b d23b cc29 063e a214 0c3d b8f0 23be
00000340: 9f46 bdbd 4b66 57be 1495 81be 5fff fd3d
00000350: 86ce 9ebc 6a66 88bd 9b9b eebd eb0f 5b3d
00000360: 7e56 433e 3178 323e 18bd 0abe a76a 0b3c
00000370: dc91 903d e23b 20be 1d70 e5bd f6ad 063e
00000380: 01b1 e03d 6e49 793d 8ef4 c43d 6520 edbd
00000390: 7c12 433e f423 c1bd d697 593c 51b8 8cbd
000003a0: b789 2d3d e8d9 c33d 0457 ae3d cbba 81bd
000003b0: 2a4f 1fbe d59b 26bd 29f8 09be a50c 45be
000003c0: 55c9 dabd 5d0c 44bd 6858 c53d a3bf 0a3e
000003d0: b3b6 05be 1198 ecbc 21db 7a3d d0dc 13be
000003e0: 242b 94bd 1d1a b2bd 9423 dbbd 5df1 d3bd
000003f0: 99aa e93d cbae 043e bec1 a33d 2e41 39bc

network_body._body_endoder.seq_layers.0.bias f4 [128]
0.018595215 0.011814792 0.010802289 -0.0021593685 -0.0017443566 0.0020946676 0.00012180193 -0.0058542257
0.008035124 0.0051855706 0.019087184 -0.005951364 0.014845796 0.0076312297 -0.011476924 -0.0052880263
-0.009960396 -0.0037562796 -0.011818142 0.018548142 0.0155594675 -0.0047269757 -0.013291175 0.015024431
-0.011192167 0.01564586 0.010478575 -0.0077011622 0.012579903 0.008145726 -0.0069248886 -0.00023307251
0.0030033516 -0.0014361935 -0.011775328 -0.0074490975 0.024121258 0.004426324 -0.00093692355 0.022612387
0.005571029 0.0012944412 -0.004851836 -0.005676608 0.012036086 -0.0070978613 0.002634819 -0.012066776
0.0063533266 -0.0035634316 -0.004313642 0.008769853 -0.003608755 -0.002733216 -0.010665061 -0.00047082463
0.013681372 -0.0064276136 -0.0012226955 -0.0010500802 -0.0036536509 -0.005068178 -0.0007960589 -0.011812894
0.0028228357 0.014005449 0.01668601 0.016792838 -0.0068324218 -0.0028375143 0.01430761 0.0073257918
-0.0070221615 0.012467862 0.007913157 -0.0035225803 0.010254176 0.02395238 -0.012493983 0.0053050835
0.00045910402 0.008271827 -0.0010912286 -0.008024226 -0.009173905 0.0038167625 0.017188052 0.016980594
0.005625257 0.01058186 0.0047809007 0.00026614653 -0.010782703 0.017384637 0.017149696 0.015006366
0.016949207 -0.008568675 0.006358019 0.008715309 -0.015273372 0.010970798 0.015064671 -0.0053907856
0.005421213 0.008927636 0.0012839878 0.011174678 -0.011294297 0.009626333 0.009177209 -0.016323067
0.015761932 0.009284395 0.0049077175 0.0030369507 0.006931942 0.0024335752 -0.011560822 0.016566359
-0.005055633 -0.0021709562 0.013424333 -0.01988273 0.02390903 0.015403228 -0.015178087 -0.0034176891
00000000: fe54 983c d492 413c 15fc 303c 3184 0dbb
00000010: e5a2 e4ba b146 093b ea6f ff38 ced4 bfbb
00000020: c1a5 033c b8eb a93b ba5c 9c3c a903 c3bb
00000030: c83b 733c 650f fa3b b509 3cbc 2e47 adbb
00000040: ee30 23bc ea2b 76bb e1a0 41bc 46f2 973c
00000050: 23ed 7e3c bfe4 9abb 3ac3 59bc 0829 763c
00000060: 5a5f 37bc bf2b 803c 54ae 2b3c 085a fcbb
00000070: f01b 4e3c a775 053c 2dea e2bb ed64 74b9
00000080: e1d3 443b a83e bcba 4eed 40bc 8f17 f4bb
00000090: f299 c53c b20a 913b e09b 75ba 9d3d b93c
000000a0: 2e8d b63b 3daa a93a 26fc 9ebb d702 babb
000000b0: 0133 453c 2d95 e8bb edac 2c3b bab3 45bc
000000c0: 912f d03b 7688 69bb 7459 8dbb 6eaf 0f3c
000000d0: dd80 6cbb c11f 33bb 82bc 2ebc 03d9 f6b9
000000e0: d527 603c bb9e d2bb da42 a0ba d8a2 89ba
000000f0: 1772 6fbb f512 a6bb 9cae 50ba de8a 41bc
00000100: 53ff 383b 1c77 653c 19b1 883c 2291 893c
00000110: 82e2 dfbb 97f5 39bb 776a 6a3c 320d f03b
00000120: 291a e6bb 0146 4c3c 30a6 013c 17db 66bb
00000130: 2201 283c c837 c43c 90b3 4cbc 44d6 ad3b
00000140: e6b3 f039 8f86 073c 8e07 8fba 0b78 03bc
00000150: 254e 16bc a622 7a3b f5cd 8c3c e31a 8b3c
00000160: 1354 b83b 8a5f 2d3c 1aa9 9c3b 9589 8b39
00000170: efa9 30bc 3a6a 8e3c 857d 8c3c 43dd 753c
00000180: 10d9 8a3c a163 0cbc ee56 d03b a8ca 0e3c
00000190: 2a3d 7abc ddbe 333c cfd1 763c 30a5 b0bb
000001a0: 6ea4 b13b 3845 123c 7b4b a83a ff15 373c
000001b0: b70b 39bc c4b7 1d3c 015c 163c f4b7 85bc
000001c0: 2b1f 813c 931d 183c ebd0 a03b 9407 473b
000001d0: 5825 e33b 9e7c 1f3b 9a69 3dbc 2cb6 873c
000001e0: b9a9 a5bb 9a46 0ebb bcf1 5b3c 1be1 a2bc
000001f0: dfdc c33c d25d 7c3c 83ad 78bc 4ffb 5fbb

network_body._body_endoder.seq_layers.2.weight f4 [128, 128]
-0.18130027 -0.0067446614 0.0960566 -0.105736755 -0.014302553 -0.012570168 0.04289572 0.08304033
-0.053039785 -0.062477108 -0.2001739 0.17985304 -0.2007157 0.08251682 -0.07858029 -0.027528552
-0.13785423 -0.033101726 0.0363004 -0.05579471 0.07959395 -0.18864252 0.031518307 0.031985715
0.070865326 -0.045775205 -0.044570938 0.034375425 0.034792908 0.19824633 0.033177294 0.19197214
0.15313812 -0.030847078 -0.031074652 -0.1952722 -0.02232906 0.019077258 -0.06965709 -0.02962967
0.15870783 0.041343294 -0.022400396 0.061668154 -0.053681243 -0.16306807 0.09743927 -0.05217522
0.02614188 -0.12257603 0.08887201 -0.036709804 -0.04304204 0.01564259 -0.040515058 0.08962204
0.016491476 0.09645058 -0.2566398 0.02363455 0.025937175 -0.0168773 -0.18136016 -0.102262
-0.030567048 0.009753074 -0.024103625 -0.008350987 -0.07678357 -0.023400491 0.08199379 -0.06880893
-0.01522041 -0.04084065 -0.0029161244 -0.063362464 -0.094233796 0.01337122 -0.016415732 0.20103821
0.15275002 0.035604164 0.04092415 -0.05657185 0.093882695 0.049186204 0.15260307 0.16091026
0.021452162 0.09705937 -0.011161057 0.05821465 -0.08909725 -0.037632186 0.050428778 0.030575428
0.11833105 0.12841474 0.05166173 0.051157612 -0.091273464 0.08564981 0.056482695 0.06547347
-0.03580428 0.12885788 0.104648784 -0.020640502 -0.111053534 -0.027733613 -0.11792306 -0.083435744
-0.058969785 0.0040827533 -0.054910928 0.110972986 0.023480045 -0.059039246 0.00033570232 -0.13502227
-0.08687305 -0.080930345 0.13604826 -0.011062199 -0.019578515 0.07009581 0.061380547 -0.09760207
0.06792385 0.019546514 0.016805619 0.06629104 -0.033002444 0.07471599 -0.090705045 -0.05694897
-0.010124699 0.15966243 0.009455679 0.18308692 -0.08449087 0.17320322 -0.06369981 -0.113546394
-0.08702364 0.059802167 -0.012668471 0.033706374 -0.05209238 -0.18683724 0.030638024 0.045349408
0.002222529 -0.025966683 -0.031935066 0.15094106 -0.029743291 -0.012098092 0.046652585 -0.049209047
0.05166166 0.031258754 -0.07593798 -0.023756322 0.18581954 0.09250729 -0.18057013 0.27711275
0.060109865 0.0264197 0.032620158 -0.037335858 -0.11678412 -0.13858564 -0.19467056 -0.08112907
-0.09853488 -0.25926244 -0.029866913 0.01946845 -0.0868325 -0.09665867 -0.09850195 0.046375323
0.11368426 0.09750991 -0.05617254 0.10636537 0.11380982 -0.18548231 -0.0400298 0.112226024
-0.05980141 0.017196666 -0.14201929 0.097922444 -0.026842853 -0.12225814 0.20399398 -0.14420877
0.027440283 0.025971288 -0.12549236 -0.060207576 0.044617724 -0.21285763 -0.16629799 -0.013947695
-0.040475115 0.17475128 -0.19663149 -0.10597244 -0.023983669 0.052671228 0.19267046 0.0840797
0.013754662 0.18359636 -0.2697589 0.07307261 0.0077669374 0.009753695 -0.026419403 0.08320605
0.02371974 -0.072585665 -0.10389223 0.09071207 -0.09312801 -0.016574658 -0.020362992 -0.016986132
-0.010740191 0.16290523 0.13816884 0.11990157 0.102204 0.007996829 -0.079284124 -0.008161627
0.06140171 -0.111181945 0.03786388 0.0043734913 0.16587901 -0.119724095 0.091224045 0.07547823
-0.06615773 0.025970908 0.0878211 0.0886531 0.031421576 -0.012731207 -0.11596485 0.053842846
00000000: c7a6 39be 5202 ddbb 53b9 c43d 838c d8bd
00000010: 4155 6abc 1bf3 4dbc 6cb3 2f3d 0c11 aa3d
00000020: 3f40 59bd ffe7 7fbd 63fa 4cbe 652b 383e
00000030: 6b88 4dbe 94fe a83d b4ee a0bd 8f83 e1bc
00000040: a929 0dbe ad95 07bd baaf 143d fe88 64bd
00000050: 2702 a33d 812b 41be 5719 013d 7403 033d
00000060: d721 913d c87e 3bbd 0490 36bd 3fcd 0c3d
00000070: 0283 0e3d 1601 4b3e eae4 073d 5894 443e
00000080: 3dd0 1c3e 03b3 fcbc 4590 febc 70f5 47be
00000090: 6feb b6bc e947 9c3c 60a8 8ebd ecb9 f2bc
000000a0: 4e84 223e 9657 293d 0981 b7bc bf97 7c3d
000000b0: dde0 5bbd 51fb 26be 3d8e c73d afb5 55bd
000000c0: 7f27 d63c 2409 fbbd 8702 b63d 055d 16bd
000000d0: da4c 30bd e424 803c 1ef3 25bd c38b b73d
000000e0: 2219 873c e287 c53d 4b66 83be 3e9d c13c
000000f0: 337a d43c 4342 8abc 7ab6 39be bd6e d1bd
00000100: bf67 fabc 5bcb 1f3c f774 c5bc 94d2 08bc
00000110: b440 9dbd 63b2 bfbc 5cec a73d b2eb 8cbd
00000120: 075f 79bc 8748 27bd 731c 3fbb 2ec4 81bd
00000130: a6fd c0bd f612 5b3c 497a 86bc f6dc 4d3e
00000140: 806a 1c3e acd5 113d 15a0 273d e2b7 67bd
00000150: 9245 c03d 7977 493d fb43 1c3e a9c5 243e
00000160: 72bc af3c 10c7 c63d dedc 36bc 7c72 6e3d
00000170: 9e78 b6bd 3524 1abd 688e 4e3d 5279 fa3c
00000180: 8d57 f23d 277f 033e 409b 533d a58a 513d
00000190: 95ed babd 2b69 af3d 665a 673d f416 863d
000001a0: 82a7 12bd 52f3 033e 1a52 d63d 4516 a9bc
000001b0: 0970 e3bd 9a31 e3bc a581 f1bd 5ce0 aabd
000001c0: 4d8a 71bd 9ec8 853b 48ea 60bd ce45 e33d
000001d0: 3959 c03c 23d3 71bd 3401 b039 4743 0abe
000001e0: 7fea b1bd cfbe a5bd 3c50 0b3e 3a3e 35bc
000001f0: 1f63 a0bc 648e 8f3d 2b6a 7b3d 98e3 c7bd
00000200: a91b 8b3d 0320 a03c f0ab 893c 99c3 873d
00000210: 922d 07bd b204 993d 91c3 b9bd 5343 69bd
00000220: 11e2 25bc 8c7e 233e feeb 1a3c 237b 3b3e
00000230: 8d09 adbd 2f5c 313e 0c75 82bd 038b e8bd
00000240: 7339 b2bd 1ef3 743d 6b8f 4fbc b20f 0a3d
00000250: d25e 55bd 4352 3fbe 98fc fa3c 4dc0 393d
00000260: d9a7 113b 15b8 d4bc 58ce 02bd 4b90 1a3e
00000270: 34a8 f3bc 1337 46bc c816 3f3d 6d8f 49bd
00000280: 2d9b 533d 2e09 003d 5f85 9bbd 9e9c c2bc
00000290: 7a47 3e3e 7674 bd3d 60e7 38be b9e1 8d3e
000002a0: c335 763d 206e d83c b79c 053d 7ced 18bd
000002b0: 832c efbd 65e9 0dbe b857 47be ff26 a6bd
000002c0: a8cc c9bd 0cbe 84be 75ab f4bc 4d7c 9f3c
000002d0: 3dd5 b1bd fbf4 c5bd 64bb c9bd 0df4 3d3d
000002e0: 4bd3 e83d 47b3 c73d 2d15 66bd 16d6 d93d
000002f0: 1f15 e93d 13ef 3dbe 4af6 23bd c2d6 e53d
00000300: 53f2 74bd 06e0 8c3c 816d 11be 908b c83d
00000310: 8be5 dbbc 7a62 fabd cce3 503e 77ab 13be
00000320: 72ca e03c bdc1 d43c 1281 00be 389c 76bd
00000330: 13c1 363d 5af7 59be 054a 2abe df84 64bc
00000340: 3cc9 25bd 00f2 323e c459 49be 1408 d9bd
00000350: 6679 c4bc c9bd 573d 684b 453e fa31 ac3d
00000360: 3c5b 613c af00 3c3e d71d 8abe 18a7 953d
00000370: cb81 fe3b f6cd 1f3c 816d d8bc ef67 aa3d
00000380: e64f c23c cba7 94bd 73c5 d4bd 40c7 b93d
00000390: e6b9 bebd 94c7 87bc 4ad0 a6bc 8026 8bbc
000003a0: a0f7 2fbc a1d0 263e 227c 0d3e f48e f53d
000003b0: 5550 d13d 2205 033c b75f a2bd 58b8 05bc
000003c0: 5c80 7b3d 5cb3 e3bd 2817 1b3d 814f 8f3b
000003d0: 30dc 293e e831 f5bd acd3 ba3d 5594 9a3d
000003e0: b47d 87bd f1c0 d43c 8ddb b33d c28f b53d
000003f0: e9b3 003d 8d96 50bc fb7e edbd 518a 5c3d

network_body._body_endoder.seq_layers.2.bias f4 [128]
0.0015651424 0.018020194 0.007283192 0.0014512553 0.0134133035 -0.0028382775 -0.0098445965 -0.010499589
0.01603659 0.015020082 0.012864365 -0.0055132415 0.0011782994 0.01401104 -0.013008507 0.01689086
-0.0010332284 -0.014615845 -0.0001209054 -0.011465546 -0.011417497 -0.006720567 -0.017981945 0.0041548214
0.016846804 0.011221012 0.017501041 -0.015898842 -0.011340395 -0.0059051136 -0.009665391 0.007407654
0.002314307 -0.0025567473 -4.7216236e-07 0.001207842 -0.020041725 -0.0083318725 0.017750807 0.016160337
0.010998804 -0.0021249105 -0.011927841 5.4093674e-05 -0.0062860823 0.021299066 -0.010100791 0.008309016
-0.02387746 -0.010752371 -0.0039695827 0.008248576 0.0039017133 0.021120865 0.0014041597 0.024921864
0.004181608 0.0060272817 -0.0039195474 -0.014462115 0.012001101 0.0004398717 0.0015681877 0.012883262
0.0207115 0.0030739908 -0.015376368 -0.011078916 0.007725361 -0.00015772603 -0.004149892 0.014220131
0.00431309 -0.0028717797 -0.0058310395 -0.00731031 0.013479316 0.003911379 0.0077848644 -0.005457697
0.0037858633 0.016513363 -0.005483067 0.0013977475 0.0018407196 0.015599804 0.008084982 0.0063188365
0.0113723 -0.011546681 -0.010027612 0.018096762 0.011202336 1.0729371e-05 0.004823316 -0.00062229135
-0.013233899 0.016015032 -0.0150823165 -0.007915229 0.016266838 0.014971123 -0.0006838086 -0.014505807
0.009503942 -0.0019795126 0.008574308 0.005572724 0.006538227 0.02182192 0.0027454416 0.013650407
-0.0037095754 -0.018055381 0.0025731553 0.015490693 0.009449138 0.013479528 0.020699572 -0.006718026
0.011744551 0.004027108 0.0099777235 0.01666027 -0.0038375768 0.016771358 0.008153945 -0.010778488
00000000: 7725 cd3a 169f 933c d8a7 ee3b 0c38 be3a
00000010: 79c3 5b3c 6502 3abb 3b4b 21bc 7806 2cbc
00000020: 2b5f 833c ca16 763c 0fc5 523c 6ca8 b4bb
00000030: 2b71 9a3a 908e 653c a221 55bc b35e 8a3c
00000040: 646d 87ba 4c77 6fbc 988e fdb8 fcd9 3bbc
00000050: 7410 3bbc 3438 dcbb df4e 93bc 2b25 883b
00000060: 4f02 8a3c 56d8 373c 585e 8f3c 4a3e 82bc
00000070: 10cd 39bc af7f c1bb 975b 1ebc e8bb f23b
00000080: a1ab 173b 1a8f 27bb 807d fdb4 7450 9e3a
00000090: 8b2e a4bc 6882 08bc 246a 913c af62 843c
000000a0: 5434 343c 1542 0bbb fe6c 43bc a4e2 6238
000000b0: 7bfb cdbb 617b ae3c ca7d 25bc 8a22 083c
000000c0: aa9a c3bc b62a 30bc 4613 82bb 0925 073c
000000d0: e3b3 7f3b aa05 ad3c c80b b83a f028 cc3c
000000e0: df05 893b 8180 c53b 8c6f 80bb 82f2 6cbc
000000f0: 44a0 443c 959e e639 a68b cd3a 5114 533c
00000100: 2aab a93c 0275 493b 29ed 7bbc 5784 35bc
00000110: 0625 fd3b 4263 25b9 d1fb 87bb 8dfb 683c
00000120: d254 8d3b 7834 3cbb 4e12 bfbb 538b efbb
00000130: 59d8 5c3c 062b 803b 2d18 ff3b 7bd6 b2bb
00000140: 3f1c 783b 0847 873c 4dab b3bb a034 b73a
00000150: 4d44 f13a 5296 7f3c df76 043c 3e0e cf3b
00000160: e252 3a3c 4a2e 3dbc da4a 24bc a93f 943c
00000170: 018a 373c 4c02 3437 e80c 9e3b 4421 23ba
00000180: ffd2 58bc f531 833c d21b 77bc e0ae 01bc
00000190: 0842 853c 7149 753c 9e41 33ba c4a9 6dbc
000001a0: 6cb6 1b3c b6ba 01bb 417b 0c3c 669b b63b
000001b0: a03e d63b e2c3 b23c deec 333b f5a5 5f3c
000001c0: 591c 73bb e1e8 93bc 62a2 283b adcc 7d3c
000001d0: 8fd0 1a3c 3dd9 5c3c 2692 a93c e322 dcbb
000001e0: 386c 403c d5f5 833b 9b79 233c 1e7b 883c
000001f0: db7f 7bbb 1664 893c 2098 053c 4198 30bc

action_model._continuous_distribution.log_sigma f4 [1, 3]
0.002801548 0.008204886 0.012493306
00000000: 2d9a 373b c96d 063c b9b0 4c3c

action_model._continuous_distribution.mu.weight f4 [3, 128]
0.023974981 0.035970528 0.010971606 -0.0012464193 0.016657112 -0.005103809 -0.008476242 -0.029598711
0.043370336 0.024120862 0.021209737 0.008107561 0.0014209459 0.03202607 -0.011651578 0.024935674
-0.0075567295 -0.004761847 0.009055744 -0.037647698 -0.0006758334 -0.020367967 -0.011254418 0.019536925
0.043046582 0.020486856 0.025534324 -0.010633231 -0.008015982 -0.013321076 -0.027106684 0.037200186
0.010096656 -0.011014804 -0.0025519612 -0.022862757 -0.03384686 -0.0051874598 0.014223891 0.018571349
0.02684531 0.012265418 -0.004469169 -0.007254183 -0.02498645 0.0449239 -0.016418384 -0.0014694852
-0.018212209 -0.008282955 -0.014404517 0.019245926 -0.005822672 0.045396324 0.011113253 0.03566163
-0.003100415 0.0041652317 -0.015272339 -0.02504954 0.0354853 0.0007173163 -0.0070878775 0.012946645
0.024289886 0.00510219 -0.017427953 -0.009826625 0.015521609 -0.018378753 0.014043843 -0.0064247786
-0.027850999 0.00053495757 -0.00024403425 -0.025655968 0.0022533853 0.03194812 0.0068453955 -0.001078482
0.0022042207 0.026273381 0.01004041 -0.012092035 0.007439044 0.019219665 0.00071626354 -0.008445888
0.0009904198 -0.011970958 -0.005131086 0.014665178 0.013732967 0.0023130237 -0.012507188 0.0013874597
-0.011645308 0.012455443 -0.007149376 -0.021783534 0.022455236 0.005369503 -0.014145631 -0.01814164
0.01001607 0.004806088 0.012858795 0.004795883 0.0055529084 0.041830517 -0.03662387 0.014732445
-0.008238252 -0.031266056 -0.0023065936 0.007306212 0.020171689 0.0021503419 0.05096536 -0.0009953956
0.022772904 0.038682792 0.02285757 0.009437253 0.005300718 0.03889945 0.012263068 -0.008708594
0.028604692 0.0014644657 0.014255554 -0.009449127 0.0027780617 -0.010624598 -0.0011916979 -0.002612692
-0.016939623 -0.019945476 0.011998226 -0.011841066 0.0070087337 0.013732494 0.027410697 -0.027687775
-0.03571623 -0.004462412 0.006297826 0.011334854 -0.0010982187 -0.005055078 0.010391819 0.018416382
-0.008698107 0.014508678 -0.00022448381 0.019685455 0.018559188 -0.011355278 0.017167876 -0.01226532
0.002476974 -0.0053668343 0.006123993 -0.035248272 0.006303527 0.015292066 -0.007917625 -0.0072651333
-0.020616 0.021189459 0.008062727 -0.014233459 -0.011915879 -0.015359411 0.0075318553 -0.022614582
0.013224193 0.026461106 0.026747707 -0.004197435 -0.028948465 -0.012780534 0.009372505 -0.019950591
-0.0054832613 -0.020764228 0.00067461864 0.007786155 0.012889893 -0.018664535 -0.009546755 -0.020037282
-0.009805232 0.018181648 0.028937057 0.014548444 -0.017148381 -0.018877367 0.013825032 -0.022661563
-0.012525091 0.0015195841 0.01284947 -0.018371003 -0.010325994 0.030117106 0.002994338 0.012665682
-0.00055121747 -0.0031610597 0.03880827 -0.0004745649 0.009672659 -0.0047563347 -0.021002354 -0.01074017
-0.013083783 -0.003255809 0.014512222 -0.0017325378 0.008460885 0.00061598874 -0.0076639745 -0.019699698
0.011354936 -0.039516103 0.03308851 -0.004722077 0.0050596558 -0.033720948 -0.012214247 -0.00105309
0.0014231039 0.0050884527 0.013752359 -0.005971812 -0.0063242596 -0.015689678 0.0019651577 -0.035558503
0.0055869687 0.018936958 0.007202938 -0.02696223 0.004016131 -0.03186156 -0.0074339877 0.027646761
-0.0352077 0.03276379 -0.0054412256 -0.01544227 0.030292854 -0.008784844 0.0160983 0.027032226
00000000: 2e67 c43c d555 133d 40c2 333c e45e a3ba
00000010: 7f74 883c da3d a7bb f0df 0abc ff78 f2bc
00000020: 18a5 313d 1d99 c53c 0bc0 ad3c 93d5 043c
00000030: 083f ba3a c52d 033d 43e6 3ebc e645 cc3c
00000040: 719e f7bb 4509 9cbb 8b5e 143c 7934 1abd
00000050: 692a 31ba b9da a6bc 7364 38bc e70b a03c
00000060: 9d51 303d 0dd4 a73c 5c2d d13c 0137 2ebc
00000070: 7755 03bc a440 5abc d60e debc 395f 183d
00000080: 726c 253c 7077 34bc ce3e 27bb ad4a bbbc
00000090: 01a3 0abd 91fb a9bb 530b 693c f122 983c
000000a0: b2ea db3c e4f4 483c 1b72 92bb 7fb4 edbb
000000b0: 62b0 ccbc 2002 383d d97f 86bc be9b c0ba
000000c0: c531 95bc 3bb5 07bc ec00 6cbc a2a9 9d3c
000000d0: 1dcc bebb 7ff1 393d 5d14 363c ee11 123d
000000e0: 5530 4bbb 7f7c 883b d538 7abc b134 cdbc
000000f0: 0959 113d 480a 3c3a 6d41 e8bb 2a1e 543c
00000100: 95fb c63c 4630 a73b 11c5 8ebc daff 20bc
00000110: 594e 7e3c 0a8f 96bc 2618 663c f386 d2bb
00000120: c727 e4bc 653c 0c3a 72e3 7fb9 772c d2bc
00000130: 88ad 133b 08dc 023d 574f e03b da5b 8dba
00000140: b074 103b 463b d73c 8880 243c ac1d 46bc
00000150: 39c3 f33b 8f72 9d3c a2c3 3b3a 9f60 0abc
00000160: f9d0 813a d621 44bc ab22 a8bb 3746 703c
00000170: 3d00 613c 1996 173b f3ea 4cbc 6cdb b53a
00000180: f6cb 3ebc ea11 4c3c 5045 eabb 6273 b2bc
00000190: 0bf4 b73c a8f2 af3b 14c3 67bc c79d 94bc
000001a0: 711a 243c 637c 9d3b b2ad 523c c826 9d3b
000001b0: 2cf5 b53b 7a56 2b3d e902 16bd 5a60 713c
000001c0: bcf9 06bc d610 00bd 382a 17bb f368 ef3b
000001d0: 193f a53c c0ec 0c3b 0ec1 503d ef77 82ba
000001e0: 3e8e ba3c d971 1e3d cc3f bb3c b59e 1a3c
000001f0: a5b1 ad3b 0855 1f3d 09eb 483c 7eae 0ebc
00000200: 6354 ea3c 51f3 bf3a 2190 693c 83d0 1abc
00000210: 2410 363b cb12 2ebc bf32 9cba b339 2bbb
00000220: f7c4 8abc b264 a3bc 3594 443c 0801 42bc
00000230: 85a9 e53b 41fe 603c 668c e03c 79d1 e2bc
00000240: 2e4b 12bd 6d39 92bb fe5d ce3b d3b5 393c
00000250: 1bf2 8fba 11a5 a5bb 7342 2a3c f4dd 963c
00000260: 8182 0ebc ceb5 6d3c 6a63 6bb9 6443 a13c
00000270: 7009 983c 7d0b 3abc a5a3 8c3c 7bf4 48bc
00000280: ba54 223b 45dc afbb c7ab c83b 7e60 10bd
00000290: d18d ce3b 938b 7a3c edb8 01bc 5b10 eebb
000002a0: e3e2 a8bc 8495 ad3c 8719 043c 7433 69bc
000002b0: d23a 43bc 0aa6 7bbc c8cd f63b 3742 b9bc
000002c0: 49aa 583c f6c4 d83c 021e db3c a38a 89bb
000002d0: 5525 edbc 7265 51bc 238f 193c 6c6f a3bc
000002e0: eeac b3bb be19 aabc e4d8 303a 0123 ff3b
000002f0: 2130 533c 5ee6 98bc fe69 1cbc 3a25 a4bc
00000300: 20a6 20bc aef1 943c 680d ed3c 995c 6e3c
00000310: c37a 8cbc b5a4 9abc 6382 623c bea4 b9bc
00000320: 0a36 4dbc c82c c73a 9586 523c c97e 96bc
00000330: 5c2e 29bc 26b8 f63c a83c 443b b883 4f3c
00000340: 947f 10ba c829 4fbb 6cf5 1e3d 06cf f8b9
00000350: 137a 1e3c 07db 9bbb 210d acbc 8af7 2fbc
00000360: 5d5d 56bc 695f 55bb acc4 6d3c 5216 e3ba
00000370: 869f 0a3c 4e7a 213a 1422 fbbb 4361 a1bc
00000380: 0e0a 3a3c a3db 21bd d187 073d a7bb 9abb
00000390: 78cb a53b fa1e 0abd 441e 48bc d607 8aba
000003a0: 7187 ba3a 09bd a63b 9351 613c 31af c3bb
000003b0: bc3b cfbb a487 80bc e0c9 003b cba5 11bd
000003c0: e412 b73b ae21 9b3c a006 ec3b e5df dcbc
000003d0: c099 833b 4481 02bd cf98 f3bb 767b e23c
000003e0: f335 10bd 5333 063d 4f4c b2bb 9301 7dbc
000003f0: b828 f83c 4eee 0fbc 95e0 833c b072 dd3c

action_model._continuous_distribution.mu.bias f4 [3]
0.016019287 -0.01046168 -0.007932998
00000000: e13a 833c 7767 2bbc 68f9 01bc

onnx::Div_51 f4 [55]
0.44328955 0.41990432 0.42854407 0.20521864 0.090696454 0.11101755 0.21681972 0.092805594
0.11611843 0.20787501 0.08858309 0.10847311 0.21110485 0.093442515 0.12369779 0.21806723
0.096731365 0.12064116 0.22815715 0.09969357 0.124041215 0.24912822 0.114770405 0.14136362
0.25880703 0.122513145 0.1487707 0.24265312 0.117855646 0.1382804 0.23519194 0.10882289
0.13064308 0.044533104 0.04190292 0.02229308 0.048924565 0.0451095 0.022326577 0.08247661
0.04902643 0.044539824 0.07845776 0.056227148 0.04019429 0.083730854 0.05449435 0.04607766
0.086784974 0.04845272 0.045683853 0.2224617 0.29997608 0.40383306 0.42155105
00000000: d9f6 e23e b3fd d63e 216a db3e d624 523e
00000010: 10bf b93d 2b5d e33d fd05 5e3e dc10 be3d
00000020: 80cf ed3d 30dd 543e 0d6b b53d 2627 de3d
00000030: df2b 583e ca5e bf3d 4455 fd3d 044d 5f3e
00000040: 181b c63d b612 f73d 07a2 693e 242c cc3d
00000050: 5209 fe3d 781b 7f3e bf0c eb3d a0c1 103e
00000060: 5b82 843e 2ce8 fa3d 5957 183e 0f7a 783e
00000070: 4d5e f13d 6199 0d3e 28d6 703e 89de de3d
00000080: 4dc7 053e 5868 363d 65a2 2b3d fa9f b63c
00000090: 2065 483d bdc4 383d 3ae6 b63c 7fe9 a83d
000000a0: f0cf 483d 646f 363d 76ae a03d 704e 663d
000000b0: c5a2 243d 157b ab3d 7835 5f3d eebb 3c3d
000000c0: 52bc b13d 5c76 463d fe1e 3b3d 00cd 633e
000000d0: 7796 993e 35c3 ce3e 8ad5 d73e
