Assets/ML-Agents/results/color-hunt1/ColorHunter/ColorHunter-499978.pt (torch, 542282 bytes, 44 tensors)

network_body.observation_encoder.processors.0.normalizer.running_mean f4 [37]
00000000: 0189 c442 eea2 823f fe3e bd42 009b 9c3c
00000010: 4ced 7a3f 7573 923c f3f4 7a3f 1d78 903c
00000020: 38f5 7a3f a10b b33c 0f78 793f 25ef c93c
00000030: 27c1 783f bdde a23c d96d 7a3f 27d0 813c
00000040: d504 7c3f 7176 473c bf26 7d3f b7cc 3f3c
00000050: 013e 7d3f a84b 7b3c 0e58 7c3f 1d63 ac3a
00000060: bba2 7f3f ec24 5b3a 6dbd 7f3f 2182 083b
00000070: 1676 7f3f 8468 473b 4943 7f3f 6b46 5c3b
00000080: 841d 7f3f 13b4 af3b 1899 7e3f f2de 47bc
00000090: 3d0d 5c3e
98.267586 1.0205972 94.62303 0.019116879 0.98018336 0.01787732 0.9803001 0.0176354
0.98030424 0.021856131 0.9744882 0.024650166 0.9716973 0.0198816 0.97823864 0.015846325
0.98444873 0.012174235 0.98887247 0.011706523 0.98922735 0.015337862 0.9857186 0.0013152097
0.9985768 0.0008359689 0.99898416 0.0020829516 0.9978956 0.0030427286 0.99712044 0.0033611308
0.9965441 0.0053620427 0.9945235 -0.01219915 0.21489425

network_body.observation_encoder.processors.0.normalizer.running_variance f4 [37]
00000000: 02dc 164f 1612 ac46 66ec 0d4f 985f b945
00000010: d38f 9f45 1ee9 ac45 b443 a545 8bbb ae45
00000020: 3d46 a745 f198 d645 69f5 dc45 46f5 f245
00000030: 40c1 f545 f2f5 c445 ebfc ba45 6ee8 9a45
00000040: c069 7c45 8ffa 6545 99af 2c45 9812 5d45
00000050: 2e2b 1f45 ebcc 9345 a5d0 5445 b583 ae43
00000060: 11d9 b643 677b 6343 594a 8743 f912 3544
00000070: 6152 0944 08cb 7144 43f5 2c44 1c95 8644
00000080: 44ee 6344 1507 d444 e49b b644 e261 4f47
00000090: e405 8c47
2.5310008e+09 22025.043 2.38108e+09 5931.949 5105.978 5533.1396 5288.463 5591.443
5352.78 6867.1177 7070.6763 7774.659 7864.1562 6302.743 5983.6147 4957.0537
4038.6094 3679.66 2762.9749 3537.162 2546.6987 4729.6147 3405.0403 349.02896
365.69583 227.48204 270.58084 724.29645 549.2872 967.17236 691.8322 1076.6597
911.7229 1696.2213 1460.8716 53089.883 71691.78

network_body.processors.0.normalizer.running_mean f4 [37]
00000000: 0189 c442 eea2 823f fe3e bd42 009b 9c3c
00000010: 4ced 7a3f 7573 923c f3f4 7a3f 1d78 903c
00000020: 38f5 7a3f a10b b33c 0f78 793f 25ef c93c
00000030: 27c1 783f bdde a23c d96d 7a3f 27d0 813c
00000040: d504 7c3f 7176 473c bf26 7d3f b7cc 3f3c
00000050: 013e 7d3f a84b 7b3c 0e58 7c3f 1d63 ac3a
00000060: bba2 7f3f ec24 5b3a 6dbd 7f3f 2182 083b
00000070: 1676 7f3f 8468 473b 4943 7f3f 6b46 5c3b
00000080: 841d 7f3f 13b4 af3b 1899 7e3f f2de 47bc
00000090: 3d0d 5c3e
98.267586 1.0205972 94.62303 0.019116879 0.98018336 0.01787732 0.9803001 0.0176354
0.98030424 0.021856131 0.9744882 0.024650166 0.9716973 0.0198816 0.97823864 0.015846325
0.98444873 0.012174235 0.98887247 0.011706523 0.98922735 0.015337862 0.9857186 0.0013152097
0.9985768 0.0008359689 0.99898416 0.0020829516 0.9978956 0.0030427286 0.99712044 0.0033611308
0.9965441 0.0053620427 0.9945235 -0.01219915 0.21489425

network_body.processors.0.normalizer.running_variance f4 [37]
00000000: 02dc 164f 1612 ac46 66ec 0d4f 985f b945
00000010: d38f 9f45 1ee9 ac45 b443 a545 8bbb ae45
00000020: 3d46 a745 f198 d645 69f5 dc45 46f5 f245
00000030: 40c1 f545 f2f5 c445 ebfc ba45 6ee8 9a45
00000040: c069 7c45 8ffa 6545 99af 2c45 9812 5d45
00000050: 2e2b 1f45 ebcc 9345 a5d0 5445 b583 ae43
00000060: 11d9 b643 677b 6343 594a 8743 f912 3544
00000070: 6152 0944 08cb 7144 43f5 2c44 1c95 8644
00000080: 44ee 6344 1507 d444 e49b b644 e261 4f47
00000090: e405 8c47
2.5310008e+09 22025.043 2.38108e+09 5931.949 5105.978 5533.1396 5288.463 5591.443
5352.78 6867.1177 7070.6763 7774.659 7864.1562 6302.743 5983.6147 4957.0537
4038.6094 3679.66 2762.9749 3537.162 2546.6987 4729.6147 3405.0403 349.02896
365.69583 227.48204 270.58084 724.29645 549.2872 967.17236 691.8322 1076.6597
911.7229 1696.2213 1460.8716 53089.883 71691.78

network_body._body_endoder.seq_layers.0.weight f4 [128, 37]
00000000: 6dab 99be 4f66 3b3d a110 0cbd ff54 8e3c
00000010: b20f 7fbe 74a5 18bc 4eaf 163e 6683 a0bc
00000020: 7303 db3d d9b0 8bbd b12e a7be 0d2d c33d
00000030: a52f 053e 63c0 90be 3faa d73c 080c dbbd
00000040: e572 acbc 6113 de3d 8b20 4abe 420c 273e
00000050: e7a6 683c e36f 5ebc b4a6 99be d491 1dbe
00000060: a909 123d a435 803d 80f9 1a3d 74a4 303d
00000070: 94a1 25bc c4bc 0dbe bfa8 fb3d 3045 8b3d
00000080: 819d 92be 9107 96bc b99e 613e 440c b0bc
00000090: 0a08 49bd 7271 843e ffd3 d0bd dff7 c93d
000000a0: 3db3 71bd 9bd7 84be bd8b 3c3c f3d9 e63b
000000b0: 5945 dbbe 2c80 473e 6aeb 93bd 1a76 fe3d
000000c0: 37b0 1d3d 9a3f 6f3d 57d0 8fbe 99fe 2bbd
000000d0: cd26 1bbe 189a 43be 14ce a93d 8a29 313e
000000e0: 7e1a 223e afdb 1abd 4eac ef3d dddb 053e
000000f0: f6ef cfbb 93ab ee3e db35 12be 3bd0 553b
00000100: c798 073e 982d 28bc 1589 88be e3d7 c1be
00000110: 82f2 ea3d a5ae 5abe f4c8 d0bc f304 a13e
00000120: 733e 22be 9d89 0bbe 6638 11be 37d0 0ebc
00000130: 4a66 ed3d 709b 963d e8a9 22be 3945 32be
00000140: d88f 2d3e 0ceb d63d 8026 2a3d 6841 893e
00000150: 5176 8d3d d5e8 113e ed7a 5dbd 00a6 73be
00000160: 1327 4cbe 22c2 a13d 96aa 66be 75ac b53e
00000170: 884a 58be 738d a2bd 091c 343e 2f57 3dbe
00000180: a41d 813e 4aaf 4ebe d458 21bc 582b cb3d
00000190: 88d4 c8bd 47c2 6bbd 8409 6dbd b800 003b
000001a0: 3158 71be dda8 0b3e a95a 073e fcdf 3e3e
000001b0: 9a12 20be b32b 2a3e dff7 02bb 85e2 753e
000001c0: d39f 623d 41c9 ea3d f06f 893d f209 3c3c
000001d0: 21e0 8abd 36b5 0ebe 9997 683c f0bf c33e
000001e0: a480 f03d ca4f 263e ef9b b8be 98cc ff3d
000001f0: 800e 88bd 8ecb 3f3c 77bf ebbb 1bb9 363e
00000200: e96a f23d 4092 e0bd 5bd3 8bbd 6c6d a03c
00000210: 7d8c 3dbc ff2c 1d3e d3f5 193b 4a64 2ebd
00000220: 9463 593c 5242 62bd f685 c93d 4de6 fabc
00000230: fd6a 553e 97d9 9b3d 3672 903e 4b81 05be
00000240: b80a 723d 8394 253d 1fa4 cabd c6f3 53bd
00000250: 3248 30bd fd78 333d 8783 083e 6d72 e93d
00000260: 81eb 50bd 2570 d7bd 2f6b 44be b75e b7be
00000270: 92db 1e3d da45 603e c5d1 273e 69c8 5ebe
00000280: f230 4b3e 7725 8e3d 2a35 18be 1d85 c23d
00000290: 807a 62bc a45e 12be 91d6 65be f443 e1bd
000002a0: cedd 27bd d94e 74bd 691f a93c ba6f 8cbd
000002b0: bc6a 4dbe c83b 39be b102 eb3c 2d2b 633d
000002c0: 61e0 46bd 04a1 53bc c0fb f93d 8e83 f33e
000002d0: 092e 21be 3332 563e fa33 78be f3fb a6bc
000002e0: d6c8 86bd 1ce4 b1bd b491 c5bd e460 6dbe
000002f0: fd72 363c a491 5ebe 43a9 303e cae9 d1be
00000300: c54c 58ba 0753 983c 0042 313d 9c98 4bbd
00000310: 8bd8 e0be d27d 40be fe16 863e 31bf a4bd
00000320: 70a8 9abd 4a2c 433b abd1 b43e 75e8 fcbd
00000330: 060d febc 7080 9d3d 38b0 dfbd 0818 6e3c
00000340: 9ed6 e73e 754f e13c a7d8 62bb d7c8 7bbd
00000350: b732 ee3d 0f42 1b3d d84f 42bc 433d 04bd
00000360: cacb debd aa31 713d 42c4 d33e 44d9 c53d
00000370: d7f6 8ebc a781 2ebe 5a92 023d 51d7 053e
00000380: 105d 163e 2cc0 0abe b5b9 b33e 8c59 973d
00000390: 162b 1bbe 400b 14bd d997 0abe 2edb 983b
000003a0: 2f61 3a3d 3f36 153e 8419 023d 3f7d 193e
000003b0: b6b7 3b3e 74d7 603d c877 1cbb be0e 7dbd
000003c0: 765a b3bd 02a6 7dbb 090f 1a3e 3667 703d
000003d0: cad9 9abd 2947 9ebe 3e0c cd3e d1ad d13b
000003e0: 7036 4abe cdad ca3d af9c 46be 6555 463e
000003f0: 2c1e 2dbe 6576 0fbe b791 e6bd 5a34 5abe
-0.300136 0.045751866 -0.034195546 0.017374514 -0.24908331 -0.009316791 0.14715311 -0.019593906
0.10694017 -0.068208404 -0.3265281 0.09530077 0.13006456 -0.2827178 0.026326297 -0.10695654
-0.02105088 0.1084354 -0.19738977 0.1631327 0.014199949 -0.013576481 -0.30009997 -0.1538766
0.035653744 0.06260231 0.037835598 0.043125585 -0.010109324 -0.1384154 0.12288045 0.06800306
-0.2863579 -0.018314155 0.22033204 -0.021490224 -0.049079932 0.25867802 -0.10196685 0.09861731
-0.059008826 -0.25945744 0.011507926 0.0070450245 -0.42826346 0.19482487 -0.07222636 0.1242487
0.03849813 0.058410265 -0.28088638 -0.04199085 -0.1515152 -0.19101751 0.082912594 0.17301002
0.15830418 -0.037807163 0.117027864 0.13072152 -0.0063457442 0.46615276 -0.14278357 0.0032625336
0.13241874 -0.010264777 -0.26667085 -0.3786002 0.11472036 -0.21355684 -0.025486447 0.31449088
-0.15844135 -0.13626714 -0.1418167 -0.0087166345 0.11591776 0.07353866 -0.15885127 -0.17409219
0.16949403 0.104940504 0.041540623 0.26807714 0.06907333 0.14248975 -0.05407231 -0.23793793
-0.1993678 0.07898356 -0.22526011 0.35483137 -0.21122181 -0.079371355 0.1758882 -0.18490289
0.25217927 -0.20184055 -0.009847838 0.099203765 -0.09806162 -0.057558324 -0.057870403 0.0019531678
-0.23568799 0.13638635 0.13218178 0.18640131 -0.15632096 0.16618232 -0.0019984168 0.24012192
0.0553282 0.114641674 0.067108035 0.0114769805 -0.067810304 -0.13936314 0.0141963 0.38232374
0.11743286 0.16241375 -0.36056468 0.12490195 -0.06643391 0.011706246 -0.0071944552 0.1784405
0.11836798 -0.10965395 -0.06827422 0.019583426 -0.01156914 0.15349196 0.002349247 -0.04257611
0.01326837 -0.05523903 0.09840004 -0.030627394 0.20841594 0.07609861 0.28212136 -0.13037603
0.059092253 0.040424835 -0.09894585 -0.051746152 -0.0430376 0.043816555 0.13331424 0.11398778
-0.051005844 -0.10519437 -0.19181512 -0.3581445 0.038783617 0.21901646 0.16388614 -0.21756138
0.1984289 0.069407396 -0.1486403 0.094980456 -0.013823152 -0.14293915 -0.22445132 -0.10999289
-0.040983014 -0.059645507 0.02064486 -0.06857248 -0.20060247 -0.18089211 0.028687807 0.055461098
-0.04855383 -0.012916807 0.122062206 0.47561306 -0.15740217 0.20917587 -0.24238577 -0.02038381
-0.06581275 -0.086860865 -0.09646931 -0.23181492 0.011135814 -0.21735245 0.17252068 -0.4099868
-0.00082511856 0.018594278 0.043275833 -0.049706087 -0.4391521 -0.18797997 0.26189417 -0.08044279
-0.07551658 0.0029781037 0.35316214 -0.12349025 -0.03101207 0.07690513 -0.10922283 0.014532097
0.45280927 0.027503708 -0.0034613998 -0.061470833 0.11630767 0.037904795 -0.011859857 -0.032284986
-0.108787134 0.058885254 0.4136067 0.09660581 -0.017451687 -0.17041646 0.031877853 0.13070418
0.14683938 -0.1354987 0.3510262 0.073901266 -0.15153155 -0.03614354 -0.13534488 0.0046648
0.045502838 0.14571474 0.031762615 0.14989184 0.18331799 0.054892972 -0.0023875106 -0.061781637
-0.087574884 -0.0038703685 0.15044798 0.05869218 -0.07561071 -0.30913666 0.40048403 0.0063988944
-0.19747329 0.09896431 -0.19395708 0.19368513 -0.16906041 -0.14010008 -0.11258262 -0.21309033

network_body._body_endoder.seq_layers.0.bias f4 [128]
00000000: cd13 333c 46e8 853c 1a74 35bb 0690 ca37
00000010: c849 c7bb 8d49 6dba 95d1 debb 01e1 1abc
00000020: 4319 383c 716e 8d3c 44e1 403b 0fd4 dc3b
00000030: eeff 0abc d537 863b f4c9 bdbb a836 023b
00000040: a953 c0bb 103b adbb a83b 83bc 3c17 fb3b
00000050: 4c78 2abc 697c c13b 4d96 3e3b 1585 4fbc
00000060: b669 8d3c 9b14 723c bab3 bf3c 743f 53bc
00000070: 6227 8b3c 038f 723b ce92 0a3c 78aa 703c
00000080: 78a5 6a3b dba9 42ba 5d71 0abc 41ee f83b
00000090: 5638 30bc 8d1e 56bc ce88 2bbc dce5 8f3c
000000a0: 022f 00bb f9c5 1f3c 9874 d33a c1db 583c
000000b0: ea8b d539 9ed7 b63b 3b5a 27bb 2c6c 04bb
000000c0: 7cd4 ef3a 46bf f03b 2ae1 68bc 2218 3138
000000d0: 4fc2 953b 60e9 653c 2e5e 233a bfd7 2d3c
000000e0: 5ea1 54bc 00ea 143a 894e 90ba bec8 9cbb
000000f0: f864 fa3b b184 08bc a796 2c3c a3d9 0d3c
00000100: e6e7 6cbb 7f30 083b 1b14 543c 9d47 dd3b
00000110: 11cc efbb c9ec 84bc 33b1 53bc de07 703b
00000120: cc52 a9b9 c406 d3b8 c37d ab3b 3b21 03bc
00000130: b13c 28bb cbaa 8dbb 432e 6b3c 8574 92bb
00000140: 8e7f 283c 597d f23b 1f9b 5e3c cc35 13ba
00000150: 342e 113c 6860 6fbb 41af c93b ac60 95ba
00000160: e14a 133c ee5d a9bc 6b53 a4bc 9afb b83b
00000170: eba5 d83c ae38 dabb ff90 0abc 4624 d43b
00000180: 79c3 be3c 39b3 9b3c 812a ec3a 0c13 19bc
00000190: 35a7 833c e58c 8f3b e95a 4c3b e1ee 8abb
000001a0: aa50 a2bc 4377 09bc 8c01 073c a665 373b
000001b0: 5e47 04bc fd0d 5e3c f9c1 a33b db57 d23c
000001c0: c2c7 f63b e057 07bc f563 b73b 19ab 5a3c
000001d0: e1c7 eabb f439 fcba cbeb 7cbc 3365 89b9
000001e0: 2938 073a 2978 62bc 7207 103c bddf e23a
000001f0: 4479 d23b e848 d13b 69c0 a13c 37b1 9b3c
0.010930014 0.016346108 -0.002768761 2.4147343e-05 -0.0060817935 -0.00090517924 -0.0067998865 -0.009453059
0.011236492 0.017264577 0.0029431144 0.0067391465 -0.00848387 0.004096011 -0.005791897 0.0019869003
-0.005869348 -0.005286582 -0.016019657 0.007662682 -0.010404658 0.0059047234 0.0029081285 -0.012666007
0.017262321 0.014775421 0.02340113 -0.012893546 0.016986553 0.003701151 0.0084578525 0.01468908
0.0035804193 -0.0007425823 -0.0084498795 0.0075967615 -0.010755619 -0.013068807 -0.0104696285 0.01756566
-0.001955927 0.00975179 0.001613277 0.013235987 0.0004073077 0.005579903 -0.002553596 -0.0020206077
0.0018297578 0.0073470203 -0.01421384 4.2222564e-05 0.0045702825 0.014032692 0.00062319904 0.01061052
-0.012977926 0.00056806207 -0.0011009733 -0.0047846725 0.007641431 -0.008332417 0.010533965 0.008657846
-0.0036148964 0.002078086 0.012944247 0.0067529217 -0.007318028 -0.01622619 -0.012920666 0.0036625783
-0.0003229588 -0.00010062524 0.005233498 -0.008003528 -0.002567094 -0.0043233386 0.014354291 -0.0044694566
0.010284318 0.0074001965 0.013586788 -0.00056156213 0.008861113 -0.0036525968 0.006154925 -0.0011396608
0.0089900205 -0.020674672 -0.020059308 0.0056452276 0.026446303 -0.006659589 -0.008457421 0.0064740507
0.023286568 0.019006358 0.0018018038 -0.00934292 0.016070941 0.0043808096 0.0031182116 -0.0042399024
-0.019813854 -0.008390251 0.008240115 0.0027984171 -0.008073656 0.01355314 0.0049974886 0.025676658
0.007531137 -0.008260697 0.0055966326 0.013346457 -0.0071649407 -0.0019243346 -0.015437077 -0.00026206076
0.000515821 -0.013822594 0.008790838 0.0017309111 0.0064231474 0.006386865 0.019745069 0.019005401

network_body._body_endoder.seq_layers.2.weight f4 [128, 128]
00000000: 1b93 063d 3349 ea3d be9f aabd 5f4e 3d3b
00000010: 20e1 27bd 8aaa 48bc 93ce 373d d915 073d
00000020: e925 3a3c d684 65bd 347b 043d ae6d 363d
00000030: d68e ce3d fc79 00bd 898a 95bd c87b 9e3d
00000040: 2741 ebbb 0a7d bf3d fc32 163c 3602 07be
00000050: e940 94bd f71d 32be babf 2fbe 00fd 213d
00000060: 3fe8 3b3e 649f cb3d b9c5 54bd 28c0 ab3a
00000070: 7b73 bdbc 797b c13c 4ca4 1a3b 7ec3 453d
00000080: 4c9b ebbd 8c31 91bd 3e1a 553c 4715 403e
00000090: 09df 673d 536c 443e 08cf 27be bfe4 f73c
000000a0: 0b7c 673d 54cf 2abe 7bae 1ebd 145b 1cbd
000000b0: fcf4 3abe b260 9cba adea a8bc 6425 88bd
000000c0: e81f 65bb 84e0 613d b25b 183c e9cb ba3c
000000d0: 5b26 63bd ca04 debd 094d 6f3d 2b4c 1a3d
000000e0: 93bb 1cbd be2f cb3d 6f93 333c 56cd 263e
000000f0: f71e bf3d aa6f ab3c 85d0 9ebc b527 e7bc
00000100: 89cc 763c 9826 2abd a26e b9bd 4b23 05be
00000110: 7fe0 e73c 364f 9abc 3cad 2d3d 0301 0bbe
00000120: 096d 5d3c 4515 3c3d a330 233e b1ef 053e
00000130: 9ead 953d 31e4 fe3c 4d2c 373d c922 1f3d
00000140: ebeb e83b 432f 1a3d 3b83 a4bb 3725 af3c
00000150: 55f5 27bd b910 88bc 40bf 93bc 383e b1bd
00000160: 15bc efbd ba90 03bd 0397 6f3d 7ed5 67bc
00000170: e202 b33c 8486 b13d d971 f9bd e02e ff3b
00000180: d368 be3d 749e 6c3d 6aee 8d3c 251f 4a3c
00000190: c683 763d f1e8 3e3c 96d1 9e3d 2941 2e3e
000001a0: d72d afbd 18c9 663c 31b7 4fbd 19d1 15be
000001b0: 70de 763d 96d9 363e 0ac4 a33c 7c17 463d
000001c0: 6745 f33d 2117 b1bd 0048 50bc bdd1 b6bc
000001d0: e117 223e 0839 973d 114b a73d 72d1 d1bc
000001e0: 2f70 a93d 91c7 25bc cd5c 943a 4db4 363e
000001f0: 7afb 803d 5074 9ebc 2ee9 273c 9f85 c5bd
00000200: 2400 443d 1c65 133d 5cb8 47bd 44ed dc3d
00000210: 2a4b 38bd f14a 28bd 1357 bb3d 5b82 383d
00000220: a847 1fbd 4fdc 21bc 6f99 bebc 5d73 8f3d
00000230: 8536 dbbd 4cbc 3bbc d114 f9ba 7c15 9d3d
00000240: f223 833d cf86 c13b 5088 db3c 3286 943d
00000250: 4c1b 30bd 6914 4bbe a2e1 403d 0dfa 383e
00000260: 5e2b 523d cbd7 abbc 26a0 2fbc 5dd2 05bd
00000270: 8de0 493e 4cf2 bdbd 1ee6 46bd bb9e a63d
00000280: 34e6 95bd 2322 803d 7bf9 2c3d 1f11 7b3b
00000290: 6fa3 29bd dcd5 293d 5598 b2b9 88f9 933c
000002a0: c069 5dbd 1bc9 e33d 8359 193c 2a19 bfbd
000002b0: 52c5 e03d da92 eabd 671a 8a3d 07f7 2e3d
000002c0: 926a eb3c be0c cd3c 1ee1 7cbd 1d05 993d
000002d0: d629 bbbb 9bbe d6bc d840 0e3e c0f8 733d
000002e0: 0ce8 f2bd 9d48 303d 6a25 1bbd b4aa a3bd
000002f0: 2702 b73d 4e96 473c 1124 023e 4314 503d
00000300: d902 04bd 7208 533d 151c 113e df9b 783d
00000310: 7243 913d 7d7f b5bc def9 0ebe 6adc b23b
00000320: f99e 233d 13e1 4d3d a1a9 1a3d 4910 05be
00000330: fa58 babd c56c e43d 476e 4b3d 391f afbb
00000340: 4191 693d 0e9b cf3d d057 893d 43d9 ef3d
00000350: 1872 eebb a2ca e53c 9e03 113e cabf f7bb
00000360: 06ac 143e 5857 79bc 11fd 0d3e 1473 b03d
00000370: 407c 17bd 4226 043e 1770 eebd 6ac9 00be
00000380: a8b0 8fbd 6259 24be d3a6 a8bd db7f d8bd
00000390: 310f b7bd 121c f83c 4a3d babd 9b8f f63c
000003a0: ee27 823d b749 6bbd 3bdb b0bd 64a7 aabc
000003b0: eedf 273d cdfa abbd 85c9 4ebd 94f1 963b
000003c0: eee0 e3bb 8e8c c9bd 1fd8 e7bd cf46 9fbc
000003d0: f975 b73d 8cdc ad3c b487 3abc d03d 883d
000003e0: 9ea6 23be d910 debc d10d e03a 1783 00bd
000003f0: 4b94 1ebd e2fa 72bd 6477 73bc e03f e4bd
0.032855134 0.11439743 -0.0833125 0.0028885824 -0.04098618 -0.012247691 0.04487474 0.03297982
0.011361578 -0.056034885 0.03234406 0.044538192 0.100858375 -0.031366333 -0.07301814 0.07738453
-0.0071793976 0.09350021 0.009167429 -0.13184437 -0.07238943 -0.17394243 -0.17162982 0.03954792
0.18350314 0.09942511 -0.051946376 0.0013103532 -0.023126354 0.023618447 0.0023596464 0.04828214
-0.1150423 -0.070895284 0.013006745 0.18758117 0.056609187 0.19181947 -0.1638757 0.030260442
0.05651478 -0.16680652 -0.038740616 -0.038172796 -0.18257517 -0.0011930673 -0.020619715 -0.06647757
-0.0034961645 0.055145755 0.009299206 0.02280231 -0.0554565 -0.10840757 0.058423076 0.037670296
-0.038264822 0.099212155 0.010960444 0.16289267 0.09332078 0.020927269 -0.01938654 -0.028217176
0.015063413 -0.041540712 -0.09054305 -0.13001744 0.02830529 -0.018836599 0.042401537 -0.13574605
0.013514766 0.04591872 0.15936522 0.13079716 0.073085055 0.03111467 0.044719983 0.038851533
0.0071082017 0.03764273 -0.0050205267 0.02138005 -0.04100545 -0.016609536 -0.018035531 -0.086544454
-0.11705796 -0.032120444 0.058493625 -0.014150022 0.02185196 0.08668235 -0.12179918 0.0077875704
0.092973374 0.0577683 0.017325599 0.012336527 0.060184263 0.011652217 0.07754819 0.17017044
-0.08553665 0.01408603 -0.050711814 -0.14630546 0.060270727 0.1785644 0.01999094 0.04836224
0.11878472 -0.086469896 -0.012712479 -0.022316808 0.15829422 0.07383925 0.08168615 -0.025612567
0.082733504 -0.010118381 0.0011319161 0.17842217 0.06297965 -0.019342571 0.010248465 -0.09644627
0.047851697 0.035985097 -0.048759803 0.10787442 -0.044993557 -0.041087095 0.091474675 0.04504619
-0.038886696 -0.009879186 -0.023266522 0.07004426 -0.10703758 -0.011458468 -0.0019003396 0.076701134
0.064033404 0.005905963 0.026798397 0.07252158 -0.042994782 -0.19832005 0.04709018 0.18064137
0.05131089 -0.020976922 -0.010719335 -0.03267132 0.19714566 -0.0927473 -0.0485593 0.08135744
-0.073192984 0.06256511 0.04223011 0.0038309766 -0.041415628 0.041463718 -0.00034064302 0.018063322
-0.05405593 0.11122342 0.00935972 -0.093309715 0.10975136 -0.11453791 0.06743317 0.042716052
0.02873734 0.02503049 -0.061738126 0.074716784 -0.0057117743 -0.026213935 0.13891923 0.0595634
-0.11860666 0.043038 -0.037877478 -0.079915434 0.089359574 0.0121818315 0.1270907 0.050800573
-0.03222928 0.051521726 0.14170869 0.060695525 0.07092942 -0.022155518 -0.13962504 0.0054584043
0.03994653 0.050263476 0.037759427 -0.12994494 -0.09099002 0.11153559 0.049665716 -0.005344298
0.05702329 0.10136996 0.06706202 0.11711361 -0.0072767846 0.028050724 0.14161536 -0.007560705
0.14518747 -0.015218578 0.13866068 0.086156994 -0.03698373 0.12905219 -0.11642473 -0.12576833
-0.070161164 -0.16049722 -0.08234944 -0.105712615 -0.089384444 0.030286822 -0.09093721 0.030097773
0.06355272 -0.057443347 -0.08635565 -0.020831771 0.04098504 -0.08397446 -0.050485153 0.004606435
-0.006954304 -0.09841262 -0.11320519 -0.019442944 0.089580484 0.021223329 -0.011384893 0.06652415
-0.15981528 -0.027107643 0.0017093961 -0.031375017 -0.038715642 -0.05932129 -0.014860008 -0.11144996

network_body._body_endoder.seq_layers.2.bias f4 [128]
00000000: fcbe c0bb 07b5 6f3c 5d59 803b d644 2f3c
00000010: 01b1 5b3c 2398 023c 6765 973c c9f7 c1bb
00000020: 621b ae3b 463f e0bb 3652 513c 4a73 28ba
00000030: f323 5e3b 8d31 183c 83a3 8abb 1b4e c63a
00000040: 5809 953b 790c 94bb a3d2 45bc 2a68 ffbb
00000050: f67e 0cbc a754 f43b 10ef 32bc dfe6 5a3b
00000060: 41b4 11bc ce4c 9fb9 5a39 103c 02fe abba
00000070: 489a 43bc 6177 a4bb d7c2 ecba ef1a 78bc
00000080: 2722 2ebb 1d2e 07bc 377d 2dbc 7f63 813c
00000090: ebd6 a8bb e735 1f3c e9f7 12b9 fa2a 893a
000000a0: f9ff 443c 0d97 703b f25e 983a e153 833c
000000b0: bfba a73c 581b 9ebb 72c7 943b f463 adbb
000000c0: 2f52 5ebb 6d66 c33b 0c75 68bc 9ecf 813c
000000d0: 3c5f d03a fc3c 313c 13d9 06bc cc8a 2b3b
000000e0: 8222 20bc 5ba6 273c 2d03 ecbb d09a 643a
000000f0: 21e4 553c bb4c fa3c db6a ea3a 40e2 b2bb
00000100: 4bd2 07bc 28e3 873b a380 cf3c 3e8d 993c
00000110: 630b 1fbb d997 0a3c 3c4d 683c 5759 023c
00000120: bd88 383b c0ee d7bc b018 3bbc 8322 81bc
00000130: fab5 39bc 8420 ed3b d80c 8e3b 9b93 ffbb
00000140: c96d fcba cf59 7e3c 8158 5f3b 8cbe 61bb
00000150: e310 aeba 6f74 193c 4969 dbbb 04b4 9c3c
00000160: 2ccf 413c 5e4b 3cbc c46e cbbb d88f 0b3c
00000170: 5a5f b3bb 87fc c03b 8cc5 fbbb a4b8 2b3c
00000180: 53a9 84bb b2c0 2fbc 0529 5fbc e1ff 16bc
00000190: c91a 3a3c 46f1 253c 2c1e 133c 347b 1e3b
000001a0: ada1 883b e765 363b 40dc c23b c4d6 67bc
000001b0: 292e 05bc 7fdc 183c bdd8 14bc e32f 323c
000001c0: 0e6d 0e3c 73c8 0d3c 5029 f53a 39bd 003c
000001d0: f9b2 7a3b f86d 593c 4352 43bc e165 05bc
000001e0: 8064 fe3b ad34 2aba 36b1 7d3c 980a de3b
000001f0: e73c 3e3b 3278 4f3a fb38 c63b 92e3 d23b
-0.005882142 0.014630563 0.003916903 0.010697564 0.0134089 0.0079708425 0.01848097 -0.005919431
0.005313323 -0.0068434803 0.012775948 -0.0006425871 0.003389594 0.009289158 -0.004230918 0.0015129478
0.004548233 -0.0045180884 -0.0120741455 -0.0077943997 -0.008575192 0.0074563804 -0.010921255 0.003340177
-0.008893074 -0.00030384067 0.008802736 -0.0013121965 -0.011938639 -0.005019114 -0.0018063438 -0.01514314
-0.002657065 -0.00825074 -0.010588936 0.015794514 -0.0051525733 0.009717441 -0.00014015999 0.0010465079
0.012023919 0.0036711127 0.0011624976 0.016031208 0.02047479 -0.004825037 0.0045403773 -0.0052914564
-0.0033923497 0.005963138 -0.014188062 0.01584607 0.0015897523 0.010817762 -0.008230465 0.0026175259
-0.009773852 0.010232533 -0.007202527 0.00087205786 0.013054878 0.030554166 0.0017884629 -0.0054591
-0.008289884 0.004146952 0.025329893 0.018744107 -0.0024268262 0.008459055 0.01417857 0.007955871
0.0028157674 -0.026358962 -0.01141946 -0.015763527 -0.0113348905 0.007236542 0.004335027 -0.0077995784
-0.0019258793 0.015524342 0.0034079852 -0.003444585 -0.0013280179 0.009366139 -0.0066959006 0.019128807
0.011829179 -0.011492578 -0.0062082727 0.008518182 -0.0054740133 0.0058894786 -0.0076834615 0.0104810335
-0.0040485053 -0.0107270945 -0.01362062 -0.00921628 0.011358925 0.010128325 0.0089793615 0.0024182322
0.004169664 0.0027831735 0.005946666 -0.014150325 -0.008128681 0.009329914 -0.009084878 0.010875675
0.008692993 0.008653748 0.0018704329 0.007857614 0.0038253649 0.0132708475 -0.011921468 -0.008141966
0.0077634454 -0.00064928347 0.015484145 0.006776165 0.0029028 0.0007914334 0.006049273 0.00643582

action_model._continuous_distribution.log_sigma f4 [1, 3]
00000000: 9973 303b e2c9 58ba 3ef0 c1ba
0.002692437 -0.0008269829 -0.0014796329

action_model._continuous_distribution.mu.weight f4 [3, 128]
00000000: b4a9 b63c 2f52 bebb a5df 33bd d8d3 833c
00000010: fc17 abbc c039 06bd 8065 a43d 9760 a7bb
00000020: 253c 043d 10e3 25bb d142 94bc 7d24 a9bc
00000030: 9dd8 b43c 44d2 95bc ea14 683c cd93 7c3b
00000040: 0953 923a dbb3 2c3c 2078 c03c 4723 703c
00000050: 82c4 0b3c 695c a33a 08bf 473c c3a9 df38
00000060: e4dd 90bb f69f e4bc 4ea5 95ba 4720 a9bc
00000070: dca6 a83c dea2 bebc 13cd 373b 14b1 ba3b
00000080: f8fa 19bd 31cb 423c 36ff 15bc d12c 173a
00000090: 306e da3c fe1b ca3a 5d9e 423c 0aa2 a7bb
000000a0: 9173 cbbc c37f 86bc d689 923c 7a4a f13c
000000b0: 91ad 5d3b e303 56bc 805b 6f3c d8ee 253c
000000c0: bb48 c23c 41fa 0bbd b4fd acbc 7b8a b3bc
000000d0: fb97 febc cb96 e4bb ffeb 1f3b d695 6a3d
000000e0: 58ce e3bc dbb2 d0bc 3246 1f3b 6040 c83c
000000f0: 7637 d0bc b1a5 ed39 4cc0 7bbc 760c e33b
00000100: 041f 173d 6167 84bc 8a30 82ba 01d0 6e3c
00000110: 2434 ea3c e7b5 693c dd7c 19bd 79f5 d3bb
00000120: 7993 7b3d cf60 f93b 0641 663c 1b1f 28bc
00000130: 6f25 253a d1f6 e83c 09e3 1cbc 6f2b 2bbc
00000140: fdd4 00bd b4e5 8fbb 4a01 8c3a e748 c6bb
00000150: c661 323c 13ff 333b 2f55 6a3c 66b7 d7bc
00000160: 867b 1ebc 1370 dbbb 2bab 88bc 1330 14bd
00000170: cec6 b33c 1566 4ebd 269c 393b cb9f f63c
00000180: 220d 86bb 575e 94bc 7bbf a93c 9db8 933c
00000190: 92d8 8aba 7973 9cbb f235 fa3c e3ef aabc
000001a0: af7c d2bb ab5c de3a 3852 2b3d 0554 1e3c
000001b0: 56ca feb9 aa93 d13c a416 073d 788a 9bbc
000001c0: bb8f 123d 6f46 e2bb 55eb 1b3c 69b3 2bbc
000001d0: 9548 f83b 42ad 9cba 69fa 4cbc 7ebc 45bc
000001e0: d0cb 63bc daaf 3a3c 9e11 c1bc 202b af3c
000001f0: adba 0dbc fbe1 e13b 49b9 17bc cf77 54bc
00000200: c2fb b03c 2a53 9bba 16a4 c3bb 9c68 12bd
00000210: dc87 6abb c251 373c ce0a 2e3c 54dc e4bb
00000220: d0c6 ecbb 6374 1e3d 3f90 0e3c e3f9 00bd
00000230: 2aea 543d 9ef0 c13b eb1a 0c3c f6e1 d6bb
00000240: 5b1b 1abc 8edd 98bb 1e5e fdbc e6bb 363c
00000250: 6b59 62bc dd21 483c dd35 503c f4fa 27bd
00000260: d58c 843c 2f9a 943a 84dd 6c3c 92a1 553b
00000270: 7f8b 0cbd e408 2cbc 10fa 4bbc 3db4 e03b
00000280: 2b5e 75bb edd5 213b 12b6 93bc 3522 3ebc
00000290: c7b1 4c3c e710 bdbc f471 e9bc ecb0 e6bc
000002a0: b748 36bb f9be 843c a1a9 69bc 0f99 423d
000002b0: 9852 173d cb2d 6dbc c0ab 6bbc b204 fcbb
000002c0: 2044 a93c 6672 9dba b60d cbba eb53 4cbc
000002d0: 0fdf 9e3c 5a26 ae3a 2a29 d73a 0af0 643c
000002e0: 412f b63b f506 0fbd aa54 f9bc 82f6 0bbd
000002f0: 42d5 11bd 25ce 043c 692f 543c 9002 953c
00000300: e0c7 50bc 950d c4bc 4064 d7bc 3f9e 23bd
00000310: c6d5 34bd bb7a 1a3a 691b 293d 3198 5bbc
00000320: 1a29 883b ab9b c8bb 34e7 d63c cecc b93c
00000330: 766b 143d 588d 62bc e1ee 3d3c d7f1 a53b
00000340: a319 26ba db47 b1bb d6d4 443d 38d1 a0bc
00000350: 3b7e 213b 47bd 233d 0499 a0bc 084a cf3b
00000360: 9924 64bd 03aa 363c 3825 463c 17f0 50bb
00000370: ec0d 6b3c 1594 f23a 397e 1dba 5c9f d53a
00000380: 8890 b63b 76da fd3b 3139 df3c 0f2f e2ba
00000390: 7dc7 cbbc bf77 c5bc a574 3b3d f7fe 2d3c
000003a0: 4a19 fc3c 049f aabc ae4d 593c 5fc1 6c3c
000003b0: 2843 eb3c 27fc 903c aa51 6dbc fdc8 a83c
000003c0: d706 943b 3b31 c2bc 7cd9 c43c 44f3 413c
000003d0: 3506 b63b b62f 373b 6364 413b b3b9 383c
000003e0: 1282 de3a da17 4f3c b48a 7bbc d577 37bb
000003f0: 339a 91ba 610c 8a3b c3f7 e0bc 6097 193d
0.022297718 -0.005808137 -0.043914456 0.016092226 -0.02088546 -0.03276992 0.08027172 -0.00510795
0.03228392 -0.0025312342 -0.018098267 -0.020647282 0.022075946 -0.018288739 0.014165143 0.0038540245
0.0011163662 0.010540928 0.02349478 0.014656848 0.008530738 0.0012463453 0.0121915415 0.00010665089
-0.0044209827 -0.027908307 -0.0011417062 -0.020645274 0.020587377 -0.02327102 0.0028045818 0.005697379
-0.037592858 0.011889265 -0.009155085 0.0005766871 0.02666387 0.0015419719 0.011878577 -0.005115752
-0.02483538 -0.016418343 0.01788799 0.029454459 0.0033825377 -0.01306245 0.014609218 0.010127746
0.023716321 -0.034174208 -0.021117069 -0.021916619 -0.03107833 -0.0069759837 0.002440214 0.0572718
-0.027808353 -0.02547591 0.0024303314 0.024444759 -0.02541707 0.00045327612 -0.015365671 0.0069289757
0.036894813 -0.016162576 -0.0009932679 0.014575959 0.028589316 0.01426456 -0.037472595 -0.0064684716
0.061419938 0.0076104174 0.014053589 -0.010261322 0.00062998285 0.028438004 -0.009575614 -0.010447367
-0.03145312 -0.0043913964 0.0010681537 -0.006051171 0.010887569 0.0027465269 0.014302536 -0.026332568
-0.009673005 -0.00669671 -0.016683182 -0.03617866 0.021945383 -0.05039032 0.0028321831 0.030105492
-0.004090921 -0.018111391 0.020721188 0.018032366 -0.0010593107 -0.0047745076 0.030543301 -0.02086634
-0.006423555 0.0016964873 0.041826457 0.0096635865 -0.00048597407 0.025583107 0.032980576 -0.018986925
0.035781603 -0.006905369 0.009516557 -0.010479786 0.007577012 -0.001195349 -0.012510874 -0.012068866
-0.013903573 0.011394465 -0.02356797 0.021382868 -0.008650464 0.006893394 -0.009260484 -0.012968018
0.021604422 -0.0011850346 -0.0059704883 -0.035744295 -0.0035786545 0.011188926 0.010622693 -0.006984273
-0.0072258487 0.038685214 0.008701383 -0.03148831 0.05198113 0.0059185764 0.00855134 -0.0065576984
-0.009405936 -0.0046650833 -0.030928668 0.011153197 -0.013815264 0.012215105 0.0127081545 -0.041010812
0.016180435 0.0011337454 0.01445711 0.0032597524 -0.03431272 -0.010500167 -0.012449756 0.0068574236
-0.0037440162 0.002469416 -0.018031154 -0.011604835 0.012493557 -0.023079349 -0.02849672 -0.028160535
-0.0027814338 0.016204344 -0.014261634 0.04750925 0.036944002 -0.01447625 -0.01438421 -0.0076909894
0.020662367 -0.0012012243 -0.0015491757 -0.0124711795 0.019393472 0.0013286576 0.0016415466 0.013973245
0.0055598323 -0.034918744 -0.030435879 -0.034170635 -0.03560377 0.008105789 0.012950757 0.018189698
-0.012742966 -0.023932258 -0.02629292 -0.039945837 -0.044149183 0.0005892922 0.041285906 -0.0134029845
0.0041552903 -0.0061220727 0.026233293 0.022680666 0.036235295 -0.013827644 0.011592598 0.00506423
-0.00063362176 -0.005410177 0.04805454 -0.019631013 0.002464189 0.03997543 -0.019604214 0.006325964
-0.055698965 0.011148932 0.012093835 -0.0031881386 0.014346581 0.0018507267 -0.00060078833 0.0016298103
0.0055714287 0.00774699 0.02724895 -0.0017256456 -0.024875397 -0.024104951 0.045765538 0.01061987
0.030773778 -0.020827778 0.013263149 0.0144504 0.028718546 0.01769836 -0.014484802 0.020603651
0.004517417 -0.023705116 0.024029486 0.011837784 0.005554939 0.0027952022 0.0029509298 0.011274743
0.001697602 0.012639964 -0.015352894 -0.002799501 -0.0011108577 0.0042129015 -0.027461892 0.037497878

action_model._continuous_distribution.mu.bias f4 [3]
00000000: 8ccd 4fbb 29fa 8ebb 0514 47bc
-0.003170821 -0.0043633175 -0.012150769

exp_avg f4 [128, 37]
00000000: e04f 8934 e889 98b6 36d7 91b7 7f38 ee37
00000010: e4c2 3cb8 a30e 96b6 5e01 37b7 ecec ed36
00000020: 6684 7db7 2378 8c36 699e 5338 272e 0538
00000030: 6f0e 7fb8 1a56 54b7 085f 0ab7 bcfd e938
00000040: c8c6 a0b8 6c98 2a39 6cca 06b9 a0a3 06b7
00000050: 0858 8cb8 389e d236 daa0 b337 a0cb c3b5
00000060: ab14 5935 948d 32b5 9813 4d35 8eb8 b1b7
00000070: 3491 c737 d0d3 e0b5 0fb3 1537 736d 0139
00000080: 99eb 1eb9 d6fb f038 e472 fbb8 7c42 b337
00000090: e33e 8c38 a24a 36b9 32b7 4636 2a53 f5b8
000000a0: a0ec 1139 c5a0 10b9 d6b6 c2b8 61ae 3838
000000b0: aa85 bc37 df1e 6836 b211 efb6 8389 3038
000000c0: f684 c238 b9e5 3ab9 4e82 0f38 4571 08b8
000000d0: 9a69 2238 45cd 4e38 311f 3038 20fd cfb7
000000e0: 4ad0 28b9 3a2f e238 bad9 f9b8 2f1f fd38
000000f0: fe66 9036 0109 8db6 933f 31b8 36b9 1435
00000100: aa67 9ab8 c222 0438 753a a1b8 7a82 1239
00000110: 9cbb 05b9 80d8 9038 17e8 8d38 4bf4 a3b8
00000120: 848c 1fb9 0a3b c437 7c96 df36 f932 b935
00000130: 6ce2 a736 9a1d e6b7 a0ee 3d38 7f46 07b8
00000140: dbbf 0638 cc9b 3137 1918 1cb8 4b8f 25b8
00000150: d12b 3038 2d9a b5b7 cb2b 2737 ceae b2b7
00000160: 3b1b a937 52b6 83b7 0a51 0238 5877 5a37
00000170: 00c9 e0b5 92e4 8737 7081 18b6 d822 7eb5
00000180: ba95 ca36 30fe 2633 3af5 ecb5 3a6f 3035
00000190: 055b a0b6 3cad 5fb6 5f6b 8f37 3b98 2b37
000001a0: bdf5 8437 efb4 1638 6eca 17b8 96a5 6537
000001b0: c943 7bb7 ba8c 41b7 1034 b5b5 afa4 cab8
000001c0: bca4 ce33 ad22 b137 cea2 a138 2580 82b8
000001d0: 49bd 43b8 556a 2f38 b4b6 9137 1076 10b7
000001e0: ec9b 7937 5205 1737 e8bd 0e37 2890 abb7
000001f0: c8d3 c537 0291 cbb7 0471 1e37 25cb 0cb7
00000200: 4e9f 2138 ed4c c5b7 ae00 5db7 8a51 dab6
00000210: 509c 57b8 4005 2438 09c3 3e36 6ba9 2cb6
00000220: 7e9f c9b7 12be a035 8475 eab6 fbc0 79b7
00000230: 442a 69b7 9760 8737 8279 dcb7 f168 9e37
00000240: af41 e037 6409 15b8 0ac1 39b8 c1bd e537
00000250: 948d 20b6 44f1 59b6 8bff a737 0af3 4538
00000260: f166 95b8 7c0e f1b7 9783 b737 74c3 a6b6
00000270: 926c 3637 11b0 9737 48ef cbb6 0f88 4437
00000280: 001e 98b7 30ea 2e38 b4a9 81b8 d5ba 9038
00000290: 1c94 95b8 e8fe 1ab7 2415 60b8 ff4e 2738
000002a0: 093f 82b8 5818 7e38 b295 2db8 15f1 21b5
000002b0: 3c3f 0535 8430 5db5 2394 c335 3430 6b36
000002c0: f4ab a8b6 85b7 4536 4e8e 0ab7 b292 ed37
000002d0: b2b7 c7b7 4057 b037 50a4 d1b7 bdaf a838
000002e0: b4e9 de37 c3ea f938 ba1e fdb6 d6c0 0137
000002f0: c034 a2b8 ef30 9438 9a60 2b39 2660 fbb8
00000300: 0ebf 3238 32c4 07b8 a50c b437 75e2 1cb8
00000310: e4f1 71b6 4b79 3738 67f5 eab7 50ef 8c37
00000320: c259 34b8 4c30 1538 ed4e 04b9 c02a aa36
00000330: 4104 3d38 adb9 67b8 233b 3ab7 6940 7f37
00000340: 123d a436 2dc2 c435 9864 de38 8bc4 8135
00000350: a84e 1b37 9d36 4337 f6bc 0a38 f59d 03b8
00000360: 3a5f 1ab9 25c2 1939 aa8e 9438 955b 6db8
00000370: 5d6d 4338 addd 24b8 4da8 6c38 ad24 d536
00000380: 14bf 8eb8 896d 0fb7 f729 2738 5510 5a38
00000390: a885 44b8 e210 3c38 6dee 85b8 c2e6 dfb7
000003a0: f787 9bb7 600f 72b8 2ca8 6238 5eae 73b8
000003b0: 36c4 0738 904d b7b8 e4e1 4738 f455 2338
000003c0: ee65 4b35 90ed 3fb5 467c 6c38 2b68 99b7
000003d0: d346 2db8 d0fb 8db5 3368 d035 0c04 1d38
000003e0: 195a 17b6 fccb f836 949e 09b8 86cc 5837
000003f0: f597 ffb7 97d8 6fb8 aa43 9338 d5dc 1cb8
2.5576355e-07 -4.5460074e-06 -1.7385562e-05 2.8398119e-05 -4.50042e-05 -4.4720523e-06 -1.0907968e-05 7.0907317e-06
-1.51108015e-05 4.186311e-06 5.045385e-05 3.1752654e-05 -6.081018e-05 -1.2656232e-05 -8.247567e-06 0.000111575675
-7.6664204e-05 0.00016269245 -0.00012854644 -8.025119e-06 -6.692117e-05 6.276907e-06 2.1413365e-05 -1.4587895e-06
8.0868875e-07 -6.651619e-07 7.6396964e-07 -2.1185984e-05 2.3790264e-05 -1.6750946e-06 8.922782e-06 0.00012343172
-0.00015155821 0.00011491 -0.00011990013 2.1369422e-05 6.687434e-05 -0.00017384675 2.9610933e-06 -0.00011698001
0.00013916427 -0.00013792801 -9.284697e-05 4.403142e-05 2.2473589e-05 3.4588663e-06 -7.124815e-06 4.2089738e-05
9.275407e-05 -0.0001782392 3.4215213e-05 -3.2530417e-05 3.872216e-05 4.93054e-05 4.199072e-05 -2.4794193e-05
-0.00016099322 0.000107853164 -0.000119138 0.000120697885 4.3035243e-06 -4.2031756e-06 -4.2259297e-05 5.5403814e-07
-7.362601e-05 3.1503623e-05 -7.687967e-05 0.00013972251 -0.00012753758 6.906781e-05 6.766634e-05 -7.817949e-05
-0.00015215768 2.3392513e-05 6.6634366e-06 1.3798409e-06 5.003347e-06 -2.743192e-05 4.528335e-05 -3.2252163e-05
3.212677e-05 1.0586296e-05 -3.721574e-05 -3.9472518e-05 4.2002477e-05 -2.1648675e-05 9.964172e-06 -2.1300653e-05
2.015905e-05 -1.5701316e-05 3.106989e-05 1.3021599e-05 -1.6747799e-06 1.619969e-05 -2.2725108e-06 -9.467308e-07
6.0374996e-06 3.888107e-08 -1.765474e-06 6.5726965e-07 -4.7789677e-06 -3.3330425e-06 1.7096927e-05 1.0227838e-05
1.5850057e-05 3.5931294e-05 -3.6189733e-05 1.3688017e-05 -1.4976548e-05 -1.1536462e-05 -1.3500703e-06 -9.662785e-05
9.6225875e-08 2.1116191e-05 7.707403e-05 -6.222752e-05 -4.666791e-05 4.182228e-05 1.7370425e-05 -8.610557e-06
1.487786e-05 9.00154e-06 8.508076e-06 -2.0451916e-05 2.3582848e-05 -2.426701e-05 9.443847e-06 -8.3919485e-06
3.8533755e-05 -2.3520051e-05 -1.3172785e-05 -6.5063987e-06 -5.1405572e-05 3.9105536e-05 2.8425732e-06 -2.5728611e-06
-2.4035337e-05 1.1976247e-06 -6.987424e-06 -1.4886488e-05 -1.3897723e-05 1.6138232e-05 -2.6282625e-05 1.8883935e-05
2.6733467e-05 -3.5533114e-05 -4.428722e-05 2.7387288e-05 -2.3924267e-06 -3.2475955e-06 2.0026948e-05 4.7194808e-05
-7.124048e-05 -2.8736184e-05 2.1876576e-05 -4.9699393e-06 1.0873324e-05 1.808259e-05 -6.0777274e-06 1.1714189e-05
-1.8133782e-05 4.1702937e-05 -6.182809e-05 6.901255e-05 -7.132461e-05 -9.238465e-06 -5.342545e-05 3.9889474e-05
-6.210624e-05 6.058099e-05 -4.138583e-05 -6.0327994e-07 4.963838e-07 -8.2399515e-07 1.4571746e-06 3.5045787e-06
-5.026808e-06 2.946211e-06 -8.258574e-06 2.8320912e-05 -2.3808188e-05 2.1021464e-05 -2.4991255e-05 8.043598e-05
2.6573289e-05 0.00011916973 -7.5435646e-06 7.733897e-06 -7.7345874e-05 7.0663045e-05 0.00016343818 -0.00011986522
4.261644e-05 -3.236923e-05 2.146356e-05 -3.7404203e-05 -3.6052597e-06 4.3743563e-05 -2.8009248e-05 1.680074e-05
-4.2998938e-05 3.556935e-05 -0.00012617903 5.0713716e-06 4.5065073e-05 -5.5247616e-05 -1.1100233e-05 1.5214181e-05
4.8946904e-06 1.465965e-06 0.00010604522 9.66845e-07 9.2570335e-06 1.1635621e-05 3.3077748e-05 -3.1379943e-05
-0.00014722059 0.00014663542 7.083763e-05 -5.6590496e-05 4.6593475e-05 -3.93071e-05 5.6423527e-05 6.3521643e-06
-6.806679e-05 -8.548967e-06 3.9854986e-05 5.199046e-05 -4.685452e-05 4.4838416e-05 -6.3863445e-05 -2.6691127e-05
-1.8540753e-05 -5.7711615e-05 5.403922e-05 -5.8098107e-05 3.2369244e-05 -8.740567e-05 4.7655674e-05 3.894228e-05
7.577172e-07 -7.1498744e-07 5.6382523e-05 -1.8287528e-05 -4.1312374e-05 -1.0578606e-06 1.5527534e-06 3.7435486e-05
-2.2553197e-06 7.414723e-06 -3.2811033e-05 1.2922223e-05 -3.046913e-05 -5.7183755e-05 7.02211e-05 -3.7398964e-05

exp_avg_sq f4 [128, 37]
00000000: 0a78 c432 0048 4530 0039 a532 de60 b232
00000010: ceb4 b332 530f 8a31 32fb 9f31 249e 0032
00000020: ff63 1d32 3a55 f632 c7ee 3d33 6160 1032
00000030: 6821 5332 dc1f b432 b4b9 df32 319c 1a33
00000040: e225 2c33 69e2 db33 c1df 9f33 8aa0 8a33
00000050: be8d 7f33 a6b7 c333 c759 ca33 24bb 7a30
00000060: 3888 8631 8bed cf30 1d95 9b31 d09d 4c30
00000070: ee08 cf30 e99c 1530 d91e a330 b165 1c34
00000080: 9fc1 2f34 625b e233 1acb e533 d97b aa33
00000090: 8510 b632 19a7 8933 0cf9 bd2f be30 7133
000000a0: 9d98 dc33 4660 0034 0d9e 4333 b1df 3a33
000000b0: 6bad 0e31 7fce b231 5d5f 3032 33b8 3032
000000c0: f2a6 0533 e096 3033 04fc b131 a706 2e33
000000d0: d7df e232 ede7 8b33 070b 0e33 df4c d932
000000e0: b249 8e33 ea53 7b33 26fe 0334 0a99 fe33
000000f0: 4a0d 0a31 6e3e ae30 dd1f 4432 9e88 3433
00000100: 4791 0f33 fd96 e132 66be d532 f589 1a33
00000110: 7646 7634 0429 8934 23cc b932 98be cf32
00000120: 406d 2b34 a141 2a33 ec38 9032 e80d 8230
00000130: c823 8b32 a25e 3732 f029 3c32 acec 1531
00000140: a685 8e31 0bf1 9132 585d 6732 fea5 0633
00000150: a91d ed32 aae1 1333 8667 2833 61e1 5732
00000160: b6c5 da32 2f95 fe32 0acc 2533 6dc3 5a33
00000170: 9766 2133 b9c9 ce32 8cbb cc32 9e79 4f32
00000180: 42a6 5432 b784 9e30 a4c5 1432 918f fb31
00000190: ad86 cb32 c1fb 1731 92cc 8631 8395 7431
000001a0: 0839 c331 289b 4033 f11b 4533 b894 0e34
000001b0: a481 1034 2baf 7933 5e0a 0d33 804c 9932
000001c0: 91a7 4c2f 323b 6f32 9b01 d532 f6eb af32
000001d0: aa0b a932 b6cb b132 2a6b 6531 1de0 b630
000001e0: 426c 5232 c2f5 df31 684a 6730 5799 df30
000001f0: 0afb a731 3f95 e831 a328 6c31 0ba1 3f31
00000200: a778 6e32 3ceb 1832 bce0 e931 a8d0 e531
00000210: 770d 0433 4431 0333 2607 a031 6efd 3532
00000220: b23d 0532 0ea8 be32 3ea4 4531 106b 4f31
00000230: f791 4332 1d24 2532 f137 b533 fd2f bc33
00000240: d210 6a33 2912 7733 aecb 5233 9a45 8332
00000250: b824 f632 658a 4030 21bf cf32 3439 b532
00000260: 1be5 c032 5a5b 3032 bfc2 8a32 5480 6631
00000270: 219c a831 2285 0433 4607 b832 7e03 5631
00000280: c109 b231 248b 4733 d197 6e33 476e 3533
00000290: c949 3733 ff5b 5a33 867c 3333 f847 2233
000002a0: 3035 2333 6464 cc33 4b0f d133 dba6 b731
000002b0: 31e2 6b32 99db dd2f acda b131 1fe8 3931
000002c0: 4e25 3231 01f4 e630 9a04 0e31 5e4a 8034
000002d0: 969c 8b34 67ad 9534 e129 9834 1968 1d34
000002e0: 811d 2533 fe46 4133 b4d7 8830 9284 4933
000002f0: 188f 5f33 9034 9c33 8ff7 0334 f256 0e34
00000300: c092 8233 4606 ae33 9b84 ec32 7a04 7e33
00000310: 3719 f531 d8f9 3033 9ebf 9d33 ea28 b933
00000320: 29d9 9333 5852 a433 9455 1634 bab4 e633
00000330: ceb5 ae33 631a a633 9a97 6333 0b9b 5833
00000340: 616a ea33 a3e0 0534 133c 1133 8909 8433
00000350: f3eb ae31 0c61 a931 0268 c331 3523 1232
00000360: 86e6 ab33 79fe b933 72e9 8434 eb85 8334
00000370: 9920 1534 40f2 da33 964a 8f32 3c99 1f30
00000380: 0e81 7732 8a52 9f30 675c 0b31 fb06 1333
00000390: da58 2233 cabc c332 fb1a ec32 5c2f a732
000003a0: d4b3 c032 8888 1233 2738 0333 9120 1a33
000003b0: 32e3 f632 d16a f632 a565 e432 bf74 ea32
000003c0: 30fc df32 c3c6 db32 0e54 cc32 5aaa 9733
000003d0: 9cf8 8333 9bac 932f f7e5 4630 b963 7131
000003e0: dbbe 0a32 d387 7f31 55ca bb31 7494 9531
000003f0: 43f3 a131 d1da 4e33 57b7 7333 f47f 7c33
2.287199e-08 7.17705e-10 1.9234449e-08 2.0765977e-08 2.0920563e-08 4.0180708e-09 4.6560666e-09 7.486538e-09
9.161339e-09 2.8676926e-08 4.422216e-08 8.403817e-09 1.2289412e-08 2.0969246e-08 2.6045065e-08 3.5997974e-08
4.0081325e-08 1.0239166e-07 7.444715e-08 6.455328e-08 5.9500728e-08 9.1138006e-08 9.4226884e-08 9.1215413e-10
3.9153996e-09 1.5128746e-09 4.528046e-09 7.443903e-10 1.506377e-09 5.4428867e-10 1.1868578e-09 1.4565627e-07
1.6368584e-07 1.05405675e-07 1.07005874e-07 7.9387696e-08 2.11951e-08 6.4099545e-08 3.4555858e-10 5.6156516e-08
1.02723085e-07 1.1955953e-07 4.5545722e-08 4.3509946e-08 2.0762296e-09 5.2039577e-09 1.0266231e-08 1.028643e-08
3.111831e-08 4.1115413e-08 5.180029e-09 4.0518582e-08 2.6411653e-08 6.514879e-08 3.307198e-08 2.5297082e-08
6.6257954e-08 5.851681e-08 1.2292784e-07 1.1855634e-07 2.0089197e-09 1.267791e-09 1.1415946e-08 4.203377e-08
3.342691e-08 2.6262109e-08 2.4883047e-08 3.598139e-08 2.2936169e-07 2.554808e-07 2.1629665e-08 2.4184644e-08
1.5965361e-07 3.96409e-08 1.6789691e-08 9.462697e-10 1.6198001e-08 1.0673519e-08 1.0952576e-08 2.1816886e-09
4.147938e-09 1.6989835e-08 1.3467194e-08 3.1350275e-08 2.760392e-08 3.4431345e-08 3.9209702e-08 1.2565892e-08
2.5468449e-08 2.9637333e-08 3.860263e-08 5.093482e-08 3.757904e-08 2.407329e-08 2.3834012e-08 1.2076638e-08
1.2377827e-08 1.1533733e-09 8.659672e-09 7.321383e-09 2.3693554e-08 2.2116498e-09 3.9231702e-09 3.559166e-09
5.6817306e-09 4.4844597e-08 4.589305e-08 1.3278884e-07 1.3458208e-07 5.8134145e-08 3.283855e-08 1.7846332e-08
1.8613223e-10 1.392509e-08 2.4797194e-08 2.0479984e-08 1.9679494e-08 2.0698149e-08 3.3384802e-09 1.330594e-09
1.2248224e-08 6.5180936e-09 8.414305e-10 1.6268967e-09 4.8888795e-09 6.769056e-09 3.436562e-09 2.78857e-09
1.38808565e-08 8.901051e-09 6.806742e-09 6.6884986e-09 3.074589e-08 3.054562e-08 4.6574256e-09 1.059321e-08
7.755647e-09 2.2195334e-08 2.8760634e-09 3.0183323e-09 1.1383682e-08 9.612475e-09 8.438645e-08 8.763161e-08
5.449767e-08 5.7525686e-08 4.907968e-08 1.5282058e-08 2.8654867e-08 7.0045864e-10 2.4184887e-08 2.1097186e-08
2.2455927e-08 1.0265319e-08 1.6153875e-08 3.3542351e-09 4.9071933e-09 3.085473e-08 2.1423727e-08 3.1143084e-09
5.1815907e-09 4.6459846e-08 5.555177e-08 4.2242643e-08 4.2675115e-08 5.084075e-08 4.178994e-08 3.778402e-08
3.799977e-08 9.517751e-08 9.735103e-08 5.3449702e-09 1.373023e-08 4.03557e-10 5.176238e-09 2.7052989e-09
2.5923614e-09 1.6804053e-09 2.0666335e-09 2.3895967e-07 2.60047e-07 2.787958e-07 2.8342677e-07 1.4659635e-07
3.844389e-08 4.500088e-08 9.956609e-10 4.691953e-08 5.2051377e-08 7.273877e-08 1.2290387e-07 1.3256411e-07
6.0802904e-08 8.1036475e-08 2.7534318e-08 5.9143055e-08 7.133305e-09 4.1205425e-08 7.345737e-08 8.622176e-08
6.884722e-08 7.651823e-08 1.4000972e-07 1.07430836e-07 8.1355765e-08 7.734777e-08 5.2990437e-08 5.043243e-08
1.0915824e-07 1.2468313e-07 3.381508e-08 6.1484634e-08 5.090891e-09 4.9295803e-09 5.6870713e-09 8.506324e-09
8.00474e-08 8.661022e-08 2.475677e-07 2.449809e-07 1.3888565e-07 1.0195481e-07 1.6681309e-08 5.806162e-10
1.4406636e-08 1.1592232e-09 2.0279687e-09 3.4232453e-08 3.7799374e-08 2.2786839e-08 2.7486285e-08 1.9462895e-08
2.2433518e-08 3.411745e-08 3.0551885e-08 3.5885538e-08 2.8741486e-08 2.8686744e-08 2.6588916e-08 2.7294275e-08
2.6075298e-08 2.5585342e-08 2.378695e-08 7.062472e-08 6.145385e-08 2.6861788e-10 7.235878e-10 3.5126801e-09
8.076053e-09 3.718459e-09 5.465419e-09 4.353348e-09 4.7133724e-09 4.8162125e-08 5.6744593e-08 5.8789695e-08

exp_avg f4 [128]
00000000: 72dc f537 0713 a6b8 003c efb3 3316 56b8
00000010: 3770 1638 727d 1538 d1ea 1138 1e38 3b38
00000020: a126 ad37 4b41 aab7 9008 0eb5 8ef4 4538
00000030: 2840 1bb6 0b71 a8b7 ba38 0338 89cd 05b7
00000040: 1967 8a38 b192 2b38 014b 4b38 e674 7637
00000050: bdd1 08b8 181f 1138 7084 5038 f0ee 17b8
00000060: 9fae a138 c22f 3236 0cfa a5b7 1589 b3b5
00000070: 264f e137 7096 22b6 9175 04b7 e71f 2e38
00000080: 07d3 47b7 3a1f 0538 6e8e 0eb7 7e74 a037
00000090: aec6 2a37 df50 40b7 bc20 abb7 c3b1 74b7
000000a0: b5ef 7b38 cda6 9c38 2410 d3b7 a221 eeb7
000000b0: cd5b cd37 6ad3 3c38 ef76 84b8 fe94 44b7
000000c0: 0c41 36b8 6b7b 1638 8850 beb5 78d3 abb8
000000d0: c889 a8b7 f59c 8236 ba1f 58b8 fd9f 86b8
000000e0: c644 7737 899c 22b8 75d4 a538 4c7f c8b6
000000f0: 8043 9737 beb9 5537 ed23 9bb8 cc2c bbb7
00000100: 13f7 1e38 a0fb 8a38 fa86 82b7 d761 5ab7
00000110: d65b eeb7 61c5 6038 47ea 86b7 c55c 52b7
00000120: 6905 58b7 bc52 d2b6 64fd 3937 e4b3 7838
00000130: 053f 5038 0045 7cb4 d255 96b8 5fe3 1438
00000140: d072 e337 bd52 0837 6ae6 03b8 6340 1bb7
00000150: 68c4 06b8 1c85 d237 8907 79b7 abe3 a137
00000160: 2c1e 58b8 bbb7 4338 637f 4036 991c 1d38
00000170: 8cb3 9337 6719 c237 1058 7035 1c30 61b7
00000180: 0ed1 df37 eeb2 2db8 9540 d737 a093 64b7
00000190: f8fa d0b7 941f 0cb7 c1d4 8137 a9fa 2db7
000001a0: c07a 0138 f5e3 2338 a627 b937 dde3 3036
000001b0: 83f2 af38 5e85 39b7 c4f9 4337 40f3 bcb4
000001c0: 56e9 8db7 7ced 4138 4e43 1e37 d81e 1438
000001d0: 9814 d2b6 3486 0bb7 1a07 1238 edae 52b7
000001e0: 27a5 3138 fe8e 6737 7fb9 bc37 389b 80b5
000001f0: 9628 6037 7ec4 92b8 d0d9 33b6 62c0 4ab8
2.9308929e-05 -7.919041e-05 -1.1140219e-07 -5.104225e-05 3.5867295e-05 3.56412e-05 3.4789384e-05 4.4636537e-05
2.0641195e-05 -2.0295984e-05 -5.291158e-07 4.719622e-05 -2.3134144e-06 -2.00798e-05 3.1285665e-05 -7.975273e-06
6.599556e-05 4.0906194e-05 4.8468824e-05 1.468996e-05 -3.262026e-05 3.4599652e-05 4.9714406e-05 -3.6223733e-05
7.709604e-05 2.6551866e-06 -1.978597e-05 -1.3376435e-06 2.6858947e-05 -2.4227447e-06 -7.895186e-06 4.1514544e-05
-1.1910458e-05 3.1738753e-05 -8.497022e-06 1.9127732e-05 1.0179048e-05 -1.1462921e-05 -2.0400032e-05 -1.4584922e-05
6.0066308e-05 7.469729e-05 -2.5160676e-05 -2.8387472e-05 2.4480652e-05 4.5019588e-05 -6.3164036e-05 -1.17172e-05
-4.345276e-05 3.587773e-05 -1.4179541e-06 -8.1933045e-05 -2.009132e-05 3.892574e-06 -5.152796e-05 -6.419418e-05
1.473836e-05 -3.8769595e-05 7.907386e-05 -5.975284e-06 1.8032035e-05 1.2739036e-05 -7.397668e-05 -2.2312997e-05
3.790024e-05 6.6272216e-05 -1.5560061e-05 -1.3016593e-05 -2.8414575e-05 5.3589585e-05 -1.6083139e-05 -1.2538575e-05
-1.2875863e-05 -6.2681193e-06 1.1085856e-05 5.9295344e-05 4.9649756e-05 -2.3494431e-07 -7.168543e-05 3.5497706e-05
2.7113972e-05 8.125496e-06 -3.1447424e-05 -9.253711e-06 -3.2131007e-05 2.5095935e-05 -1.4843311e-05 1.9298712e-05
-5.1526513e-05 4.6662735e-05 2.8684378e-06 3.745835e-05 1.7607374e-05 2.3138431e-05 8.9535115e-07 -1.3422246e-05
2.668102e-05 -4.1413055e-05 2.566007e-05 -1.3624231e-05 -2.4912399e-05 -8.352003e-06 1.547707e-05 -1.0369965e-05
3.0870317e-05 3.907453e-05 2.2072181e-05 2.6358678e-06 8.3898216e-05 -1.1057911e-05 1.1681059e-05 -3.5194716e-07
-1.6917165e-05 4.623596e-05 9.4332045e-06 3.5314675e-05 -6.260885e-06 -8.316292e-06 3.4815726e-05 -1.25577035e-05
4.23539e-05 1.3801966e-05 2.2497725e-05 -9.581918e-07 1.336089e-05 -6.998422e-05 -2.6799862e-06 -4.8339723e-05

exp_avg_sq f4 [128]
00000000: e469 9932 871f 6e33 0d3f 8032 ec5b 8332
00000010: 8696 ee32 46ce 1f33 ca63 9632 e0d7 8032
00000020: 94b9 6431 bf9d 7d32 4419 5733 39df 7332
00000030: 1183 4b33 a612 8f32 d865 7332 3055 1533
00000040: 6da4 1b33 a4f8 c332 8097 4932 8e20 e532
00000050: c754 fb31 51e2 0c33 4605 2c33 087e b931
00000060: a099 0a33 8575 8432 de4b 7a32 3619 cb31
00000070: b684 4233 2945 8a32 58d1 9132 4b4d 9832
00000080: 7550 c332 73e7 9f32 0381 1732 53d9 8232
00000090: 650c bb31 dae5 c632 6c6d 4632 176a 1c32
000000a0: e630 9c32 bd01 b732 09e4 1632 e03f 9532
000000b0: f23f ae32 f870 2033 7c64 bf32 eb71 4532
000000c0: 8b4b 9b32 789e 3533 ff05 0132 404f 0333
000000d0: 29bc ad31 0ff8 9b32 cf3a fd32 10e0 6833
000000e0: 8979 1532 a203 4732 865f e832 6c94 dd32
000000f0: c400 d931 aa0f b332 ada9 0a33 0d9c 7333
00000100: 019b ed32 9466 2d33 779d d431 ffee ca32
00000110: 585e 9232 3525 da32 de72 ab32 1091 5932
00000120: 98b3 9d32 39ca 3232 ae63 0333 5941 4932
00000130: c940 6932 87bb 1733 af26 cc33 fa4c d331
00000140: aa0e 2a32 0a74 1232 ea6b 8e32 5db8 5532
00000150: 5738 1033 9511 0c32 3fe1 fe31 6c68 1332
00000160: 30b2 3733 57d0 5d32 a6f8 0732 6a92 3d33
00000170: b29a 2e32 fe09 2532 5258 2b32 31a8 6e32
00000180: f66e e831 2e0c b733 53d4 7c32 0238 fb32
00000190: b52b 2033 9918 4731 a8d2 e332 5bba 3132
000001a0: f244 e132 f684 8932 9b20 e932 c36b 9e32
000001b0: 95f9 0533 7980 fa31 a173 6a32 41a6 f432
000001c0: e23c e332 bec6 3432 d1b8 da32 3b32 bf33
000001d0: 603b 3632 d746 8f32 adf0 0132 3c45 bc32
000001e0: 2899 c231 2fb0 f131 3999 ac32 568e 4332
000001f0: 8d5a 7032 ffe7 0133 4a33 8032 47ee 5732
1.7859698e-08 5.5442367e-08 1.4929833e-08 1.5292208e-08 2.7775297e-08 3.7207677e-08 1.7507677e-08 1.499933e-08
3.3283856e-09 1.47624055e-08 5.0081567e-08 1.4195217e-08 4.7383825e-08 1.6655871e-08 1.4167618e-08 3.4769243e-08
3.6238294e-08 2.2814056e-08 1.1734187e-08 2.6673913e-08 7.3146995e-09 3.2802124e-08 4.0051667e-08 5.3985367e-09
3.227035e-08 1.5420264e-08 1.4569165e-08 5.9109437e-09 4.5289845e-08 1.6096765e-08 1.697542e-08 1.7730278e-08
2.2737575e-08 1.8615287e-08 8.818691e-09 1.523282e-08 5.4438254e-09 2.3154758e-08 1.15499965e-08 9.104517e-09
1.8183027e-08 2.1304794e-08 8.782998e-09 1.737493e-08 2.0285345e-08 3.7355647e-08 2.2281021e-08 1.1492811e-08
1.8078728e-08 4.2286473e-08 7.510152e-09 3.057289e-08 5.056354e-09 1.8157179e-08 2.947982e-08 5.4220493e-08
8.700575e-09 1.15841505e-08 2.7051794e-08 2.579528e-08 6.3156183e-09 2.0845466e-08 3.2284948e-08 5.6719774e-08
2.7660919e-08 4.0372996e-08 6.1879137e-09 2.3624578e-08 1.703954e-08 2.539546e-08 1.9959256e-08 1.2664046e-08
1.8358875e-08 1.0406944e-08 3.0591472e-08 1.1714598e-08 1.3577115e-08 3.5327982e-08 9.506527e-08 6.1496594e-09
9.898637e-09 8.524703e-09 1.658005e-08 1.2440151e-08 3.3578853e-08 8.15307e-09 7.4179805e-09 8.580269e-09
4.277007e-08 1.2911264e-08 7.91457e-09 4.4138154e-08 1.0163307e-08 9.606536e-09 9.973592e-09 1.3891666e-08
6.7647035e-09 8.523817e-08 1.47166075e-08 2.9245715e-08 3.7292654e-08 2.8972293e-09 2.6522073e-08 1.0345128e-08
2.62248e-08 1.6009363e-08 2.7139597e-08 1.8442625e-08 3.119347e-08 7.2905633e-09 1.3646884e-08 2.8480942e-08
2.6453964e-08 1.0522568e-08 2.5462585e-08 8.9032675e-08 1.0607295e-08 1.6679605e-08 7.563512e-09 2.1917565e-08
5.663555e-09 7.034053e-09 2.0093113e-08 1.1382857e-08 1.39904275e-08 3.0246152e-08 1.4924485e-08 1.2568825e-08
