Assets/ML-Agents/results/color-hunt1/ColorHunter/ColorHunter-3590.pt (torch, 204054 bytes, 20 tensors)

network_body.observation_encoder.processors.0.normalizer.running_mean f4 [55]
000000 b9 3b 29 3d 00 00 00 00 3a 1b ee 3e 34 e0 51 3d
       0.04131672 0.0 0.46505147 0.051239207
000010 b8 19 7b 3f e5 ea b6 3c 25 b8 8f 3d 68 0e 79 3f
       0.9808612 0.022328803 0.07017545 0.9728761
000020 dd e1 f9 3c 36 b8 58 3d 1e bb 7a 3f 12 a4 bb 3c
       0.030503208 0.052910052 0.9794177 0.022905383
000030 37 dc 59 3d a2 d0 7a 3f 50 2f c1 3c 3e 84 77 3d
       0.05318853 0.979746 0.02358213 0.06042885
000040 c8 27 7b 3f c5 7c f2 3c 21 2c 03 3d ff a8 7b 3f
       0.98107576 0.02960051 0.032024506 0.9830474
000050 c4 cc 69 3c 2b d0 28 3d 81 86 78 3f e6 b4 87 3c
       0.014270011 0.04121415 0.97080237 0.016565751
000060 2b ac 27 3d 9d 5c 78 3f ce 28 98 3c 25 b8 8f 3c
       0.040935677 0.97016317 0.018574145 0.017543862
000070 49 ce 7c 3f 99 0d 08 3c 3c 20 e4 3b b3 c0 7e 3f
       0.98752266 0.008304023 0.0069618504 0.99512786
000080 bf 4a 51 3b 2a 60 2d 3c 39 6b 7e 3f c4 8a 9d 3b
       0.0031935421 0.010582009 0.9938236 0.004807802
000090 29 b0 1f 3c 28 99 7e 3f be d7 8f 3b 2c 80 36 3c
       0.00974659 0.9945245 0.004389732 0.011138957
0000a0 66 20 7e 3f b6 54 a6 3b 28 40 a4 3b 69 44 7f 3f
       0.99268186 0.0050760163 0.005012531 0.9971376
0000b0 5e 1f 08 3b 20 98 86 3c 89 5c 7e 3f e1 dc e5 3b
       0.002077065 0.01642996 0.9935995 0.007014856
0000c0 3b b0 68 3c 37 1d 7e 3f cb ea d0 3b 19 3c 50 3f
       0.014202173 0.9926333 0.0063756458 0.813417
0000d0 89 85 4a 3e 5c ae a2 bd 3e 5d 9c 3e
       0.19777502 -0.07943413 0.30539888

network_body.observation_encoder.processors.0.normalizer.running_variance f4 [55]
000000 b8 d2 00 41 00 00 80 3f 49 97 5f 44 6e 92 2f 43
       8.051445 1.0 894.36383 175.57199
000010 3b 69 08 42 05 10 0a 42 d5 50 6b 43 79 c1 2f 42
       34.102764 34.515644 235.31575 43.93894
000020 14 38 38 42 75 f2 34 43 b4 5a 0e 42 30 81 0d 42
       46.054764 180.9471 35.588577 35.37616
000030 4b d7 35 43 8a 20 1e 42 37 5e 15 42 0c e3 4c 43
       181.84099 39.531776 37.342007 204.8869
000040 99 c3 19 42 71 13 4c 42 65 a2 e0 42 27 1d 22 42
       38.441013 51.018986 112.31718 40.52847
000050 44 de bc 41 79 e6 0e 43 ab 7b 94 42 26 9e c3 41
       23.608528 142.90028 74.24154 24.45222
000060 83 fb 0d 43 3c 31 9a 42 23 7b f3 41 37 94 7b 42
       141.98247 77.09616 30.435125 62.89474
000070 93 fa 0d 42 c0 17 70 41 8e 9b ce 41 b5 6d 74 41
       35.4947 15.005798 25.825954 15.276784
000080 0b 8d c9 40 3a 64 1a 42 59 c2 82 41 00 6d 0d 41
       6.298467 38.597878 16.344896 8.839111
000090 af a2 0e 42 05 ee 81 41 bd b1 01 41 bf 37 22 42
       35.65887 16.24122 8.105893 40.55444
0000a0 e0 46 b1 41 de b1 14 41 38 47 97 41 d8 37 1f 41
       22.159607 9.293425 18.909775 9.951134
0000b0 4c f5 83 40 5d 1f 6c 42 52 c9 49 41 61 57 3e 41
       4.1236935 59.03063 12.61165 11.896333
0000c0 4f 1a 4d 42 26 b5 93 41 3d 22 35 41 9a e8 79 43
       51.275692 18.463451 11.320859 249.9086
0000d0 5c cf 38 43 f1 12 03 44 ef be 30 44
       184.81 524.29596 706.98334

network_body.processors.0.normalizer.running_mean f4 [55]
000000 b9 3b 29 3d 00 00 00 00 3a 1b ee 3e 34 e0 51 3d
       0.04131672 0.0 0.46505147 0.051239207
000010 b8 19 7b 3f e5 ea b6 3c 25 b8 8f 3d 68 0e 79 3f
       0.9808612 0.022328803 0.07017545 0.9728761
000020 dd e1 f9 3c 36 b8 58 3d 1e bb 7a 3f 12 a4 bb 3c
       0.030503208 0.052910052 0.9794177 0.022905383
000030 37 dc 59 3d a2 d0 7a 3f 50 2f c1 3c 3e 84 77 3d
       0.05318853 0.979746 0.02358213 0.06042885
000040 c8 27 7b 3f c5 7c f2 3c 21 2c 03 3d ff a8 7b 3f
       0.98107576 0.02960051 0.032024506 0.9830474
000050 c4 cc 69 3c 2b d0 28 3d 81 86 78 3f e6 b4 87 3c
       0.014270011 0.04121415 0.97080237 0.016565751
000060 2b ac 27 3d 9d 5c 78 3f ce 28 98 3c 25 b8 8f 3c
       0.040935677 0.97016317 0.018574145 0.017543862
000070 49 ce 7c 3f 99 0d 08 3c 3c 20 e4 3b b3 c0 7e 3f
       0.98752266 0.008304023 0.0069618504 0.99512786
000080 bf 4a 51 3b 2a 60 2d 3c 39 6b 7e 3f c4 8a 9d 3b
       0.0031935421 0.010582009 0.9938236 0.004807802
000090 29 b0 1f 3c 28 99 7e 3f be d7 8f 3b 2c 80 36 3c
       0.00974659 0.9945245 0.004389732 0.011138957
0000a0 66 20 7e 3f b6 54 a6 3b 28 40 a4 3b 69 44 7f 3f
       0.99268186 0.0050760163 0.005012531 0.9971376
0000b0 5e 1f 08 3b 20 98 86 3c 89 5c 7e 3f e1 dc e5 3b
       0.002077065 0.01642996 0.9935995 0.007014856
0000c0 3b b0 68 3c 37 1d 7e 3f cb ea d0 3b 19 3c 50 3f
       0.014202173 0.9926333 0.0063756458 0.813417
0000d0 89 85 4a 3e 5c ae a2 bd 3e 5d 9c 3e
       0.19777502 -0.07943413 0.30539888

network_body.processors.0.normalizer.running_variance f4 [55]
000000 b8 d2 00 41 00 00 80 3f 49 97 5f 44 6e 92 2f 43
       8.051445 1.0 894.36383 175.57199
000010 3b 69 08 42 05 10 0a 42 d5 50 6b 43 79 c1 2f 42
       34.102764 34.515644 235.31575 43.93894
000020 14 38 38 42 75 f2 34 43 b4 5a 0e 42 30 81 0d 42
       46.054764 180.9471 35.588577 35.37616
000030 4b d7 35 43 8a 20 1e 42 37 5e 15 42 0c e3 4c 43
       181.84099 39.531776 37.342007 204.8869
000040 99 c3 19 42 71 13 4c 42 65 a2 e0 42 27 1d 22 42
       38.441013 51.018986 112.31718 40.52847
000050 44 de bc 41 79 e6 0e 43 ab 7b 94 42 26 9e c3 41
       23.608528 142.90028 74.24154 24.45222
000060 83 fb 0d 43 3c 31 9a 42 23 7b f3 41 37 94 7b 42
       141.98247 77.09616 30.435125 62.89474
000070 93 fa 0d 42 c0 17 70 41 8e 9b ce 41 b5 6d 74 41
       35.4947 15.005798 25.825954 15.276784
000080 0b 8d c9 40 3a 64 1a 42 59 c2 82 41 00 6d 0d 41
       6.298467 38.597878 16.344896 8.839111
000090 af a2 0e 42 05 ee 81 41 bd b1 01 41 bf 37 22 42
       35.65887 16.24122 8.105893 40.55444
0000a0 e0 46 b1 41 de b1 14 41 38 47 97 41 d8 37 1f 41
       22.159607 9.293425 18.909775 9.951134
0000b0 4c f5 83 40 5d 1f 6c 42 52 c9 49 41 61 57 3e 41
       4.1236935 59.03063 12.61165 11.896333
0000c0 4f 1a 4d 42 26 b5 93 41 3d 22 35 41 9a e8 79 43
       51.275692 18.463451 11.320859 249.9086
0000d0 5c cf 38 43 f1 12 03 44 ef be 30 44
       184.81 524.29596 706.98334

network_body._body_endoder.seq_layers.0.weight f4 [128, 55]
000000 5b e5 7b 3e 0a 81 0f 3c 8b c2 ad bd cb 0b 1d 3e
       0.24599211 0.008758793 -0.08484372 0.1533653
000010 12 59 0b 3c 41 d4 d4 be 62 03 aa bd a9 3b a8 bd
       0.008505123 -0.41568187 -0.083014265 -0.08214504
000020 cb 7a 06 3e 65 11 d9 bd 70 69 aa 3b 4f af 90 bd
       0.1313278 -0.10599021 0.0052005574 -0.070646875
000030 17 72 14 3e 5a cb 46 3e 23 a2 a9 3d 5f b3 9f 3c
       0.14496647 0.1941351 0.08282878 0.01949471
000040 32 f0 dc 3b 00 9f 23 bd 1c 14 97 3d 85 e0 cd bd
       0.0067425007 -0.039946556 0.073768824 -0.10052589
000050 49 26 8a 3d 8f 7d 2e 3e 2c c4 d5 3d bd 82 13 be
       0.067455836 0.17040084 0.104378074 -0.14405341
000060 35 4a 68 be d9 86 1c be 12 51 9b bd 67 1c 5d be
       -0.22684558 -0.15285815 -0.07583822 -0.21592866
000070 b3 e6 d4 bd cd e1 e5 3d 96 b8 d3 bd a8 a8 42 3d
       -0.10395565 0.11224709 -0.10337941 0.047524124
000080 3e 86 92 be db 22 ce 3c e2 cd 72 3a 16 28 f4 bc
       -0.28618044 0.025163105 0.00092622463 -0.02980427
000090 a6 f6 0a 3e f0 db 69 3c b9 f1 44 3e 3b 97 af 3e
       0.13570651 0.014273629 0.19232835 0.34295067
0000a0 1a 0a 36 be c1 34 b5 3c 2c 03 4c 3d bc 4d 25 bd
       -0.17777291 0.022119882 0.049807712 -0.040357336
0000b0 08 9c eb 3d 65 01 4a 3e 71 2f 3c be 42 cb 59 3d
       0.1150437 0.19727094 -0.18377472 0.053172357
0000c0 e0 43 28 be 57 ab 0a 3e 97 34 e5 3b ae 86 11 bd
       -0.16432142 0.13541923 0.0069947946 -0.03552883
0000d0 49 c7 51 3e a7 54 ae 3e ea 18 72 be 79 35 b7 3d
       0.20486178 0.3404896 -0.23642316 0.08945746
0000e0 74 e6 07 3e d8 1e 80 bd 46 23 60 bd 8c 9d 6a bd
       0.13271505 -0.06255883 -0.05472114 -0.057279155
0000f0 93 84 3f 3d c9 8f 20 3e a2 0b 00 3e c9 36 bc be
       0.046757292 0.1567985 0.12504438 -0.36760548
000100 c5 fc 3b bd b2 e6 37 be 14 36 16 bc c9 d8 04 bd
       -0.045895357 -0.17959097 -0.009168167 -0.032433305
000110 b7 47 a7 bd 51 64 3a be e5 16 9e 3d 0b af 80 bc
       -0.081679754 -0.1820233 0.077192105 -0.015708467
000120 b8 44 0c be 1b 1e 9f bb 32 23 24 3d 67 83 df bd
       -0.13698089 -0.004855884 0.040072627 -0.10913735
000130 db d3 d6 bc 09 e8 8d bd 15 d3 a8 3d 2a 0f bd 3d
       -0.026224067 -0.06929023 0.08243386 0.09231408
000140 ec b3 25 be ed d1 49 3e 05 e4 4b 3d ec 98 c2 bb
       -0.16181916 0.19708987 0.049778003 -0.00593864
000150 35 9b 07 be 00 b6 89 3c 8a a0 89 3c f0 d8 f1 bd
       -0.132428 0.016810417 0.016800184 -0.11808956
000160 53 70 19 3d f5 de e5 bd f2 4d 12 be 26 82 cb 3d
       0.037460636 -0.11224166 -0.14287546 0.09936933
000170 dd 19 2a be 31 02 09 3c 8d df 6f bc 41 82 ba bc
       -0.16611429 0.008362339 -0.014640701 -0.022767188
000180 90 77 21 be 10 f7 89 bd c3 9e 12 3e a8 5a 41 3e
       -0.15768266 -0.067365766 0.14318375 0.18882239
000190 53 ee 3e bd 8b db 44 bd 31 51 0b 3d a7 6b 78 3d
       -0.046614002 -0.048060935 0.034012977 0.06064954
0001a0 87 f8 1d be c0 22 93 bd 49 48 40 3e 85 bf 67 3e
       -0.15426837 -0.071843624 0.18777575 0.22631653
0001b0 e7 66 12 3e 87 dd e7 bc 09 d2 1e be d8 ac 8f be
       0.14297067 -0.028303875 -0.1550981 -0.28061557
0001c0 12 d5 ab 3d 8f 29 5a 3d bd b4 31 be 42 b8 83 3d
       0.08390249 0.05326229 -0.17354102 0.06431629
0001d0 3e 04 af bd 53 c8 06 be b2 d3 dd bd eb 53 c5 3d
       -0.08545731 -0.13162355 -0.10831393 0.09635147
0001e0 e9 ba 72 3d 10 ae b4 bc 38 94 30 3e cd 3c 84 be
       0.059260283 -0.022055656 0.17244041 -0.25827637
0001f0 34 c1 d4 3d 0c fa a4 3d a1 66 9c bd 73 4f 80 bd
       0.10388413 0.08055505 -0.076367624 -0.06265154
000200 a5 d5 8b be 21 58 97 3c a9 f0 99 3e 42 a3 e5 bd
       -0.27311435 0.01847464 0.30066422 -0.112127796
000210 0b 9a 87 3b 8f af 49 3e a8 29 59 be 6b 12 98 3e
       0.0041382364 0.19695877 -0.21207297 0.29701552
000220 8e 61 cd 3d f1 fa 88 bb 89 9f 27 3d 9b 7c 7b bd
       0.10028373 -0.004180305 0.04092363 -0.06139813
000230 08 68 1d be c5 8e f2 3d 44 38 e2 3d e2 21 73 3e
       -0.15371716 0.118436374 0.11045888 0.23743394
000240 c6 f7 cc bd 75 39 04 3e 37 a0 bc 3c 94 ce 6c 3d
       -0.100081965 0.12912543 0.023025615 0.057814196
000250 60 47 4e 3e 77 aa 51 3d 6f 74 01 bd c3 2a 96 be
       0.20144415 0.05118796 -0.03160518 -0.293295
000260 86 6c 18 3e a9 ca 7d 3e 6c 9a 5f 3e 51 5f 6b be
       0.14885148 0.2478434 0.21836251 -0.22985579
000270 10 43 e4 bc 0a c3 04 3d fb 11 fc 3c 0b c8 12 be
       -0.02786401 0.032412566 0.030770293 -0.14334123
000280 2e 30 2a 3d 45 72 76 3d 5a 12 c9 bd 42 97 5a 3e
       0.041549854 0.06016757 -0.098179534 0.21346763
000290 a0 b6 a7 bc 6b 62 8f bd 90 f9 9b 3d a4 1d 64 3d
       -0.020472825 -0.070011936 0.0761596 0.05569233
0002a0 59 cb e5 bd ff 57 35 be 5e bc 81 bd 33 51 3d 3d
       -0.11220426 -0.17709349 -0.06334756 0.046220016
0002b0 0f 78 b6 3d d3 89 f4 3d 92 bd 1c 3d 8c 0d 96 3c
       0.08909618 0.119403504 0.038266726 0.018317007
0002c0 09 27 23 bd f5 21 9f 3d 7c 87 22 3e 54 9f b0 be
       -0.03983215 0.07770149 0.15871996 -0.34496558
0002d0 87 23 72 be 88 d6 da bd 19 dd 79 3d 15 47 96 be
       -0.23646365 -0.1068545 0.06100187 -0.29351106
0002e0 2c 0b 5d 3e 08 c9 31 3e cc cd 9d 3d 23 98 a4 bd
       0.21586293 0.17361844 0.07705268 -0.0803683
0002f0 a3 14 ba be bd 02 06 3e 06 8d 1d 3d eb db cc bd
       -0.3634387 0.13086982 0.03846457 -0.100028835
000300 83 65 13 be 4d e4 4d 3e 95 06 19 3d 6e 96 68 bd
       -0.14394192 0.20106621 0.037359793 -0.056784086
000310 73 9e 8a bd da 42 27 be 32 4f 58 be d5 e0 fd bd
       -0.06768503 -0.16334096 -0.2112396 -0.12396399
000320 ec f5 38 3e 17 04 ba bc 09 f5 28 3e 16 0b e2 bd
       0.18062562 -0.022707028 0.16499723 -0.11037271
000330 fc a8 26 3c d7 cc 43 3c 27 2e 7e 3e 8f b6 3e 3d
       0.010172125 0.011950693 0.24822293 0.04656082
000340 6e 11 25 be 72 68 22 3e 62 a7 7c bd 89 6c c3 3d
       -0.1611993 0.15860155 -0.061683066 0.09542186
000350 f8 0a 0e 3e e6 f3 33 3e bf ff 65 bd 4a d1 17 be
       0.13871372 0.17573509 -0.0561521 -0.14825931
000360 f0 b9 cd 3d e9 b9 a0 3d 15 a7 db bd 23 48 6d 3d
       0.100452304 0.078479595 -0.10725228 0.057930123
000370 fe ad a8 3d 75 01 b9 bd c8 11 0d 3e 2f 3d 58 3e
       0.082363114 -0.09033481 0.13776314 0.2111709
000380 6c 2f 99 3d a9 bd e4 3d f6 6a 20 be 43 92 d1 bc
       0.07479748 0.11168987 -0.15665802 -0.025582438
000390 78 92 3d bd 31 ca 8a 3e 2a af d9 3d 90 c6 55 3e
       -0.04628226 0.27107385 0.10629113 0.20876527
0003a0 35 6f d9 bc fa d1 e5 bd bb d9 ba bd 70 a7 8b be
       -0.026542285 -0.112216905 -0.0912356 -0.27276182
0003b0 51 87 b3 bd 93 30 2a bc b5 1e 9f bc 4e 38 44 3d
       -0.08766044 -0.010387558 -0.019423822 0.04790526
0003c0 a7 b1 1c 3e 92 77 8d 3d 4c 79 0f 3d c7 80 23 3d
       0.15302144 0.06907572 0.035027787 0.039917734
0003d0 b6 bb 16 bd 6e c7 71 bb cd bc d8 3e 76 8e 7b 3d
       -0.03680011 -0.003689255 0.42331544 0.06141516
0003e0 84 7b 4c 3c e1 b3 1b 3d 70 44 90 3d 31 76 3f 3e
       0.01248062 0.038013343 0.070443034 0.1869743
0003f0 b5 00 d1 3d c9 fe 5c bd b5 a5 62 be 96 a3 66 bd
       0.10205213 -0.05395392 -0.22133525 -0.05630835

network_body._body_endoder.seq_layers.0.bias f4 [128]
000000 00 00 00 00 00 00 00 00 00 00 00 00 00 00 00 00
       0.0 0.0 0.0 0.0
000010 00 00 00 00 00 00 00 00 00 00 00 00 00 00 00 00
       0.0 0.0 0.0 0.0
000020 00 00 00 00 00 00 00 00 00 00 00 00 00 00 00 00
       0.0 0.0 0.0 0.0
000030 00 00 00 00 00 00 00 00 00 00 00 00 00 00 00 00
       0.0 0.0 0.0 0.0
000040 00 00 00 00 00 00 00 00 00 00 00 00 00 00 00 00
       0.0 0.0 0.0 0.0
000050 00 00 00 00 00 00 00 00 00 00 00 00 00 00 00 00
       0.0 0.0 0.0 0.0
000060 00 00 00 00 00 00 00 00 00 00 00 00 00 00 00 00
       0.0 0.0 0.0 0.0
000070 00 00 00 00 00 00 00 00 00 00 00 00 00 00 00 00
       0.0 0.0 0.0 0.0
000080 00 00 00 00 00 00 00 00 00 00 00 00 00 00 00 00
       0.0 0.0 0.0 0.0
000090 00 00 00 00 00 00 00 00 00 00 00 00 00 00 00 00
       0.0 0.0 0.0 0.0
0000a0 00 00 00 00 00 00 00 00 00 00 00 00 00 00 00 00
       0.0 0.0 0.0 0.0
0000b0 00 00 00 00 00 00 00 00 00 00 00 00 00 00 00 00
       0.0 0.0 0.0 0.0
0000c0 00 00 00 00 00 00 00 00 00 00 00 00 00 00 00 00
       0.0 0.0 0.0 0.0
0000d0 00 00 00 00 00 00 00 00 00 00 00 00 00 00 00 00
       0.0 0.0 0.0 0.0
0000e0 00 00 00 00 00 00 00 00 00 00 00 00 00 00 00 00
       0.0 0.0 0.0 0.0
0000f0 00 00 00 00 00 00 00 00 00 00 00 00 00 00 00 00
       0.0 0.0 0.0 0.0
000100 00 00 00 00 00 00 00 00 00 00 00 00 00 00 00 00
       0.0 0.0 0.0 0.0
000110 00 00 00 00 00 00 00 00 00 00 00 00 00 00 00 00
       0.0 0.0 0.0 0.0
000120 00 00 00 00 00 00 00 00 00 00 00 00 00 00 00 00
       0.0 0.0 0.0 0.0
000130 00 00 00 00 00 00 00 00 00 00 00 00 00 00 00 00
       0.0 0.0 0.0 0.0
000140 00 00 00 00 00 00 00 00 00 00 00 00 00 00 00 00
       0.0 0.0 0.0 0.0
000150 00 00 00 00 00 00 00 00 00 00 00 00 00 00 00 00
       0.0 0.0 0.0 0.0
000160 00 00 00 00 00 00 00 00 00 00 00 00 00 00 00 00
       0.0 0.0 0.0 0.0
000170 00 00 00 00 00 00 00 00 00 00 00 00 00 00 00 00
       0.0 0.0 0.0 0.0
000180 00 00 00 00 00 00 00 00 00 00 00 00 00 00 00 00
       0.0 0.0 0.0 0.0
000190 00 00 00 00 00 00 00 00 00 00 00 00 00 00 00 00
       0.0 0.0 0.0 0.0
0001a0 00 00 00 00 00 00 00 00 00 00 00 00 00 00 00 00
       0.0 0.0 0.0 0.0
0001b0 00 00 00 00 00 00 00 00 00 00 00 00 00 00 00 00
       0.0 0.0 0.0 0.0
0001c0 00 00 00 00 00 00 00 00 00 00 00 00 00 00 00 00
       0.0 0.0 0.0 0.0
0001d0 00 00 00 00 00 00 00 00 00 00 00 00 00 00 00 00
       0.0 0.0 0.0 0.0
0001e0 00 00 00 00 00 00 00 00 00 00 00 00 00 00 00 00
       0.0 0.0 0.0 0.0
0001f0 00 00 00 00 00 00 00 00 00 00 00 00 00 00 00 00
       0.0 0.0 0.0 0.0

network_body._body_endoder.seq_layers.2.weight f4 [128, 128]
000000 8a ed 0d be e4 3a 4c 3d b9 0e 06 be 60 56 bf bc
       -0.13860145 0.04986085 -0.13091554 -0.023356616
000010 41 cd 4a bd 9a de 28 bd 1b a8 43 3d b4 7e db 3d
       -0.04951215 -0.041227914 0.04776774 0.10717526
000020 37 2f a5 bd 72 1f 38 be b8 ee 83 bd 12 30 85 3d
       -0.08065646 -0.17980745 -0.06442016 0.06503309
000030 d9 e2 ec 3b 80 be ab bd 6b 6d c4 3d 76 d9 c0 3d
       0.007229191 -0.08385944 0.09591182 0.094164774
000040 6e 77 76 bd e9 14 68 bd 65 d3 c8 3d 1d 16 10 3d
       -0.06017249 -0.056660566 0.09805945 0.03517734
000050 bf 70 87 3d c7 aa bd 3c f9 5a 8c 3d 6f 64 d3 3d
       0.066133015 0.023152722 0.06853289 0.103218906
000060 60 7d 11 be 50 4e e8 3c 0b dd 61 bd d9 2e 21 3e
       -0.14207983 0.028357655 -0.055142444 0.15740527
000070 79 54 e1 bd 2d 2e 7f bd 05 26 ff bd 97 1a 1e 3d
       -0.1100244 -0.062299896 -0.124584235 0.038599577
000080 e2 ab 11 3c 0a 55 0c bd 05 43 ef 3d 60 16 e7 bd
       0.008891078 -0.034260787 0.11682705 -0.112835646
000090 79 39 6f bc e2 33 76 bd f6 d7 8b 3e 03 ca 9c bc
       -0.014601105 -0.060108073 0.27313203 -0.019139295
0000a0 70 2b 93 bb 27 e6 a0 bd 07 68 dd 3d de c6 dd bc
       -0.004491262 -0.07856398 0.10810857 -0.027072366
0000b0 d9 87 5f 3a 13 56 8b bc d8 91 ef bc 00 c6 0a 3e
       0.0008527018 -0.017008817 -0.029244348 0.13552094
0000c0 3e 8e 1b bd fd bb 54 3e 53 39 22 bd 35 c3 94 3d
       -0.03797745 0.20774837 -0.03960545 0.07263795
0000d0 8b c8 fc 3d 02 3e f3 bd a9 03 8b 3d ab ed 15 bb
       0.12342938 -0.118770614 0.067878075 -0.0022877257
0000e0 2d 98 f1 bb 4e fc cf 3b 78 bc eb 3b 06 6e 24 3e
       -0.007372877 0.0063472157 0.007194098 0.16057596
0000f0 bc 43 f8 bb f4 ee e2 3c 8d b0 e5 3d 01 ea 49 3d
       -0.007576434 0.027701832 0.11215315 0.04929543
000100 75 33 ec ba 75 a2 01 be 45 fe 7e 3d a8 d2 c9 3d
       -0.0018020706 -0.12659629 0.06225421 0.098546326
000110 5c 1d 6d bd 5e f5 f4 3d 84 bc b2 bd 69 4e f4 bd
       -0.057889327 0.119608626 -0.08727363 -0.11929018
000120 dc 70 54 bc 70 96 e3 bd 1a b1 a9 bd 15 ae 97 bd
       -0.012966361 -0.11112678 -0.082857326 -0.074062504
000130 00 2c 0f 3e 3d fc e4 bc ed e2 01 3e ad 54 07 be
       0.13981628 -0.027952308 0.12684222 -0.13215895
000140 59 b0 6b 3d b6 af bc 3c 16 84 c9 3d 2e 14 22 3c
       0.057541225 0.023033004 0.098396465 0.0098925065
000150 0a 5f a5 3d 78 03 16 3d 31 3e e1 bc 62 e8 b1 3d
       0.08074768 0.0366244 -0.027495475 0.08686902
000160 ed f1 ca bc 01 5c 9c 3d 1d fd ba ba ae b0 c4 3b
       -0.024773562 0.07634736 -0.0014266107 0.006002507
000170 2d 98 61 3c 24 c2 97 3d 0e e7 88 bc 78 7d 17 3d
       0.013769192 0.07410076 -0.016711738 0.03698489
000180 ff ae cb bd c4 88 84 3d 1b 16 d7 3d 13 ba 27 bd
       -0.09945487 0.064713985 0.10502263 -0.04094894
000190 2a 46 bc 3d a8 10 f2 bc 43 49 48 be 43 ef cd 3d
       0.0919307 -0.029548958 -0.19559197 0.10055401
0001a0 57 0f c3 bc c7 97 51 bd e7 5a 01 3c 90 ec ea 3c
       -0.023811026 -0.051170137 0.007895208 0.028677255
0001b0 e3 2a 07 3e 1b 24 a4 bd 40 e0 b4 3d 3e 67 48 3e
       0.13199954 -0.08014699 0.08831835 0.19570634
0001c0 8d 4d 0d bd 95 b7 f1 3c 6d 3c 31 bd 8a d2 98 bb
       -0.034497786 0.029506484 -0.043270517 -0.00466377
0001d0 56 fa 43 3b 85 a1 2c 3d 18 c7 83 ba b3 5d e5 3d
       0.002990385 0.042146225 -0.0010053841 0.11199512
0001e0 81 27 31 3d 16 17 98 3d 32 57 53 bd b8 2d 36 be
       0.043250564 0.07426278 -0.051596828 -0.17790878
0001f0 c8 9a 76 bd 35 38 5c bd 47 23 b8 3c e0 86 f7 bd
       -0.060206205 -0.05376454 0.022477759 -0.12086272
000200 7b 10 8e bc 1b 68 04 3b cb a4 c5 bd 37 8b a4 bd
       -0.017341843 0.0020203653 -0.096505724 -0.080343656
000210 f8 7b 48 3d 69 d7 7e bd 93 6d f0 3d 94 ac b3 3d
       0.04894635 -0.06221715 0.117396496 0.08773151
000220 6d bb bf 3c 27 ee c9 bb b7 62 d7 bc 3f 09 aa bb
       0.023404801 -0.006162423 -0.026292188 -0.0051890905
000230 fc 13 6d 3e 9b e2 b1 3c 2a 7a 8f 3d 97 14 79 bd
       0.23152155 0.0217145 0.07005723 -0.06081065
000240 f6 07 4c 3d b4 4a 4b 3d 0a 93 dd bb c0 13 df bd
       0.04981228 0.04963179 -0.006761913 -0.10892439
000250 8c 7c 99 3d c2 8f 1f 3e 1f 0a 94 bc 72 8a 05 be
       0.074944586 0.15582183 -0.018071232 -0.13041094
000260 b4 28 cc 3d cd 23 c3 3d 9c 34 1a bd ac c2 1c bd
       0.09968701 0.09528313 -0.03764783 -0.03827159
000270 dc 9f 7e 3d be 42 a9 3d 05 81 0b 3c e7 17 2e bd
       0.062164173 0.08264683 0.008514647 -0.042503264
000280 d2 d0 88 3c 64 26 9f 3d 3c 6e 8a 3d cf 7b a9 bd
       0.016701136 0.07770994 0.06759307 -0.08275568
000290 ac 2a a3 3c 5f fc ca bc 8d db 35 bd 66 b0 68 3d
       0.019917808 -0.024778543 -0.044398833 0.05680885
0002a0 b3 45 9d 3c 58 2a 98 3c ee 0a 51 bd cc 1d 08 bd
       0.019198274 0.018574879 -0.051035814 -0.03323154
0002b0 00 4a c1 bd db bd ed 3d 46 b8 30 bc 1c 0d 14 bd
       -0.094379425 0.11608478 -0.010786122 -0.036145315
0002c0 35 70 d4 3d 96 ce ac 3d e1 f2 26 bc 49 b9 4f be
       0.10372964 0.08437841 -0.010189743 -0.20285524
0002d0 34 6a 92 bd 4c 13 ca bc be 35 2a 3d 75 76 34 bd
       -0.07149163 -0.024667405 0.04155516 -0.044058282
0002e0 ae 40 c0 3d a7 98 46 be 3e d9 8d bd 94 a1 24 bd
       0.09387337 -0.1939417 -0.06926201 -0.040193155
0002f0 e2 be 26 3d 35 81 e0 bd ec 8c b0 3d da 88 f4 bd
       0.040709384 -0.10962144 0.08620629 -0.11940165
000300 6b 8e 3c 3d d7 0e b9 bc 0b ff 96 3c 2e f0 39 bd
       0.046034258 -0.022590084 0.01843216 -0.04539507
000310 6d 51 ae 3d 0a 2e b5 bd 42 a9 76 3b 9c 93 71 bc
       0.085116245 -0.08846672 0.0037637507 -0.0147446655
000320 5b 2b 24 bd 8d f0 f9 3d 68 f0 ca bd ce 24 07 3c
       -0.04008041 0.122040845 -0.09909135 0.008248521
000330 eb c4 72 bd 2e a7 1b 3e 87 0b 30 bd 84 09 56 3d
       -0.059269827 0.15200493 -0.042979743 0.05225517
000340 03 34 20 3c 6c 9c 29 bd ed 49 04 be 51 ae 82 bd
       0.009778026 -0.04140894 -0.12918825 -0.063809045
000350 6a c7 ee 3c 21 cc 36 3e 58 f6 e1 3d f5 87 a6 bc
       0.029147822 0.17851306 0.110333145 -0.020328501
000360 9e b9 a2 3c 82 92 d6 3c 35 7a a3 bd cc a3 e3 ba
       0.0198639 0.026192907 -0.079822935 -0.0017367541
000370 7f c1 47 3e 30 68 12 be 38 da 61 bd 11 33 5d 3e
       0.19507407 -0.14297557 -0.05513975 0.21601512
000380 bd 64 04 3d db d9 08 3e 84 fb 8c 3d 6a 4e 88 3d
       0.032322634 0.13364355 0.0688391 0.06655581
000390 49 94 9c 3d e8 e5 0c 3d 13 2d a8 3d 74 95 0c bd
       0.07645471 0.034398943 0.08211722 -0.034322217
0003a0 45 04 b8 bb 66 1d f3 bd b2 23 1e 3e 6a c4 b6 3d
       -0.0056157433 -0.11870842 0.15443304 0.08924182
0003b0 ed 30 fb 3c d4 ba db bd 10 8c 97 3d a4 96 05 bd
       0.030662978 -0.10728994 0.07399762 -0.032614365
0003c0 bd 6a 99 bd 36 cb 9e bc 67 13 84 bb c1 9a e5 3d
       -0.07491062 -0.019384008 -0.0040306333 0.112111576
0003d0 fa 05 9f bc d0 bd dc 3b eb db 10 bd 38 14 66 be
       -0.01941203 0.0067364946 -0.03536598 -0.2246865
0003e0 8e e4 af bd 2c 32 a7 3d 80 3c ad 3c 97 eb 6a bd
       -0.08588515 0.081638664 0.021147013 -0.057353582
0003f0 f1 fc c2 bc 26 42 a1 3d 22 cd f8 bd 45 4a e6 bc
       -0.023802252 0.07873945 -0.12148501 -0.028111586

network_body._body_endoder.seq_layers.2.bias f4 [128]
000000 00 00 00 00 00 00 00 00 00 00 00 00 00 00 00 00
       0.0 0.0 0.0 0.0
000010 00 00 00 00 00 00 00 00 00 00 00 00 00 00 00 00
       0.0 0.0 0.0 0.0
000020 00 00 00 00 00 00 00 00 00 00 00 00 00 00 00 00
       0.0 0.0 0.0 0.0
000030 00 00 00 00 00 00 00 00 00 00 00 00 00 00 00 00
       0.0 0.0 0.0 0.0
000040 00 00 00 00 00 00 00 00 00 00 00 00 00 00 00 00
       0.0 0.0 0.0 0.0
000050 00 00 00 00 00 00 00 00 00 00 00 00 00 00 00 00
       0.0 0.0 0.0 0.0
000060 00 00 00 00 00 00 00 00 00 00 00 00 00 00 00 00
       0.0 0.0 0.0 0.0
000070 00 00 00 00 00 00 00 00 00 00 00 00 00 00 00 00
       0.0 0.0 0.0 0.0
000080 00 00 00 00 00 00 00 00 00 00 00 00 00 00 00 00
       0.0 0.0 0.0 0.0
000090 00 00 00 00 00 00 00 00 00 00 00 00 00 00 00 00
       0.0 0.0 0.0 0.0
0000a0 00 00 00 00 00 00 00 00 00 00 00 00 00 00 00 00
       0.0 0.0 0.0 0.0
0000b0 00 00 00 00 00 00 00 00 00 00 00 00 00 00 00 00
       0.0 0.0 0.0 0.0
0000c0 00 00 00 00 00 00 00 00 00 00 00 00 00 00 00 00
       0.0 0.0 0.0 0.0
0000d0 00 00 00 00 00 00 00 00 00 00 00 00 00 00 00 00
       0.0 0.0 0.0 0.0
0000e0 00 00 00 00 00 00 00 00 00 00 00 00 00 00 00 00
       0.0 0.0 0.0 0.0
0000f0 00 00 00 00 00 00 00 00 00 00 00 00 00 00 00 00
       0.0 0.0 0.0 0.0
000100 00 00 00 00 00 00 00 00 00 00 00 00 00 00 00 00
       0.0 0.0 0.0 0.0
000110 00 00 00 00 00 00 00 00 00 00 00 00 00 00 00 00
       0.0 0.0 0.0 0.0
000120 00 00 00 00 00 00 00 00 00 00 00 00 00 00 00 00
       0.0 0.0 0.0 0.0
000130 00 00 00 00 00 00 00 00 00 00 00 00 00 00 00 00
       0.0 0.0 0.0 0.0
000140 00 00 00 00 00 00 00 00 00 00 00 00 00 00 00 00
       0.0 0.0 0.0 0.0
000150 00 00 00 00 00 00 00 00 00 00 00 00 00 00 00 00
       0.0 0.0 0.0 0.0
000160 00 00 00 00 00 00 00 00 00 00 00 00 00 00 00 00
       0.0 0.0 0.0 0.0
000170 00 00 00 00 00 00 00 00 00 00 00 00 00 00 00 00
       0.0 0.0 0.0 0.0
000180 00 00 00 00 00 00 00 00 00 00 00 00 00 00 00 00
       0.0 0.0 0.0 0.0
000190 00 00 00 00 00 00 00 00 00 00 00 00 00 00 00 00
       0.0 0.0 0.0 0.0
0001a0 00 00 00 00 00 00 00 00 00 00 00 00 00 00 00 00
       0.0 0.0 0.0 0.0
0001b0 00 00 00 00 00 00 00 00 00 00 00 00 00 00 00 00
       0.0 0.0 0.0 0.0
0001c0 00 00 00 00 00 00 00 00 00 00 00 00 00 00 00 00
       0.0 0.0 0.0 0.0
0001d0 00 00 00 00 00 00 00 00 00 00 00 00 00 00 00 00
       0.0 0.0 0.0 0.0
0001e0 00 00 00 00 00 00 00 00 00 00 00 00 00 00 00 00
       0.0 0.0 0.0 0.0
0001f0 00 00 00 00 00 00 00 00 00 00 00 00 00 00 00 00
       0.0 0.0 0.0 0.0

action_model._continuous_distribution.log_sigma f4 [1, 3]
000000 00 00 00 00 00 00 00 00 00 00 00 00
       0.0 0.0 0.0

action_model._continuous_distribution.mu.weight f4 [3, 128]
000000 ea 24 b1 ba d8 a8 e8 3c 10 65 58 bb c7 39 d2 3c
       -0.001351503 0.028400823 -0.0033019222 0.025662316
000010 dd c6 f1 bc 59 16 0c 3b e7 04 97 bb e8 ea fe 3a
       -0.02951377 0.0021375625 -0.0046087387 0.001944867
000020 a5 c1 6c 3c 54 40 0c 3c 8f 9a f0 3a cf 75 d7 3b
       0.014450465 0.008560259 0.0018356609 0.006575323
000030 99 8a cc 3b 55 3e b4 3c e0 92 9f ba 07 e9 dd bb
       0.006242108 0.022002378 -0.001217451 -0.006772164
000040 11 ef a9 3c ca d8 ed bc 4b 13 e2 bb 58 8f 28 bc
       0.020743879 -0.029034037 -0.0068992726 -0.010288082
000050 6c be a8 3c 84 5f aa 3c 13 a0 22 bd 65 20 14 3c
       0.020598613 0.020797499 -0.03970344 0.009040927
000060 60 18 ef 3b 6c 6d 34 bc c7 4c ab bb d0 22 9f bc
       0.007296607 -0.011012416 -0.0052276584 -0.01942578
000070 81 08 98 bc f3 c9 f9 3b 81 50 11 3d 2b d7 95 3c
       -0.018558742 0.007622951 0.035477165 0.018291077
000080 0d 1e 26 bd 8b bf b7 bc 3a ee 7f bc ad 4f 4e 3c
       -0.040556002 -0.022430202 -0.0156207625 0.012592238
000090 dd 19 a4 3b 8f f8 c1 bc fb 73 8a bc 50 fc 76 bc
       0.005007966 -0.023678092 -0.016901007 -0.015074804
0000a0 34 ab 11 bc 4b 08 89 bc d7 92 8e bb 28 f7 c5 bc
       -0.008890916 -0.016727587 -0.004351001 -0.024165705
0000b0 13 49 b2 bb 66 86 80 bb b7 67 19 bc 84 c9 8d bc
       -0.00544084 -0.0039222715 -0.009363106 -0.017308004
0000c0 15 1c 08 3c e7 b7 91 3b b3 dd 4d 3c 2b c1 46 bc
       0.0083074765 0.0044469717 0.012565064 -0.012131016
0000d0 c6 66 9c 3c 55 bb 9a bb bd 23 f5 3b af 99 ba 3c
       0.019091975 -0.0047220387 0.007481067 0.02277836
0000e0 34 10 29 3a b8 e3 cd bb ed 96 e0 bc 94 51 09 bc
       0.0006449253 -0.0062832497 -0.027415717 -0.008381266
0000f0 c7 e1 fb bc 09 f5 a9 ba 33 12 8e 3b 55 bd 05 3c
       -0.030747307 -0.0012966703 0.0043356656 0.008162816
000100 3a ce 2e bc 8b cc c2 3c 2f 54 86 bc b8 f0 3c 3b
       -0.010669285 0.023779174 -0.016397564 0.0028830003
000110 b5 12 3a 3c b2 1f 80 3c 1c cc 96 bc 2c 21 a5 3b
       0.011356999 0.015640114 -0.018407874 0.005039355
000120 66 2e 92 3c ec a5 03 bc 38 c8 75 bc ec 80 cb 3b
       0.01784439 -0.008035164 -0.015001349 0.006210437
000130 83 31 2f 3c 3b 39 28 bd 8b 55 e0 3b f0 24 35 3d
       0.010692957 -0.041070204 0.006846135 0.04422468
000140 07 6a 10 bd 20 37 09 bd 9f 9b 28 bd 93 fc 22 bc
       -0.035257366 -0.033499837 -0.041164037 -0.009947914
000150 e0 0e d0 bb 8b 97 9e b8 ba e7 60 3c 42 e4 cd bb
       -0.0063494295 -7.562254e-05 0.013727123 -0.006283314
000160 22 75 f3 3b ef 31 b2 3a 62 e1 91 bb d2 a0 07 3b
       0.007429735 0.0013595204 -0.0044519166 0.0020695222
000170 8b 41 04 bc 98 b8 5d bc 48 8e 66 bb 37 06 87 3c
       -0.008072267 -0.01353278 -0.003518002 0.016482456
000180 33 3c 4c bc 56 ce bf bb c5 f9 3e 3c 50 b0 e1 39
       -0.0124655245 -0.0058534546 0.011656229 0.00043046707
000190 81 02 b8 bc 35 bb 51 bc 27 11 cb 3b 20 4a 5a bc
       -0.022462131 -0.012800981 0.006197113 -0.013323337
0001a0 bb 0e ad bb 60 4d 10 3b 87 ed 30 3c 37 0f 9d ba
       -0.005281297 0.0022018775 0.010798818 -0.0011982684
0001b0 37 0c 19 3b 77 1b c4 bb 9f 7f c9 3b b7 7d ab 3b
       0.0023353228 -0.0059847194 0.006149247 0.0052334922
0001c0 02 4d 9c 3c 82 f4 0d 3c 2f f2 6c 3c 82 f9 3f 3c
       0.019079689 0.008664252 0.014462038 0.011717202
0001d0 ef cd 28 3b 8b c8 09 3c 47 58 9d bc bd 83 db 39
       0.0025757512 0.00840963 -0.019207133 0.00041869088
0001e0 bb 6d 95 3c 7b a3 3f bc 87 1f 15 3d 8a 53 b2 3c
       0.0182408 -0.011696692 0.03640702 0.02176835
0001f0 d2 48 e9 3c 36 44 2f 3c d3 44 43 39 49 7d b2 3c
       0.028477106 0.010697415 0.00018622288 0.021788256
000200 5f 5a 06 3d e2 0f f5 bb ef 29 10 bc df 1e 54 3c
       0.03280103 -0.0074787 -0.00879906 0.012946813
000210 0f 58 0d bd 64 0a 3e bc 60 ff f4 3c 3f 5f 29 3c
       -0.034507807 -0.011599157 0.029906929 0.01033765
000220 10 84 9d bc bd ca 0c 3c c8 d0 b5 bc 2b 23 85 bc
       -0.019228011 0.008593258 -0.022194281 -0.016252121
000230 78 f8 4e bc bd f4 5e 3c bf 8d fb 3c 41 9b bb 3b
       -0.012632482 0.013608155 0.030707238 0.005725295
000240 cd fb 37 bc e5 64 5f bc d6 dd 22 3c 12 b3 f3 3c
       -0.011229468 -0.013634895 0.009940585 0.029748473
000250 3a ca 33 3d f7 51 42 ba 6d 67 7f 3c 63 d6 81 bc
       0.04389403 -0.00074127264 0.0155886235 -0.015849298
000260 8a 7e 08 bb ff 1a 3e bc 3d e9 18 3d 53 7a f1 bb
       -0.0020827376 -0.011603116 0.03733181 -0.0073693185
000270 12 bc 0b bd 3b 4c ad bc 85 8e c1 bc cb 08 37 3c
       -0.034114905 -0.021154514 -0.023627529 0.01117153
000280 bd 7f e1 bc 92 c5 df 3c 64 93 18 3d 34 90 14 bd
       -0.02752673 0.027315889 0.037249938 -0.036270335
000290 49 31 94 3c b8 c1 9e 3c d8 f5 de 3c 03 00 40 bc
       0.018089907 0.019379482 0.027216837 -0.011718753
0002a0 25 3e ef 3c fa 5e 5f bc 75 38 b3 3c 25 f0 42 3c
       0.029204438 -0.013633484 0.021877507 0.011898075
0002b0 97 c0 fb 3a 1c 89 93 bb d6 44 80 3c 5a 69 d1 bb
       0.0019207177 -0.0045024287 0.015657824 -0.0063907327
0002c0 75 e4 94 3c ec de 9e 3b 12 f7 ea 3c 60 04 f7 bc
       0.018175343 0.0048483517 0.028682265 -0.030153453
0002d0 ca 50 05 bd 03 a3 75 bc 6b 42 04 3a 13 9b da 39
       -0.03254775 -0.014992478 0.00050452974 0.0004169574
0002e0 53 4f a8 ba 0b 89 47 ba 54 50 a2 bc 40 9b 56 3c
       -0.0012841023 -0.00076116686 -0.019813694 0.013098538
0002f0 78 06 70 bc 8b c8 5d bc 90 46 36 3c 5a 67 19 bb
       -0.01464998 -0.013536583 0.011125222 -0.002340755
000300 ca 6e e8 bb 3f cd 28 3d 3e e6 20 bd e8 50 2a bc
       -0.007093285 0.041211363 -0.039282076 -0.010395266
000310 65 d5 cf 3c 0c 84 84 3c 23 87 e9 3b b9 46 0e 3c
       0.02537031 0.016176246 0.0071267053 0.008683854
000320 2f 09 00 bd 77 ef 2d ba 03 84 eb ba f3 0e a4 ba
       -0.03125876 -0.00066351093 -0.001796842 -0.0012516662
000330 b1 48 aa bc 10 5b db 3c a3 85 fd 3c 9a 54 58 3c
       -0.020786615 0.02677682 0.030947512 0.013203764
000340 43 4e bf 3b 10 35 dc bb 9b 8a 9b bb a7 f6 b5 bc
       0.005838187 -0.0067201927 -0.0047467477 -0.02221234
000350 bb cc 38 bc 83 17 a1 bb ff a1 e8 bb 95 7f 8a ba
       -0.01127928 -0.004916133 -0.0070993896 -0.0010566587
000360 f2 6b 61 bc e5 a8 b4 bb ae 11 28 3b 59 b9 13 3d
       -0.013758646 -0.005513298 0.0025645304 0.036065433
000370 e9 28 3a 3c d8 7d 7f bc 42 0d c7 3c 35 d9 e6 3b
       0.011362293 -0.015593968 0.024298314 0.007044936
000380 42 bd fb bc 8d 1d b6 bb 07 75 84 3b a8 ca 73 3c
       -0.030729894 -0.005557722 0.004042271 0.01487986
000390 de 1a 0a 3c ef 11 9d 3c b5 1e ea bb 94 b3 87 bc
       0.008429257 0.01917359 -0.007144774 -0.016565122
0003a0 24 37 07 bc d9 ca 8e 3b c7 cc 02 3d c5 73 fe 3c
       -0.008252893 0.0043576774 0.031933572 0.031061063
0003b0 11 a1 b6 bb aa ba 50 bd e7 d3 73 bb 53 5d 11 bc
       -0.0055734 -0.050959267 -0.003720516 -0.008872348
0003c0 ad f4 91 bc 54 46 42 bc 68 52 a4 3c 05 20 78 3c
       -0.017816866 -0.011857588 0.020058826 0.015144353
0003d0 d3 54 e2 3a ef 7a be bc 55 05 4d 3d 87 c0 64 3b
       0.0017267711 -0.023251979 0.050053913 0.0034904794
0003e0 37 04 ae bc dc da a4 3c e4 6e 92 3b 5a 27 62 bb
       -0.021242244 0.020123892 0.0044687856 -0.0034508319
0003f0 2c 6c 19 3c 47 16 14 3d 08 76 e3 38 3d cd 76 bb
       0.009364169 0.036154058 0.000108461885 -0.0037658953

action_model._continuous_distribution.mu.bias f4 [3]
000000 00 00 00 00 00 00 00 00 00 00 00 00
       0.0 0.0 0.0

network_body.observation_encoder.processors.0.normalizer.running_mean f4 [55]
000000 b9 3b 29 3d 00 00 00 00 3a 1b ee 3e 34 e0 51 3d
       0.04131672 0.0 0.46505147 0.051239207
000010 b8 19 7b 3f e5 ea b6 3c 25 b8 8f 3d 68 0e 79 3f
       0.9808612 0.022328803 0.07017545 0.9728761
000020 dd e1 f9 3c 36 b8 58 3d 1e bb 7a 3f 12 a4 bb 3c
       0.030503208 0.052910052 0.9794177 0.022905383
000030 37 dc 59 3d a2 d0 7a 3f 50 2f c1 3c 3e 84 77 3d
       0.05318853 0.979746 0.02358213 0.06042885
000040 c8 27 7b 3f c5 7c f2 3c 21 2c 03 3d ff a8 7b 3f
       0.98107576 0.02960051 0.032024506 0.9830474
000050 c4 cc 69 3c 2b d0 28 3d 81 86 78 3f e6 b4 87 3c
       0.014270011 0.04121415 0.97080237 0.016565751
000060 2b ac 27 3d 9d 5c 78 3f ce 28 98 3c 25 b8 8f 3c
       0.040935677 0.97016317 0.018574145 0.017543862
000070 49 ce 7c 3f 99 0d 08 3c 3c 20 e4 3b b3 c0 7e 3f
       0.98752266 0.008304023 0.0069618504 0.99512786
000080 bf 4a 51 3b 2a 60 2d 3c 39 6b 7e 3f c4 8a 9d 3b
       0.0031935421 0.010582009 0.9938236 0.004807802
000090 29 b0 1f 3c 28 99 7e 3f be d7 8f 3b 2c 80 36 3c
       0.00974659 0.9945245 0.004389732 0.011138957
0000a0 66 20 7e 3f b6 54 a6 3b 28 40 a4 3b 69 44 7f 3f
       0.99268186 0.0050760163 0.005012531 0.9971376
0000b0 5e 1f 08 3b 20 98 86 3c 89 5c 7e 3f e1 dc e5 3b
       0.002077065 0.01642996 0.9935995 0.007014856
0000c0 3b b0 68 3c 37 1d 7e 3f cb ea d0 3b 19 3c 50 3f
       0.014202173 0.9926333 0.0063756458 0.813417
0000d0 89 85 4a 3e 5c ae a2 bd 3e 5d 9c 3e
       0.19777502 -0.07943413 0.30539888

network_body.observation_encoder.processors.0.normalizer.running_variance f4 [55]
000000 b8 d2 00 41 00 00 80 3f 49 97 5f 44 6e 92 2f 43
       8.051445 1.0 894.36383 175.57199
000010 3b 69 08 42 05 10 0a 42 d5 50 6b 43 79 c1 2f 42
       34.102764 34.515644 235.31575 43.93894
000020 14 38 38 42 75 f2 34 43 b4 5a 0e 42 30 81 0d 42
       46.054764 180.9471 35.588577 35.37616
000030 4b d7 35 43 8a 20 1e 42 37 5e 15 42 0c e3 4c 43
       181.84099 39.531776 37.342007 204.8869
000040 99 c3 19 42 71 13 4c 42 65 a2 e0 42 27 1d 22 42
       38.441013 51.018986 112.31718 40.52847
000050 44 de bc 41 79 e6 0e 43 ab 7b 94 42 26 9e c3 41
       23.608528 142.90028 74.24154 24.45222
000060 83 fb 0d 43 3c 31 9a 42 23 7b f3 41 37 94 7b 42
       141.98247 77.09616 30.435125 62.89474
000070 93 fa 0d 42 c0 17 70 41 8e 9b ce 41 b5 6d 74 41
       35.4947 15.005798 25.825954 15.276784
000080 0b 8d c9 40 3a 64 1a 42 59 c2 82 41 00 6d 0d 41
       6.298467 38.597878 16.344896 8.839111
000090 af a2 0e 42 05 ee 81 41 bd b1 01 41 bf 37 22 42
       35.65887 16.24122 8.105893 40.55444
0000a0 e0 46 b1 41 de b1 14 41 38 47 97 41 d8 37 1f 41
       22.159607 9.293425 18.909775 9.951134
0000b0 4c f5 83 40 5d 1f 6c 42 52 c9 49 41 61 57 3e 41
       4.1236935 59.03063 12.61165 11.896333
0000c0 4f 1a 4d 42 26 b5 93 41 3d 22 35 41 9a e8 79 43
       51.275692 18.463451 11.320859 249.9086
0000d0 5c cf 38 43 f1 12 03 44 ef be 30 44
       184.81 524.29596 706.98334

network_body.processors.0.normalizer.running_mean f4 [55]
000000 b9 3b 29 3d 00 00 00 00 3a 1b ee 3e 34 e0 51 3d
       0.04131672 0.0 0.46505147 0.051239207
000010 b8 19 7b 3f e5 ea b6 3c 25 b8 8f 3d 68 0e 79 3f
       0.9808612 0.022328803 0.07017545 0.9728761
000020 dd e1 f9 3c 36 b8 58 3d 1e bb 7a 3f 12 a4 bb 3c
       0.030503208 0.052910052 0.9794177 0.022905383
000030 37 dc 59 3d a2 d0 7a 3f 50 2f c1 3c 3e 84 77 3d
       0.05318853 0.979746 0.02358213 0.06042885
000040 c8 27 7b 3f c5 7c f2 3c 21 2c 03 3d ff a8 7b 3f
       0.98107576 0.02960051 0.032024506 0.9830474
000050 c4 cc 69 3c 2b d0 28 3d 81 86 78 3f e6 b4 87 3c
       0.014270011 0.04121415 0.97080237 0.016565751
000060 2b ac 27 3d 9d 5c 78 3f ce 28 98 3c 25 b8 8f 3c
       0.040935677 0.97016317 0.018574145 0.017543862
000070 49 ce 7c 3f 99 0d 08 3c 3c 20 e4 3b b3 c0 7e 3f
       0.98752266 0.008304023 0.0069618504 0.99512786
000080 bf 4a 51 3b 2a 60 2d 3c 39 6b 7e 3f c4 8a 9d 3b
       0.0031935421 0.010582009 0.9938236 0.004807802
000090 29 b0 1f 3c 28 99 7e 3f be d7 8f 3b 2c 80 36 3c
       0.00974659 0.9945245 0.004389732 0.011138957
0000a0 66 20 7e 3f b6 54 a6 3b 28 40 a4 3b 69 44 7f 3f
       0.99268186 0.0050760163 0.005012531 0.9971376
0000b0 5e 1f 08 3b 20 98 86 3c 89 5c 7e 3f e1 dc e5 3b
       0.002077065 0.01642996 0.9935995 0.007014856
0000c0 3b b0 68 3c 37 1d 7e 3f cb ea d0 3b 19 3c 50 3f
       0.014202173 0.9926333 0.0063756458 0.813417
0000d0 89 85 4a 3e 5c ae a2 bd 3e 5d 9c 3e
       0.19777502 -0.07943413 0.30539888

network_body.processors.0.normalizer.running_variance f4 [55]
000000 b8 d2 00 41 00 00 80 3f 49 97 5f 44 6e 92 2f 43
       8.051445 1.0 894.36383 175.57199
000010 3b 69 08 42 05 10 0a 42 d5 50 6b 43 79 c1 2f 42
       34.102764 34.515644 235.31575 43.93894
000020 14 38 38 42 75 f2 34 43 b4 5a 0e 42 30 81 0d 42
       46.054764 180.9471 35.588577 35.37616
000030 4b d7 35 43 8a 20 1e 42 37 5e 15 42 0c e3 4c 43
       181.84099 39.531776 37.342007 204.8869
000040 99 c3 19 42 71 13 4c 42 65 a2 e0 42 27 1d 22 42
       38.441013 51.018986 112.31718 40.52847
000050 44 de bc 41 79 e6 0e 43 ab 7b 94 42 26 9e c3 41
       23.608528 142.90028 74.24154 24.45222
000060 83 fb 0d 43 3c 31 9a 42 23 7b f3 41 37 94 7b 42
       141.98247 77.09616 30.435125 62.89474
000070 93 fa 0d 42 c0 17 70 41 8e 9b ce 41 b5 6d 74 41
       35.4947 15.005798 25.825954 15.276784
000080 0b 8d c9 40 3a 64 1a 42 59 c2 82 41 00 6d 0d 41
       6.298467 38.597878 16.344896 8.839111
000090 af a2 0e 42 05 ee 81 41 bd b1 01 41 bf 37 22 42
       35.65887 16.24122 8.105893 40.55444
0000a0 e0 46 b1 41 de b1 14 41 38 47 97 41 d8 37 1f 41
       22.159607 9.293425 18.909775 9.951134
0000b0 4c f5 83 40 5d 1f 6c 42 52 c9 49 41 61 57 3e 41
       4.1236935 59.03063 12.61165 11.896333
0000c0 4f 1a 4d 42 26 b5 93 41 3d 22 35 41 9a e8 79 43
       51.275692 18.463451 11.320859 249.9086
0000d0 5c cf 38 43 f1 12 03 44 ef be 30 44
       184.81 524.29596 706.98334

network_body._body_endoder.seq_layers.0.weight f4 [128, 55]
000000 a7 3f 92 bc 23 27 ee 3d 70 87 fd 3d a0 a9 ae bc
       -0.017852617 0.116285585 0.12379348 -0.021321118
000010 0c 89 cb 3d 2e da cd 3c 29 05 3c 3e 40 b8 ae 3b
       0.09938249 0.02512845 0.18361343 0.005332023
000020 18 88 32 be 53 33 8a 3d 54 7a 36 be 27 ce dd 3c
       -0.17434728 0.067480706 -0.17820102 0.02707584
000030 3a b4 96 3d f0 f6 75 bd f8 d7 b0 3d 64 b0 e7 3c
       0.07358594 -0.06004995 0.08634943 0.028282352
000040 2d 7c 13 3e 94 fb 33 3e 4a a0 1e 3d 53 32 07 3e
       0.14402838 0.17576438 0.038727082 0.13202791
000050 34 90 93 bd a3 48 15 bd b3 89 9b 3d af 23 31 3e
       -0.07205239 -0.036446225 0.075946234 0.17298768
000060 c6 08 55 bc 3a e1 b5 bd 14 c6 b6 bd 93 b0 bc 3d
       -0.01300258 -0.08880849 -0.08924499 0.09213366
000070 0c 07 3d bd 9c 85 3e be 8e db 4f bd 0d 4a cd 3d
       -0.0461493 -0.18605655 -0.050746493 0.1002389
000080 ec 58 da bd a7 ea 9f bd 12 18 20 bd 81 e7 0f be
       -0.10661492 -0.07808428 -0.039085455 -0.14053155
000090 ab a8 87 be 3b 8b ed 3c e9 d3 04 3e 75 e7 4e 3e
       -0.2649587 0.028997054 0.12971462 0.20205481
0000a0 e6 42 00 bd cd 33 b3 3d 87 a6 86 bd 26 fe a5 3c
       -0.0313138 0.087501146 -0.06574731 0.020262789
0000b0 0a 13 11 bd 00 3a 16 be 6f a2 76 ba 5d 08 05 3e
       -0.035418548 -0.14670563 -0.000940836 0.12991472
0000c0 97 3b 42 3c 60 ea cf bd 37 6a d1 3b aa f2 74 bd
       0.011855028 -0.10152125 0.0063908356 -0.059801735
0000d0 d8 89 50 be f2 b7 b1 bd 5b 93 9a 3d b5 33 dd 3c
       -0.20365083 -0.08677663 0.07547637 0.027002195
0000e0 c8 88 9d be 7a 72 55 3e af ff b7 3d 86 1c 19 3e
       -0.30768418 0.2084445 0.08984315 0.14952287
0000f0 9a 86 49 bb 9f 8a 5a be c9 e4 42 3d 09 2e 80 be
       -0.0030750395 -0.21341942 0.047581468 -0.25035122
000100 ef 5f 98 bd 30 30 4a 3e 43 96 f8 bd 03 0f d7 3c
       -0.07440173 0.19744945 -0.12138035 0.026252275
000110 4c f6 99 bd 34 2b 4a 3d 6b 8e 0b 3e b8 f2 40 3d
       -0.075176805 0.049357608 0.13628547 0.047106475
000120 4f f2 9e 3c db d8 57 3e 95 08 d1 3d 3b d3 a4 be
       0.019402651 0.21078818 0.10206715 -0.32192406
000130 17 0d 5b 3c 54 0d 55 be 5d cb 2f 3c 6b 16 c1 3c
       0.01336982 -0.20805866 0.010729638 0.02357026
000140 c7 c5 2d 3d d2 73 c3 bd e5 8a 9a be 1d 14 44 3d
       0.042424943 -0.09543575 -0.30184093 0.047870744
000150 5e 92 f0 3c 40 e0 9c 3d db e9 21 3e a4 8c 5d be
       0.029366668 0.0765996 0.15811865 -0.21635681
000160 aa c5 f1 bc 0f c5 1b be 3a dc 8a 3c 98 12 ec 3d
       -0.029513199 -0.1521189 0.016950715 0.11526984
000170 81 d1 06 3e e7 d9 82 bd 24 2e 2c 3e 1f 91 06 3e
       0.13165857 -0.06389218 0.16814476 0.13141297
000180 d3 50 00 bb b1 2e c1 3d a7 5b 47 be 27 0b 32 be
       -0.0019579425 0.09432734 -0.19468556 -0.17387067
000190 4f d6 05 be d6 e8 79 3e fa c2 17 3e fc 2e f7 3c
       -0.13070033 0.24405226 0.14820471 0.030173771
0001a0 22 d3 89 3e f2 58 73 bc af cb a8 bd 37 44 64 bd
       0.26918894 -0.014852749 -0.082419746 -0.055729117
0001b0 b9 24 db 3c 68 01 39 3c 22 a7 71 bd 87 d1 85 3c
       0.02675091 0.011291839 -0.05899728 0.016335262
0001c0 b8 dc 82 3e f3 8c 31 bd 6f b2 2a 3d c9 ca 0b bd
       0.2555902 -0.04334731 0.041674074 -0.034128938
0001d0 99 ec 23 3d 09 09 55 3d d8 5e 99 bc 42 97 17 3d
       0.04002056 0.05201057 -0.018721983 0.037009485
0001e0 5b 41 48 3e 75 d8 22 3e 97 96 4b 3e 32 49 1b 3e
       0.19556181 0.15902884 0.19881664 0.1516464
0001f0 49 a8 1b 3d dd b1 3c bc f4 54 d5 3d e0 8f e0 3d
       0.038002286 -0.011517015 0.10416594 0.10964942
000200 59 dc 27 be 6a 68 e9 bd 28 62 d2 bd 41 29 f6 3d
       -0.1639265 -0.113968685 -0.10272628 0.12019587
000210 13 03 74 be 9e b5 38 bd 52 5e d3 bd bd 8e 0f 3e
       -0.23829298 -0.04509508 -0.103207245 0.14019294
000220 39 a1 bd b9 63 f6 8b 3e bc 43 ea bd f1 fd 35 3e
       -0.0003616901 0.27336416 -0.114387006 0.17772652
000230 0a 8c a3 be 85 58 7f bd c9 e0 66 be de 4a 90 3e
       -0.3194278 -0.06234028 -0.22546686 0.2818212
000240 0c 1c 21 bd 29 e0 2d 3e 54 5c 13 3b 60 bd 59 bd
       -0.03933339 0.16980042 0.0022485452 -0.053159118
000250 83 c8 90 bd 93 ae 6b 3d 50 81 3e 3e e6 5f 88 be
       -0.070694946 0.057539534 0.18604016 -0.26635665
000260 d5 8c 78 3d 14 a8 93 bb f9 e8 5e 3d 4d 54 c0 bd
       0.060681183 -0.0045061205 0.0544214 -0.09391079
000270 d6 a4 17 bd 3a 13 5e be b7 f2 0c be 74 54 37 3e
       -0.037022434 -0.21687022 -0.13764463 0.1790331
000280 7d 32 a8 3c 38 6a 86 3e bc d1 27 bd dc 8d d0 bd
       0.020531887 0.26252913 -0.040971503 -0.101833075
000290 2f 34 9a 3c 76 a4 ea 3d 3c 39 4c 3d 32 39 36 3e
       0.018823711 0.1145715 0.04985927 0.17795256
0002a0 2e e7 cd bd ad 60 5c bb b5 e4 00 bd 49 43 be bd
       -0.1005386 -0.003362696 -0.031468112 -0.092901774
0002b0 ba b3 f4 bd 6f 68 42 3e 0d 6c 8f 3b 63 ed 83 3c
       -0.119483426 0.18985151 0.0043768943 0.016104406
0002c0 ea 16 57 3d 01 5d 21 3b d6 e5 85 3b 10 b6 53 3d
       0.052512087 0.0024622085 0.0040862365 0.0516873
0002d0 a1 0c 6a 3c 39 6d c0 3b 58 8c 09 3e 5a 48 93 3c
       0.0142852375 0.0058723954 0.13432443 0.017978836
0002e0 24 83 74 bd 14 86 9b 3d ec a8 84 3c db e8 08 bc
       -0.059695378 0.07593933 0.01619383 -0.008356298
0002f0 a6 de a0 bd dc 6e 17 3e 9c e2 cf 3b 2a 39 0b bc
       -0.07854967 0.14788383 0.0063441526 -0.008497516
000300 15 0a 57 bd d8 03 f7 bd 41 b7 0d bd e9 3e 6f be
       -0.05249985 -0.1206128 -0.034598593 -0.23363842
000310 8b 0d c7 3d d2 b8 c8 bc 79 9c 16 3d 39 1c 16 be
       0.0971938 -0.024502192 0.036770318 -0.14659204
000320 78 a1 31 be 15 35 fd bc 23 85 a1 3d 17 6a 18 be
       -0.17346752 -0.0309091 0.07886722 -0.1488422
000330 9f 78 84 3e ae d3 ae bd ff 4f 0e be e1 d6 c7 3d
       0.25873277 -0.085364684 -0.13897704 0.09757782
000340 69 27 ce bd 5b 40 95 3d a8 9a 33 bb a9 32 41 be
       -0.10066111 0.072876655 -0.0027405415 -0.18866982
000350 06 a2 3c bd 0d fc 2e 3d 0c 09 72 3e b8 62 32 be
       -0.046052955 0.042720843 0.23636264 -0.1742047
000360 0f 11 8a bd a3 f5 82 3c e7 0a 0b 3e 9b 01 2d 3e
       -0.06741535 0.01598627 0.13578378 0.16895144
000370 15 7d 93 3d f8 b2 05 3e df 63 26 3e 55 4a 05 be
       0.07201592 0.13056552 0.16249035 -0.13016637
000380 e6 1c 3b be 01 19 68 3d 02 a8 3c 3e dc 4a 61 3e
       -0.18272743 0.05666447 0.18423465 0.22001213
000390 6a 7d 9d 3d 89 fa d0 3e 90 02 91 be 5c b1 6e be
       0.076899365 0.40816143 -0.28322268 -0.23309845
0003a0 d4 2a 9a be cf a0 0c 3c f1 76 55 3d 0d 87 6a 3e
       -0.301108 0.008583262 0.052115384 0.2290308
0003b0 3d dd 1a be 62 5b f1 3c 78 05 2d be dd b2 11 bd
       -0.15123458 0.02946252 -0.16896617 -0.035570968
0003c0 ca 74 6e 3e b1 ff 14 be 52 24 f7 bc 0a fc 15 3e
       0.23286739 -0.14550664 -0.030168686 0.14646927
0003d0 b4 76 b5 bc 72 eb 14 be ef 05 5e 3e 03 ed 09 be
       -0.022151329 -0.1454294 0.21681951 -0.13469319
0003e0 46 78 00 be 38 ad 79 3e c9 d4 db 3d 4b 00 a6 be
       -0.1254588 0.24382484 0.10733945 -0.324221
0003f0 bc ce 1d bd 4a 15 e6 bc dc 0a e7 3d 04 b3 6f be
       -0.038527235 -0.028086323 0.11281368 -0.23408133

network_body._body_endoder.seq_layers.0.bias f4 [128]
000000 00 00 00 00 00 00 00 00 00 00 00 00 00 00 00 00
       0.0 0.0 0.0 0.0
000010 00 00 00 00 00 00 00 00 00 00 00 00 00 00 00 00
       0.0 0.0 0.0 0.0
000020 00 00 00 00 00 00 00 00 00 00 00 00 00 00 00 00
       0.0 0.0 0.0 0.0
000030 00 00 00 00 00 00 00 00 00 00 00 00 00 00 00 00
       0.0 0.0 0.0 0.0
000040 00 00 00 00 00 00 00 00 00 00 00 00 00 00 00 00
       0.0 0.0 0.0 0.0
000050 00 00 00 00 00 00 00 00 00 00 00 00 00 00 00 00
       0.0 0.0 0.0 0.0
000060 00 00 00 00 00 00 00 00 00 00 00 00 00 00 00 00
       0.0 0.0 0.0 0.0
000070 00 00 00 00 00 00 00 00 00 00 00 00 00 00 00 00
       0.0 0.0 0.0 0.0
000080 00 00 00 00 00 00 00 00 00 00 00 00 00 00 00 00
       0.0 0.0 0.0 0.0
000090 00 00 00 00 00 00 00 00 00 00 00 00 00 00 00 00
       0.0 0.0 0.0 0.0
0000a0 00 00 00 00 00 00 00 00 00 00 00 00 00 00 00 00
       0.0 0.0 0.0 0.0
0000b0 00 00 00 00 00 00 00 00 00 00 00 00 00 00 00 00
       0.0 0.0 0.0 0.0
0000c0 00 00 00 00 00 00 00 00 00 00 00 00 00 00 00 00
       0.0 0.0 0.0 0.0
0000d0 00 00 00 00 00 00 00 00 00 00 00 00 00 00 00 00
       0.0 0.0 0.0 0.0
0000e0 00 00 00 00 00 00 00 00 00 00 00 00 00 00 00 00
       0.0 0.0 0.0 0.0
0000f0 00 00 00 00 00 00 00 00 00 00 00 00 00 00 00 00
       0.0 0.0 0.0 0.0
000100 00 00 00 00 00 00 00 00 00 00 00 00 00 00 00 00
       0.0 0.0 0.0 0.0
000110 00 00 00 00 00 00 00 00 00 00 00 00 00 00 00 00
       0.0 0.0 0.0 0.0
000120 00 00 00 00 00 00 00 00 00 00 00 00 00 00 00 00
       0.0 0.0 0.0 0.0
000130 00 00 00 00 00 00 00 00 00 00 00 00 00 00 00 00
       0.0 0.0 0.0 0.0
000140 00 00 00 00 00 00 00 00 00 00 00 00 00 00 00 00
       0.0 0.0 0.0 0.0
000150 00 00 00 00 00 00 00 00 00 00 00 00 00 00 00 00
       0.0 0.0 0.0 0.0
000160 00 00 00 00 00 00 00 00 00 00 00 00 00 00 00 00
       0.0 0.0 0.0 0.0
000170 00 00 00 00 00 00 00 00 00 00 00 00 00 00 00 00
       0.0 0.0 0.0 0.0
000180 00 00 00 00 00 00 00 00 00 00 00 00 00 00 00 00
       0.0 0.0 0.0 0.0
000190 00 00 00 00 00 00 00 00 00 00 00 00 00 00 00 00
       0.0 0.0 0.0 0.0
0001a0 00 00 00 00 00 00 00 00 00 00 00 00 00 00 00 00
       0.0 0.0 0.0 0.0
0001b0 00 00 00 00 00 00 00 00 00 00 00 00 00 00 00 00
       0.0 0.0 0.0 0.0
0001c0 00 00 00 00 00 00 00 00 00 00 00 00 00 00 00 00
       0.0 0.0 0.0 0.0
0001d0 00 00 00 00 00 00 00 00 00 00 00 00 00 00 00 00
       0.0 0.0 0.0 0.0
0001e0 00 00 00 00 00 00 00 00 00 00 00 00 00 00 00 00
       0.0 0.0 0.0 0.0
0001f0 00 00 00 00 00 00 00 00 00 00 00 00 00 00 00 00
       0.0 0.0 0.0 0.0
