Assets/ML-Agents/results/color-hunt1/ColorHunter/ColorHunter-499971.onnx (onnx, 102012 bytes, 9 tensors)

network_body.observation_encoder.processors.0.normalizer.running_mean f4 [55]
0	0x3ec2fe76	0.38084763
1	0x3e9b3ff8	0.30322242
2	0x3eed6e0a	0.46373016
3	0x3d847e1a	0.064693645
4	0x3f775577	0.96614784
5	0x3d03ecd0	0.032208264
6	0x3db53de8	0.08849698
7	0x3f7339f4	0.95010304
8	0x3d3835b8	0.044973105
9	0x3def9ae5	0.11699466
10	0x3f6e2727	0.9302849
11	0x3d73154a	0.059346475
12	0x3e02fed2	0.12792519
13	0x3f6bd848	0.92126894
14	0x3d85f695	0.065411724
15	0x3dfd96d9	0.123822875
16	0x3f6c85bc	0.9239156
17	0x3d837e3d	0.064205624
18	0x3dc5a06d	0.096497394
19	0x3f70dfca	0.94091475
20	0x3d4ba83f	0.049721
21	0x3da8cc1d	0.082420565
22	0x3f733d5b	0.95015496
23	0x3d2c86b2	0.042120643
24	0x3d9d0fcd	0.076690294
25	0x3f74a3b4	0.9556229
26	0x3d1f7842	0.038933046
27	0x3d94b7b5	0.07261602
28	0x3f75de30	0.96042156
29	0x3d14f729	0.036368523
30	0x3d910e30	0.07082784
31	0x3f76af24	0.96360993
32	0x3d13806a	0.036011137
33	0x3b4ef96d	0.0031581775
34	0x3f7f6413	0.99762076
35	0x3abe7fde	0.0014533957
36	0x3b2bd86e	0.0026221531
37	0x3f7f7a92	0.997964
38	0x3a9e8fe1	0.0012097323
39	0x3bf22b4a	0.0073904144
40	0x3f7ec520	0.9951954
41	0x3b726c2f	0.0036990752
42	0x3c94a910	0.018147022
43	0x3f7c4004	0.9853518
44	0x3c0d19c0	0.008612096
45	0x3ca1b822	0.019741122
46	0x3f7c3367	0.98515934
47	0x3c1bc60c	0.009507667
48	0x3c2e990c	0.010656606
49	0x3f7e5da3	0.9936163
50	0x3bafc808	0.0053644218
51	0x3f3a1fae	0.7270459
52	0x3ea25465	0.31705013
53	0xbd50f14e	-0.051011376
54	0x3ee603cc	0.44924772

network_body._body_endoder.seq_layers.0.weight f4 [128, 55]
0	0xbdb9dcaf	-0.09075295
1	0xbde2b1bc	-0.110690564
2	0x3e112c6e	0.14177105
3	0x3ccb3e59	0.024810003
4	0x3defda84	0.117116004
5	0xbde6d22a	-0.11270554
6	0x3e5774cf	0.21040653
7	0x3e121acf	0.14268039
8	0x3d22a2de	0.039706104
9	0xbccd5580	-0.025065184
10	0x3c70c9c4	0.014696542
11	0x3ddd18cb	0.107957445
12	0x3d92f55c	0.07175705
13	0x3de46488	0.11151987
14	0xbdb858e9	-0.09001333
15	0xbe13d363	-0.14436106
16	0x3e3c99dc	0.18418068
17	0xbef18b1e	-0.4717645
18	0x3dcec1e8	0.100955784
19	0xbb4cd410	-0.0031254329
20	0x3cd4dc41	0.025983931
21	0xbe11409b	-0.14184801
22	0xbe5049ea	-0.20340696
23	0x3d5c9945	0.053857107
24	0x3d9fadf9	0.077968545
25	0x3e6b5bd1	0.22984244
26	0xbb483c28	-0.0030553434
27	0xbd322e1d	-0.04350101
28	0x3e11ba5b	0.14231245
29	0x3e982d3f	0.2972202
30	0xbe8c61ca	-0.27418357
31	0xbe821a63	-0.25410756
32	0xbd9c1671	-0.07621468
33	0x3d6e3e9f	0.05816519
34	0x3e8d4ae3	0.27596197
35	0xbea76429	-0.32693604
36	0x3e41c7f4	0.18923932
37	0xbd8f52a3	-0.069981836
38	0x3de69ba3	0.11260154
39	0xbe03b64f	-0.12862514
40	0x3e3198e0	0.17343473
41	0x3ebe070f	0.3711476
42	0x3d5c4c80	0.053783894
43	0xbd30b08f	-0.04313713
44	0x3deb4e0d	0.114894964
45	0xbe4685d5	-0.1938699
46	0x3d06677a	0.032813527
47	0xbdca0e8c	-0.09866056
48	0xbc9daad8	-0.019246504
49	0x3dbf5d76	0.09343998
50	0x3c81d659	0.01584928
51	0x3bdbdc29	0.0067095947
52	0x3d1876f8	0.037222832
53	0x3d132593	0.035924505
54	0x3e23013d	0.15918441
55	0xbd83827d	-0.06421373
56	0xbd2b85fd	-0.041875828
57	0xbc6379bb	-0.013884003
58	0xbcabe014	-0.020980872
59	0x3e211d31	0.15733792
60	0xbc94fb9c	-0.018186383
61	0x3c96769a	0.0183671
62	0x3e66675d	0.22500367
63	0xbd29ecf0	-0.041485727
64	0x3d3c0bf3	0.045909833
65	0xbe390b94	-0.18070823
66	0x3c821741	0.015880229
67	0x3d814433	0.06311836
68	0xbd53286b	-0.051552217
69	0x3e73df9c	0.23815769
70	0x3db0d08d	0.08633528
71	0x3dcb0a51	0.09914077
72	0x3d9244ba	0.07142015
73	0x3d873737	0.06602328
74	0xbddcb935	-0.10777513
75	0x3dec4601	0.1153679
76	0x3d6aae53	0.057295155
77	0x3cc3e876	0.023914557
78	0x3d9ba03e	0.07598923
79	0x3ec07043	0.3758565
80	0xbb9d1528	-0.004793782
81	0xbdd426d4	-0.103589684
82	0x3e4ce9d6	0.20011076
83	0x3d96fae9	0.07372076
84	0x3e238502	0.15968707
85	0xbd8e44a4	-0.06946686
86	0x3c38697f	0.011255621
87	0x3d925295	0.071446575
88	0xbdf87271	-0.12131203
89	0xbdb87ef0	-0.090085864
90	0x3ea96e42	0.33091933
91	0xbe05ccf2	-0.13066462
92	0x3b5bd821	0.003354557
93	0x3e116636	0.14199147
94	0xbe859d86	-0.26096743
95	0xb9d891df	-0.00041307413
96	0xbdf40c1a	-0.11916371
97	0x3c6982d2	0.014252381
98	0x3da3777c	0.07981774
99	0xbd5fc646	-0.054632448
100	0x3e358c9c	0.1772942
101	0xbd65a3d3	-0.056064438
102	0x3daf0875	0.08546535
103	0x3e8591b0	0.26087713
104	0x3e0bf5c4	0.13667971
105	0xbe4aa4b7	-0.19789396
106	0xbdde80e8	-0.10864431
107	0xbbd142dd	-0.0063861446
108	0x3c126470	0.008935079
109	0x3e70462b	0.23464267
110	0x3dce569c	0.10075113
111	0xbb35219a	-0.0027638436
112	0xbd877c5d	-0.06615517
113	0x3e8f2e3f	0.2796497
114	0x3e1d3d99	0.15355529
115	0x3e3b9139	0.18317117
116	0xbd2db8b9	-0.042412493
117	0x3da41926	0.08012609
118	0x3dcb3a4c	0.099232286
119	0x3c802af7	0.015645487
120	0x3cdc1508	0.026865497
121	0x3e0e59d1	0.1390145
122	0x3db314e0	0.08744216
123	0x3d261dc4	0.04055573
124	0xbcf06ffe	-0.029350277
125	0xbd6958ca	-0.05696944
126	0xbdbde3ec	-0.09271988
127	0xbdcb21b5	-0.099185385
128	0x3e2c1384	0.1680432
129	0x3e656b9a	0.22404328
130	0x3e02563e	0.12728211
131	0xbe813cd8	-0.25241733
132	0xbd6e4a8d	-0.058176566
133	0x3e168828	0.14700377
134	0xbe0e1bb1	-0.13877751
135	0xbe53a89b	-0.20669787
136	0x3eb9613d	0.36207
137	0x3dff9034	0.124786764
138	0x3d8e7928	0.069567025
139	0x3de2ec0b	0.11080178
140	0x3cfc8503	0.030825144
141	0xbe29e416	-0.16590914
142	0xbdd9c860	-0.106339216
143	0x3e504df5	0.20342238
144	0x3d1a5f36	0.037688456
145	0x399b0a28	0.0002957147
146	0xbe3d1eec	-0.18468827
147	0x3d6774bf	0.056507822
148	0x3c636b72	0.013880597
149	0x3df4de5a	0.11956473
150	0xbe0dc8f7	-0.13846193
151	0x3ce7aee8	0.028281644
152	0x3da83ac5	0.082143344
153	0x3c9f884c	0.019474171
154	0xbcdaf92c	-0.026730143
155	0xbd2abcca	-0.04168395
156	0xbdd6d1d2	-0.10489239
157	0x3d9adb0d	0.07561312
158	0x3e533188	0.20624363
159	0x3e2274b4	0.15864831
160	0x3d202636	0.03909894
161	0xbba92422	-0.005161778
162	0xbdc10ff4	-0.09426871
163	0xbd0850d5	-0.033280212
164	0xbc84afa8	-0.01619704
165	0xbdc3a388	-0.095526755
166	0xbe143477	-0.14473139
167	0x3d067f99	0.03283653
168	0x3dd44c5b	0.10366126
169	0xbe0f0767	-0.13967668
170	0xbde014a0	-0.10941434
171	0xbcd9fb60	-0.026609123
172	0xbe9861db	-0.29762158
173	0xbe8de52d	-0.2771391
174	0xbe0b051c	-0.13576168
175	0x3dcc98d8	0.0999009
176	0xbec5f9b4	-0.3866707
177	0x3dbe2fbd	0.09286449
178	0x3c193447	0.009350843
179	0xbd2cbf64	-0.04217471
180	0xbdee488f	-0.11634933
181	0xbb9192b1	-0.004442536
182	0xbe11d14d	-0.14239998
183	0x3dedf5d7	0.11619156
184	0x3da23750	0.07920706
185	0x3d85d02c	0.06533846
186	0x3e072213	0.13196592
187	0x3de0b7a0	0.10972524
188	0x3d354e37	0.044264045
189	0xbe0c79c2	-0.13718322
190	0x3e0a6ba3	0.13517623
191	0xbe0f3273	-0.13984089
192	0xba389292	-0.00070408836
193	0xbe0709a0	-0.13187265
194	0x3c05420f	0.008133425
195	0x3e4d1a60	0.20029593
196	0xbd4aa178	-0.049470395
197	0x3d84de00	0.06487656
198	0xbdeaa37b	-0.11456963
199	0x3ce3d90d	0.027813459
200	0xbdf3e668	-0.11909181
201	0xbe03b686	-0.12862596
202	0xbd8108bd	-0.06300495
203	0x3e2b4797	0.16726528
204	0xbcd65c84	-0.026167162
205	0x3e348b5f	0.17631291
206	0x3e42681a	0.18985024
207	0x3d742d11	0.05961329
208	0xbd989efd	-0.074521996
209	0xbd008ff3	-0.03138728
210	0x3d8c0ca6	0.0683835
211	0x3dfe6de9	0.124233074
212	0x3e334e5a	0.17510357
213	0x3da8deb8	0.08245605
214	0x3e9463cd	0.28982392
215	0x3df86877	0.121293
216	0xbe5c704d	-0.21527214
217	0x3cb77525	0.022394726
218	0x3e89ce93	0.26915416
219	0xbdb2c031	-0.08728064
220	0xbe64b93b	-0.22336285
221	0x3d6de680	0.05808115
222	0xbcb6aca1	-0.022299113
223	0xbeaf3bd1	-0.34225324
224	0xbcaba4cb	-0.020952603
225	0x3d875a58	0.066090286
226	0x3e47f437	0.19526754
227	0xbd9c9b6d	-0.076468326
228	0x3ce2ee4b	0.027701518
229	0x3c0a1aef	0.008429273
230	0xbe0b071c	-0.13576931
231	0xbed68668	-0.4189942
232	0x3d9f0798	0.0776512
233	0xbdd5799d	-0.104235865
234	0xbe5b5c1a	-0.21421853
235	0xbb38df02	-0.0028209095
236	0xbe0f6d13	-0.14006452
237	0x3d00a5e8	0.03140822
238	0x3d2feeee	0.04295247
239	0x3d79f9fd	0.061029423
240	0x3e2093c1	0.15681364
241	0x3bc26f06	0.005933645
242	0x3da3e031	0.080017455
243	0x3d98219b	0.07428285
244	0xbde20a6b	-0.11037143
245	0xbe015e5a	-0.12633649
246	0xbdbad6d1	-0.09123004
247	0x3e833e74	0.25633585
248	0xbcfe94aa	-0.031076748
249	0xbd7bdc13	-0.061489176
250	0x3d8352c4	0.06412271
251	0xbd9a3069	-0.07528765
252	0xbe042b58	-0.1290716
253	0xbe3c6c4f	-0.18400691
254	0x3dea4a96	0.114400074
255	0x3d45a3ca	0.048251905

network_body._body_endoder.seq_layers.0.bias f4 [128]
0	0x3d878c4e	0.06618558
1	0x3ccc7f0a	0.02496292
2	0xbc9e1dd1	-0.019301327
3	0x3d036775	0.032081086
4	0xbcedb1f6	-0.029015522
5	0x3d9bf22e	0.076145515
6	0xba4c31f2	-0.0007789425
7	0x3c4abcf1	0.012374149
8	0x3d8f126f	0.06985938
9	0xbc5c6846	-0.013452595
10	0xbc82abcf	-0.015951065
11	0x3d06ba4b	0.032892507
12	0xbce29438	-0.027658567
13	0x3d88055d	0.06641648
14	0x3d01fac7	0.0317333
15	0xbd4c6855	-0.049904186
16	0xbcf08c3f	-0.02936375
17	0x3cef9365	0.029245088
18	0x3d54b11f	0.05192673
19	0xbaff5552	-0.0019480383
20	0x3cc1682f	0.023609249
21	0x3d4fa3e3	0.050693404
22	0xbc9e458c	-0.019320272
23	0x3d8a0437	0.06739085
24	0x3d62a635	0.05533429
25	0x3cbbc4db	0.022921016
26	0x3d6f6a89	0.05845121
27	0x3ac3dbd0	0.0014942829
28	0x3d02d20f	0.03193861
29	0x3c777749	0.015104123
30	0xbc98d3b0	-0.018655628
31	0x3cae4df6	0.021277409
32	0x3cab5745	0.020915637
33	0x3cfc0ee8	0.030768827
34	0xbd16c723	-0.036811005
35	0x3ddadf61	0.106871374
36	0x3d811f1a	0.0630476
37	0x3d9acb01	0.07558251
38	0xbca2a6bc	-0.019854896
39	0x3be09b1d	0.0068544284
40	0x3d87464e	0.066052064
41	0x3c604fc4	0.013690893
42	0xbd089d5a	-0.033353187
43	0x3cbc3fe4	0.022979684
44	0x3c542069	0.01294718
45	0xbd26a47c	-0.04068421
46	0x3d9d6b64	0.07686499
47	0xbcdc71b6	-0.02690969
48	0xbcb1af1a	-0.02168994
49	0x3d96e9cd	0.07368813
50	0x3d3ce3bd	0.046115626
51	0xbdb912b6	-0.09036772
52	0xbcf87a8c	-0.030331872
53	0x3d28daf8	0.04122445
54	0xbbcc67f5	-0.0062379786
55	0x3d38eaee	0.04514592
56	0x3d130009	0.035888705
57	0xbb4f7765	-0.0031656858
58	0x3cad7376	0.02117322
59	0xbcf91b65	-0.03040857
60	0x3c268703	0.010164025
61	0x3da0b50f	0.07847034
62	0x3c6754ca	0.014119336
63	0x3c82a8f6	0.015949707
64	0xbc6b8392	-0.0143746305
65	0x3d175bbd	0.036952723
66	0x3c60ee76	0.0137287285
67	0xbcc41b90	-0.023938924
68	0x3cb8cc35	0.022558311
69	0x3d91f906	0.071275756
70	0x3d100db3	0.035169315
71	0xbd894d58	-0.06704205
72	0xbd17f7d6	-0.03710159
73	0xbd25fd67	-0.040524866
74	0x3b2666fd	0.0025390976
75	0x3c42b9a2	0.011885079
76	0x3d2a754b	0.041615766
77	0xb99e1645	-0.000301527
78	0x3c2c8062	0.010528656
79	0x3b72ccbe	0.0037048305
80	0x3c39af74	0.011333335
81	0x3c2e3548	0.01063282
82	0xbcfad24a	-0.030617852
83	0xbd359a93	-0.044336867
84	0x3d8a66a8	0.067578614
85	0x3d5a4c92	0.05329568
86	0x3b502157	0.0031758153
87	0x3d025d42	0.03182722
88	0xbd104c7e	-0.0352292
89	0x3d9d0547	0.07667022
90	0x3d189b13	0.037257265
91	0xbc883544	-0.016626962
92	0x3d227e45	0.0396712
93	0x3b7c63fe	0.0038511748
94	0x3c8312c9	0.016000168
95	0xbcbf5583	-0.023356205
96	0x3d25aad5	0.04044612
97	0x3d802310	0.06256688
98	0xbc79c007	-0.015243537
99	0xbc2fd6e1	-0.0107323835
100	0x3d6a5793	0.057212424
101	0x3cca6e49	0.024710791
102	0xbccfeed3	-0.025382435
103	0x3c69e3e8	0.0142755285
104	0xbc1e5c61	-0.00966558
105	0xbd0d03be	-0.034427397
106	0x3d25b02b	0.04045121
107	0x3d682534	0.056676105
108	0xbce86a09	-0.028370874
109	0x3d17ca3c	0.0370581
110	0x3d8f6e39	0.07003445
111	0xbb379f01	-0.0028018358
112	0x3d58a7bc	0.05289434
113	0xbaa84f8d	-0.0012841091
114	0xbb92346d	-0.004461816
115	0x3c9fea9c	0.01952105
116	0xbbc1e990	-0.0059177354
117	0x3b9d8995	0.004807661
118	0xbcdd725d	-0.027032072
119	0x3d04b443	0.032398473
120	0x3c96b6c2	0.018397693
121	0x3d88d787	0.066817336
122	0xbd79db10	-0.06099993
123	0xbd552afb	-0.052042942
124	0x3d19b3d2	0.037525006
125	0xbc20d57b	-0.009816523
126	0x3d977e60	0.07397151
127	0xbc62994b	-0.013830493

network_body._body_endoder.seq_layers.2.weight f4 [128, 128]
0	0xbcc1c4cb	-0.023653409
1	0xbdcbecea	-0.09957297
2	0xbd4db1a7	-0.05021825
3	0xbda26c08	-0.079307616
4	0xbcd63524	-0.026148386
5	0xbde4fca4	-0.11181
6	0xbb1d98a0	-0.002404727
7	0xba83abff	-0.0010045766
8	0x3e184164	0.14868695
9	0xbd4a08f3	-0.04932494
10	0xbc869131	-0.016426655
11	0xbe0ff5af	-0.14058565
12	0x3da94325	0.0826476
13	0xbdd5d907	-0.10441785
14	0xbdf0a21d	-0.11749671
15	0x3e02d9c9	0.12778391
16	0x3de04a84	0.10951713
17	0xbe125e52	-0.14293793
18	0x3e098b1f	0.13431977
19	0x3d5cedf3	0.053937864
20	0x3de06c98	0.109582126
21	0x3b2f466b	0.0026744853
22	0x3e2ced7d	0.1688747
23	0x3ddc7094	0.1076366
24	0xbbb140fe	-0.005409359
25	0xbd628926	-0.055306576
26	0xbd4ee7a3	-0.050513875
27	0xbd8d1198	-0.06888121
28	0x3d956922	0.07295443
29	0x3e09b94a	0.13449588
30	0x3d275d41	0.04086042
31	0xbd1f9595	-0.038961012
32	0xbd9da5d7	-0.07697647
33	0x3cb2fab2	0.021848056
34	0xbc2c68c7	-0.010523028
35	0xbdd84564	-0.1056011
36	0xbdc3debe	-0.09563969
37	0xbe0bda3f	-0.13657473
38	0x3d8ac030	0.06774938
39	0xbc866979	-0.016407715
40	0xbdb3823d	-0.08765075
41	0x3d00d05c	0.031448707
42	0x3cde4fc0	0.027137637
43	0x3c97133f	0.018441794
44	0x3dc8d404	0.09806064
45	0x3c716d05	0.014735465
46	0xbb899318	-0.004198443
47	0xbd0d961e	-0.03456699
48	0xbe441876	-0.19149956
49	0xbd1fb99d	-0.038995374
50	0xbd290e8e	-0.041273646
51	0xbde6b893	-0.112656735
52	0x3d1de6cf	0.038550194
53	0x3dea96ac	0.1145452
54	0x3d149648	0.036276132
55	0x3dc6c66b	0.09705814
56	0xbcc65032	-0.024208162
57	0xbd0298ae	-0.031883888
58	0xbd3acdc0	-0.045606375
59	0x3e0bd3a7	0.13654958
60	0x3c7b0ae2	0.015322419
61	0x3e401d6f	0.18761228
62	0xbde4d32b	-0.111730896
63	0x3d51427d	0.0510888
64	0x3cbe9c96	0.023268025
65	0x3da7c724	0.0819228
66	0x3e01b2ee	0.12665913
67	0xbd63ddab	-0.05563132
68	0xbdb40229	-0.087894745
69	0x3cc2d56d	0.02378341
70	0xbd3557d2	-0.044273205
71	0xbdc83758	-0.09776181
72	0xbc73aaf7	-0.014872304
73	0x3db137a9	0.086531945
74	0x3db1f6d6	0.08689658
75	0x3e0d9f20	0.13830233
76	0xbda4f2b4	-0.080541044
77	0x3d2eb596	0.042653643
78	0xbd5a7f9b	-0.05334435
79	0xbd1bdade	-0.038050525
80	0x3cf6061c	0.03003221
81	0xbded203a	-0.11578412
82	0xba83f2e2	-0.0010066892
83	0x3e2a2077	0.16613947
84	0xbd4d8379	-0.05017421
85	0xbe78da32	-0.24301985
86	0xbd7fd8f6	-0.06246277
87	0x3ded1bf5	0.11577598
88	0x3da99335	0.08280031
89	0x3d85730d	0.06516085
90	0xbd97371d	-0.07383559
91	0x3dd7f93e	0.10545586
92	0xbe0bf40c	-0.13667315
93	0xbe7802a8	-0.24219763
94	0xbcb46f65	-0.022025773
95	0x3cd29056	0.02570359
96	0x3df038f3	0.11729612
97	0x3dbd2f7c	0.092375726
98	0xbc8520f8	-0.016251072
99	0xbddf0b18	-0.10890788
100	0x3d85ffe5	0.06542949
101	0x3e234c59	0.15947093
102	0xbce3c174	-0.027802207
103	0xbe16f6f4	-0.14742643
104	0xbdf78246	-0.120853946
105	0xbc9bb598	-0.01900749
106	0xbe1370d4	-0.1439851
107	0xbd4f5348	-0.050616533
108	0x3d51a782	0.05118514
109	0x3d56b1ca	0.052415647
110	0x3e0a0cb4	0.13481408
111	0x3b650549	0.0034945777
112	0x3bc1a61f	0.0059096958
113	0x3e1e1ebb	0.1544141
114	0x3a1a6eb7	0.00058911316
115	0xbdc5c829	-0.09657318
116	0x3ab8176a	0.0014045064
117	0xbd5fe5a4	-0.05466236
118	0xbd6b67c3	-0.057472
119	0x3e00f551	0.12593581
120	0xbdc5e214	-0.096622616
121	0x3da18948	0.078875124
122	0xb949f3df	-0.00019259703
123	0x3e95f67e	0.2928962
124	0x3c463b8a	0.012099156
125	0x3c06cf08	0.008228071
126	0xbe0a4de8	-0.13506281
127	0xbccb024a	-0.024781365
128	0x3bba1a72	0.005679422
129	0xbe56ae42	-0.20964912
130	0xbd5e08ef	-0.05420774
131	0xbd046b78	-0.032329053
132	0xbe067a26	-0.13132533
133	0xbdf1b68d	-0.11802397
134	0x3d89543e	0.06705521
135	0xbd61e4e6	-0.055149935
136	0x3cea4110	0.028595477
137	0x3d8de9c8	0.06929356
138	0x3e07f4ff	0.13277052
139	0x3ddbc638	0.107311666
140	0xbd224b98	-0.039622873
141	0x3cb07995	0.02154235
142	0xbd19d9de	-0.03756129
143	0xbdb1296c	-0.08650479
144	0xba96713c	-0.0011477838
145	0x3add476e	0.001688225
146	0x3e1e4997	0.1545776
147	0x3e2f3b2c	0.17112416
148	0x3dca9da3	0.09893348
149	0xbc976572	-0.01848099
150	0xbb283120	-0.0025664046
151	0xbdb623fb	-0.088935815
152	0x3cc804f9	0.024416434
153	0xbde48577	-0.11158269
154	0x3d412863	0.047157656
155	0xbdcb2629	-0.09919388
156	0xbd248dd6	-0.040174328
157	0x3c8e336e	0.017358508
158	0x3d3af9c7	0.045648362
159	0x3d9e91ab	0.07742628
160	0x3d81834a	0.063238695
161	0xbc7f8759	-0.015596234
162	0x3d181a13	0.03713424
163	0x3db63666	0.088970944
164	0x3d95ab05	0.0730801
165	0xbe0ec583	-0.13942532
166	0xbd068219	-0.032838915
167	0xbd83c52c	-0.06434092
168	0x3ce17fe5	0.027526805
169	0xbde4969c	-0.11161539
170	0xbd0809d1	-0.033212487
171	0x3ce42d4d	0.027853632
172	0xba3db99a	-0.00072374346
173	0x3dae0585	0.084971465
174	0x3d98f9e4	0.07469538
175	0xbe45e136	-0.19324192
176	0xbe1570a2	-0.14593747
177	0x3d486532	0.048924632
178	0xbc083235	-0.008312752
179	0xbdf8dd99	-0.121516414
180	0x3dcaadf8	0.09896463
181	0xbe8150e5	-0.2525703
182	0x3e028bb8	0.12748611
183	0x3dd09b15	0.101858296
184	0x3dba2a65	0.09090117
185	0xbddbb0b6	-0.10727064
186	0x3d954b13	0.0728971
187	0x3dcd14ff	0.1001377
188	0xbd17ebac	-0.03708999
189	0x3b77a88b	0.0037789668
190	0x3e5d2f50	0.2160008
191	0xbdccee79	-0.100064225
192	0x3dafb6bf	0.08579778
193	0x3df4cade	0.11952756
194	0xbe142e1b	-0.14470713
195	0x3d4404ce	0.047856145
196	0xbd510e9e	-0.05103933
197	0xbdaa2a1e	-0.083088145
198	0x3d89084b	0.06691035
199	0x3d722e4f	0.059126195
200	0x3db90c88	0.09035593
201	0xbdf396ac	-0.11893973
202	0xbe1893e8	-0.14900172
203	0x3e4d53d1	0.20051505
204	0xbc6698de	-0.014074532
205	0x3e04f919	0.12985648
206	0xbd060091	-0.032715384
207	0xbd26fbc3	-0.040767442
208	0x3c309b1a	0.010779167
209	0x3e3a9f50	0.18224835
210	0x3daf8da7	0.0857194
211	0x3bf36518	0.007427823
212	0xbd5782e7	-0.052615073
213	0xbdb28fc9	-0.08718831
214	0xbddfe64a	-0.10932596
215	0x3d4a3e0b	0.049375575
216	0xbdcd9cfd	-0.10039709
217	0xbc488646	-0.0122390445
218	0xbb7e23e0	-0.0038778707
219	0x3c8615e1	0.016367855
220	0xbc2d69af	-0.010584279
221	0x39ed18a2	0.00045222515
222	0xbcd88c08	-0.02643396
223	0x3bdf209c	0.0068093073
224	0xbc7a078d	-0.015260589
225	0xbcb01a0d	-0.021496797
226	0x3e2e5461	0.17024375
227	0x3e61b9e8	0.22043574
228	0x3cf99f89	0.03047158
229	0xbd5c9ca2	-0.053860314
230	0x3d45415b	0.04815803
231	0x3e4e22b7	0.2013043
232	0xbd81a125	-0.06329564
233	0x3d81dc66	0.06340866
234	0x3df41bec	0.11919388
235	0x3ca6085c	0.020267658
236	0xbdaff41e	-0.085914835
237	0x3c154d4a	0.009112665
238	0xbd6240c7	-0.055237558
239	0x3df25d4e	0.11834203
240	0x3e0a7b37	0.13523565
241	0x3dbdfd4f	0.092768304
242	0xbdc10abf	-0.09425878
243	0x3e4e3c5d	0.20140214
244	0xbdd606d4	-0.10450521
245	0x3c1385f0	0.009004101
246	0xbda7d51c	-0.08194944
247	0xbd72a332	-0.059237666
248	0xbcb7660e	-0.02238753
249	0x3d2f187f	0.04274797
250	0x3d1d0288	0.038332492
251	0xbd24a41a	-0.040195562
252	0x3d269afc	0.04067515
253	0xbc39fa74	-0.011351217
254	0x3d07fabf	0.033198114
255	0x3d13bf07	0.03607085

network_body._body_endoder.seq_layers.2.bias f4 [128]
0	0xbb26874c	-0.0025410233
1	0x3cbf9cb4	0.023390152
2	0x3da07db2	0.078364745
3	0x3ba4ad51	0.0050255437
4	0x3ce78755	0.028262774
5	0x3d80e81d	0.06294272
6	0xbc3c4bfb	-0.0114927245
7	0xbc49985f	-0.0123043945
8	0x3d0678cd	0.03283005
9	0xbc320d3c	-0.010867413
10	0x3d804418	0.06262988
11	0x3d1c710e	0.038193755
12	0xbd7e8339	-0.062136862
13	0xbd588fa3	-0.052871358
14	0xbd0b519e	-0.034013383
15	0x3cd20e9e	0.025641736
16	0xbc9f945e	-0.019479927
17	0xbc167a6c	-0.009184461
18	0x3d0a3e74	0.033750966
19	0xbd3b3748	-0.045707017
20	0x3c273eca	0.010207841
21	0x3d34a535	0.044102866
22	0x3be8a89f	0.0071001793
23	0x3d104036	0.035217486
24	0x3cfb8f59	0.030708002
25	0x3d5b88a8	0.053597122
26	0x3d343bc1	0.0440023
27	0xbc7ff796	-0.015622994
28	0x3ce839d9	0.028347896
29	0x3d58a81b	0.052894693
30	0xbce40c01	-0.027837755
31	0xbd451360	-0.04811418
32	0xbd4eecba	-0.05051873
33	0x3d17861b	0.036993127
34	0xbd445ee1	-0.047942046
35	0xbd3ebfd0	-0.046569645
36	0xbcf6f81e	-0.030147608
37	0xbca3239f	-0.019914446
38	0x3cfef2cf	0.03112164
39	0x3d18afd9	0.037277076
40	0xbd037155	-0.032090504
41	0x3cbcbf15	0.023040334
42	0xbd9b4156	-0.07580821
43	0xbd1b6ec2	-0.037947424
44	0x3d670c18	0.056408018
45	0xbd39db18	-0.04537496
46	0x3d527d38	0.05138895
47	0x3d1d1163	0.03834666
48	0x3c054d86	0.008136159
49	0xbc8a3454	-0.016870655
50	0x3d669035	0.05628987
51	0x3d55ec22	0.052227147
52	0x3d42d6e4	0.047568217
53	0xbc5aad99	-0.013347053
54	0x3d6446b3	0.055731487
55	0xbcce1785	-0.0251577
56	0xbd07c0ab	-0.033142727
57	0xbce6fbb3	-0.028196191
58	0xbcfec0f3	-0.031097865
59	0xbd4c2184	-0.04983665
60	0x3d89562c	0.06705889
61	0xbbaa9ba5	-0.0052065426
62	0xbd510c77	-0.051037278
63	0x3856600a	5.111102e-05
64	0xbd2c305d	-0.04203831
65	0x3d629e6f	0.055326875
66	0xbc1d1f8f	-0.009590044
67	0xbd1c12bd	-0.038103808
68	0x3dada370	0.08478439
69	0x3d862326	0.06549673
70	0x3b0c1081	0.0021372142
71	0xbcb2fc81	-0.021848919
72	0xbc908234	-0.01764021
73	0x3da67fa0	0.08129811
74	0x3cfb1565	0.03064985
75	0xbd1036f6	-0.035208665
76	0xbd6594a7	-0.05604997
77	0x3d23ae2c	0.039961025
78	0x3d650fac	0.05592315
79	0x3c2baa87	0.010477669
80	0x3d0d935f	0.034564372
81	0x3d61ee50	0.055158913
82	0xbd7c93fe	-0.061664574
83	0xbd8c99f3	-0.06865301
84	0xbd01a778	-0.03165385
85	0x3d08abbe	0.03336691
86	0x3c2e2bc3	0.010630551
87	0xbcad693f	-0.02116835
88	0xbcab10d2	-0.020882044
89	0xbcdaf1da	-0.026726652
90	0xbd0ebbd7	-0.034847107
91	0xbd3dff9c	-0.046386346
92	0x3cd09654	0.025462307
93	0xbd2f7cd0	-0.04284364
94	0xbc3fc15d	-0.011703816
95	0xbd9fe2b2	-0.078069106
96	0xbd014a57	-0.031565037
97	0x3d5b7cd3	0.05358584
98	0xbd82b2aa	-0.06381734
99	0xbc86a173	-0.016434407
100	0x3c5b7513	0.013394612
101	0x3cfbda32	0.030743692
102	0x3d208421	0.039188508
103	0x3c24313b	0.010021503
104	0xbd15fe65	-0.036619563
105	0x3d02c438	0.03192541
106	0x3ca9c5cb	0.020724198
107	0x3c64b1c9	0.013958403
108	0xbd7485f5	-0.059698064
109	0xbd55b77e	-0.052176945
110	0x3d6d1c33	0.05788822
111	0x3ca3b17e	0.019982096
112	0x3c7364fd	0.01485562
113	0x3d5128e8	0.051064402
114	0x3d0da9e7	0.03458586
115	0xbd783c08	-0.060604125
116	0x3c5400fa	0.012939686
117	0xbd3abf85	-0.045592804
118	0x3ce3979f	0.02778226
119	0xbd88842f	-0.06665837
120	0x3d0320b1	0.0320136
121	0x3d268426	0.04065337
122	0xbd604324	-0.05475153
123	0x3d97b7f3	0.074081324
124	0xbce58f23	-0.028022354
125	0x3d471eaf	0.048613247
126	0xbdbab325	-0.091162
127	0xbd9599cb	-0.07304724

action_model._continuous_distribution.log_sigma f4 [1, 3]
0	0xbc932843	-0.017963534
1	0xbb843a9e	-0.004035308
2	0xbd03bef9	-0.032164548

action_model._continuous_distribution.mu.weight f4 [3, 128]
0	0x3be4c7e0	0.006981835
1	0x3c1995b3	0.00937407
2	0x3d4c4f86	0.049880527
3	0x3a80711e	0.0009799337
4	0x3cbd01d6	0.023072165
5	0x3c950f26	0.0181957
6	0xbcea2a28	-0.028584555
7	0xbd062e14	-0.032758787
8	0x3cd39788	0.025829092
9	0xbd1ed5be	-0.03877806
10	0x3d73b8ee	0.059502535
11	0x3d2f31e2	0.04277218
12	0xbd465678	-0.048422307
13	0xbd6c8f97	-0.057754125
14	0xbcd9e023	-0.026596135
15	0x3c3848d1	0.0112478295
16	0xbc7fa2ed	-0.015602809
17	0xbd12ba21	-0.035822038
18	0x3ca942c6	0.020661723
19	0xbd10c856	-0.035347305
20	0xbbd42354	-0.006473938
21	0x3cc1691a	0.023609687
22	0x3c1f74e3	0.009732458
23	0x3c16d9cc	0.0092072
24	0x3c0ae313	0.00847699
25	0x3d2910f7	0.041275945
26	0x3d2f01a7	0.042726185
27	0xbb56e4d2	-0.0032790196
28	0x3cb07e37	0.021544559
29	0x3d0cc712	0.034369536
30	0xbc570c0c	-0.013125431
31	0xbc894399	-0.016755866
32	0xbc1ea024	-0.009681735
33	0x3c6d31da	0.014477218
34	0xbc8fca8f	-0.017552642
35	0xbcf3cd53	-0.029760992
36	0xbd1ba169	-0.03799573
37	0xbc1867a7	-0.009302056
38	0x3c16e454	0.009209711
39	0x3cd50029	0.026001053
40	0xbb24b022	-0.0025129397
41	0x3c1c8c4d	0.009554935
42	0xbd5f39bc	-0.05449842
43	0xbd4b8e02	-0.049695976
44	0x3d44c234	0.04803677
45	0xbd169782	-0.036765583
46	0x3d2865e7	0.041112807
47	0x3cb539cc	0.022122286
48	0xbc342495	-0.01099505
49	0xbd237176	-0.039903127
50	0x3d460e40	0.048353434
51	0x3d5866c8	0.052832395
52	0x3d0df249	0.03465489
53	0xbcbbcee8	-0.022925809
54	0x3d3f6c5d	0.046734203
55	0xbca2548f	-0.019815711
56	0xbd3d6b98	-0.046245188
57	0xbcb6b9ee	-0.022305455
58	0xbcaefcbc	-0.021360748
59	0xbd843041	-0.06454516
60	0x3d7fbd62	0.06243647
61	0x3c0b26aa	0.008493105
62	0xbd4fa089	-0.050690208
63	0xbc91804d	-0.017761374
64	0xbd113ceb	-0.035458487
65	0x3d2c95c9	0.042135034
66	0xbbe13186	-0.0068723587
67	0xbcbd1be5	-0.02308459
68	0x3d80b040	0.06283617
69	0x3d4861cd	0.048921395
70	0xba166d12	-0.00057382986
71	0xbbfe3fe0	-0.0077590793
72	0xbb05908b	-0.0020380344
73	0x3da2b93f	0.07945489
74	0x3c2291be	0.009922443
75	0xbca41a87	-0.02003218
76	0xbd51137d	-0.051043976
77	0x3b6e15f3	0.0036329
78	0x3d12183a	0.035667636
79	0x3c234f7e	0.009967683
80	0x3c05e489	0.008172163
81	0x3d422e1e	0.047407262
82	0xbd37dd9d	-0.04488908
83	0xbd075b13	-0.03304584
84	0xbd0cdacd	-0.034388352
85	0x3c70b238	0.014690928
86	0x3c84771b	0.016170075
87	0xbb93f9f5	-0.004515881
88	0xbbf5fd5d	-0.00750701
89	0xbcdfed4c	-0.027334832
90	0xbcd35873	-0.025799012
91	0xbc485f67	-0.012229777
92	0x3c1a6214	0.009422798
93	0xbd0a76f2	-0.03380484
94	0xbc5f6ab1	-0.013636277
95	0xbdacc792	-0.084365025
96	0xbcdb4d08	-0.02677013
97	0x3d290e02	0.041273125
98	0xbd03278a	-0.03202013
99	0x3c1f0071	0.009704695
100	0x3baa014d	0.0051881433
101	0x3c4b2420	0.01239875
102	0x3d039b65	0.032130618
103	0x3c9f131e	0.019418295
104	0xbc803d74	-0.015654303
105	0x3c092b32	0.008372115
106	0xb96e6a47	-0.0002273704
107	0x3c01061c	0.007874992
108	0xbcc2c60f	-0.023776082
109	0xbcb25e1d	-0.021773392
110	0x3d36c93a	0.0446255
111	0x3c3adb27	0.011404789
112	0xbc8ec229	-0.017426567
113	0x3d056452	0.032566376
114	0x3c854595	0.01626853
115	0xbd83600c	-0.06414804
116	0x3b741624	0.0037244642
117	0xbd410c0d	-0.047130633
118	0x3cb47297	0.022027297
119	0xbd2e52c9	-0.04255942
120	0x3d037f5d	0.032103885
121	0x3c8801dc	0.01660245
122	0xbd5c4646	-0.053777955
123	0x3d65145e	0.055927627
124	0xbcdeba34	-0.027188398
125	0x3d1c070f	0.03809267
126	0xbd63d863	-0.055626284
127	0xbd453ab3	-0.048151683
128	0x3c94b7ca	0.018154044
129	0xbcc155dc	-0.023600511
130	0xbd44f8a2	-0.048088677
131	0x3cfe88aa	0.031071026
132	0x3d748772	0.059699483
133	0xbd118dab	-0.035535496
134	0xbd122c04	-0.035686508
135	0x3d917ffb	0.071044885
136	0xbd0e11e8	-0.034685045
137	0xbd56323c	-0.052294
138	0xbc76043c	-0.015015658
139	0x3cc56014	0.024093665
140	0x3b2481bf	0.0025101749
141	0x3b8049c2	0.0039150426
142	0x3d0e83f5	0.034793813
143	0xbc96b37b	-0.01839613
144	0xbc462d05	-0.012095694
145	0xbc85c06f	-0.016327111
146	0xbc38a33c	-0.011269387
147	0x3c81bcc2	0.015837077
148	0xbd3c8827	-0.046028282
149	0x3d044583	0.032292854
150	0xbd3b6baf	-0.045756992
151	0xbd7911a1	-0.060807828
152	0xbcb9e14d	-0.02269044
153	0xbb8052fe	-0.0039161434
154	0x3c9729cc	0.018452547
155	0xbb90bf6b	-0.00441735
156	0xbccf3440	-0.02529347
157	0xbd4569cf	-0.04819661
158	0x3c1a642a	0.009423295
159	0x3c188415	0.009308835
160	0xbbdc392c	-0.0067206826
161	0xbc0761ed	-0.008263093
162	0x3b2d21ea	0.002641792
163	0x3c8713f0	0.016489
164	0xbcce3239	-0.025170432
165	0x3d0b6aa8	0.034037262
166	0xbbc0aa31	-0.0058796634
167	0x3cf1051c	0.029421382
168	0xba0915ef	-0.00052294036
169	0xbca8d006	-0.020607006
170	0xbc059552	-0.0081532765
171	0x3a1feff2	0.0006101123
172	0x3d5b8a5a	0.05359874
173	0xbc3240a3	-0.010879668
174	0x3bf9819a	0.0076143267
175	0xbd6a8488	-0.057255298
176	0xbcd7f538	-0.026362047
177	0xbcf662ef	-0.030076472
178	0xbc004e29	-0.007831135
179	0x3cb770d7	0.022392673
180	0x3c435f1d	0.011924532
181	0xbc48f9e8	-0.012266614
182	0x3c85d615	0.016337434
183	0x3ca3567d	0.019938702
184	0xbcbd83e3	-0.023134178
185	0xbcd8420a	-0.026398677
186	0x3be36033	0.006938958
187	0xbcd4b03c	-0.025962941
188	0xbd0e5b2e	-0.034754924
189	0xba3d3aa7	-0.0007218518
190	0xbc1134a9	-0.008862653
191	0xbc2315cf	-0.00995393
192	0xbca9e9bf	-0.020741342
193	0x3c5bba19	0.013411068
194	0x3d68ff0d	0.05688386
195	0xbcab9a07	-0.02094747
196	0xbd1cba9b	-0.0382639
197	0xbcaec352	-0.02133337
198	0x3ca8cb33	0.020604705
199	0x3d0f0af2	0.034922548
200	0x3bca618e	0.00617618
201	0xbd49b944	-0.04924895
202	0x3bcaaf43	0.0061854436
203	0x3d364a8a	0.04450468
204	0xbbcf132e	-0.006319425
205	0xbd2e2252	-0.0425132
206	0x3bb964ac	0.005657753
207	0xbd3931e1	-0.045213584
208	0xbcd62e71	-0.026145192
209	0x3c432fbd	0.011913237
210	0x3c8f88d6	0.017521303
211	0x3b223414	0.002475028
212	0xbcdc74ca	-0.026911158
213	0x3d3b83fd	0.04578017
214	0xbba731c5	-0.0051023685
215	0x3ce4c73e	0.027927037
216	0xbc87b40a	-0.016565342
217	0xbcc56f31	-0.024100872
218	0xbbec2d03	-0.0072075143
219	0x3c7f31e6	0.015575862
220	0xbc3ff8e4	-0.011717055
221	0x3c6ae4e2	0.0143367965
222	0xbc89554f	-0.016764311
223	0x3c22b070	0.009929761
224	0x3c1f9703	0.009740594
225	0xb9cd6766	-0.00039177685
226	0x3a1edc15	0.00060600165
227	0x3c1f8702	0.009736778
228	0xbd099944	-0.03359343
229	0xbb1245a5	-0.0022319343
230	0x3c66e937	0.014093689
231	0x3d39e1c5	0.045381326
232	0xbc1f8a3e	-0.009737549
233	0xbcf1149e	-0.029428776
234	0xbd7f84f7	-0.062382665
235	0x3c3f3473	0.01167022
236	0xbc033d3a	-0.008010203
237	0x3c8c3545	0.017115245
238	0x3b0ee419	0.0021803437
239	0x3c213455	0.009839137
240	0xbda50cc1	-0.08059073
241	0xbd4a9ba4	-0.049464837
242	0xbd25a138	-0.040436953
243	0xbd0a5a1b	-0.033777338
244	0xbc67b8d6	-0.014143189
245	0x3c623dcb	0.013808678
246	0x3d0ac13c	0.03387569
247	0xba60ac0f	-0.00085705606
248	0xbd1c4d11	-0.038159434
249	0xbd044fb0	-0.03230256
250	0x3d0d31c1	0.034471277
251	0x3d07df70	0.03317207
252	0x3c7da15b	0.015480365
253	0x3cc00bbe	0.0234431
254	0x3c15b1b9	0.009136611
255	0x3c5d4559	0.013505303

action_model._continuous_distribution.mu.bias f4 [3]
0	0x3d8a0441	0.067390926
1	0xbc3aad60	-0.011393875
2	0xbb997f8b	-0.0046843938

onnx::Div_51 f4 [55]
0	0x3ee0fcae	0.4394278
1	0x3ed8e7eb	0.4236444
2	0x3eda32f6	0.42617005
3	0x3e7be450	0.24598813
4	0x3e226b6c	0.1586129
5	0x3e03142d	0.12800665
6	0x3e916af6	0.28401917
7	0x3e411a0e	0.18857595
8	0x3e1bb7e8	0.15206873
9	0x3ea490b9	0.32141665
10	0x3e5f882b	0.21829288
11	0x3e30103d	0.17193694
12	0x3eab033e	0.3340091
13	0x3e6c6b8a	0.23087898
14	0x3e38e77e	0.18057057
15	0x3ea8a4c3	0.32938203
16	0x3e68cd12	0.22734478
17	0x3e395faf	0.18102907
18	0x3e972e5d	0.2952756
19	0x3e51699a	0.2045044
20	0x3e24a2a2	0.16077664
21	0x3e8ccde2	0.27500826
22	0x3e42a137	0.19006811
23	0x3e1783c9	0.14796366
24	0x3e883ea6	0.26610297
25	0x3e3847d9	0.17996158
26	0x3e113744	0.14181238
27	0x3e84de5a	0.2595089
28	0x3e2d8bb0	0.16947818
29	0x3e0b4a5e	0.13602588
30	0x3e83595a	0.25654107
31	0x3e244040	0.16040134
32	0x3e0c9ecc	0.13732451
33	0x3d65e484	0.056126133
34	0x3d3c1985	0.045922775
35	0x3cda56b8	0.026652679
36	0x3d518c27	0.05115905
37	0x3d2fc013	0.042907786
38	0x3cc60643	0.024172908
39	0x3daf6f48	0.08566147
40	0x3d808c09	0.062767096
41	0x3d380224	0.044923916
42	0x3e08b189	0.13348974
43	0x3de9917d	0.11404703
44	0x3d852f13	0.06503119
45	0x3e0e749d	0.13911672
46	0x3de7c57b	0.11316963
47	0x3d8e3b43	0.06944897
48	0x3dd24e88	0.10268885
49	0x3d8fea09	0.070270605
50	0x3d5e16a4	0.05422081
51	0x3e9d1cf4	0.30686152
52	0x3e97303b	0.29528984
53	0x3ed9c9a1	0.42536643
54	0x3eeb6705	0.45977035
