Assets/ML-Agents/results/color-hunt1/ColorHunter/ColorHunter-114674.onnx (onnx, 102012 bytes, 9 tensors)

network_body.observation_encoder.processors.0.normalizer.running_mean f4 [55]
000000 c8 56 c3 3e 37 a4 94 3e c8 35 ee 3e b1 21 59 3d
       0.38152146 0.29031536 0.46525407 0.053010646
000010 d2 71 7a 3f f6 07 db 3c 95 48 07 3d 0b c1 fc 3c
       0.97829926 0.026737195 0.033028204 0.030853769
000020 87 e7 1c 3d 50 a1 4c 3d 23 f2 7a 3f ff ae d4 3c
       0.03830674 0.049958527 0.9802572 0.02596235
000030 9d 8f fe 3c c9 90 00 3d 69 82 14 3d 0d 74 5b 3d
       0.03107434 0.031388078 0.03625718 0.05357747
000040 45 6a 7a 3f 8e 89 e2 3c 65 30 ff 3c cf 8d 0c 3d
       0.97818404 0.027653482 0.031151006 0.034314927
000050 c8 72 1c 3d 70 f6 8d 3d be f7 77 3f 15 73 14 3d
       0.0381954 0.0693177 0.968624 0.036242563
000060 7a 88 2f 3d e9 24 27 3d a9 22 49 3d 48 fb 97 3d
       0.042854764 0.040806685 0.04910532 0.07420975
000070 c7 7e 77 3f 21 da 1e 3d 0c 16 2f 3d 31 17 38 3d
       0.9667782 0.038782243 0.042745635 0.044943992
000080 c9 39 50 3d 3d b6 88 3d 5a 7d 78 3f 18 0f 0b 3d
       0.05083636 0.06675384 0.9706627 0.03394994
000090 64 9e 23 3d bc 92 2e 3d 61 cb 3d 3d ca f4 74 3d
       0.039945975 0.042620406 0.046336535 0.05980376
0000a0 1e b7 79 3f d6 21 ff 3c 85 87 14 3d be 61 19 3d
       0.9754504 0.031144064 0.036262054 0.03744673
0000b0 c2 00 27 3d 4f 59 72 3d e6 19 7a 3f 61 f3 f4 3c
       0.040772207 0.059167203 0.9769577 0.029901208
0000c0 b5 2f 10 3d 7c ec 13 3d 12 3d 25 3d 6f 73 44 3d
       0.035201747 0.0361142 0.040341444 0.04796165
0000d0 54 47 7b 3f 43 a9 ca 3c f3 9c e8 3c
       0.98155713 0.024738913 0.028395152

network_body._body_endoder.seq_layers.0.weight f4 [128, 55]
000000 93 9c 65 bc 92 08 14 3d d5 6d fd bd 7b ad 41 3d
       -0.014014381 0.036140986 -0.123744644 0.047284584
000010 ec 54 85 bd c2 49 ca bd 44 7e 29 3e 62 b3 e0 bd
       -0.06510338 -0.098773494 0.16552073 -0.109717146
000020 74 2c 4c bd 23 87 2a 3d 48 e4 31 3c 0d f0 3f bd
       -0.04984708 0.041632783 0.010857649 -0.04685979
000030 5f 80 8a 3e 13 19 90 3d b5 2f 1d be 3a e8 06 bb
       0.27051064 0.070360325 -0.1535023 -0.0020585195
000040 50 59 04 be ef 32 c5 be 4f 42 8a ba 5b 22 4a bc
       -0.12924695 -0.38515422 -0.0010548326 -0.012337293
000050 da 09 3a 3e df ab 0d be 2a 6b dc 3b 71 a7 2f bd
       0.1816782 -0.13835095 0.006726642 -0.042884294
000060 36 9b 02 bd 87 ca 94 bd 0e 6d 9d bc 27 bd 8f 3d
       -0.031886302 -0.072651915 -0.01921704 0.070185
000070 92 77 dc 3d 32 89 09 3e 48 31 39 3e 01 41 c5 be
       0.10764994 0.13431242 0.18085206 -0.38526157
000080 da 56 56 be 73 15 78 bd 27 1e 8c bc 39 a3 05 3e
       -0.20931569 -0.06056733 -0.017104222 0.13050546
000090 41 7d 4c be a8 fe 4d 3d 8b 42 46 3c b8 ff 06 3e
       -0.19969656 0.050291687 0.012100826 0.13183486
0000a0 aa 9e 48 3b 6e bd 97 3d e4 7b 5e bc 93 ed ec 3d
       0.003061215 0.07409178 -0.0135793425 0.11568751
0000b0 f0 1e 42 bd 0d 98 5e 3e 78 b2 53 3e 31 3f 5e bd
       -0.047392786 0.2173769 0.20673549 -0.054259483
0000c0 7a 4b 94 3c e0 bf bc bd 97 56 88 3d 00 1b f7 bc
       0.018102396 -0.09216285 0.06657141 -0.030164242
0000d0 6e 74 22 bb 81 52 4b 3d 5f 46 73 3e b2 14 81 be
       -0.0024788636 0.04963923 0.23757313 -0.25211102
0000e0 3f 87 46 3d 0c 55 4a 3d ec e5 97 bd 3d 4d 45 bc
       0.048468824 0.049397513 -0.07416901 -0.012042341
0000f0 20 8f a5 bd 67 ca 5d 3d ac cf ba bc 05 96 f1 3c
       -0.080839396 0.054148104 -0.022804104 0.02949048
000100 d3 be 62 be 5a 91 3a be 13 f9 0d be d7 4f 58 3e
       -0.22143106 -0.1821951 -0.13864546 0.21124206
000110 6a 68 a9 3d ca 94 fe 3d 7d 1a 3e 3e 60 6c 25 be
       0.082718685 0.12430723 0.18564792 -0.16154623
000120 94 3b 46 bc 88 88 45 bb 80 34 c0 bd 68 ea 13 bd
       -0.0120991655 -0.0030141193 -0.093850136 -0.03611222
000130 20 05 d2 3d 52 50 43 be f1 a6 a7 bd 91 b2 ce 3d
       0.10254884 -0.19073609 -0.081861384 0.100926526
000140 9d 63 59 3d 87 ba 8d 3d 64 18 63 3d e1 b6 f7 bb
       0.053073514 0.06920343 0.055443183 -0.0075596427
000150 3e ec 5c 3d 9b 6d ee b9 ca 0e 1f 3e 19 fc 05 3e
       0.053936236 -0.0004547656 0.15532985 0.13084449
000160 da b1 95 bd b6 c5 b5 3c cb ca 01 3e 6c 2c fc bd
       -0.07309313 0.022189002 0.12675016 -0.1231316
000170 cf 7c 2d 3d 76 32 89 be 0a fc 2d be 2e 11 f3 be
       0.042355355 -0.2679631 -0.16990677 -0.47474045
000180 60 3b a4 be 02 e3 b1 3d e0 4d cb 3d 58 7f 29 3d
       -0.3207655 0.086858764 0.09926963 0.04138121
000190 ee 35 1d 3e 6f 7d 97 bc d2 d8 ab bd d7 18 e6 3c
       0.15352604 -0.018492429 -0.083909646 0.028088016
0001a0 d0 03 cc bd 2d 24 0a be 9a 67 57 bc 72 c7 9c be
       -0.09961665 -0.13490362 -0.013147259 -0.30620915
0001b0 f4 7d 97 3c 24 9d ad bd fa 5b 47 3e 24 0f 2c 3e
       0.018492676 -0.08477238 0.1946868 0.1680265
0001c0 f3 94 b3 3d 11 7a a3 3d 48 40 7f bd 74 1f 15 3e
       0.08768644 0.07982267 -0.062317163 0.1456278
0001d0 8c a6 f9 3d a9 18 84 bd b9 94 7c bd f7 9a d2 bd
       0.121899694 -0.06450016 -0.06166527 -0.102834634
0001e0 c3 ac bf bc f4 76 4d be 5d dd c1 bd d7 d3 84 3d
       -0.023397809 -0.20064908 -0.0946605 0.06485718
0001f0 ba 07 b4 3d ca f2 46 3d 18 6a 92 3d 7d 14 61 3d
       0.08790536 0.048571385 0.07149142 0.05495118
000200 66 29 d7 3d d7 6d 04 bd 6b a5 5b 3c 78 c7 91 3d
       0.10505943 -0.032331314 0.013406138 0.07118124
000210 ff 37 21 bd ef 39 90 3e c6 93 69 bd a0 6e 4b 3e
       -0.039360043 0.281692 -0.057025693 0.19866419
000220 1e 33 b5 bd a4 0b 3c bd 9b d8 55 3d 73 55 94 be
       -0.088476405 -0.04590954 0.052208524 -0.28971443
000230 70 2a 1f be 3f 15 e3 3d 0b 9e 0e be d1 ee 80 3e
       -0.15543532 0.11088037 -0.13927476 0.25182202
000240 41 28 99 bd 8f 3d 06 bc f1 2b 58 3e 01 b3 e4 bd
       -0.07478381 -0.008193388 0.21110512 -0.11166955
000250 4e 76 df 3e fb 6a 80 3d 7c 24 a4 3d 70 05 fd 3c
       0.43644947 0.06270405 0.08014771 0.030886382
000260 02 e6 26 3d 74 24 da 3d 88 88 9d 3d 88 ce d7 bd
       0.040746696 0.10651484 0.07692057 -0.105374396
000270 d3 8c 41 bd 85 64 e6 3d 3d 1e d4 3d a3 df 80 bc
       -0.04725344 0.11249641 0.1035733 -0.015731638
000280 b3 59 1f 3e a7 57 50 3e e2 16 e2 bd 5a 86 b4 bd
       0.15561561 0.20345937 -0.11039521 -0.08814688
000290 73 a5 52 be 5d be 5f be 86 0d 8e 3e d1 ff 05 3e
       -0.20570926 -0.21849962 0.27744693 0.13085867
0002a0 1a 20 33 be e1 ad 26 bd d3 08 83 be 1f 1f ee ba
       -0.17492715 -0.040693168 -0.2559267 -0.0018167234
0002b0 2e ed 97 3d 06 cf 3f be 2f 85 87 3d e4 25 ae 3d
       0.07418285 -0.18731317 0.066172 0.08503321
0002c0 21 db 77 be 34 60 8a be a7 a6 65 3d 1e f3 0c be
       -0.24204685 -0.27026522 0.056067135 -0.13764617
0002d0 38 c8 b4 3c 9e 12 24 be 21 c3 ae 3b f4 78 12 be
       0.022068128 -0.16022727 0.00533332 -0.14303952
0002e0 ca b5 67 bd 2c 57 1d be 43 2e 0b be af 4b 9b 3d
       -0.056569852 -0.15365285 -0.13591866 0.07582795
0002f0 23 b7 71 3d 2a cd 46 3e 03 d6 90 3c 6c c8 3d bd
       0.059012543 0.19414201 0.017680174 -0.046333715
000300 76 40 0e be 91 af 7f bc 76 2f c5 3d 7c d0 ea bd
       -0.13891777 -0.015605823 0.09628193 -0.114655465
000310 5d 7b 1c be b2 65 d5 3d f0 44 9c 3d b9 24 c9 3d
       -0.15281434 0.104197875 0.07630336 0.098214574
000320 6f 96 80 3d 85 9a bd bd e0 b8 bf 3d 32 9e 08 be
       0.06278693 -0.09257988 0.09361434 -0.13341597
000330 65 b6 ba bd 09 42 00 3e 12 94 a8 bd a8 42 63 be
       -0.0911682 0.1252519 -0.08231367 -0.22193396
000340 ac 4e e9 3c f3 09 e2 bc 68 ea 8a be ba 3f ba 3d
       0.028479896 -0.027592635 -0.27131963 0.09094186
000350 d5 09 78 be f0 f0 38 be 2c 1a bf be da 37 19 be
       -0.242225 -0.1806066 -0.37324655 -0.14962712
000360 0d d4 e3 bd 78 b5 bd bd fa 0f 81 bd ad ee 99 3d
       -0.1112443 -0.09263128 -0.063018754 0.07516227
000370 e6 de 56 3e 85 9b 15 be f6 af a9 bc 2c 8f d8 bd
       0.20983467 -0.14610107 -0.020713788 -0.10574183
000380 65 51 82 bd 55 8a 8c 3e 08 7e b2 bd ac 43 80 3e
       -0.06363181 0.2744929 -0.08715445 0.2505163
000390 cc 9b 61 be a6 f1 4e bd 9e 13 4a bd 95 db 06 bc
       -0.22032088 -0.050523423 -0.049335115 -0.008231063
0003a0 86 0a 35 3e 59 40 05 3d 7b d2 77 be ae 3a ab 3c
       0.17679796 0.03253207 -0.24201386 0.020902004
0003b0 11 53 fe 3c 04 49 8e 3d a3 08 91 3c d6 20 de 3d
       0.031045469 0.069475204 0.017704314 0.10846107
0003c0 2c 96 aa 3c 23 f2 f4 bd e5 13 a8 3c c4 e0 a0 bd
       0.02082356 -0.119602464 0.020517299 -0.07855371
0003d0 42 70 64 bd 5f 63 aa 3d 99 b8 11 3e 27 22 cd 3d
       -0.05577112 0.08319735 0.14230575 0.1001628
0003e0 84 7b 3d bd 46 52 f7 3c fa b3 82 bd 0f 50 7d bd
       -0.04626037 0.030190598 -0.06381984 -0.061843928
0003f0 42 8c 7d 3d 99 47 4e be a4 e1 05 3e eb c2 c8 bd
       0.06190134 -0.201445 0.13074356 -0.09802803

network_body._body_endoder.seq_layers.0.bias f4 [128]
000000 d6 d6 54 bb af ec 2e bc 5b 1b 67 3b 83 98 63 3c
       -0.0032476685 -0.010676547 0.0035264108 0.013891342
000010 8e 20 07 3c 7c ad 48 3a 0a 57 bd 3b a3 45 1d bc
       0.008247508 0.0007655246 0.005778198 -0.009599122
000020 1a 3e 08 3c cc eb f8 3a e0 d6 c6 ba c7 7b 72 3b
       0.008315587 0.0018991171 -0.0015170239 0.0037000047
000030 19 75 63 3b da 42 0f 3c 8e d3 8b bb 63 0d d5 ba
       0.0034707247 0.008743966 -0.0042671626 -0.00162546
000040 ec 71 69 3c d3 2c b2 bb 4e 69 5c bb df a6 84 3b
       0.0142483525 -0.0054374724 -0.0033632102 0.004048213
000050 1f 31 f1 bb e4 25 f4 bb 17 82 f3 3b 7b 04 19 3c
       -0.007360592 -0.007450806 0.0074312794 0.009339447
000060 16 d0 86 b9 a1 e8 86 3b 22 78 6e bb 6a 7d 5e bb
       -0.00025713508 0.004117087 -0.0036387523 -0.0033949264
000070 ef f4 00 3c f3 82 a6 3b 19 a9 82 ba 50 64 d6 ba
       0.007870897 0.0050815283 -0.0009968608 -0.00163568
000080 cc 1c 06 bc ef d0 aa 3b 38 7d 4c 3b 5a 98 e2 b9
       -0.008185577 0.005212895 0.0031202566 -0.0004321959
000090 e0 c3 1c bc 02 12 1e 3a d3 da 53 bb d7 44 47 3b
       -0.009568185 0.0006029905 -0.0032326474 0.0030406022
0000a0 92 39 1a bc 28 34 a8 3b 71 42 22 3c 97 1f 2a bc
       -0.00941314 0.0051331706 0.009903536 -0.010383508
0000b0 38 ec 8a bb eb 7c 9b bb 89 5e 16 3c 7d 53 4c 3b
       -0.0042395853 -0.004745116 0.009177812 0.0031177693
0000c0 df de 6e bb f7 c2 96 3b 91 69 27 bb da 2b 37 bb
       -0.003644876 0.0046008783 -0.00255451 -0.0027949722
0000d0 f8 9b 55 3b aa 37 b8 bb 35 67 b6 3b ab 79 ee bb
       0.0032594185 -0.00562187 0.0055665025 -0.0072776875
0000e0 10 84 80 ba 45 be ed 3b 09 a7 90 3b 78 92 74 bc
       -0.0009804983 0.007255348 0.0044144434 -0.014927499
0000f0 38 4b 1f 3c 55 02 40 bb c3 a4 7f bc 05 14 5a bc
       0.009722523 -0.0029298265 -0.015603247 -0.013310437
000100 8e c2 68 3b ce cd b7 ba 26 63 98 3a 98 46 06 3c
       0.0035516354 -0.0014023127 0.0011626228 0.008195542
000110 13 7c fa 3a 0b f0 73 bb 64 5b b3 bb 49 7d 54 3b
       0.0019110463 -0.0037221934 -0.005473541 0.0032423309
000120 3e de 07 bb 25 bd 5f bb a9 c1 6f 3b 2f b2 30 bb
       -0.0020731832 -0.0034139839 0.0036583936 -0.0026961674
000130 e2 9c 64 3c d1 09 1d bb 67 dd 00 bc d7 ab 38 3b
       0.013953419 -0.002396215 -0.007865286 0.0028178596
000140 90 31 c4 bb 28 05 27 3b c2 da ad bb ea 99 57 3c
       -0.0059873536 0.002548525 -0.005305619 0.013159255
000150 1d e5 0f 3b 1e 1c 00 bc b6 d6 57 bb df 3a 57 bb
       0.002195663 -0.007819204 -0.0032934374 -0.0032841486
000160 93 c0 11 bc 4c b0 9e 3b 1f 9d 76 bb 52 33 20 bc
       -0.008896011 0.0048427936 -0.0037630273 -0.009777861
000170 77 d9 81 3c 83 38 07 3c 41 2e 3f 3c 5e 01 d3 3b
       0.015850766 0.00825322 0.011668743 0.006439372
000180 ca 7d 9b 3b 1c 7b b6 bb 9a 17 31 3b c1 35 6a 3b
       0.00474522 -0.005568875 0.0027022124 0.0035737606
000190 7d 90 16 3b 83 d8 4e 3c 74 68 3f bb e0 07 7b 38
       0.0022974305 0.012624863 -0.0029206546 5.9850398e-05
0001a0 c6 90 0a 3b 91 aa 6d bc e7 55 8d bb 03 a6 b1 ba
       0.002114342 -0.014505998 -0.004313219 -0.0013553504
0001b0 88 bc 14 bc 54 fb 1f 3c dd 39 ad 3b 40 c7 8f bb
       -0.0090781525 0.009764511 0.005286439 -0.004387766
0001c0 9b 94 5b 3b ca 63 9a bb e0 0b 70 3b a1 99 c0 bb
       0.0033505324 -0.004711603 0.0036628172 -0.005877689
0001d0 4f c9 44 bc 56 4d 2c bc 35 25 3d bc c7 71 27 3b
       -0.012010886 -0.010516485 -0.011544515 0.0025549994
0001e0 0f e3 ee 3b a8 b7 58 3b e7 dd e3 3a 4f 5a a5 3b
       0.007290251 0.0033068452 0.0017384858 0.005046166
0001f0 5d 13 10 3b ad 58 30 bc 28 2b 02 bb 9e ef 47 bc
       0.0021984198 -0.010763329 -0.001986215 -0.012203125

network_body._body_endoder.seq_layers.2.weight f4 [128, 128]
000000 43 51 c6 3c 1b b5 5e 3b 6e 2e 24 3b 1d 60 fa 3c
       0.02420867 0.003398246 0.0025052088 0.030563409
000010 51 85 76 3d bc 8c ba 3d e5 bc 98 3d 71 f7 94 3d
       0.060185734 0.09108874 0.07457904 0.07273758
000020 9c a6 09 3e 9b b8 27 be 16 6d 1a 3d 90 5f 1f bc
       0.13442463 -0.16379015 0.03770169 -0.009727374
000030 52 d8 5a bd f9 fe 6f 3b 6c 7f a3 3d cc e6 ad bc
       -0.053428955 0.0036620481 0.07983288 -0.021228217
000040 36 bf 2f 3e 0a 17 0a 3e 50 cb 3a bc a4 38 45 be
       0.17162785 0.13485351 -0.011401013 -0.19259888
000050 1e f0 c6 bd bd 98 c8 3d 76 b9 65 3d 2f a6 4e 3c
       -0.097137675 0.097947575 0.056085072 0.012612863
000060 a6 64 57 be a0 7b 5a bd b7 1e db 3b 5c a9 bb 3d
       -0.21034488 -0.053340554 0.006687011 0.09163162
000070 69 1e ee bb 3e 07 1b be d5 78 24 3e 32 9f 8d bd
       -0.0072668088 -0.15139481 0.16061719 -0.0691513
000080 96 03 9d bc db 1c 9a 3c 01 73 71 bd 2a 47 c7 3c
       -0.019166749 0.018812587 -0.058947567 0.024325926
000090 10 d8 07 3e 15 ea 96 3d bc 4d 01 3c 01 7b 47 3d
       0.13266015 0.07368866 0.0078920685 0.04870129
0000a0 7f 03 b2 b9 a7 de 24 be 7c 6a b9 bb 69 6f 63 bd
       -0.0003395341 -0.1610056 -0.005658446 -0.05552617
0000b0 85 35 8d 3d 4c ec 65 bd e0 6a a2 3d ad 56 c2 3c
       0.06894974 -0.056133553 0.07930541 0.02372297
0000c0 c2 df 7a 3c c6 46 6e 3d d2 64 d7 bd e7 63 e3 3d
       0.015312137 0.058172964 -0.10517277 0.11103039
0000d0 ab 8a 28 bb 99 b8 54 3d 8b f0 3d be 12 c6 8a bd
       -0.0025717418 0.05193386 -0.18548791 -0.0677606
0000e0 dd 40 cd 3d d6 56 2c bc 2a 7a d0 bd a9 b2 92 bd
       0.10022137 -0.01051875 -0.10179551 -0.07162983
0000f0 44 05 d0 bd fd d9 15 3e 46 bb a3 3d fa 31 86 bd
       -0.10157254 0.14633937 0.07994704 -0.06552501
000100 58 1f 1a bc 15 67 fb bd fa 2e c7 3d 8d 00 54 bc
       -0.009406887 -0.12275521 0.09725757 -0.012939584
000110 3c df 67 bc 66 e8 97 bd 21 52 f6 3c 1c 55 8a bd
       -0.014152344 -0.07417373 0.030068459 -0.067545146
000120 f6 2a 26 bd 6a 71 e4 bc db a1 80 3d 2d 34 7c 3d
       -0.040568314 -0.027886111 0.062808715 0.061573196
000130 3b bb c0 bd 69 e1 a6 bc 8b 8e 8a bb 72 53 93 bd
       -0.094107114 -0.020371156 -0.004228418 -0.0719365
000140 89 9e 8e 3c 33 27 01 3d 2c 61 98 3d 35 0b 21 bd
       0.01740958 0.031531524 0.07440409 -0.03931733
000150 9a 85 2d be c1 48 0f 3e 26 6e e9 3d d7 39 1d bd
       -0.16945496 0.13992597 0.11397962 -0.03838524
000160 c3 81 55 bd 90 39 45 3b ab 54 0c bb 65 7c f9 3d
       -0.052125704 0.0030094124 -0.002141277 0.121819295
000170 7c 47 ba bd e1 09 2e bd 8f f5 cc 3d 6f 99 7f 3d
       -0.09095666 -0.04248989 0.10007774 0.062402185
000180 51 be 27 3d 88 b2 9f 3d 0a 2d 31 bd 39 99 64 3d
       0.040952984 0.07797724 -0.043255843 0.055810187
000190 1d 0e 24 3e 7f f7 dd bd 6b 8a a0 3b d6 9f 94 3c
       0.16021009 -0.10838222 0.004899313 0.018142622
0001a0 3b 0d 01 3e 28 1c e9 3d 83 7a 29 3d 72 24 5b bc
       0.12602703 0.113823235 0.041376602 -0.013375388
0001b0 68 ee 8f bd db 3b f7 3d f3 9f f7 3c d3 3e 27 3e
       -0.07027894 0.120719634 0.030227637 0.1633256
0001c0 4e 1c 80 3d c7 86 cb 3d d1 2c 21 3d e9 0d 11 bd
       0.06255399 0.09937816 0.03934938 -0.035413656
0001d0 b6 19 98 bd 46 48 93 bc e6 4c 16 3d 3a 74 49 3d
       -0.07426779 -0.017978799 0.03669443 0.049183108
0001e0 98 91 f5 3b cc b2 d8 3d 93 e2 8b bd fd d9 4c 3d
       0.007494163 0.10580978 -0.06830325 0.050012577
0001f0 d4 89 92 3d 1c 59 dd bc 99 4a 14 bc d0 59 49 3d
       0.07155195 -0.02702003 -0.009050989 0.049157917
000200 36 9d 8a bc 62 4f 01 bd ec b0 dc 3d 56 d3 71 bd
       -0.016920667 -0.031569846 0.10775933 -0.059039436
000210 c2 6a 9c 3d 26 5b 95 bc 25 95 2f 3d 25 dd 17 3e
       0.0763755 -0.01823194 0.042866845 0.14830454
000220 37 e3 00 3c 58 da 9f 3d c6 f4 b3 3c b7 fe 41 bd
       0.007866672 0.07805318 0.021967303 -0.047362056
000230 a2 3a 08 3e 7a 9b 3c bc ae f6 91 3d ed 16 89 3c
       0.13303617 -0.011511678 0.071271285 0.016734565
000240 78 f3 66 bd d2 ff b3 bd 79 0a d9 3b 7c 60 b4 3d
       -0.056384534 -0.08789028 0.006623563 0.088074654
000250 10 c1 bc 3c b0 b4 2e 3d d1 71 09 3e af 39 86 bd
       0.023041278 0.042652786 0.13422324 -0.06553971
000260 38 e1 0b bd 3b 34 6b 3c 54 bf 2a bc 7b 78 f5 bc
       -0.034150332 0.014355714 -0.010421593 -0.029964676
000270 fb 68 fd 3c 49 9f e6 bd e4 f4 8e 3d 67 44 8d bc
       0.030933848 -0.1126085 0.06980303 -0.01724453
000280 47 41 33 3b f2 95 fd 3d f4 fb 9a 3d ca ed c4 3d
       0.002735214 0.123821154 0.075675875 0.09615667
000290 c7 f5 17 be 39 5d 7b bd 8e 10 da bd 7d 73 dc ba
       -0.1483985 -0.0613682 -0.10647689 -0.0016819086
0002a0 04 62 c0 3c b6 ff 58 3d c0 1f 8c 3c 0e c6 66 3d
       0.023484237 0.05297824 0.017104983 0.056341223
0002b0 21 11 12 ba 91 31 6e 3c 4a 1a 2e bd 27 17 24 3b
       -0.00055720104 0.014538185 -0.04250554 0.0025038214
0002c0 1c 26 34 3e 7c 02 2a be 11 e4 0d be 4b 1a 37 bd
       0.17592663 -0.1660251 -0.13856532 -0.04470281
0002d0 11 9a dc bd d1 ec 8a 3d a3 4c 0c be 75 8e a5 bb
       -0.10771573 0.067834504 -0.1370111 -0.0050523826
0002e0 95 c7 5a 3d e4 d8 32 3d 96 a3 a3 bc 75 b3 6a be
       0.053412993 0.043663874 -0.019975465 -0.2292002
0002f0 67 c3 22 3e 06 1c 34 3d d6 00 05 be f5 f1 46 bc
       0.15894853 0.043972038 -0.129886 -0.012142648
000300 48 90 f5 3c be 41 99 3d 65 11 8a bc d5 23 8d 3d
       0.029976025 0.074832425 -0.016853997 0.068916
000310 2a b7 40 bd 1f 69 70 bd 4a 3c 77 3d 51 9f 10 bc
       -0.04704968 -0.058694 0.06036023 -0.0088270465
000320 ef a7 c5 3d c3 b5 0b 3e f7 91 1b 3d 7c 39 28 3d
       0.096511714 0.13643555 0.037981 0.041070446
000330 d9 9f 07 3d 52 ad 48 bb c9 85 e5 3d e4 cd 5c bd
       0.033111427 -0.0030620885 0.11207158 -0.05390729
000340 45 e7 f4 3d a2 e0 13 be 14 45 62 3e c2 e9 3c be
       0.11958174 -0.1444116 0.22096664 -0.18448547
000350 26 3a 2c be f9 c0 c5 3d 2f 61 70 3e 5e 63 24 3e
       -0.16819057 0.09655947 0.23474573 0.1605353
000360 0d d9 04 bd b3 1c 0a bd 2c a5 ff bd ca e1 59 3c
       -0.03243356 -0.033718776 -0.12482676 0.013298461
000370 c4 de 6a 3e 58 0b f7 3d 36 3d 15 bc 50 d9 06 3e
       0.22936541 0.120627105 -0.009108832 0.13168836
000380 5e 5c 09 bd 81 c8 b6 bd cf 85 0c be 1f 88 8c bd
       -0.033535354 -0.08924962 -0.13722919 -0.068619005
000390 f9 22 9f b9 69 e7 94 3d e6 0c 05 be 7f 14 d9 3d
       -0.000303529 0.072707005 -0.12993202 0.105996124
0003a0 9f 55 4c 3d fa f4 63 bd 38 01 b7 3d 67 89 6e be
       0.049886342 -0.05565355 0.08935779 -0.23294602
0003b0 72 dc 87 bd d3 da e6 bd 03 ab 7b 3d 68 54 a3 bc
       -0.066338435 -0.11272206 0.061442386 -0.019937709
0003c0 b9 77 6f 3d 32 0c fa bd 7d cb c9 3d 91 21 1c be
       0.058463786 -0.12209357 0.098532654 -0.1524718
0003d0 49 59 b2 bd dd d5 83 3c 7a 0d 88 3d 8a c6 23 3d
       -0.08708436 0.016093189 0.066431955 0.039984263
0003e0 d3 77 a4 3c 15 18 25 3e 81 68 de bb 12 93 91 3e
       0.020076668 0.16122468 -0.00678736 0.28432518
0003f0 a6 2a 9b bc be eb ac 3c de 64 ab 3c a4 48 06 bc
       -0.018941235 0.021108504 0.02092212 -0.00819603

network_body._body_endoder.seq_layers.2.bias f4 [128]
000000 4c 93 dd bb 76 45 e8 ba f2 14 eb 3a 4a 98 40 38
       -0.006761944 -0.0017720896 0.0017935319 4.5918197e-05
000010 5e c6 f3 bb d6 02 25 3c 50 76 f2 bb 3b a1 5e bb
       -0.0074394187 0.010071477 -0.007399358 -0.0033970613
000020 0f 89 91 bb 37 29 03 3c a7 2b 73 3b 14 4c 1c 3c
       -0.0044413875 0.008005432 0.0037104876 0.009539623
000030 b1 ab a5 bb 3a de 13 bc d6 62 00 3b d2 eb 45 bc
       -0.0050558676 -0.009025151 0.001959016 -0.01208015
000040 54 3e ac 3b 23 ff d1 3b c4 72 e6 3b 0c 70 1d bb
       0.0052564535 0.0064085885 0.007032724 -0.0024023084
000050 4a 67 34 bc 86 00 90 3a 42 12 3c 3b 06 51 ab 3b
       -0.011010954 0.0010986484 0.0028697406 0.0052281646
000060 0b 80 fe bb 86 57 96 3b 89 1f 08 3c 35 ec 00 3c
       -0.0077667288 0.0045880703 0.0083083 0.007868816
000070 df 46 cc bb c3 5c 9b 3b f7 a1 46 bb 41 51 2d bc
       -0.0062340344 0.0047412827 -0.003030894 -0.0105784545
000080 6f 31 35 3a a2 9f 22 3b 71 00 0f 3b cd b8 f5 3b
       0.0006911968 0.0024814387 0.0021820331 0.0074988366
000090 a2 b8 e8 bb 18 8c 0f bc be f4 84 bb db f8 ed bb
       -0.007102088 -0.008761428 -0.004057496 -0.007262332
0000a0 bf 71 e2 3b 02 a6 dd 3b 09 89 92 b9 9d d9 7b bb
       0.0069105322 0.0067641744 -0.0002794939 -0.0038429268
0000b0 6d e2 fa ba f2 5e e0 bb b6 8c 3b 3b 0f f1 d6 3a
       -0.0019140966 -0.006847256 0.0028617806 0.0016398745
0000c0 ee 89 ad 3a d8 1a dd ba d1 2d 44 3c a1 03 bf bb
       0.0013239959 -0.0016868962 0.011973814 -0.00582929
0000d0 56 2f 28 3c ee 91 14 3b 4e 2a f7 3b ad 17 6c 3c
       0.010265192 0.0022669989 0.007542885 0.014409942
0000e0 11 1b e5 bb 91 b2 15 3c 60 e2 58 bc ad e1 cb bb
       -0.006991752 0.009136812 -0.013237566 -0.006221971
0000f0 c2 84 2c bc 4b f3 32 bc c4 c7 7a 39 52 e9 59 3b
       -0.010529699 -0.010922263 0.00023916276 0.0033250642
000100 ed 61 b2 bb d7 3b 0c bb 73 67 ac ba cf bc 16 3b
       -0.0054438026 -0.0021397972 -0.0013153389 0.0023000722
000110 f6 4e e2 39 96 90 72 3b 86 c0 50 3b 91 e6 80 b9
       0.0004316491 0.003701245 0.0031853034 -0.00024585848
000120 72 b3 84 ba 69 e8 2f 3b 28 dc 53 ba 64 13 e1 bb
       -0.001012428 0.0026841408 -0.0008081817 -0.0068687666
000130 04 e9 e4 bb 5a 7b 39 3b 40 4a e7 3b c6 24 da bb
       -0.0069857854 0.0028302283 0.007058412 -0.0066572158
000140 76 f6 a8 3b 1b a4 20 3c 94 40 6e 3c ae 5c de 3b
       0.0051563336 0.009804751 0.014541764 0.0067859506
000150 7c 7d cd ba 9e ac 57 bc 0f d7 04 bc ac b6 b1 3b
       -0.0015677656 -0.013163714 -0.008107915 0.0054233875
000160 46 3f a5 bb 2f 18 5c ba e2 0a a3 3b e8 49 d1 ba
       -0.005042943 -0.00083959376 0.0049756626 -0.001596746
000170 39 eb 99 3b 84 a3 e0 3b 91 88 28 3b c4 0f c9 3a
       0.00469723 0.00685543 0.0025716166 0.0015339782
000180 8f c6 e8 bb 4f 9c db 3b 51 e4 63 3a 07 97 7d 3b
       -0.007103748 0.006701983 0.00086933846 0.0038694756
000190 b9 d9 ba 3b a1 d5 cd 3b b6 ef f1 3a fb 41 c5 bb
       0.005702224 0.00628157 0.001845828 -0.0060198284
0001a0 81 d1 b0 3b e4 0f e3 3b be 04 85 bb 5c 23 b2 bb
       0.0053960686 0.0069293845 -0.004059403 -0.005436344
0001b0 b3 f3 f5 39 77 34 4f 3c d2 d5 36 bb ae 57 42 3b
       0.00046911612 0.012646786 -0.0027898443 0.0029654312
0001c0 bb a5 13 bc b1 5d 14 bb a1 6e bf ba 1f 83 52 3b
       -0.009011681 -0.0022638852 -0.0014605114 0.0032121611
0001d0 3c 66 a7 3b 12 dd 4d bb ab 72 f7 39 31 45 33 3c
       0.005108623 -0.0031412286 0.00047196946 0.0109417895
0001e0 a6 93 7e bb 98 2d b9 bb 91 42 ab 3a a3 5d e6 3b
       -0.003884533 -0.005651187 0.0013066103 0.0070302053
0001f0 03 9e ea 3b dc 1d 1a bb 5d 0f 0f 3c a4 d3 32 3b
       0.0071599497 -0.0023516333 0.00873169 0.0027286792

action_model._continuous_distribution.log_sigma f4 [1, 3]
000000 55 27 bb bb 95 4b ff 3a 68 83 00 3c
       -0.005711476 0.0019477481 0.00784383

action_model._continuous_distribution.mu.weight f4 [3, 128]
000000 52 8a 85 bc 57 00 94 bb 8b f9 21 3d 29 5c 08 bc
       -0.016301308 -0.004516642 0.039544623 -0.008322754
000010 8e c1 de 37 f6 a3 01 3d ab af df bc 45 8d 14 bd
       2.6554593e-05 0.031650506 -0.027305445 -0.036267538
000020 43 76 fb bb 9b 86 39 3c 6c 3a de 3c b6 91 39 3c
       -0.00767401 0.011323596 0.027127467 0.011326244
000030 09 d9 d8 bc 96 62 0b bd 20 68 df bc ef b5 95 bb
       -0.026470678 -0.034029566 -0.02727133 -0.0045688073
000040 d8 89 0a 3c aa b3 f1 3c 6a 14 eb 3b 86 f9 81 bc
       0.008455716 0.029504616 0.0071740644 -0.015866052
000050 62 8c c9 bb b4 1e 23 3b a4 35 6c 3c 3a eb 54 b9
       -0.006150768 0.0024890127 0.014417086 -0.00020305524
000060 9e 4b 6a bc d0 15 ab bc be d1 12 3d 82 c6 2b 3c
       -0.014300255 -0.020884424 0.035844557 0.01048434
000070 5a 79 31 3b e4 61 32 3c 84 50 a3 bc 2c be c7 bc
       0.0027080388 0.010887597 -0.019935854 -0.024382673
000080 de 34 05 3d bd 27 11 bc 6c 9c fa 3c a0 73 65 3c
       0.03252112 -0.008859572 0.030592166 0.014004618
000090 95 7b 6f bc 54 f4 0e bb 87 28 02 3d 7d 25 8e bb
       -0.014616867 -0.0021813111 0.03177693 -0.004337965
0000a0 e2 4d 43 3c 0f 4b 9b 3c 8e f0 91 3b e2 a2 f5 3b
       0.011920424 0.01895669 0.004453725 0.007496224
0000b0 a3 9d a1 3c df 2c 03 bc ae ae f9 bb 0d e2 a8 bb
       0.019728487 -0.008006304 -0.0076197004 -0.0051539005
0000c0 72 04 66 3c 56 61 bc 3a 0f d6 56 3c b6 a2 e3 3b
       0.014039146 0.001437227 0.013112559 0.006946887
0000d0 de 5a cf 3c 7a cd e9 3c 8e a2 29 bc b0 c2 09 bd
       0.025311884 0.028540362 -0.010353697 -0.033632934
0000e0 0f c2 46 3a 1c 25 ea 3b 91 c6 0a ba b1 cb 31 3c
       0.00075820176 0.007145537 -0.0005293871 0.0108517865
0000f0 0c 19 01 bd 7a 82 b6 3b a3 ba 2d 3c 5c 1e 27 bc
       -0.031518027 0.0055697532 0.01060358 -0.010200109
000100 c6 58 56 3c 75 e4 e9 3c 98 35 16 bd a6 e8 be bb
       0.013082689 0.02855132 -0.036672205 -0.0058260737
000110 d0 af 6f bc ae 28 74 3c 31 14 88 3b 41 2b 14 3c
       -0.014629319 0.014902277 0.0041527976 0.009043516
000120 9d b6 e0 bc cf 0a 92 3c 02 9f cd bc 47 c8 01 3b
       -0.027430827 0.01782742 -0.025100235 0.0019803212
000130 da 79 04 3c fa 4c 2b 3a 65 ea 4c 3c 9e 8a 8e bc
       0.008085692 0.0006534603 0.012507056 -0.017400082
000140 d1 9d 7d 3c fe 66 13 bc 36 b4 18 3b c3 13 c0 3b
       0.015479521 -0.008996723 0.0023300773 0.005861731
000150 d8 78 39 3c c5 ab 82 bc 0c 76 f0 3b 5a 0e e7 3c
       0.011320315 -0.015951047 0.007338291 0.028205086
000160 47 ff 70 3b 60 e1 41 3b 87 ae 2c 3c 56 39 da 3b
       0.003677325 0.0029583797 0.010539657 0.006659667
000170 9b eb 79 3c ba 6c d5 3c 09 86 a3 bc 4a 55 f7 bc
       0.015253927 0.026052821 -0.019961374 -0.030192036
000180 38 34 08 3b 0d 26 62 3c 65 c5 0f bb 2b 96 d5 3c
       0.0020783078 0.013803017 -0.0021937725 0.026072582
000190 25 f8 bc 3c c3 cb c3 3c 48 7a 6f 3b 76 98 bc 3b
       0.023067543 0.023900872 0.003654139 0.0057554794
0001a0 36 4e 47 3c 0f fc 83 3c 7d d3 f6 b9 02 ae 8b bc
       0.012164643 0.016111402 -0.00047078347 -0.017050747
0001b0 5c 46 ff bc 87 5d cc 3c 21 ab 02 bc 79 1b 8e bc
       -0.03116148 0.024946941 -0.007975371 -0.017347084
0001c0 d5 a2 71 bc c7 ab da bc 6c a7 0d bd ce c3 ad bc
       -0.014748295 -0.026693238 -0.034583494 -0.021211531
0001d0 c3 fa fa 3c 5d 6c 23 bd e5 ae 5e 3b 26 e3 75 3b
       0.03063715 -0.039898265 0.0033978757 0.0037519424
0001e0 02 52 95 bc 6b fd 92 3b 2d 36 32 bc c7 a7 cf ba
       -0.018227581 0.004485776 -0.010877174 -0.0015842848
0001f0 3b 08 9b 3b d7 bd ae 3b 62 da 0b 3c c5 de 6f ba
       0.0047312058 0.0053326893 0.008535953 -0.0009150322
000200 b8 8a d5 3c bf 35 ba bb 72 8a a4 3a 11 d6 98 bc
       0.026067123 -0.0056826766 0.0012553467 -0.018656762
000210 3f af 2e bc 3d e0 42 bc 24 42 1b 3d 65 a6 c5 3c
       -0.010661899 -0.011894283 0.037904873 0.024127195
000220 9c 3a c0 3c 5f 8a d6 bc eb 9f 8c 3c 98 ab 87 3c
       0.023465447 -0.026189027 0.017166099 0.016561314
000230 b6 a7 7e bb 85 e2 93 bc 5b 9c a5 bc 6b c2 31 3c
       -0.0038857288 -0.018052349 -0.020216158 0.0108495755
000240 12 85 27 bc c0 70 83 bc 5e fa 5f bc 68 8c 6c 3b
       -0.0102245975 -0.016044974 -0.013670532 0.003609443
000250 a5 f0 94 bb b9 ea 9c 3c 8a fa 43 3d 98 b3 45 bd
       -0.0045452886 0.019154893 0.047846355 -0.048266977
000260 12 37 75 3b 2e 31 a8 bc cc c5 d3 bb 1d 68 0a bc
       0.0037416858 -0.020531263 -0.006462788 -0.008447674
000270 b7 8f 65 bc b7 b4 3a bc 2e 18 19 3d 68 0c d8 3b
       -0.014011315 -0.011395625 0.037376575 0.006593276
000280 6a f5 56 bc 85 87 e8 bb f7 50 1f 3c ca 70 ad bc
       -0.013120035 -0.0070962333 0.009723893 -0.021171946
000290 b3 ff 3b bc 25 1a 2a 3c db 17 d9 3c ba 3c 23 3c
       -0.011474538 0.01038221 0.026500633 0.009963209
0002a0 d2 a2 b0 bc 16 24 f3 ba 3d 5b eb 3b ad f0 de bb
       -0.021562014 -0.0018550183 0.0071825073 -0.006803593
0002b0 3e 8c 80 3c db 8f 40 3c 66 a7 e5 bc 26 db 06 bc
       0.015691873 0.011753048 -0.028033923 -0.00823096
0002c0 96 4b a1 3c 6e 6c 26 3d 37 f7 24 bc 29 ba 35 3d
       0.019689362 0.04063075 -0.010068706 0.04436699
0002d0 bd b7 f9 3b 2f ef c5 3c dd 2b b3 bc 77 61 0a bd
       0.0076207803 0.024161903 -0.021871502 -0.033784356
0002e0 b0 ea 57 3c b0 3b f3 bc 4b a8 17 3c 43 ad 03 bb
       0.013178512 -0.029691547 0.009256433 -0.0020092286
0002f0 d0 64 3f 3b 4e 0d 36 bb 96 67 f8 ba db eb 4f bc
       0.0029204376 -0.0027778926 -0.001895177 -0.01269051
000300 8a 87 f6 3c 90 42 9f 3c ff f9 92 3b ce cd 0f bd
       0.030093927 0.01944092 0.0044853683 -0.03510838
000310 c0 1a 6e bc d3 46 82 bc 30 1f 35 bd 83 31 07 bc
       -0.014532745 -0.015902912 -0.044219196 -0.008251551
000320 fc 4a e4 3c 68 d4 9b 3c 55 a7 43 3c f8 24 57 bc
       0.027867787 0.019022182 0.0119417505 -0.013131373
000330 06 4f d5 bb d1 62 2a 3d bb c8 cb bc d4 f9 3e 3c
       -0.0065096645 0.041598145 -0.02487599 0.011656243
000340 f4 5d 1b bb 7b 00 8e bc 6a e3 67 bc e4 8c 91 bc
       -0.0023707123 -0.017334213 -0.014153341 -0.017767377
000350 31 15 64 3b e6 44 aa 3c 05 bf 85 bb f1 9f 8a 3c
       0.003480267 0.020784806 -0.004081609 0.01692197
000360 33 46 82 ba 94 65 b0 bc 06 fe 3f 3c 36 9c 5f bc
       -0.0009939134 -0.021532811 0.011718279 -0.013648083
000370 da 00 81 bc c3 8e 81 bc b6 08 7d bc 8b fa 38 bc
       -0.015747476 -0.015815144 -0.015443971 -0.011290203
000380 3b 6c a7 3c 99 d2 85 bc 49 51 17 bb e4 4e 4c bb
       0.02043735 -0.016335772 -0.0023089221 -0.0031174952
000390 44 f8 73 bb 23 fc c6 bc 47 6b c8 3c 5b 83 4b 3c
       -0.0037226835 -0.02429015 0.024465216 0.012421454
0003a0 c3 ce 38 bb 00 70 8e 39 90 0b 18 3c 52 25 75 3c
       -0.0028199411 0.00027167797 0.0092801 0.014962511
0003b0 e2 ed c5 3c 10 66 bb ba 31 bc 0e bd 22 2c 36 3c
       0.024161283 -0.0014297385 -0.034847442 0.0111189205
0003c0 9d 7e b2 3c 97 84 4b 3b 4b 80 fb bc 25 77 83 3c
       0.02178889 0.0031054372 -0.030700823 0.016048023
0003d0 cb 05 4d 3c 66 33 7b bb 95 8d bb 3c 4d 47 08 bc
       0.012513588 -0.0038330196 0.02289466 -0.008317781
0003e0 d5 25 a7 3c 39 2d 28 3d b6 9f 6a 3c 6d 44 cf bc
       0.020403782 0.041058753 0.014320305 -0.025301183
0003f0 a3 bb 0a bb 44 4a e9 bc 52 3a 73 3b 29 38 a9 bc
       -0.002116897 -0.028477795 0.003711362 -0.020656662

action_model._continuous_distribution.mu.bias f4 [3]
000000 be f9 b9 3b 8d 04 57 bb a0 06 19 bc
       0.0056755235 -0.003280911 -0.009339958

onnx::Div_51 f4 [55]
000000 98 34 e2 3e e1 89 d7 3e 45 0a dc 3e c4 73 65 3e
       0.4418075 0.4209738 0.42976585 0.22407442
000010 1b c2 e7 3d d3 39 f3 3d c2 7c 32 3e 42 d7 2d 3e
       0.113163196 0.118762635 0.17430404 0.16976646
000020 b9 8b 3e 3e c8 1b 5f 3e 2f 71 de 3d c6 d1 f5 3d
       0.18607987 0.21787941 0.10861432 0.12002902
000030 fb 70 2d 3e 54 7c 2f 3e b0 76 39 3e 2f 9b 66 3e
       0.1693763 0.17137271 0.18111682 0.22520135
000040 b4 79 e9 3d 2e 95 fb 3d e4 87 2d 3e 73 8a 37 3e
       0.11400166 0.12284313 0.1694637 0.17923908
000050 26 de 3d 3e ad 0d 82 3e 3d 6d 0c 3e 28 99 0f 3e
       0.18541774 0.2540106 0.13713546 0.14023268
000060 12 7c 4a 3e 13 b1 46 3e 3f 87 55 3e b3 35 86 3e
       0.19773892 0.19403486 0.20852374 0.26212844
000070 bf 54 0e 3e 1a c9 14 3e 3a 34 49 3e 87 6e 4f 3e
       0.13899516 0.14529839 0.19648829 0.20257007
000080 3e 04 57 3e 81 9a 7f 3e 15 96 05 3e 58 a2 08 3e
       0.20997712 0.24961282 0.13045533 0.13343179
000090 aa 35 43 3e 85 94 4a 3e b6 c6 4e 3e 30 d5 72 3e
       0.1906344 0.19783218 0.2019299 0.23714137
0000a0 3f f7 f2 3d f3 80 05 3e 90 c7 3a 3e 41 8d 3e 3e
       0.11863565 0.13037471 0.1824019 0.18608572
0000b0 49 33 42 3e 62 9e 71 3e 44 f6 e9 3d b8 f1 ff 3d
       0.18964876 0.23595574 0.114239246 0.12497276
0000c0 33 d5 37 3e ec 37 3b 3e 4c 6e 41 3e 9a d5 5a 3e
       0.17952423 0.18283051 0.18889731 0.21370545
0000d0 98 19 d3 3d 4b cb ed 3d ca 53 26 3e
       0.10307616 0.11611041 0.162429
