Assets/ML-Agents/results/color-hunt1/ColorHunter/ColorHunter-5248.pt (torch, 204054 bytes, 20 tensors)

network_body.observation_encoder.processors.0.normalizer.running_mean f4 [55]
0	0x3f7ff384	0.9998095
1	0x00000000	0.0
2	0x00000000	0.0
3	0x3c0c760a	0.008573065
4	0x3f7eae8c	0.9948509
5	0x3b68b935	0.0035510783
6	0x3c0c760a	0.008573065
7	0x3f7eabd8	0.9948096
8	0x3b68b937	0.0035510787
9	0x3cc4a53c	0.024004571
10	0x3f7d9df4	0.9906914
11	0x3c232a4c	0.009958815
12	0x3cb1ead5	0.021718422
13	0x3f7e6596	0.9937376
14	0x3c1724ed	0.009225112
15	0x3cb1ead5	0.021718422
16	0x3f7e61b0	0.9936781
17	0x3c16d21c	0.009205367
18	0x3cd44094	0.0259097
19	0x3f7e46d6	0.9932684
20	0x3c335456	0.0109454
21	0x3d0bae43	0.034101736
22	0x3f7e4c10	0.9933481
23	0x3c6cdd95	0.014457126
24	0x3cfff385	0.031244049
25	0x3f7e4799	0.99328
26	0x3c58dbce	0.013235999
27	0x3cce0273	0.025147652
28	0x3f7e4a5c	0.99332213
29	0x3c2d9354	0.010594208
30	0x3d07c76c	0.033149168
31	0x3f7d698c	0.98989177
32	0x3c66773a	0.014066512
33	0x3ae0bcd6	0.0017146121
34	0x3f7f857e	0.9981307
35	0x3a3a2dc5	0.0007102157
36	0x3b2ecbc3	0.0026671744
37	0x3f7f4d05	0.997269
38	0x3a90ce42	0.0011047798
39	0x3b60bcda	0.0034292252
40	0x3f7f19d8	0.9964881
41	0x3aba2dc3	0.0014204312
42	0x3b47c44f	0.0030482
43	0x3f7f2f3b	0.9968144
44	0x3aa57e03	0.0012626055
45	0x3b224f7b	0.0024766612
46	0x3f7f57c3	0.9974329
47	0x3a867663	0.0010258671
48	0x3aaecbc4	0.0013335873
49	0x3f7f9de2	0.99850285
50	0x3a10ce43	0.00055238995
51	0x3f7499c7	0.95547146
52	0x3db5f5c4	0.08884767
53	0x3d3c7d9c	0.046018228
54	0x3e2af351	0.1669438

network_body.observation_encoder.processors.0.normalizer.running_variance f4 [55]
0	0x3ffff9c6	1.99981
1	0x3f800000	1.0
2	0x3f800000	1.0
3	0x423674f5	45.614216
4	0x41b51cc3	22.639044
5	0x410a7933	8.65459
6	0x423674f5	45.614216
7	0x41b71ba6	22.8885
8	0x410a7931	8.654588
9	0x42f7f36b	123.975426
10	0x41e5daba	28.7318
11	0x41b15816	22.16801
12	0x42e10c57	112.5241
13	0x41bc687a	23.551014
14	0x41a91177	21.133528
15	0x42e10c58	112.52411
16	0x41969ff8	18.82811
17	0x41a86122	21.047428
18	0x430579ed	133.47627
19	0x41a2e664	20.362495
20	0x41c53ea0	24.655579
21	0x432de550	173.89575
22	0x4199bdae	19.217617
23	0x42005f45	32.093037
24	0x431fe041	159.87599
25	0x41a1a3f6	20.20506
26	0x41ec3d6a	29.529987
27	0x4301ae35	129.6805
28	0x41a5a132	20.703709
29	0x41bece00	23.850586
30	0x43293b69	169.23207
31	0x41d2fb4e	26.372707
32	0x41fa7d73	31.311255
33	0x411fc0cb	9.984569
34	0x4129c9ac	10.611736
35	0x4022a814	2.5415087
36	0x416f670d	14.962659
37	0x416b35a8	14.7006
38	0x405951bb	3.3956134
39	0x41978194	18.93827
40	0x4196bd30	18.842377
41	0x40827cb2	4.0777216
42	0x41879c1e	16.95123
43	0x418b2a92	17.395786
44	0x406f27b4	3.7367983
45	0x415f7c20	13.967804
46	0x415f2fbf	13.949157
47	0x404e6526	3.2249236
48	0x40ffb386	7.9906645
49	0x410b6509	8.712167
50	0x400cc31d	2.1994088
51	0x429f59ea	79.67561
52	0x431cdceb	156.86296
53	0x43a6efb2	333.87262
54	0x44196e25	613.721

network_body.processors.0.normalizer.running_mean f4 [55]
0	0x3f7ff384	0.9998095
1	0x00000000	0.0
2	0x00000000	0.0
3	0x3c0c760a	0.008573065
4	0x3f7eae8c	0.9948509
5	0x3b68b935	0.0035510783
6	0x3c0c760a	0.008573065
7	0x3f7eabd8	0.9948096
8	0x3b68b937	0.0035510787
9	0x3cc4a53c	0.024004571
10	0x3f7d9df4	0.9906914
11	0x3c232a4c	0.009958815
12	0x3cb1ead5	0.021718422
13	0x3f7e6596	0.9937376
14	0x3c1724ed	0.009225112
15	0x3cb1ead5	0.021718422
16	0x3f7e61b0	0.9936781
17	0x3c16d21c	0.009205367
18	0x3cd44094	0.0259097
19	0x3f7e46d6	0.9932684
20	0x3c335456	0.0109454
21	0x3d0bae43	0.034101736
22	0x3f7e4c10	0.9933481
23	0x3c6cdd95	0.014457126
24	0x3cfff385	0.031244049
25	0x3f7e4799	0.99328
26	0x3c58dbce	0.013235999
27	0x3cce0273	0.025147652
28	0x3f7e4a5c	0.99332213
29	0x3c2d9354	0.010594208
30	0x3d07c76c	0.033149168
31	0x3f7d698c	0.98989177
32	0x3c66773a	0.014066512
33	0x3ae0bcd6	0.0017146121
34	0x3f7f857e	0.9981307
35	0x3a3a2dc5	0.0007102157
36	0x3b2ecbc3	0.0026671744
37	0x3f7f4d05	0.997269
38	0x3a90ce42	0.0011047798
39	0x3b60bcda	0.0034292252
40	0x3f7f19d8	0.9964881
41	0x3aba2dc3	0.0014204312
42	0x3b47c44f	0.0030482
43	0x3f7f2f3b	0.9968144
44	0x3aa57e03	0.0012626055
45	0x3b224f7b	0.0024766612
46	0x3f7f57c3	0.9974329
47	0x3a867663	0.0010258671
48	0x3aaecbc4	0.0013335873
49	0x3f7f9de2	0.99850285
50	0x3a10ce43	0.00055238995
51	0x3f7499c7	0.95547146
52	0x3db5f5c4	0.08884767
53	0x3d3c7d9c	0.046018228
54	0x3e2af351	0.1669438

network_body.processors.0.normalizer.running_variance f4 [55]
0	0x3ffff9c6	1.99981
1	0x3f800000	1.0
2	0x3f800000	1.0
3	0x423674f5	45.614216
4	0x41b51cc3	22.639044
5	0x410a7933	8.65459
6	0x423674f5	45.614216
7	0x41b71ba6	22.8885
8	0x410a7931	8.654588
9	0x42f7f36b	123.975426
10	0x41e5daba	28.7318
11	0x41b15816	22.16801
12	0x42e10c57	112.5241
13	0x41bc687a	23.551014
14	0x41a91177	21.133528
15	0x42e10c58	112.52411
16	0x41969ff8	18.82811
17	0x41a86122	21.047428
18	0x430579ed	133.47627
19	0x41a2e664	20.362495
20	0x41c53ea0	24.655579
21	0x432de550	173.89575
22	0x4199bdae	19.217617
23	0x42005f45	32.093037
24	0x431fe041	159.87599
25	0x41a1a3f6	20.20506
26	0x41ec3d6a	29.529987
27	0x4301ae35	129.6805
28	0x41a5a132	20.703709
29	0x41bece00	23.850586
30	0x43293b69	169.23207
31	0x41d2fb4e	26.372707
32	0x41fa7d73	31.311255
33	0x411fc0cb	9.984569
34	0x4129c9ac	10.611736
35	0x4022a814	2.5415087
36	0x416f670d	14.962659
37	0x416b35a8	14.7006
38	0x405951bb	3.3956134
39	0x41978194	18.93827
40	0x4196bd30	18.842377
41	0x40827cb2	4.0777216
42	0x41879c1e	16.95123
43	0x418b2a92	17.395786
44	0x406f27b4	3.7367983
45	0x415f7c20	13.967804
46	0x415f2fbf	13.949157
47	0x404e6526	3.2249236
48	0x40ffb386	7.9906645
49	0x410b6509	8.712167
50	0x400cc31d	2.1994088
51	0x429f59ea	79.67561
52	0x431cdceb	156.86296
53	0x43a6efb2	333.87262
54	0x44196e25	613.721

network_body._body_endoder.seq_layers.0.weight f4 [128, 55]
0	0xbdeb5229	-0.1149028
1	0x3e14764e	0.14498255
2	0xbce5038c	-0.027955793
3	0xbe9318aa	-0.28729755
4	0xbe252369	-0.16126789
5	0xbe63801f	-0.22216843
6	0x3cca9f7b	0.02473425
7	0x3e68ecd1	0.22746588
8	0x3d37a074	0.044830754
9	0x3d6d85d7	0.057988968
10	0xbd8959f0	-0.06706607
11	0xbd184e42	-0.037184007
12	0x3e75e616	0.24013552
13	0x3e201be5	0.15635641
14	0xbe816725	-0.25274006
15	0x3e12f15d	0.14349885
16	0x3dc364e0	0.09540725
17	0x3e065af1	0.13120629
18	0xbd1bb386	-0.038013004
19	0xbd60cbbd	-0.0548818
20	0x3c90621f	0.017624913
21	0xbe02a702	-0.12759021
22	0xbccf6b68	-0.02531977
23	0xbe3f628a	-0.18689933
24	0x3e339772	0.1753824
25	0xbdafe80e	-0.08589183
26	0x3e1ecb0b	0.15507142
27	0xbd7980e8	-0.06091395
28	0xbe464ccd	-0.19365235
29	0xbd14f204	-0.036363617
30	0xbe1344bf	-0.14381693
31	0xbdd544da	-0.10413523
32	0x3c582ab6	0.013193777
33	0x3c95ad25	0.018271038
34	0xbdde1b2f	-0.108450286
35	0x3df97057	0.1217963
36	0xbddd6c45	-0.108116664
37	0xbe127c22	-0.14305165
38	0x3d92f69d	0.07175944
39	0xbe449ea0	-0.19201136
40	0x3e53e2ae	0.2069194
41	0xbd584c9b	-0.05280743
42	0x3e6053b8	0.21906936
43	0x3c65bf3c	0.014022645
44	0x3dbeb04b	0.09310969
45	0x3dfe5975	0.12419406
46	0xbdef11ad	-0.11673293
47	0x3ea1606e	0.31518883
48	0xbb9d5b52	-0.004802146
49	0x3d71eaf4	0.05906196
50	0xbdf4fa04	-0.11961749
51	0xbe124265	-0.1428314
52	0xbd64151c	-0.055684194
53	0x3d9aad51	0.07552589
54	0x3beb1ff5	0.0071754404
55	0x3d809c43	0.062798046
56	0xbd5e721d	-0.054308046
57	0x3e3f0cb7	0.18657194
58	0xbcac2716	-0.021014731
59	0x3d40b5a3	0.047048222
60	0xbd6a0627	-0.057134774
61	0x3e181ab8	0.14853942
62	0xbe883993	-0.26606426
63	0x3d28d95f	0.041222926
64	0xbea01a44	-0.3127004
65	0xbdacb755	-0.08433405
66	0x3d8b2cfd	0.0679569
67	0xbd29a743	-0.04141928
68	0x3c0d4761	0.008622975
69	0xbddaad22	-0.10677554
70	0xbe172151	-0.14758803
71	0x3da5d648	0.080975115
72	0x3e3583ec	0.17726105
73	0xbe0d226a	-0.13782659
74	0x3c9401eb	0.01806732
75	0xbe1e74cb	-0.1547424
76	0xbe36e178	-0.17859447
77	0x3cc7383f	0.024318812
78	0xbdf29602	-0.11845018
79	0xbbe1f0a4	-0.0068951417
80	0xbd448bc4	-0.047984853
81	0xbd3fbbea	-0.04681007
82	0xbc0f6b18	-0.0087535605
83	0xbd984255	-0.07434527
84	0xbdcbb12d	-0.09945903
85	0x3cba6ea0	0.022757828
86	0xbdeacf42	-0.114653125
87	0xbc63641e	-0.01387885
88	0x3cc45d28	0.023970202
89	0xbc80c715	-0.01571993
90	0xbd82b632	-0.06382407
91	0xbd55f36a	-0.05223409
92	0x3d05497e	0.03254079
93	0x3da63532	0.08115615
94	0x3d1ebe85	0.038755912
95	0xbd5efb4e	-0.05443888
96	0xbe4be092	-0.19909886
97	0x3e38c4cf	0.18043827
98	0x3ddc575e	0.107588515
99	0xbe9fd6bf	-0.31218526
100	0xbe4278a6	-0.18991336
101	0x3e32ff11	0.17480113
102	0xbe16eb03	-0.14738087
103	0xbcf8c2bd	-0.030366296
104	0xbb141656	-0.002259632
105	0x3e4039db	0.1877207
106	0x3cadae6c	0.021201335
107	0xbbff52ea	-0.0077918665
108	0x3cbf5e43	0.023360377
109	0x3db19573	0.08671083
110	0xbd4f61c4	-0.050630346
111	0xbe3fdd60	-0.18736792
112	0xbd0da578	-0.03458163
113	0xbdef42e5	-0.11682681
114	0xbc7e9bc8	-0.015540071
115	0xbe5c8729	-0.21535935
116	0xbd2c653f	-0.042088743
117	0xbdc76f60	-0.0973804
118	0x3d36d886	0.044640087
119	0x3d0986e6	0.033575915
120	0xbdeb7892	-0.11497606
121	0x3c9d54ee	0.019205537
122	0xbe3d6bee	-0.18498203
123	0xbe29b5c3	-0.16573243
124	0x3d2a0805	0.041511554
125	0xbd8b9644	-0.0681577
126	0xbe1ad78d	-0.15121289
127	0xbd1e0e23	-0.0385877
128	0x3e08e8b3	0.13370018
129	0x3dcf12e5	0.10111026
130	0xbcc00736	-0.023440938
131	0xbe876542	-0.2644444
132	0x3d5e875b	0.054328304
133	0xbe2060f3	-0.15661983
134	0x3e263800	0.162323
135	0xba9c6ab3	-0.0011933654
136	0xbc62025c	-0.013794508
137	0xbe753ea4	-0.23949677
138	0x3e166b2e	0.14689323
139	0x3dd2f9d8	0.1030156
140	0xbdffa0b6	-0.12481825
141	0x3de3d793	0.11125102
142	0x3df64bf3	0.12026205
143	0xbe4fa87a	-0.20279112
144	0x3cee3097	0.029075904
145	0x3da2daa9	0.07951862
146	0xbddbed02	-0.10738565
147	0xbcfbb67a	-0.03072666
148	0xbdd592da	-0.104284
149	0xbdb01e5f	-0.08599543
150	0x3cfb8298	0.03070192
151	0x3e0623fb	0.13099663
152	0x3dd0fed0	0.102048516
153	0xbd9a8842	-0.0754552
154	0x3dd3424f	0.10315382
155	0x3e67101d	0.2256474
156	0x3e55397e	0.20822713
157	0x3e28b906	0.16476831
158	0x3d711475	0.0588574
159	0x3dcc56b9	0.099774785
160	0xbc8e444b	-0.017366549
161	0xbd541fb1	-0.051788036
162	0x3e00933e	0.12556168
163	0xbd581d13	-0.052762102
164	0xbe01a9d2	-0.12662438
165	0xbe6afe0e	-0.22948477
166	0x3e206169	0.15662159
167	0x3e296e07	0.16545878
168	0x3c8ac9a3	0.016941851
169	0x3d5ab3bc	0.053394064
170	0xbe2afc8b	-0.166979
171	0x3e1c26df	0.15249203
172	0x3e04f241	0.12983038
173	0x3def8997	0.11696165
174	0x3c8ef82a	0.017452318
175	0xbe056c0e	-0.13029501
176	0xbe045949	-0.12924685
177	0x3e21b4d2	0.15791634
178	0xbd4d21a1	-0.0500809
179	0x3d4abe8c	0.049498126
180	0x3db6fc7e	0.08934878
181	0x3ce8c144	0.028412469
182	0x3e0e912d	0.13922568
183	0xbdddf8f1	-0.108384974
184	0x3e23156e	0.15926144
185	0x3e656971	0.22403504
186	0x3dddb8ff	0.10826301
187	0xbbe0282a	-0.0068407254
188	0x3dd3c04f	0.10339414
189	0x3e01966e	0.1265504
190	0xbe07913b	-0.13238995
191	0xbe46e732	-0.19424132
192	0x3ccc7100	0.024956226
193	0x3ccf5b5f	0.025312124
194	0xbd8d6252	-0.06903519
195	0x3d6a4d2e	0.05720251
196	0x3d97f2ad	0.074193336
197	0x3d94a153	0.07257333
198	0x3d9a69c8	0.075397074
199	0x3e2ee512	0.17079571
200	0x3e2e067f	0.16994666
201	0x3e261b45	0.1622134
202	0x3dee068b	0.11622342
203	0xbe66df39	-0.2254609
204	0x3ca822eb	0.020524463
205	0x3c4d5f04	0.0125348605
206	0xbdfab89f	-0.12242245
207	0x3e49083c	0.19632047
208	0x3d64dc59	0.055874202
209	0xbdbbba9f	-0.091664545
210	0x3d0359f5	0.03206821
211	0xbe30c35e	-0.17262027
212	0x3e653a1f	0.22385453
213	0xbe1de7da	-0.15420476
214	0xbe39ee9d	-0.1815743
215	0x3df6db93	0.12053599
216	0x3bb8485d	0.0056238608
217	0x3d626834	0.055275157
218	0xbe3d7ecf	-0.18505405
219	0xbec47d78	-0.38376975
220	0xbe968335	-0.29396978
221	0xbe06acff	-0.1315193
222	0xbe5079b0	-0.2035892
223	0xbd48ed6c	-0.04905455
224	0xbcc485f5	-0.023989657
225	0x3e435583	0.19075589
226	0x3e420ab0	0.1894939
227	0xbe37f5cd	-0.1796486
228	0xbe6fbe56	-0.23412451
229	0xbe175aad	-0.14780684
230	0x3d40fa74	0.04711385
231	0x3ea8e8bb	0.3299006
232	0x3deae8f5	0.11470214
233	0x3dbd7765	0.09251288
234	0xbc8b020c	-0.01696875
235	0xbe6977e3	-0.2279964
236	0xbdcf65fc	-0.10126874
237	0xbdba8d6c	-0.09109005
238	0xbcc052e8	-0.023477033
239	0xbd22236d	-0.039584566
240	0xbcbed466	-0.023294639
241	0xbe16cfd8	-0.14727724
242	0xbdf75a24	-0.1207774
243	0x3e5e6296	0.21717295
244	0x3e539de0	0.20665693
245	0x3d6d0c3a	0.05787299
246	0xbe097390	-0.1342299
247	0xbdd9d3ad	-0.10636077
248	0x3e53099e	0.20609137
249	0xbe38bb4e	-0.18040201
250	0xbd8186a9	-0.063245125
251	0x3da88b99	0.08229751
252	0x3e70537e	0.2346935
253	0x3e5110bf	0.20416544
254	0xbe8b8b3d	-0.27254668
255	0x3da32fa7	0.07968073

network_body._body_endoder.seq_layers.0.bias f4 [128]
0	0x00000000	0.0
1	0x00000000	0.0
2	0x00000000	0.0
3	0x00000000	0.0
4	0x00000000	0.0
5	0x00000000	0.0
6	0x00000000	0.0
7	0x00000000	0.0
8	0x00000000	0.0
9	0x00000000	0.0
10	0x00000000	0.0
11	0x00000000	0.0
12	0x00000000	0.0
13	0x00000000	0.0
14	0x00000000	0.0
15	0x00000000	0.0
16	0x00000000	0.0
17	0x00000000	0.0
18	0x00000000	0.0
19	0x00000000	0.0
20	0x00000000	0.0
21	0x00000000	0.0
22	0x00000000	0.0
23	0x00000000	0.0
24	0x00000000	0.0
25	0x00000000	0.0
26	0x00000000	0.0
27	0x00000000	0.0
28	0x00000000	0.0
29	0x00000000	0.0
30	0x00000000	0.0
31	0x00000000	0.0
32	0x00000000	0.0
33	0x00000000	0.0
34	0x00000000	0.0
35	0x00000000	0.0
36	0x00000000	0.0
37	0x00000000	0.0
38	0x00000000	0.0
39	0x00000000	0.0
40	0x00000000	0.0
41	0x00000000	0.0
42	0x00000000	0.0
43	0x00000000	0.0
44	0x00000000	0.0
45	0x00000000	0.0
46	0x00000000	0.0
47	0x00000000	0.0
48	0x00000000	0.0
49	0x00000000	0.0
50	0x00000000	0.0
51	0x00000000	0.0
52	0x00000000	0.0
53	0x00000000	0.0
54	0x00000000	0.0
55	0x00000000	0.0
56	0x00000000	0.0
57	0x00000000	0.0
58	0x00000000	0.0
59	0x00000000	0.0
60	0x00000000	0.0
61	0x00000000	0.0
62	0x00000000	0.0
63	0x00000000	0.0
64	0x00000000	0.0
65	0x00000000	0.0
66	0x00000000	0.0
67	0x00000000	0.0
68	0x00000000	0.0
69	0x00000000	0.0
70	0x00000000	0.0
71	0x00000000	0.0
72	0x00000000	0.0
73	0x00000000	0.0
74	0x00000000	0.0
75	0x00000000	0.0
76	0x00000000	0.0
77	0x00000000	0.0
78	0x00000000	0.0
79	0x00000000	0.0
80	0x00000000	0.0
81	0x00000000	0.0
82	0x00000000	0.0
83	0x00000000	0.0
84	0x00000000	0.0
85	0x00000000	0.0
86	0x00000000	0.0
87	0x00000000	0.0
88	0x00000000	0.0
89	0x00000000	0.0
90	0x00000000	0.0
91	0x00000000	0.0
92	0x00000000	0.0
93	0x00000000	0.0
94	0x00000000	0.0
95	0x00000000	0.0
96	0x00000000	0.0
97	0x00000000	0.0
98	0x00000000	0.0
99	0x00000000	0.0
100	0x00000000	0.0
101	0x00000000	0.0
102	0x00000000	0.0
103	0x00000000	0.0
104	0x00000000	0.0
105	0x00000000	0.0
106	0x00000000	0.0
107	0x00000000	0.0
108	0x00000000	0.0
109	0x00000000	0.0
110	0x00000000	0.0
111	0x00000000	0.0
112	0x00000000	0.0
113	0x00000000	0.0
114	0x00000000	0.0
115	0x00000000	0.0
116	0x00000000	0.0
117	0x00000000	0.0
118	0x00000000	0.0
119	0x00000000	0.0
120	0x00000000	0.0
121	0x00000000	0.0
122	0x00000000	0.0
123	0x00000000	0.0
124	0x00000000	0.0
125	0x00000000	0.0
126	0x00000000	0.0
127	0x00000000	0.0

network_body._body_endoder.seq_layers.2.weight f4 [128, 128]
0	0x3e2bf7c5	0.16793735
1	0xbd4f8a0d	-0.050668765
2	0xbe12e7f1	-0.14346291
3	0xbc0db2e4	-0.008648608
4	0x3d54299b	0.05179749
5	0xbe601067	-0.21881257
6	0xbded5b8a	-0.11589725
7	0x3d212fea	0.039352335
8	0xbda0655a	-0.07831831
9	0xbd99a0df	-0.07501387
10	0x3d82b74c	0.06382617
11	0xbca5dbae	-0.020246353
12	0x3ab12b0a	0.0013516855
13	0x3d9fd3f7	0.07804101
14	0x3d943657	0.07236927
15	0xbd8efb16	-0.069814846
16	0xbd46631c	-0.04843436
17	0xbdde4602	-0.10853197
18	0x3e017023	0.12640433
19	0xbc317328	-0.010830678
20	0x3b7717ac	0.0037703319
21	0x3e1a2eff	0.1505699
22	0xbba28b38	-0.004960444
23	0x3d75c2c6	0.060000204
24	0xbce5e170	-0.028061599
25	0xbd032128	-0.032014042
26	0xbe1a5621	-0.15071918
27	0xbd57118e	-0.052506976
28	0x3d7ab60b	0.061208766
29	0x3d82ff8f	0.063964
30	0x3d3f33df	0.046680328
31	0x3c693701	0.014234305
32	0xbe2a5122	-0.16632512
33	0xbe5d1ac8	-0.21592247
34	0xbd76d5dd	-0.06026255
35	0x3e09d8e3	0.13461642
36	0x3c2f0c8f	0.010684147
37	0x3d764e62	0.060133345
38	0xbdba16a6	-0.09086351
39	0xbca1d88e	-0.019756582
40	0x3daf4d32	0.08559646
41	0xbcbdf012	-0.023185764
42	0xbd3f0605	-0.0466366
43	0x3dc058c7	0.09391933
44	0xbd4d0bdf	-0.05006015
45	0x3e2923cf	0.16517566
46	0x3dcadbb5	0.09905187
47	0x3d523153	0.05131657
48	0xbc444aa7	-0.011980689
49	0x3d264a83	0.040598404
50	0x3d9b6355	0.075873055
51	0x3c3e1e65	0.011603926
52	0x3d338375	0.04382654
53	0xbd9d4e83	-0.076809905
54	0x3c04bbdf	0.008101433
55	0xbe01cca2	-0.12675717
56	0x3d2eaf96	0.04264792
57	0x3be2298b	0.006901925
58	0xbdab26a1	-0.08356977
59	0x3d8d0710	0.06886113
60	0xbd93a037	-0.07208293
61	0xbd17d657	-0.037069645
62	0x3d02d113	0.03193767
63	0x3d14c49d	0.036320318
64	0xbdb5f793	-0.08885112
65	0xbc56d58b	-0.013112436
66	0x3db62639	0.08894009
67	0x3c46ba5e	0.012129394
68	0x3d22f15a	0.039780952
69	0xbdbf1b2c	-0.093313545
70	0x3e3b5141	0.18292715
71	0xbc4d57c7	-0.012533135
72	0xbe0dc2db	-0.13843863
73	0xbd1bd02a	-0.038040318
74	0xbd8e8614	-0.06959167
75	0xbdf984fa	-0.121835664
76	0xbda65ed1	-0.081235535
77	0xbe16da22	-0.14731649
78	0x3de4ae07	0.111660056
79	0x3d16cc2c	0.036815807
80	0x3dda1b4f	0.1064974
81	0xbe0aa875	-0.13540824
82	0x3d892575	0.066965975
83	0x3dbb5ea7	0.09148913
84	0xbe779420	-0.24177599
85	0x3d540fb9	0.051772807
86	0x3c964026	0.018341135
87	0xbcd39c77	-0.025831444
88	0xbd2ebc9e	-0.042660348
89	0x3e047ce8	0.12938273
90	0xbcdf441d	-0.027254159
91	0xbe086e88	-0.13323414
92	0xbcd2dd18	-0.025740191
93	0xbd68a92f	-0.05680197
94	0xbddd8411	-0.10816205
95	0xbcc83397	-0.024438662
96	0x3c377435	0.0111971395
97	0x3d5a3b5b	0.053279262
98	0x3d7f90a9	0.062393818
99	0xbc5bfcf9	-0.013427013
100	0xbd0cd257	-0.034380283
101	0xbd763f0e	-0.060118727
102	0x3e152bd3	0.14567499
103	0x3cf481b9	0.029847013
104	0x3d525a90	0.0513559
105	0x3c2eb8df	0.010664194
106	0xbd4f63cd	-0.050632287
107	0xbb849413	-0.004045972
108	0xbda5c9e5	-0.08095149
109	0xbde6510c	-0.11245927
110	0xbde4dd4b	-0.11175021
111	0xbd9feb6a	-0.078085735
112	0x3e2ef4aa	0.1708552
113	0xbd0d7425	-0.034534592
114	0xbd02589b	-0.031822782
115	0x3da837f1	0.08213795
116	0xbd23f322	-0.04002679
117	0x3a68c721	0.000887977
118	0x3ceece4d	0.029151106
119	0x3e15b44f	0.14619564
120	0xbd0a52e5	-0.03377046
121	0x3df159fc	0.11784741
122	0x3c94cdf1	0.018164607
123	0xbd933501	-0.07187844
124	0x3d92fa20	0.07176614
125	0xbda33a7e	-0.07970141
126	0x3de87535	0.113504805
127	0xbe21fd40	-0.15819263
128	0xbc375d6a	-0.011191705
129	0xbcc4f1ce	-0.024041083
130	0x3d4d59bb	0.0501344
131	0x3e254e8f	0.16143249
132	0x3a20dbb0	0.00061362516
133	0x3d912774	0.07087603
134	0x3e4a3cdf	0.19749783
135	0x3db496e6	0.08817844
136	0xbd892288	-0.066960394
137	0x3ce0ceab	0.027442297
138	0x3e0bb083	0.13641553
139	0x3e09318e	0.1339781
140	0xbdf381a8	-0.11889964
141	0x3d3376dd	0.04381453
142	0xbd56c931	-0.052437965
143	0x3de133ae	0.10996185
144	0xbdb1a3fe	-0.08673857
145	0x3d5f482e	0.054512195
146	0xbd9c4fa8	-0.07632381
147	0x3d7ea249	0.062166486
148	0xbce3f5f2	-0.027827237
149	0xbd4d0d36	-0.050061427
150	0x3d9d7b73	0.07689562
151	0x3b45f353	0.0030204847
152	0xbd268f5e	-0.04066407
153	0xbd6a62ea	-0.057223238
154	0xbe0b0bd4	-0.13578731
155	0xbcb33afb	-0.02187871
156	0xbc711876	-0.014715305
157	0x3c2b96ed	0.010472995
158	0xbb71c744	-0.0036892453
159	0xbde125bb	-0.10993525
160	0x3d113287	0.035448577
161	0xbc6c7703	-0.0144326715
162	0xbd8d7aac	-0.069081634
163	0x3d39a281	0.04532099
164	0xbcf77d02	-0.030210976
165	0xbbeb60e3	-0.0071831807
166	0x3d4a6d45	0.049420614
167	0x3da6f356	0.081518814
168	0xbdad103f	-0.08450364
169	0x3d67c17d	0.05658101
170	0xbd8ea777	-0.06965535
171	0x3ccd5d4b	0.0250689
172	0x3d447186	0.047959827
173	0x3b9e83c8	0.004837487
174	0xbcff1e94	-0.03114251
175	0x3d64d87a	0.05587051
176	0xbc8f185b	-0.017467668
177	0x3d492f2d	0.049117256
178	0x3d80d306	0.062902495
179	0xbdb945e9	-0.090465374
180	0xbd5a26b9	-0.053259585
181	0x3c5104e4	0.012757514
182	0x3df1ba48	0.118031085
183	0xbe48d386	-0.1961194
184	0xbb539751	-0.0032286237
185	0x3daeb9b0	0.08531511
186	0xbd8f9b88	-0.07012087
187	0xbd98a2ba	-0.07452913
188	0x3de32851	0.11091674
189	0x3dea67cc	0.11445579
190	0xbe2bf1f1	-0.16791512
191	0xbd9fe6e3	-0.0780771
192	0xbd5adf36	-0.053435527
193	0xbd52cd33	-0.051465224
194	0x3c49883c	0.012300547
195	0x3dc37b18	0.09544963
196	0x3db47565	0.08811454
197	0x3dc4a4b7	0.09601729
198	0xbd4e8b9f	-0.05042612
199	0x3dab9b5b	0.08379241
200	0x3d77e48a	0.060520686
201	0x3d6a857a	0.0572562
202	0x3dfb0aa1	0.12257887
203	0x3cf4ed5a	0.029898334
204	0xbd6a4c41	-0.057201628
205	0x3e11a8ed	0.14224596
206	0x3da019b7	0.07817405
207	0x3dc1bb3d	0.09459541
208	0x3bb993de	0.005663379
209	0xbd9080dc	-0.07055828
210	0x3dfe9af0	0.12431896
211	0x3c418716	0.011811992
212	0x3d94028a	0.07227047
213	0x3c5b438d	0.013382805
214	0x3d6c8262	0.05774153
215	0xbaf6ac96	-0.0018819745
216	0x3ddc222b	0.107487045
217	0xbde7b7d2	-0.11314358
218	0xbdf2bb87	-0.11852174
219	0xbdab2373	-0.08356371
220	0x3df71938	0.12065357
221	0xbd9fa407	-0.077949576
222	0x3dd8335e	0.105566725
223	0xbd1d32d9	-0.03837857
224	0xbe724da3	-0.23662429
225	0xbd790dd7	-0.060804214
226	0xbbacdbe0	-0.0052752346
227	0x3c4f6699	0.0126587385
228	0x3daccb95	0.08437268
229	0xbe031478	-0.12800777
230	0x3dd308a4	0.103043824
231	0x3cc48cc9	0.023992913
232	0xbd4d2c7e	-0.05009126
233	0x3de7b96b	0.113146625
234	0x3d353679	0.044241402
235	0xbe21894a	-0.15775028
236	0x3d9a20be	0.07525776
237	0x3d33e42d	0.043918777
238	0x3d160c1c	0.036632642
239	0x3b924dfa	0.004464862
240	0x3e24647b	0.16053955
241	0xbe5ea483	-0.21742444
242	0x3d61827d	0.055056084
243	0xbe1488a4	-0.1450525
244	0x3d9120b9	0.070863195
245	0x3d00b0de	0.031418674
246	0xbc8a81b3	-0.016907549
247	0x3db51ded	0.088435985
248	0x3e17388c	0.14767665
249	0xbe339a55	-0.17539342
250	0xbbc090c7	-0.005876634
251	0xbcc99cec	-0.024610959
252	0xbe120cf1	-0.14262749
253	0x3d673f15	0.056456644
254	0x3e043cbd	0.12913795
255	0xbc8d7329	-0.017266827

network_body._body_endoder.seq_layers.2.bias f4 [128]
0	0x00000000	0.0
1	0x00000000	0.0
2	0x00000000	0.0
3	0x00000000	0.0
4	0x00000000	0.0
5	0x00000000	0.0
6	0x00000000	0.0
7	0x00000000	0.0
8	0x00000000	0.0
9	0x00000000	0.0
10	0x00000000	0.0
11	0x00000000	0.0
12	0x00000000	0.0
13	0x00000000	0.0
14	0x00000000	0.0
15	0x00000000	0.0
16	0x00000000	0.0
17	0x00000000	0.0
18	0x00000000	0.0
19	0x00000000	0.0
20	0x00000000	0.0
21	0x00000000	0.0
22	0x00000000	0.0
23	0x00000000	0.0
24	0x00000000	0.0
25	0x00000000	0.0
26	0x00000000	0.0
27	0x00000000	0.0
28	0x00000000	0.0
29	0x00000000	0.0
30	0x00000000	0.0
31	0x00000000	0.0
32	0x00000000	0.0
33	0x00000000	0.0
34	0x00000000	0.0
35	0x00000000	0.0
36	0x00000000	0.0
37	0x00000000	0.0
38	0x00000000	0.0
39	0x00000000	0.0
40	0x00000000	0.0
41	0x00000000	0.0
42	0x00000000	0.0
43	0x00000000	0.0
44	0x00000000	0.0
45	0x00000000	0.0
46	0x00000000	0.0
47	0x00000000	0.0
48	0x00000000	0.0
49	0x00000000	0.0
50	0x00000000	0.0
51	0x00000000	0.0
52	0x00000000	0.0
53	0x00000000	0.0
54	0x00000000	0.0
55	0x00000000	0.0
56	0x00000000	0.0
57	0x00000000	0.0
58	0x00000000	0.0
59	0x00000000	0.0
60	0x00000000	0.0
61	0x00000000	0.0
62	0x00000000	0.0
63	0x00000000	0.0
64	0x00000000	0.0
65	0x00000000	0.0
66	0x00000000	0.0
67	0x00000000	0.0
68	0x00000000	0.0
69	0x00000000	0.0
70	0x00000000	0.0
71	0x00000000	0.0
72	0x00000000	0.0
73	0x00000000	0.0
74	0x00000000	0.0
75	0x00000000	0.0
76	0x00000000	0.0
77	0x00000000	0.0
78	0x00000000	0.0
79	0x00000000	0.0
80	0x00000000	0.0
81	0x00000000	0.0
82	0x00000000	0.0
83	0x00000000	0.0
84	0x00000000	0.0
85	0x00000000	0.0
86	0x00000000	0.0
87	0x00000000	0.0
88	0x00000000	0.0
89	0x00000000	0.0
90	0x00000000	0.0
91	0x00000000	0.0
92	0x00000000	0.0
93	0x00000000	0.0
94	0x00000000	0.0
95	0x00000000	0.0
96	0x00000000	0.0
97	0x00000000	0.0
98	0x00000000	0.0
99	0x00000000	0.0
100	0x00000000	0.0
101	0x00000000	0.0
102	0x00000000	0.0
103	0x00000000	0.0
104	0x00000000	0.0
105	0x00000000	0.0
106	0x00000000	0.0
107	0x00000000	0.0
108	0x00000000	0.0
109	0x00000000	0.0
110	0x00000000	0.0
111	0x00000000	0.0
112	0x00000000	0.0
113	0x00000000	0.0
114	0x00000000	0.0
115	0x00000000	0.0
116	0x00000000	0.0
117	0x00000000	0.0
118	0x00000000	0.0
119	0x00000000	0.0
120	0x00000000	0.0
121	0x00000000	0.0
122	0x00000000	0.0
123	0x00000000	0.0
124	0x00000000	0.0
125	0x00000000	0.0
126	0x00000000	0.0
127	0x00000000	0.0

action_model._continuous_distribution.log_sigma f4 [1, 3]
0	0x00000000	0.0
1	0x00000000	0.0
2	0x00000000	0.0

action_model._continuous_distribution.mu.weight f4 [3, 128]
0	0x3b891c6f	0.0041842978
1	0xbcf7935f	-0.03022164
2	0xbb6de493	-0.003629957
3	0xbc7c3cad	-0.015395326
4	0xbc10ae59	-0.00883063
5	0x3ba3b5b3	0.0049960255
6	0xbcbd95d7	-0.023142738
7	0x3ca2c35d	0.019868547
8	0xbbdb293d	-0.0066882656
9	0x3c2f7750	0.010709599
10	0x3a2011f8	0.0006106193
11	0xbc69eec2	-0.014278116
12	0xbca977c6	-0.020686995
13	0x3c871fb9	0.016494619
14	0x3d0e12f3	0.03468604
15	0x3d3a65ea	0.04550735
16	0xbc2c81a6	-0.0105289575
17	0xbc77f9e5	-0.015135263
18	0x3b6836ca	0.0035433047
19	0x3d1b5398	0.037921518
20	0x3c8adfba	0.016952384
21	0x3b1ea712	0.0024208468
22	0xbd0de20f	-0.034639414
23	0xbbdfc817	-0.0068292725
24	0xbc9d9c23	-0.01923949
25	0xbc2b0d5f	-0.0104402
26	0xbbae5285	-0.0053198957
27	0x3c8a4aff	0.016881464
28	0xbc5fde2d	-0.013663811
29	0x3c33c11d	0.010971335
30	0xbc5f6087	-0.013633854
31	0x3c966b9d	0.01836186
32	0xbcb1309e	-0.021629628
33	0x3c0d64ce	0.008629991
34	0x3c0712fa	0.00824427
35	0x3b60eb7b	0.0034320045
36	0x3b2b1e67	0.002611065
37	0x3ca2bd93	0.019865787
38	0xbbe1bfe7	-0.0068893316
39	0xbaa94768	-0.0012914957
40	0x3bf91ea3	0.007602529
41	0xbce8eb75	-0.028432587
42	0x3cc22dd8	0.0237035
43	0x3d18595b	0.03719459
44	0x3c3e1c67	0.011603451
45	0xbc890af3	-0.016728854
46	0x3cf62c6d	0.03005048
47	0x3c08a764	0.00834069
48	0xbb2aa3cd	-0.0026037574
49	0xbc993563	-0.018702215
50	0x3c8a2840	0.016864896
51	0xbc7a8b22	-0.015291961
52	0xbbeb531f	-0.0071815397
53	0xbd1eab1d	-0.038737405
54	0xbba99cbf	-0.0051761563
55	0x3caff9d3	0.02148143
56	0x3bdd437a	0.0067524286
57	0x3abcac77	0.001439466
58	0xbb5ad66b	-0.0033391963
59	0x3bcf338d	0.006323284
60	0x3cd1a35f	0.025590597
61	0xbb208e6f	-0.002449896
62	0xbc88176c	-0.01661273
63	0xbba050fb	-0.004892466
64	0xbd308b2f	-0.043101486
65	0x3bc101f3	0.005890125
66	0x3cb73c83	0.022367721
67	0xbbd07c78	-0.006362494
68	0x3ca66c44	0.020315297
69	0x3c9edc48	0.019392148
70	0x3a2ff4bc	0.00067121885
71	0x3b02f4ab	0.001998226
72	0x3c4a76e7	0.01235745
73	0x3bd19ccb	0.006396865
74	0x3b3e67d3	0.0029053583
75	0x3c01348d	0.007886064
76	0x3c268e37	0.010165743
77	0x3c636227	0.013878382
78	0x3c164d2a	0.009173671
79	0xbb8ea02d	-0.0043525905
80	0xba9f4f28	-0.0012154328
81	0xbb7b514f	-0.0038348024
82	0x3c6eaaa3	0.01456705
83	0xbc1f34c5	-0.009717171
84	0x3c9e102d	0.019294823
85	0xbc6a37a3	-0.014295491
86	0xb92c612b	-0.00016439396
87	0xbce5adc7	-0.028036965
88	0xbc18ab20	-0.009318143
89	0x3cf8b5b2	0.030360077
90	0x3c060ca2	0.008181723
91	0x3b67b52b	0.0035355787
92	0xbc7f9aa7	-0.015600837
93	0x3c2fc42b	0.010727922
94	0x3b05bf74	0.0020408304
95	0x3c99847b	0.01873993
96	0xbb3677e9	-0.0027842468
97	0x3c08f976	0.008360257
98	0x3bdf0f9b	0.0068072802
99	0xbc06010c	-0.0081789605
100	0xbc2fe512	-0.010735767
101	0xbc46846f	-0.012116536
102	0xbbe55e40	-0.006999761
103	0xbc902475	-0.017595509
104	0x3c4c600d	0.012474072
105	0x3c999358	0.018747017
106	0xbb8b1dba	-0.004245487
107	0xbc5f1827	-0.013616598
108	0x3cda031d	0.026612813
109	0x3cd403f0	0.025880784
110	0x3ca11ad9	0.019666122
111	0x3c00a68b	0.007852207
112	0x3c066e88	0.008205064
113	0x3ca630d7	0.02028696
114	0x3c048f1f	0.008090763
115	0x3bcab711	0.006186374
116	0x3ce69ef8	0.028151974
117	0xbabfaecf	-0.001462424
118	0xbb563a1b	-0.0032688442
119	0x3d16284b	0.03665952
120	0xbb5291ca	-0.0032130354
121	0xbd00f50d	-0.0314837
122	0xbc6aa4cb	-0.014321516
123	0xbcfde8e5	-0.030994842
124	0x3cfc662f	0.030810444
125	0xbc090d04	-0.00836492
126	0x3ca39283	0.019967323
127	0x3d15a0f9	0.03653047
128	0x39f2571b	0.00046222736
129	0x3d03b363	0.0321535
130	0xbaf724ed	-0.0018855609
131	0x3a372009	0.00069856696
132	0x3cb6ed8d	0.02233007
133	0x3cd25d67	0.025679303
134	0x3cc356b9	0.023845064
135	0xbc4120aa	-0.011787573
136	0x3c31d373	0.010853636
137	0xbca7b5f6	-0.020472508
138	0xbc11a148	-0.00888855
139	0xbba91313	-0.0051597445
140	0x3b1c3607	0.0023835914
141	0xbce8969b	-0.028392127
142	0xbc318407	-0.0108347
143	0xbaae342f	-0.0013290698
144	0x3c933bf9	0.017972933
145	0xbbaaf58f	-0.005217261
146	0x3ca4e6ff	0.020129679
147	0xbbcecd80	-0.0063111186
148	0x3c33d2f1	0.010975585
149	0xbcdf3fdd	-0.027252132
150	0x3cebd5af	0.028788416
151	0x3c7538f5	0.014967193
152	0xba6469f7	-0.00087133
153	0x3bbf17f3	0.0058317124
154	0x3c010a51	0.007875995
155	0xbceebef3	-0.029143786
156	0xbc5d14a0	-0.013493687
157	0xbbcf0100	-0.006317258
158	0xbcfa280b	-0.030536672
159	0x3c5ba008	0.013404854
160	0xbb14212b	-0.0022602777
161	0xbbd5040a	-0.0065007256
162	0xbce07f2a	-0.027404387
163	0x3c11acdd	0.0088913115
164	0x3d15c818	0.036567777
165	0xbd10dde0	-0.035367846
166	0xbd01cca4	-0.0316893
167	0x3a909ebf	0.0011033638
168	0x3c7e13e0	0.015507668
169	0x3bf5ce7b	0.007501421
170	0xbbbc535b	-0.0057472414
171	0x3c7fe702	0.015619041
172	0xbc74fb48	-0.014952488
173	0x3b717b60	0.003684722
174	0x3bbffa05	0.005858662
175	0xbb1c20ef	-0.002382334
176	0xbcd8ee7a	-0.026480902
177	0xbc379c3c	-0.011206683
178	0xbc0ccbc5	-0.008593504
179	0x3c802417	0.015642209
180	0x3c612d73	0.013743746
181	0xbcab976f	-0.020946233
182	0x3cab1e6f	0.020888535
183	0x3b029979	0.0019927903
184	0xbb1d8ada	-0.002403906
185	0xbce1edcf	-0.027579216
186	0xbca40efd	-0.020026678
187	0x3bf3ed4a	0.0074440585
188	0xbc8bc99b	-0.017063906
189	0x3c119b20	0.008887082
190	0x3c653b70	0.013991222
191	0xbc7b535f	-0.015339701
192	0xbc961f9e	-0.018325623
193	0xbd7f9e1f	-0.062406655
194	0x3c31e95f	0.010858863
195	0xbc9a745f	-0.018854318
196	0x3b0227c1	0.001986012
197	0x3ba7e067	0.0051231864
198	0x3c8d89c1	0.0172776
199	0xbc1cf69c	-0.009580281
200	0xbca66867	-0.020313455
201	0x3b8fe46f	0.004391245
202	0x3cd5510f	0.026039628
203	0x3b952262	0.004551218
204	0x3c4edc27	0.012625731
205	0xbca48113	-0.020081079
206	0x3c10b764	0.008832786
207	0x3c3c704b	0.011501382
208	0x3cb2a490	0.021806985
209	0xbc034b58	-0.008013569
210	0x3bf5c0ef	0.007499806
211	0x3cbc7123	0.023003167
212	0xbc7a06c0	-0.015260398
213	0x3ca16420	0.019701064
214	0x3ae1d6dd	0.0017230172
215	0x3c901f82	0.01759315
216	0xbb8d23c9	-0.0043072444
217	0x3b02c248	0.0019952226
218	0x3aa2db02	0.0012424889
219	0x3c02201b	0.007942225
220	0x3aebce08	0.0017990479
221	0xbb14a38d	-0.0022680492
222	0x3bdbc4c7	0.0067068073
223	0xbcc33f37	-0.023833854
224	0xbc9dae76	-0.019248229
225	0xbc372539	-0.011178308
226	0xbab94893	-0.0014136009
227	0xbb421e86	-0.0029620244
228	0xbb864529	-0.0040976
229	0x3bc29785	0.0059384727
230	0xbbd38a8f	-0.0064557265
231	0xbca4e3ff	-0.020128248
232	0x3c244024	0.010025058
233	0xbc3f0212	-0.011658208
234	0xbba80495	-0.0051274993
235	0x3c3c4b60	0.01149258
236	0x3cc2c64a	0.023776192
237	0xbcba13d1	-0.022714527
238	0xbca05520	-0.01957184
239	0x3bb0198b	0.0053741387
240	0x3c5f4e10	0.013629451
241	0x3be2e6ff	0.0069245095
242	0xbcdb65f3	-0.026782012
243	0xbb992324	-0.0046733785
244	0x3c4b1573	0.012395251
245	0x3c2c41ef	0.010513767
246	0x3c119b38	0.008887105
247	0x3c48c9d0	0.012255147
248	0x3af1e368	0.0018454613
249	0x3b2e2baf	0.002657633
250	0x3c2e1dc7	0.010627217
251	0xbcfdf97d	-0.031002754
252	0x3c63efe7	0.013912178
253	0x3d044d6f	0.03230041
254	0x3cf01448	0.029306546
255	0x36a33e30	4.865018e-06

action_model._continuous_distribution.mu.bias f4 [3]
0	0x00000000	0.0
1	0x00000000	0.0
2	0x00000000	0.0

network_body.observation_encoder.processors.0.normalizer.running_mean f4 [55]
0	0x3f7ff384	0.9998095
1	0x00000000	0.0
2	0x00000000	0.0
3	0x3c0c760a	0.008573065
4	0x3f7eae8c	0.9948509
5	0x3b68b935	0.0035510783
6	0x3c0c760a	0.008573065
7	0x3f7eabd8	0.9948096
8	0x3b68b937	0.0035510787
9	0x3cc4a53c	0.024004571
10	0x3f7d9df4	0.9906914
11	0x3c232a4c	0.009958815
12	0x3cb1ead5	0.021718422
13	0x3f7e6596	0.9937376
14	0x3c1724ed	0.009225112
15	0x3cb1ead5	0.021718422
16	0x3f7e61b0	0.9936781
17	0x3c16d21c	0.009205367
18	0x3cd44094	0.0259097
19	0x3f7e46d6	0.9932684
20	0x3c335456	0.0109454
21	0x3d0bae43	0.034101736
22	0x3f7e4c10	0.9933481
23	0x3c6cdd95	0.014457126
24	0x3cfff385	0.031244049
25	0x3f7e4799	0.99328
26	0x3c58dbce	0.013235999
27	0x3cce0273	0.025147652
28	0x3f7e4a5c	0.99332213
29	0x3c2d9354	0.010594208
30	0x3d07c76c	0.033149168
31	0x3f7d698c	0.98989177
32	0x3c66773a	0.014066512
33	0x3ae0bcd6	0.0017146121
34	0x3f7f857e	0.9981307
35	0x3a3a2dc5	0.0007102157
36	0x3b2ecbc3	0.0026671744
37	0x3f7f4d05	0.997269
38	0x3a90ce42	0.0011047798
39	0x3b60bcda	0.0034292252
40	0x3f7f19d8	0.9964881
41	0x3aba2dc3	0.0014204312
42	0x3b47c44f	0.0030482
43	0x3f7f2f3b	0.9968144
44	0x3aa57e03	0.0012626055
45	0x3b224f7b	0.0024766612
46	0x3f7f57c3	0.9974329
47	0x3a867663	0.0010258671
48	0x3aaecbc4	0.0013335873
49	0x3f7f9de2	0.99850285
50	0x3a10ce43	0.00055238995
51	0x3f7499c7	0.95547146
52	0x3db5f5c4	0.08884767
53	0x3d3c7d9c	0.046018228
54	0x3e2af351	0.1669438

network_body.observation_encoder.processors.0.normalizer.running_variance f4 [55]
0	0x3ffff9c6	1.99981
1	0x3f800000	1.0
2	0x3f800000	1.0
3	0x423674f5	45.614216
4	0x41b51cc3	22.639044
5	0x410a7933	8.65459
6	0x423674f5	45.614216
7	0x41b71ba6	22.8885
8	0x410a7931	8.654588
9	0x42f7f36b	123.975426
10	0x41e5daba	28.7318
11	0x41b15816	22.16801
12	0x42e10c57	112.5241
13	0x41bc687a	23.551014
14	0x41a91177	21.133528
15	0x42e10c58	112.52411
16	0x41969ff8	18.82811
17	0x41a86122	21.047428
18	0x430579ed	133.47627
19	0x41a2e664	20.362495
20	0x41c53ea0	24.655579
21	0x432de550	173.89575
22	0x4199bdae	19.217617
23	0x42005f45	32.093037
24	0x431fe041	159.87599
25	0x41a1a3f6	20.20506
26	0x41ec3d6a	29.529987
27	0x4301ae35	129.6805
28	0x41a5a132	20.703709
29	0x41bece00	23.850586
30	0x43293b69	169.23207
31	0x41d2fb4e	26.372707
32	0x41fa7d73	31.311255
33	0x411fc0cb	9.984569
34	0x4129c9ac	10.611736
35	0x4022a814	2.5415087
36	0x416f670d	14.962659
37	0x416b35a8	14.7006
38	0x405951bb	3.3956134
39	0x41978194	18.93827
40	0x4196bd30	18.842377
41	0x40827cb2	4.0777216
42	0x41879c1e	16.95123
43	0x418b2a92	17.395786
44	0x406f27b4	3.7367983
45	0x415f7c20	13.967804
46	0x415f2fbf	13.949157
47	0x404e6526	3.2249236
48	0x40ffb386	7.9906645
49	0x410b6509	8.712167
50	0x400cc31d	2.1994088
51	0x429f59ea	79.67561
52	0x431cdceb	156.86296
53	0x43a6efb2	333.87262
54	0x44196e25	613.721

network_body.processors.0.normalizer.running_mean f4 [55]
0	0x3f7ff384	0.9998095
1	0x00000000	0.0
2	0x00000000	0.0
3	0x3c0c760a	0.008573065
4	0x3f7eae8c	0.9948509
5	0x3b68b935	0.0035510783
6	0x3c0c760a	0.008573065
7	0x3f7eabd8	0.9948096
8	0x3b68b937	0.0035510787
9	0x3cc4a53c	0.024004571
10	0x3f7d9df4	0.9906914
11	0x3c232a4c	0.009958815
12	0x3cb1ead5	0.021718422
13	0x3f7e6596	0.9937376
14	0x3c1724ed	0.009225112
15	0x3cb1ead5	0.021718422
16	0x3f7e61b0	0.9936781
17	0x3c16d21c	0.009205367
18	0x3cd44094	0.0259097
19	0x3f7e46d6	0.9932684
20	0x3c335456	0.0109454
21	0x3d0bae43	0.034101736
22	0x3f7e4c10	0.9933481
23	0x3c6cdd95	0.014457126
24	0x3cfff385	0.031244049
25	0x3f7e4799	0.99328
26	0x3c58dbce	0.013235999
27	0x3cce0273	0.025147652
28	0x3f7e4a5c	0.99332213
29	0x3c2d9354	0.010594208
30	0x3d07c76c	0.033149168
31	0x3f7d698c	0.98989177
32	0x3c66773a	0.014066512
33	0x3ae0bcd6	0.0017146121
34	0x3f7f857e	0.9981307
35	0x3a3a2dc5	0.0007102157
36	0x3b2ecbc3	0.0026671744
37	0x3f7f4d05	0.997269
38	0x3a90ce42	0.0011047798
39	0x3b60bcda	0.0034292252
40	0x3f7f19d8	0.9964881
41	0x3aba2dc3	0.0014204312
42	0x3b47c44f	0.0030482
43	0x3f7f2f3b	0.9968144
44	0x3aa57e03	0.0012626055
45	0x3b224f7b	0.0024766612
46	0x3f7f57c3	0.9974329
47	0x3a867663	0.0010258671
48	0x3aaecbc4	0.0013335873
49	0x3f7f9de2	0.99850285
50	0x3a10ce43	0.00055238995
51	0x3f7499c7	0.95547146
52	0x3db5f5c4	0.08884767
53	0x3d3c7d9c	0.046018228
54	0x3e2af351	0.1669438

network_body.processors.0.normalizer.running_variance f4 [55]
0	0x3ffff9c6	1.99981
1	0x3f800000	1.0
2	0x3f800000	1.0
3	0x423674f5	45.614216
4	0x41b51cc3	22.639044
5	0x410a7933	8.65459
6	0x423674f5	45.614216
7	0x41b71ba6	22.8885
8	0x410a7931	8.654588
9	0x42f7f36b	123.975426
10	0x41e5daba	28.7318
11	0x41b15816	22.16801
12	0x42e10c57	112.5241
13	0x41bc687a	23.551014
14	0x41a91177	21.133528
15	0x42e10c58	112.52411
16	0x41969ff8	18.82811
17	0x41a86122	21.047428
18	0x430579ed	133.47627
19	0x41a2e664	20.362495
20	0x41c53ea0	24.655579
21	0x432de550	173.89575
22	0x4199bdae	19.217617
23	0x42005f45	32.093037
24	0x431fe041	159.87599
25	0x41a1a3f6	20.20506
26	0x41ec3d6a	29.529987
27	0x4301ae35	129.6805
28	0x41a5a132	20.703709
29	0x41bece00	23.850586
30	0x43293b69	169.23207
31	0x41d2fb4e	26.372707
32	0x41fa7d73	31.311255
33	0x411fc0cb	9.984569
34	0x4129c9ac	10.611736
35	0x4022a814	2.5415087
36	0x416f670d	14.962659
37	0x416b35a8	14.7006
38	0x405951bb	3.3956134
39	0x41978194	18.93827
40	0x4196bd30	18.842377
41	0x40827cb2	4.0777216
42	0x41879c1e	16.95123
43	0x418b2a92	17.395786
44	0x406f27b4	3.7367983
45	0x415f7c20	13.967804
46	0x415f2fbf	13.949157
47	0x404e6526	3.2249236
48	0x40ffb386	7.9906645
49	0x410b6509	8.712167
50	0x400cc31d	2.1994088
51	0x429f59ea	79.67561
52	0x431cdceb	156.86296
53	0x43a6efb2	333.87262
54	0x44196e25	613.721

network_body._body_endoder.seq_layers.0.weight f4 [128, 55]
0	0xbd997035	-0.07492105
1	0xbe2a44fe	-0.16627881
2	0x3d8d611f	0.0690329
3	0xbe0ca857	-0.13736092
4	0x3ce4b898	0.027920052
5	0xbd6a3da4	-0.05718769
6	0xbd2b4094	-0.041809633
7	0xbe5201db	-0.2050852
8	0xbe8bbfc7	-0.27294752
9	0xbe8682df	-0.26271722
10	0xbe46b5cd	-0.19405289
11	0x3e2220d4	0.15832835
12	0xbd08cf77	-0.03340098
13	0x3df33de8	0.11877042
14	0x3e8738b2	0.26410443
15	0xbdc28fda	-0.09500094
16	0x3def8100	0.11694527
17	0x3e1d0ab4	0.15336114
18	0x3d04c134	0.032410815
19	0xbe16a14d	-0.14709969
20	0xbdd6b094	-0.10482898
21	0x3de205bf	0.11036252
22	0x3e98abe0	0.2981863
23	0xbdc20caf	-0.094750755
24	0x3d88de49	0.066830225
25	0xbe193820	-0.14962816
26	0x3e1e9fa6	0.15490589
27	0xbe038301	-0.12842943
28	0x3db989a2	0.090594545
29	0xbdb1248a	-0.086495474
30	0x3d2295e3	0.039693724
31	0x3d72ceee	0.059279375
32	0xbe19163e	-0.14949891
33	0xbd4e6e01	-0.050397877
34	0xbe237cc2	-0.1596556
35	0x3c1f1223	0.009708914
36	0xbddd336d	-0.10800824
37	0x3cd391a2	0.02582628
38	0xbc168808	-0.009187706
39	0x3d7e04f8	0.062016457
40	0xbd2dc64b	-0.042425435
41	0x3e2423f6	0.16029343
42	0x3daae38e	0.08344184
43	0x3dc64775	0.09681598
44	0x3e329492	0.17439488
45	0xbe9576f7	-0.29192325
46	0xbd12b3a4	-0.03581585
47	0xbba8cfba	-0.005151716
48	0xbcb395e4	-0.02192206
49	0x3c63c57d	0.013902065
50	0xbd28260a	-0.041051902
51	0xbc3a1f2d	-0.011359972
52	0x3e570e21	0.21001484
53	0xbe0f3e57	-0.13988625
54	0x3dfe12e3	0.12405946
55	0x3e38b9b2	0.18039587
56	0x3e2453fb	0.16047661
57	0x3dce01c2	0.10058929
58	0xbd253638	-0.04033491
59	0x3eaae110	0.33374834
60	0x3d6d8ba0	0.057994485
61	0x3e8471c8	0.25868058
62	0x3e870a7c	0.26375186
63	0xbe668079	-0.22509946
64	0xbd1b0e9a	-0.037855722
65	0xbddc8343	-0.10767224
66	0xbe77086f	-0.24124311
67	0x3e21fc63	0.15818934
68	0x3c94b757	0.01815383
69	0xbda4d7c8	-0.080489695
70	0x3c0d925d	0.008640853
71	0xbc11b4f1	-0.008893237
72	0x3bb6c667	0.0055778506
73	0xbe2048ea	-0.15652815
74	0x3b3531f9	0.0027648194
75	0x3ddf117f	0.10892009
76	0x3ebfb6f0	0.37444258
77	0x3aff070c	0.0019457056
78	0xbd8c1519	-0.068399616
79	0x3df6808d	0.12036238
80	0x3dd6e643	0.10493138
81	0xbd759fda	-0.0599669
82	0xbdc6ae59	-0.09701223
83	0xbdb12cfb	-0.086511575
84	0x3d94e295	0.072697796
85	0xbcf6dd1f	-0.030134736
86	0x3d5409e4	0.051767245
87	0x3e3f3ae9	0.18674816
88	0xbe347952	-0.17624405
89	0x3e059205	0.13043983
90	0xbe06245d	-0.13099809
91	0x3d9bae69	0.076016255
92	0xbe2a63bd	-0.1663961
93	0xbd9fc7a5	-0.07801751
94	0xbe13cfa5	-0.14434679
95	0xbc004d50	-0.007830933
96	0x3e7e1a41	0.24814703
97	0xbd83de8c	-0.06438932
98	0x3d069268	0.032854468
99	0xbd78aac7	-0.06070974
100	0xbc5ffb78	-0.013670795
101	0xbe38d3e1	-0.18049575
102	0xbde95856	-0.11393802
103	0xbdd1638c	-0.10224065
104	0xbdc859ae	-0.0978273
105	0x3de5b95f	0.11216997
106	0xbe2b40c0	-0.16723919
107	0x3e2841fd	0.16431423
108	0x3da3c3d2	0.07996334
109	0xbd8ff9eb	-0.0703009
110	0x3d9410b1	0.07229746
111	0xbd8333f0	-0.06406391
112	0x3cd05ccf	0.02543488
113	0xbb162521	-0.0022910314
114	0xbd8448ed	-0.06459222
115	0xbe4ab598	-0.19795835
116	0xbd83c72c	-0.064344734
117	0xbd01e36c	-0.031711027
118	0x3e23c156	0.1599172
119	0x3d0c7588	0.034291774
120	0x3dab22ab	0.08356222
121	0x3d727cc6	0.059201024
122	0x3bf13e26	0.007362145
123	0x3e246522	0.16054204
124	0x3ec1129d	0.37709513
125	0xbd3988e0	-0.04529655
126	0xbcee5417	-0.029092832
127	0xbdc4cdd3	-0.0960957
128	0x3e55e404	0.20887762
129	0x3deee75e	0.116652235
130	0xbd95c696	-0.07313268
131	0x3cc93e75	0.024565915
132	0xbdbc933d	-0.09207771
133	0xbe6095b0	-0.21932101
134	0xbab91873	-0.0014121666
135	0x3e38bcbb	0.18040745
136	0x3dadfe1f	0.084957354
137	0x3d1cfeb3	0.038328838
138	0xbdcf0c3d	-0.10109756
139	0x3e9a79d2	0.30171067
140	0xbe3c7b91	-0.18406512
141	0xbddd9cae	-0.108209
142	0x3e255296	0.16144785
143	0x3ded07f4	0.115737826
144	0x3dacfd78	0.08446783
145	0xbd9645f1	-0.07337559
146	0x3cc15389	0.023599403
147	0x3e184ef1	0.14873864
148	0xbd15e610	-0.036596358
149	0x3e08454e	0.13307688
150	0x3daf37f8	0.08555597
151	0xbdcebafb	-0.100942574
152	0xbd1a9754	-0.037741974
153	0xbd8afcf0	-0.06786525
154	0xbddcc910	-0.10780537
155	0x3e1752c3	0.14777665
156	0x3d075b40	0.033046007
157	0xbdbce061	-0.092224844
158	0xbe2e71c7	-0.1703559
159	0xbdda0651	-0.10645736
160	0xbdc40242	-0.09570743
161	0xbdc3241f	-0.09528374
162	0xbddc17e5	-0.10746745
163	0x3d6db2b4	0.058031753
164	0xbd78f7f1	-0.06078333
165	0x3dc9a4f6	0.09845917
166	0x3dbace2b	0.09121355
167	0xbe28f9ee	-0.1650159
168	0xbe027a32	-0.12741926
169	0x3ca1faaf	0.019772856
170	0x3de6a777	0.1126241
171	0xbe054269	-0.13013615
172	0xbcdf0c6b	-0.027227601
173	0x3c866a26	0.016408037
174	0xbe136863	-0.14395289
175	0x3d82ba58	0.063831985
176	0x3e4faad3	0.20280008
177	0x3d49b8ec	0.04924862
178	0x3dacbec4	0.08434823
179	0xbe0529bd	-0.13004203
180	0xbe103766	-0.14083633
181	0x3d8925ea	0.06696685
182	0x3e877884	0.26459134
183	0xbd54477b	-0.05182598
184	0x3d3ec25f	0.046572085
185	0xbe57c49d	-0.21071096
186	0xbdb65ffc	-0.08905026
187	0x3e26d707	0.16292964
188	0xbd3e62b0	-0.046480834
189	0xbad20adb	-0.0016024964
190	0x3cddaafc	0.02705907
191	0x3db76968	0.089556515
192	0xbd673b78	-0.0564532
193	0xbdb916ae	-0.09037529
194	0xbdfaebdd	-0.122520186
195	0xbe0c7e11	-0.13719966
196	0xbe9f6093	-0.31128368
197	0x3d54f972	0.051995702
198	0x3e169eb6	0.14708981
199	0x3dc01880	0.09379673
200	0x3c0b3502	0.008496525
201	0x3da5c6b1	0.08094538
202	0x3dd81326	0.10550527
203	0x3dae8231	0.08520926
204	0x3debebc1	0.11519576
205	0xbd8a80b0	-0.067628264
206	0x3d99b4c7	0.07505184
207	0xbdac18c4	-0.08403161
208	0xbd5bb018	-0.053634733
209	0xbd9156f3	-0.07096662
210	0xbe0634eb	-0.13106124
211	0x3dc77e15	0.09740845
212	0x3e3f44c2	0.18678573
213	0xbd507317	-0.05089101
214	0xbd51a20b	-0.051179927
215	0xbe33d04f	-0.17559932
216	0xbd1a3792	-0.037650652
217	0xbd59ac73	-0.053142976
218	0x3e7549da	0.23953953
219	0xbda903d6	-0.08252685
220	0xbcf042c2	-0.029328708
221	0x3e4ca081	0.19983102
222	0x3d54d816	0.051963888
223	0x3cfc2b6b	0.030782422
224	0x3e31f8ef	0.17380117
225	0x3e88a1af	0.26685855
226	0x3e0a48dd	0.13504358
227	0x3d9955ea	0.0748709
228	0xbda0588c	-0.07829389
229	0xbd141371	-0.036151353
230	0xbe88bea9	-0.26707962
231	0xbe953fd8	-0.2915027
232	0xbd3aa259	-0.045564983
233	0x3c270c34	0.010195781
234	0xbd89e75a	-0.0673358
235	0xbc9e3e06	-0.019316684
236	0xbcaa23a8	-0.020768955
237	0x3de52d57	0.111902885
238	0x3dde0423	0.10840633
239	0xbe6af182	-0.2294369
240	0xbd1f0009	-0.038818393
241	0xbe14bdf6	-0.1452559
242	0xbd6414d0	-0.05568391
243	0x3e2e95b7	0.17049299
244	0xbdfbf4ff	-0.12302589
245	0xbdd8f870	-0.10594261
246	0x3d03af2c	0.03214948
247	0x3c936cf4	0.017996289
248	0xbea77673	-0.32707557
249	0x3e504027	0.20336972
250	0xbcee637b	-0.02910017
251	0x3dadd2d6	0.084874794
252	0xbd238a05	-0.039926548
253	0xbe511b75	-0.2042063
254	0xbe6de086	-0.2323018
255	0xbe0d684c	-0.13809317

network_body._body_endoder.seq_layers.0.bias f4 [128]
0	0x00000000	0.0
1	0x00000000	0.0
2	0x00000000	0.0
3	0x00000000	0.0
4	0x00000000	0.0
5	0x00000000	0.0
6	0x00000000	0.0
7	0x00000000	0.0
8	0x00000000	0.0
9	0x00000000	0.0
10	0x00000000	0.0
11	0x00000000	0.0
12	0x00000000	0.0
13	0x00000000	0.0
14	0x00000000	0.0
15	0x00000000	0.0
16	0x00000000	0.0
17	0x00000000	0.0
18	0x00000000	0.0
19	0x00000000	0.0
20	0x00000000	0.0
21	0x00000000	0.0
22	0x00000000	0.0
23	0x00000000	0.0
24	0x00000000	0.0
25	0x00000000	0.0
26	0x00000000	0.0
27	0x00000000	0.0
28	0x00000000	0.0
29	0x00000000	0.0
30	0x00000000	0.0
31	0x00000000	0.0
32	0x00000000	0.0
33	0x00000000	0.0
34	0x00000000	0.0
35	0x00000000	0.0
36	0x00000000	0.0
37	0x00000000	0.0
38	0x00000000	0.0
39	0x00000000	0.0
40	0x00000000	0.0
41	0x00000000	0.0
42	0x00000000	0.0
43	0x00000000	0.0
44	0x00000000	0.0
45	0x00000000	0.0
46	0x00000000	0.0
47	0x00000000	0.0
48	0x00000000	0.0
49	0x00000000	0.0
50	0x00000000	0.0
51	0x00000000	0.0
52	0x00000000	0.0
53	0x00000000	0.0
54	0x00000000	0.0
55	0x00000000	0.0
56	0x00000000	0.0
57	0x00000000	0.0
58	0x00000000	0.0
59	0x00000000	0.0
60	0x00000000	0.0
61	0x00000000	0.0
62	0x00000000	0.0
63	0x00000000	0.0
64	0x00000000	0.0
65	0x00000000	0.0
66	0x00000000	0.0
67	0x00000000	0.0
68	0x00000000	0.0
69	0x00000000	0.0
70	0x00000000	0.0
71	0x00000000	0.0
72	0x00000000	0.0
73	0x00000000	0.0
74	0x00000000	0.0
75	0x00000000	0.0
76	0x00000000	0.0
77	0x00000000	0.0
78	0x00000000	0.0
79	0x00000000	0.0
80	0x00000000	0.0
81	0x00000000	0.0
82	0x00000000	0.0
83	0x00000000	0.0
84	0x00000000	0.0
85	0x00000000	0.0
86	0x00000000	0.0
87	0x00000000	0.0
88	0x00000000	0.0
89	0x00000000	0.0
90	0x00000000	0.0
91	0x00000000	0.0
92	0x00000000	0.0
93	0x00000000	0.0
94	0x00000000	0.0
95	0x00000000	0.0
96	0x00000000	0.0
97	0x00000000	0.0
98	0x00000000	0.0
99	0x00000000	0.0
100	0x00000000	0.0
101	0x00000000	0.0
102	0x00000000	0.0
103	0x00000000	0.0
104	0x00000000	0.0
105	0x00000000	0.0
106	0x00000000	0.0
107	0x00000000	0.0
108	0x00000000	0.0
109	0x00000000	0.0
110	0x00000000	0.0
111	0x00000000	0.0
112	0x00000000	0.0
113	0x00000000	0.0
114	0x00000000	0.0
115	0x00000000	0.0
116	0x00000000	0.0
117	0x00000000	0.0
118	0x00000000	0.0
119	0x00000000	0.0
120	0x00000000	0.0
121	0x00000000	0.0
122	0x00000000	0.0
123	0x00000000	0.0
124	0x00000000	0.0
125	0x00000000	0.0
126	0x00000000	0.0
127	0x00000000	0.0
