Assets/ML-Agents/results/run1/Color Chooser.onnx (onnx, 77210 bytes, 5 tensors)

network_body._body_endoder.seq_layers.0.weight f4 [128, 6]
0	0x3a2e383b	0.0006645952
1	0xbde33c90	-0.11095536
2	0xbe65d5ff	-0.22444914
3	0xbdcfe829	-0.10151703
4	0x3eee64db	0.46561322
5	0xbc40a0ea	-0.011757115
6	0xbeaa5c80	-0.33273697
7	0xbf2bf907	-0.6717686
8	0xbe9c6357	-0.3054454
9	0x3dff837f	0.12476253
10	0x3dd15dc6	0.10222964
11	0x3f537cd3	0.8261234
12	0x3d76047b	0.060062867
13	0xbeb4a243	-0.35280046
14	0xbf02937a	-0.5100628
15	0x3f85d341	1.0455095
16	0xbd17b72f	-0.037039932
17	0xbe0043f6	-0.12525925
18	0x3f126326	0.5718254
19	0x3e04bb8d	0.1296217
20	0xbdd766dd	-0.105176665
21	0xbea3cf4f	-0.319941
22	0x3f55084e	0.83215797
23	0xbeeb1fbe	-0.45922655
24	0xbeba6d60	-0.36411572
25	0x397aea17	0.00023929063
26	0xbf3e2a2a	-0.7428309
27	0xbe45f232	-0.19330671
28	0xbef2de73	-0.4743534
29	0xbde44de8	-0.11147672
30	0x3f5855db	0.84506005
31	0x3f204264	0.62601304
32	0x3f6ebb9f	0.9325504
33	0xbd173a81	-0.036921028
34	0xbf22103d	-0.6330603
35	0xbeb1106c	-0.3458284
36	0x3efcde4d	0.49388352
37	0x3e9ad72f	0.30242297
38	0x3e8e03e2	0.27737337
39	0xbf070236	-0.5273775
40	0x3d69742f	0.056995567
41	0xbe810899	-0.25201872
42	0xbc6b5bf4	-0.014365185
43	0xbe20b98c	-0.1569578
44	0x3d1dc7ad	0.038520504
45	0xbf0d2179	-0.551292
46	0xbf594608	-0.84872484
47	0xbe175901	-0.14780046
48	0xbe0ec1c4	-0.13941103
49	0x3dae570d	0.08512697
50	0xbe1c6d2c	-0.15276021
51	0x3f53e32b	0.82768506
52	0xbf0518d4	-0.5199101
53	0xbf8af499	-1.0855895
54	0xbc873cc8	-0.016508475
55	0xbe15e317	-0.14637409
56	0x3ece436e	0.4028582
57	0xbe2cb8e4	-0.16867405
58	0xbe2507a3	-0.16116194
59	0x3e89613e	0.26832002
60	0x3e3235c4	0.17403322
61	0xbf1d680d	-0.61486894
62	0xbe5d2f43	-0.2160006
63	0x3e0a9cbc	0.13536352
64	0x3ef89167	0.48548433
65	0xbe546c5c	-0.20744461
66	0xbf096675	-0.5367196
67	0x3e9f5b3c	0.31124294
68	0x3eb55f76	0.35424393
69	0xbd2f0ba1	-0.0427357
70	0xbe8d52b6	-0.27602166
71	0xbee1ad84	-0.44077694
72	0xbf062219	-0.5239578
73	0x3f1233a7	0.57110065
74	0x3f017832	0.5057403
75	0xbe663d64	-0.22484356
76	0xbe420b21	-0.18949558
77	0xbefc0da3	-0.49229154
78	0xbf61b0ed	-0.8816059
79	0x3e243c2e	0.16038582
80	0xbe99f3d4	-0.3006884
81	0xbf17adbb	-0.59249467
82	0xbede9e25	-0.4348003
83	0xbec5b852	-0.38617188
84	0xbedd58d5	-0.43231836
85	0x3ee04539	0.43802813
86	0xbe3d236b	-0.18470542
87	0x3f4766cb	0.77891225
88	0xbe9ec786	-0.310116
89	0xbd3f1c4c	-0.046657845
90	0x3eab87d8	0.33502078
91	0x3f092419	0.53570706
92	0xbf15ee5d	-0.5856684
93	0x3f026b4d	0.5094498
94	0xbed34a15	-0.41267458
95	0xbf698bc4	-0.9122889
96	0x3edd0a2e	0.4317183
97	0x3e746653	0.23867159
98	0xbda59750	-0.08085501
99	0xbedd7986	-0.43256778
100	0x3ed16627	0.4089825
101	0xbee2add6	-0.4427325
102	0xbedf53e5	-0.43618694
103	0x3b6d86ea	0.0036243745
104	0x3e75d397	0.24006496
105	0xbe9dcfc0	-0.30822563
106	0x3e3a198e	0.18173811
107	0xbdefc35b	-0.11707183
108	0xbe81f53d	-0.25382414
109	0x3f1a9fe3	0.6040022
110	0x3f41eaee	0.757491
111	0x3ec2838f	0.37990996
112	0x3ec4c3ca	0.38430625
113	0xbdcb286d	-0.0991982
114	0x3ec1e3f9	0.37869242
115	0xbd4f975e	-0.050681464
116	0x3f502b97	0.8131651
117	0x3e101410	0.14070153
118	0x3f8411d0	1.0317936
119	0x3f590013	0.8476574
120	0xbec80eee	-0.3907389
121	0xbcda6cfb	-0.026663294
122	0xbde6da6c	-0.112721294
123	0x3e4bd29e	0.19904563
124	0x3e8ab5ba	0.2709177
125	0x3f1d2f4b	0.6140029
126	0xbd1941eb	-0.03741638
127	0x3caa81ec	0.020813905
128	0xbeea69e9	-0.45783928
129	0xbd6cf76d	-0.05785315
130	0xbeb42592	-0.35184914
131	0x3f6a20d4	0.9145634
132	0x3f3c2a5c	0.73502135
133	0xbdba30c4	-0.090913326
134	0xbeb9f5ea	-0.3632043
135	0xbe67eaaa	-0.22648111
136	0xbed81240	-0.42201424
137	0x3f0f1f6b	0.55907315
138	0x3e866481	0.26248553
139	0x3eab9513	0.33512172
140	0xbe0e596a	-0.13901296
141	0x3ebb1dd2	0.3654619
142	0x3e451714	0.19247085
143	0xbe654d07	-0.22392665
144	0x3e8b6878	0.2722814
145	0xbf57d846	-0.8431438
146	0xbe741c56	-0.23838934
147	0x3ec1fb73	0.37887153
148	0xbe633abd	-0.22190376
149	0x3e3798a4	0.17929322
150	0xbe6fe25e	-0.23426196
151	0x3eddab12	0.4329458
152	0x3f0fe310	0.56205845
153	0xbe9f7496	-0.31143636
154	0x3abad466	0.0014253973
155	0xbeedad29	-0.46421173
156	0xbe7e75ad	-0.24849577
157	0x3d4e1334	0.050311282
158	0x3da7d154	0.08194223
159	0xbef7163c	-0.4825915
160	0xbec4a198	-0.38404536
161	0x3de0eb85	0.10982422
162	0x3e161125	0.14654978
163	0xbd39f767	-0.045401957
164	0xbd97a532	-0.074045554
165	0x3ead6262	0.33864123
166	0xbf616780	-0.88048553
167	0xbf805f31	-1.002905
168	0xbd880a78	-0.06642622
169	0x3d988acf	0.07448351
170	0xbd73e1ab	-0.059541386
171	0x3f10184b	0.5628707
172	0xbe40c061	-0.18823387
173	0x3e13be85	0.14428146
174	0x3dd6df5d	0.10491822
175	0x3e1f20f2	0.15539911
176	0x3d5a05e1	0.053228263
177	0x3eb157fe	0.34637445
178	0xbf14e13c	-0.5815618
179	0xbf102067	-0.5629944
180	0x3d681bc3	0.0566671
181	0x3ede175b	0.43377194
182	0xbeca10ea	-0.3946603
183	0xbdcb5ca1	-0.09929777
184	0x3efd0021	0.4941416
185	0x3ec65111	0.38733724
186	0x3ee202ff	0.4414291
187	0xbe469465	-0.19392546
188	0xbf11e3d6	-0.56988275
189	0xbd691aed	-0.056910444
190	0xbf668008	-0.9003911
191	0x3f46aaa0	0.77604103
192	0xbefd1b30	-0.49434805
193	0x3ef46c42	0.47738844
194	0xbebb832e	-0.3662352
195	0xbd445674	-0.04793401
196	0xbef57215	-0.479386
197	0x3dd5bb72	0.10436143
198	0xbe8b1ef9	-0.27172068
199	0x3f03b1e1	0.51443297
200	0xbca0102a	-0.019538958
201	0xbf03f490	-0.5154505
202	0xbd1b6089	-0.03793386
203	0xbe8dcdb3	-0.27696
204	0xbeb98cce	-0.36240238
205	0xbe0f5069	-0.13995518
206	0xbcae646c	-0.02128812
207	0xbf05072b	-0.5196406
208	0xbe1e9be7	-0.1548916
209	0xbebdc55e	-0.37064642
210	0x3f0c8d0a	0.5490271
211	0xbc49d0d2	-0.012317853
212	0x3f268ec4	0.65061593
213	0xbf14b5cd	-0.58089906
214	0xbdd11be1	-0.102103956
215	0x3ce147df	0.027500091
216	0x3c6ecc34	0.014575053
217	0xbd4596ec	-0.048239633
218	0xbd077a14	-0.033075407
219	0x3f0fd0c3	0.5617792
220	0xbec968e6	-0.39337844
221	0x3d11af4b	0.035567563
222	0xbf287956	-0.65810144
223	0xbe829c25	-0.25509754
224	0x3c85a46b	0.016313752
225	0xbf45768d	-0.7713402
226	0xbd8e6e20	-0.069545984
227	0x3edb97a3	0.42889127
228	0x3eade83e	0.3396625
229	0xbf21fe54	-0.632787
230	0x3ee6867b	0.45024475
231	0x3d82bd04	0.06383708
232	0xbcdef8c3	-0.027218228
233	0x3e258457	0.16163765
234	0xbcc10ac6	-0.023564707
235	0xbe59b04b	-0.21258657
236	0xbed35682	-0.41276938
237	0x3ebfbab4	0.3744713
238	0x3e3c11a4	0.18366104
239	0x3c0c02f8	0.00854563
240	0x3ea39471	0.3194919
241	0xbe80c705	-0.2515184
242	0x3eaf0c8a	0.34189254
243	0xbf23efe8	-0.6403794
244	0xbebafd89	-0.36521557
245	0x3ec508de	0.38483328
246	0x3e0457c2	0.12924102
247	0x3e94f7cb	0.290953
248	0xbf214376	-0.6299356
249	0x3e9abd9c	0.30222785
250	0xbf67af11	-0.90501505
251	0x3d917b83	0.07103636
252	0x3e03417c	0.12817949
253	0x3ee23692	0.4418226
254	0xbd7b61b9	-0.061372492
255	0xbf5406af	-0.828227

network_body._body_endoder.seq_layers.0.bias f4 [128]
0	0x00000000	0.0
1	0x00000000	0.0
2	0x00000000	0.0
3	0x00000000	0.0
4	0x00000000	0.0
5	0x00000000	0.0
6	0x00000000	0.0
7	0x00000000	0.0
8	0x00000000	0.0
9	0x00000000	0.0
10	0x00000000	0.0
11	0x00000000	0.0
12	0x00000000	0.0
13	0x00000000	0.0
14	0x00000000	0.0
15	0x00000000	0.0
16	0x00000000	0.0
17	0x00000000	0.0
18	0x00000000	0.0
19	0x00000000	0.0
20	0x00000000	0.0
21	0x00000000	0.0
22	0x00000000	0.0
23	0x00000000	0.0
24	0x00000000	0.0
25	0x00000000	0.0
26	0x00000000	0.0
27	0x00000000	0.0
28	0x00000000	0.0
29	0x00000000	0.0
30	0x00000000	0.0
31	0x00000000	0.0
32	0x00000000	0.0
33	0x00000000	0.0
34	0x00000000	0.0
35	0x00000000	0.0
36	0x00000000	0.0
37	0x00000000	0.0
38	0x00000000	0.0
39	0x00000000	0.0
40	0x00000000	0.0
41	0x00000000	0.0
42	0x00000000	0.0
43	0x00000000	0.0
44	0x00000000	0.0
45	0x00000000	0.0
46	0x00000000	0.0
47	0x00000000	0.0
48	0x00000000	0.0
49	0x00000000	0.0
50	0x00000000	0.0
51	0x00000000	0.0
52	0x00000000	0.0
53	0x00000000	0.0
54	0x00000000	0.0
55	0x00000000	0.0
56	0x00000000	0.0
57	0x00000000	0.0
58	0x00000000	0.0
59	0x00000000	0.0
60	0x00000000	0.0
61	0x00000000	0.0
62	0x00000000	0.0
63	0x00000000	0.0
64	0x00000000	0.0
65	0x00000000	0.0
66	0x00000000	0.0
67	0x00000000	0.0
68	0x00000000	0.0
69	0x00000000	0.0
70	0x00000000	0.0
71	0x00000000	0.0
72	0x00000000	0.0
73	0x00000000	0.0
74	0x00000000	0.0
75	0x00000000	0.0
76	0x00000000	0.0
77	0x00000000	0.0
78	0x00000000	0.0
79	0x00000000	0.0
80	0x00000000	0.0
81	0x00000000	0.0
82	0x00000000	0.0
83	0x00000000	0.0
84	0x00000000	0.0
85	0x00000000	0.0
86	0x00000000	0.0
87	0x00000000	0.0
88	0x00000000	0.0
89	0x00000000	0.0
90	0x00000000	0.0
91	0x00000000	0.0
92	0x00000000	0.0
93	0x00000000	0.0
94	0x00000000	0.0
95	0x00000000	0.0
96	0x00000000	0.0
97	0x00000000	0.0
98	0x00000000	0.0
99	0x00000000	0.0
100	0x00000000	0.0
101	0x00000000	0.0
102	0x00000000	0.0
103	0x00000000	0.0
104	0x00000000	0.0
105	0x00000000	0.0
106	0x00000000	0.0
107	0x00000000	0.0
108	0x00000000	0.0
109	0x00000000	0.0
110	0x00000000	0.0
111	0x00000000	0.0
112	0x00000000	0.0
113	0x00000000	0.0
114	0x00000000	0.0
115	0x00000000	0.0
116	0x00000000	0.0
117	0x00000000	0.0
118	0x00000000	0.0
119	0x00000000	0.0
120	0x00000000	0.0
121	0x00000000	0.0
122	0x00000000	0.0
123	0x00000000	0.0
124	0x00000000	0.0
125	0x00000000	0.0
126	0x00000000	0.0
127	0x00000000	0.0

network_body._body_endoder.seq_layers.2.weight f4 [128, 128]
0	0x3d99474d	0.07484303
1	0x3c46a6b0	0.012124702
2	0xbd5f824a	-0.054567613
3	0xbd3c5965	-0.04598369
4	0x3ced738e	0.028985765
5	0xbd8e363e	-0.069439396
6	0xbc93d65d	-0.018046552
7	0x3a84cac9	0.0010131235
8	0x3dcfcf80	0.10146999
9	0xbc910d88	-0.017706648
10	0xbc772e25	-0.015086685
11	0xbe4c2c93	-0.19938879
12	0x3aba37a6	0.0014207258
13	0xbd394ecf	-0.045241173
14	0xbe17f31f	-0.14838837
15	0x3e051b66	0.12998733
16	0x3b315e71	0.0027064348
17	0xbe163a93	-0.14670782
18	0x3d9edf65	0.07757453
19	0xbdb2055c	-0.086924285
20	0xbe13a1b0	-0.14417148
21	0x3a845d6d	0.0010098644
22	0x3c7283e0	0.014801949
23	0x3cb0a977	0.021565182
24	0x3dbc27c0	0.09187269
25	0x3ab707f2	0.001396416
26	0xbe4a9210	-0.19782281
27	0x3d957d40	0.0729928
28	0x3d677aad	0.056513477
29	0xbd2e1bbc	-0.04250692
30	0xbd7f14ad	-0.062275577
31	0xbd2d5271	-0.04231495
32	0xbd8206e5	-0.06348971
33	0xbdf1b922	-0.118028894
34	0xbcf33815	-0.029689828
35	0xbc7b6d81	-0.015345932
36	0xbda5a6bd	-0.080884434
37	0xbd642004	-0.055694595
38	0xbccc8417	-0.02496533
39	0x3d9bca53	0.0760695
40	0xbd4791d6	-0.048723064
41	0xbdaf4aa5	-0.08559159
42	0x3cfff0af	0.031242697
43	0x3d4e499f	0.05036318
44	0xbe480bbe	-0.1953573
45	0xbe258184	-0.16162688
46	0x3dfff745	0.12498335
47	0x3a33c508	0.0006857668
48	0x3e05981b	0.13046305
49	0x3ccc0744	0.024905808
50	0xbcb8ba58	-0.022549793
51	0xbc3c440a	-0.011490831
52	0x3e04ddbe	0.12975213
53	0xbc285f26	-0.010276591
54	0xbd5791e6	-0.052629374
55	0xbda70a8a	-0.08156307
56	0x3d6535c8	0.055959493
57	0xbcd4edfe	-0.02599239
58	0xbddd1739	-0.10795445
59	0xbdb03e62	-0.086056486
60	0xbdba9809	-0.0911103
61	0x3d36e580	0.044652462
62	0x3de42d50	0.11141455
63	0xbd324a0c	-0.043527648
64	0x3d8ab8d2	0.06773533
65	0xbd3dd4fc	-0.046345696
66	0x3cf9032f	0.030397026
67	0xbdabcfa0	-0.08389211
68	0x3dfb3010	0.122650266
69	0x3df40453	0.11914887
70	0xbddf717c	-0.10910317
71	0xbd1ce5d9	-0.038305137
72	0x3dce6751	0.100783
73	0x3dd5647c	0.104195565
74	0x3d21af7e	0.039474003
75	0x3cde85b6	0.027163368
76	0xbd991759	-0.07475156
77	0x3e0295ee	0.12752506
78	0x3db5d660	0.088787794
79	0x3ceeb7e3	0.029140418
80	0xbc0721f5	-0.008247842
81	0x3ca4deea	0.020125825
82	0x3e23618c	0.1595518
83	0xbdd9ea78	-0.106404245
84	0xbc4d04b6	-0.01251333
85	0xbc8d9963	-0.017285055
86	0xbdf75897	-0.12077444
87	0x3cc8f60a	0.024531383
88	0x3db3062f	0.08741414
89	0xbe13a47a	-0.14418212
90	0xbd048be1	-0.03235996
91	0x3e4ce84a	0.20010486
92	0x3deca48b	0.115548216
93	0xbb93ece7	-0.004514325
94	0x3cfde30a	0.03099205
95	0xbdaeea7d	-0.08540819
96	0x3da3f87b	0.08006378
97	0xbdc2f299	-0.09518928
98	0x3db7b33f	0.08969735
99	0x3d3ed89d	0.046593297
100	0xbdf092f7	-0.11746781
101	0xbc801374	-0.015634276
102	0x3d2ca053	0.042145085
103	0x3e203e11	0.15648676
104	0xbe4216a0	-0.18953943
105	0xbdb233a5	-0.08701257
106	0xbd4cdfb3	-0.050018024
107	0x3cac25e1	0.021014156
108	0xbc16a5ca	-0.009194801
109	0xbce00b23	-0.02734906
110	0x3d94b76d	0.07261548
111	0x3df24254	0.11829057
112	0x3ac06944	0.0014679809
113	0xbdb921aa	-0.09039624
114	0xbcff891f	-0.031193314
115	0x3d550a92	0.052012034
116	0x3c8a562d	0.016886795
117	0x3bfdee9b	0.0077493913
118	0x3d3f991d	0.04677688
119	0xbdda3e23	-0.10656383
120	0x3e15fc04	0.14646918
121	0x3de9e4ff	0.11420631
122	0x3d6039cd	0.054742623
123	0xbc1b8f1b	-0.009494568
124	0x3d429144	0.047501817
125	0x3dcaa7ea	0.09895308
126	0xbc8c2ba5	-0.017110655
127	0xbe3ab48d	-0.18232937
128	0x3d40b4c3	0.047047388
129	0xbd5169a3	-0.051126134
130	0x3d50d844	0.050987497
131	0xbdddfbde	-0.108390555
132	0xbca85663	-0.020549005
133	0xbd8846f7	-0.066541605
134	0x3dbeaaa0	0.09309888
135	0xbca8edfd	-0.020621294
136	0x3df43fbc	0.11926219
137	0x3d85c8f3	0.06532469
138	0xbdec5e29	-0.11541397
139	0xbe022a79	-0.12711515
140	0x3de172b2	0.110082045
141	0x3c985740	0.018596292
142	0x3c4723dd	0.012154547
143	0xbd42f5b6	-0.04759761
144	0x3cf6eb17	0.030141396
145	0x3ce3ecd6	0.027822893
146	0xbd9ebec8	-0.077512324
147	0x3e1712db	0.14753287
148	0xbd39a6d0	-0.0453251
149	0xbe657e1c	-0.22411388
150	0x3d64e2f9	0.05588052
151	0x3e00ca99	0.12577285
152	0x3e2447b0	0.16042972
153	0x3e1bd917	0.15219532
154	0xbd72393f	-0.059136625
155	0x3ca0f52d	0.019648159
156	0x3d759d33	0.05996437
157	0x3d640c01	0.05567551
158	0x3c84dd31	0.016218754
159	0xbd1e1d79	-0.038602326
160	0x3d8fe6cf	0.07026445
161	0x3d84aa2a	0.06477769
162	0x3dcf8b86	0.10134034
163	0xbe1f537b	-0.15559189
164	0xbdcc85b4	-0.09986439
165	0x3d8ccd94	0.068751484
166	0xbd1c9825	-0.038231034
167	0x3c79adac	0.0152391605
168	0xbbd89e50	-0.006610669
169	0x3d529f85	0.05142166
170	0xbc69fce2	-0.014281483
171	0xbc1ea8e5	-0.009683822
172	0x3d036eda	0.03208814
173	0x3ca6438d	0.020295883
174	0xbdfaa82d	-0.12239108
175	0xbd4301d5	-0.04760917
176	0xbd986c29	-0.07442505
177	0xbcffc080	-0.03121972
178	0x3d82f38e	0.063941106
179	0x3a525acc	0.0008024394
180	0xbb8134b6	-0.003943051
181	0x3e0b0f08	0.13579953
182	0xbc8180c7	-0.015808476
183	0xbd3132f7	-0.043261494
184	0x3d8e6327	0.069525056
185	0xbe02d6fd	-0.12777324
186	0xbe2a8007	-0.16650401
187	0x3e017f30	0.12646174
188	0xbe46ca4f	-0.19413112
189	0x3d5d68fc	0.0540552
190	0x3cbd2237	0.023087604
191	0xbc96d5de	-0.018412527
192	0xbc97d42a	-0.018533785
193	0x3dc91f4e	0.09820424
194	0xbc52a099	-0.012855672
195	0x3e228ecb	0.15874784
196	0xbda81da0	-0.082087755
197	0xbdecd1e3	-0.1156347
198	0xbd47062a	-0.048589863
199	0xbd3148ab	-0.043282192
200	0xbbcbae87	-0.0062158736
201	0x3e03d3a7	0.12873708
202	0x3d3d47f9	0.046211217
203	0xbcd897af	-0.026439516
204	0x3d662c42	0.05619455
205	0xbd8df321	-0.06931139
206	0x3ce7a86e	0.028278556
207	0x3dc1713d	0.094454266
208	0x3db62e8e	0.08895598
209	0x3d29a033	0.041412544
210	0x3dc99f64	0.098448545
211	0x3e155ee0	0.14586973
212	0xbde8de6c	-0.113705486
213	0xbd87a173	-0.06622591
214	0x3af14b6c	0.0018409318
215	0x3dee5e96	0.116391346
216	0xbd95d36c	-0.07315716
217	0xbd88f8ba	-0.06688066
218	0xbdbc92a3	-0.09207656
219	0x3e70a9f1	0.23502328
220	0x3d6302e0	0.055422664
221	0xbba649c7	-0.005074713
222	0x3da16cdf	0.07882094
223	0xbd7cd5bc	-0.06172727
224	0x3dc0baba	0.09410615
225	0x3b149bc1	0.0022675844
226	0x3d71e696	0.059057795
227	0xbe0e77a7	-0.13912831
228	0x3e063801	0.13107301
229	0xbe05a35c	-0.13050598
230	0x3df1eb96	0.118125126
231	0x3d8e04c8	0.06934506
232	0x3d8421e2	0.06451775
233	0x3cba96a7	0.022776915
234	0xbd333357	-0.043750133
235	0xbd800344	-0.06250623
236	0xbc010839	-0.007875496
237	0xbe544c0b	-0.20732133
238	0xbe0d0784	-0.13772398
239	0xbdc88128	-0.097902596
240	0xbd33a495	-0.04385813
241	0x3d19e3cd	0.037570763
242	0x3d590f33	0.05299301
243	0x3d1097e0	0.03530109
244	0xbd23c176	-0.03997942
245	0x3cfd013d	0.03088438
246	0x3d542cb4	0.051800445
247	0xbdfe003f	-0.12402391
248	0x3bfcf56a	0.0077196853
249	0x3c976a31	0.018483253
250	0xbd502f10	-0.050826132
251	0xbd5c981f	-0.05385601
252	0x3df0f2b0	0.11765039
253	0x3b694633	0.003559482
254	0xbbc9e6bd	-0.0061615393
255	0xbdef56d6	-0.116864845

action_model._discrete_distribution.branches.0.weight f4 [6, 128]
0	0x388213b3	6.202552e-05
1	0x3b670370	0.0035249852
2	0x3b8fc252	0.0043871785
3	0x3bdf7c77	0.0068202573
4	0xbbacde89	-0.0052755517
5	0x388a7913	6.6029046e-05
6	0x3b7b3a57	0.0038334334
7	0xbc891deb	-0.016737899
8	0x3c7fec1a	0.015620256
9	0xbb760a75	-0.0037542854
10	0xbc20ef13	-0.009822625
11	0xbc60997d	-0.013708469
12	0x3bacd13f	0.0052739675
13	0x3b7277f2	0.0036997763
14	0x3b54726d	0.0032416836
15	0x3ac39f00	0.0014924705
16	0xbb8bfb12	-0.0042718733
17	0xbc247831	-0.0100384215
18	0xbc013872	-0.007886993
19	0xbbe66065	-0.007030534
20	0x3c7452ad	0.01491229
21	0xbb233eb7	-0.0024909207
22	0xbafe6c08	-0.0019410858
23	0x3b6198bf	0.003442332
24	0xbca201da	-0.019776274
25	0xbc054903	-0.008135083
26	0x3bbe5228	0.0058081336
27	0xbbfaf5e5	-0.0076587074
28	0xb90f4ef2	-0.00013666952
29	0x3bdbad17	0.0067039835
30	0xbb17138a	-0.0023052418
31	0xbaab2aff	-0.0013059078
32	0x3c6be6ff	0.0143983355
33	0xbbf37d8f	-0.0074307392
34	0xbc7f5cba	-0.015586073
35	0x3c01efa9	0.007930675
36	0x3ba741ea	0.005104293
37	0xb98ba4d7	-0.0002663496
38	0x3b7e9fd8	0.0038852599
39	0x3c2b086b	0.010439019
40	0xbc37c2b7	-0.011215857
41	0x393521ce	0.00017274098
42	0xbc65c800	-0.0140247345
43	0xbca570a1	-0.020195307
44	0x3bb68779	0.005570349
45	0xbaba665d	-0.001422118
46	0xb9899096	-0.000262384
47	0x3b56041d	0.003265626
48	0x3bdc8e70	0.006730847
49	0x3b5ffb2d	0.0034176812
50	0x3b9bf75b	0.0047597117
51	0x3c6ca8bb	0.014444525
52	0x3b638d85	0.0034721803
53	0x3a64f255	0.000873362
54	0x3b8ce02f	0.0042991857
55	0xbbf50527	-0.007477421
56	0x3c9eb315	0.019372502
57	0x3bf79a02	0.007556201
58	0x3b8c8cbd	0.0042892382
59	0x3af31902	0.0018546882
60	0x3a1be2bc	0.0005946567
61	0xbc816f6b	-0.015800199
62	0x3b1ca657	0.0023902857
63	0xbb20de57	-0.0024546587
64	0x3ada4833	0.0016653597
65	0x3a960f3f	0.0011448635
66	0xbaccb5c4	-0.0015618135
67	0xbbb27c6b	-0.0054469607
68	0x3c8b465b	0.017001322
69	0xbc258e39	-0.010104709
70	0xbc0db7dc	-0.0086497925
71	0x3c5adc0b	0.013358126
72	0x3c494c44	0.01228625
73	0x3c5f1308	0.013615377
74	0xbc55e290	-0.013054505
75	0x3c10c56f	0.008836134
76	0xbb9d53db	-0.004801256
77	0x3ca3cade	0.019994196
78	0xbc0882b7	-0.008331946
79	0xbc31524f	-0.010822847
80	0xbb935634	-0.00449636
81	0xbbd307cb	-0.006440138
82	0x3c23023b	0.009949262
83	0xbb19111c	-0.0023356145
84	0xbaf26ecb	-0.0018496154
85	0x3b48b27f	0.003062397
86	0x3c3b61df	0.0114369085
87	0x3b9e4477	0.004829939
88	0x3c50a8fb	0.012735601
89	0xb7b9d0f9	-2.2151029e-05
90	0xbbdf7543	-0.0068193986
91	0xba93a4c9	-0.001126432
92	0xbc6e2873	-0.014536011
93	0x3c703e28	0.014663257
94	0x3a850e63	0.0010151382
95	0xbb4218bd	-0.0029616796
96	0x3b08bf7b	0.0020866084
97	0xbbaee77b	-0.005337653
98	0xbc57b78d	-0.0131663205
99	0x3b84f7a4	0.0040578414
100	0xbc613d43	-0.013747516
101	0xbb5584fd	-0.0032580488
102	0xbca5c563	-0.020235723
103	0x39b71995	0.0003492354
104	0x3a416826	0.0007377885
105	0x3b8a3333	0.004217529
106	0x3ba0bb54	0.0049051438
107	0xbbe61607	-0.007021669
108	0xbb7f5bdd	-0.0038964667
109	0x3bc7b2d4	0.006094316
110	0xbb41cfc0	-0.0029573292
111	0x3c597078	0.013271444
112	0xbc180772	-0.009279119
113	0x3b7fbb1b	0.0039021436
114	0x3bb4dc25	0.0055194073
115	0x3c8b206a	0.01698323
116	0xbbe5fb38	-0.007018473
117	0x3c29604c	0.0103379
118	0x3b9884d5	0.0046545067
119	0xbc370ecb	-0.0111729605
120	0xbc62185f	-0.013799756
121	0xbb1b2197	-0.0023671144
122	0xbc21776b	-0.009855132
123	0x3c12b47a	0.008954162
124	0xbc5643ad	-0.013077659
125	0xbb561405	-0.0032665741
126	0x3c7bde20	0.015372783
127	0x3c6aa1fd	0.014320848
128	0x3c33aba5	0.010966216
129	0x3b4253c0	0.002965197
130	0x3c82771e	0.01592594
131	0x3bff5530	0.0077921376
132	0xbbd04202	-0.006355525
133	0xb9b8b3d7	-0.00035229206
134	0x3ae93aff	0.0017794071
135	0xbc980dd6	-0.018561285
136	0xbbf23f72	-0.007392817
137	0x399b68f7	0.0002964211
138	0x3b95cfb4	0.0045718793
139	0x3c3af1f8	0.011410229
140	0x3b007f01	0.001960695
141	0xbc5f0743	-0.013612571
142	0xbb0d31d2	-0.0021544588
143	0x3bef3f80	0.007301271
144	0x3c7323ca	0.014840076
145	0x3c1c47b7	0.0095385825
146	0x3c401cf1	0.01172565
147	0xbc0d04cb	-0.0086071
148	0xbb3524b5	-0.0027640287
149	0xbaa5206f	-0.0012598167
150	0xbc379cff	-0.011206864
151	0xbb99d842	-0.0046949694
152	0x3c3f72b5	0.011685063
153	0x3c1b8228	0.009491481
154	0xbb0b5c71	-0.0021264816
155	0x3b68e6dd	0.0035537996
156	0xbb64b5ef	-0.003489848
157	0x3c309d8f	0.010779752
158	0xbbb69c65	-0.005572843
159	0xba9fb5fe	-0.0012184975
160	0xbbd28f35	-0.006425763
161	0x3b93b6b1	0.0045078625
162	0x3c292612	0.010324018
163	0xba2b578b	-0.0006536177
164	0xbc48bedb	-0.012252535
165	0x3b9614df	0.0045801247
166	0xbc5a6683	-0.013330105
167	0xbc0ae610	-0.008477703
168	0x3be28b13	0.0069135516
169	0x3bd7409d	0.006568982
170	0xbbdaf4df	-0.006682023
171	0x3c23d4f9	0.009999507
172	0x3c6eadc8	0.0145678
173	0xbc22ef89	-0.009944805
174	0x3b4e9fe8	0.0031528417
175	0x3b883e01	0.004157782
176	0xbbadfb68	-0.005309511
177	0x3adcc938	0.0016844636
178	0x3c666dd0	0.014064267
179	0x3c3bf608	0.011472233
180	0x3c583b7a	0.013197774
181	0xbc03cebc	-0.008044895
182	0x3b3e0930	0.0028997175
183	0xbc0fc69b	-0.008775379
184	0x3bad3e17	0.0052869427
185	0x3cbbcfb3	0.022926187
186	0xbb9109c3	-0.0044262125
187	0xbc7d9b45	-0.015478914
188	0xbc5f706f	-0.013637646
189	0x3bc3df2f	0.0059775333
190	0x3afb5dfd	0.0019177791
191	0x3bacb3ef	0.005270473
192	0x3c2437a2	0.0100230295
193	0xbbe139e5	-0.0068733566
194	0xbbf8cf5a	-0.0075930776
195	0x3b3c0167	0.002868736
196	0xbc14d82a	-0.009084741
197	0xbb31242d	-0.002702962
198	0xbbe432ad	-0.006964049
199	0xbb8c6555	-0.0042845407
200	0x3c22ad66	0.009929037
201	0xbb07bcae	-0.0020711827
202	0x3b9847a1	0.0046472107
203	0xbb3ceabe	-0.002882644
204	0xbc9bac7b	-0.019003144
205	0x3b97e18a	0.0046350406
206	0xbab2dd68	-0.0013646306
207	0x3bdd187a	0.0067473026
208	0xbbd85d8d	-0.006602949
209	0xbc83f0fd	-0.016106123
210	0x3b32c6c2	0.0027279113
211	0xbb272d34	-0.002550912
212	0x3c30dd04	0.010794882
213	0xbc5574d3	-0.013028341
214	0x3bf270ef	0.0073987166
215	0xbb8a8b3c	-0.004228024
216	0x3b14908a	0.002266916
217	0xbb65b238	-0.0035048854
218	0xbaa4b540	-0.0012566224
219	0xbb9b1d5f	-0.004733726
220	0x3aff60f8	0.0019483855
221	0x3b7f60f8	0.003896771
222	0x3acf9977	0.0015838583
223	0xbb8f15cb	-0.0043666116
224	0x3bb74579	0.0055929986
225	0x3be5cef0	0.0070131943
226	0x3bb74cc0	0.005593866
227	0xbc2c7ed0	-0.010528281
228	0x38adca06	8.2869126e-05
229	0x3bd3378a	0.0064458298
230	0x3bad341b	0.0052857525
231	0xbb262695	-0.0025352587
232	0x3c5f4a1b	0.013628508
233	0x3c55a650	0.01304014
234	0x3c67ce8d	0.014148367
235	0x3b149fbf	0.0022678224
236	0x3afa0370	0.0019074511
237	0xbc60125f	-0.013676255
238	0xbb48d532	-0.0030644652
239	0x3ca98d31	0.020697208
240	0x39889667	0.00026052
241	0xbbfad9e5	-0.0076553696
242	0xbb8078f3	-0.0039206683
243	0xbb8d03f1	-0.0043034484
244	0xbb935e88	-0.004497353
245	0x3b438166	0.0029831766
246	0xbad9425f	-0.0016575566
247	0x3bd6bd80	0.006553352
248	0x3b828ee3	0.0039843186
249	0x3c0cfcaf	0.008605166
250	0x3bcaf839	0.006194141
251	0x3c0f2ebe	0.008739172
252	0xbc0bef54	-0.008540947
253	0x3b36f6af	0.002791803
254	0xba46db43	-0.0007585773
255	0x3be9fe7d	0.007140933

action_model._discrete_distribution.branches.0.bias f4 [6]
0	0x00000000	0.0
1	0x00000000	0.0
2	0x00000000	0.0
3	0x00000000	0.0
4	0x00000000	0.0
5	0x00000000	0.0
