Assets/ML-Agents/results/color_chooser1/Color Chooser/Color Chooser-6176.pt (torch, 469562 bytes, 33 tensors)

network_body._body_endoder.seq_layers.0.weight f4 [128, 28]
00000000: 52da 413e cd2e bbbd 5f43 bfbd 6d30 34bd
00000010: 06a8 85be f64e 58bd 7c75 7f3c f394 d03d
00000020: 25ee 753c 6673 a0bc f5c2 943c 1857 a5be
00000030: 9c38 63bc 8eb6 203e 8ff3 523e dbf6 78be
00000040: 83c9 04be ead7 82be 401b 163e 89bc e83e
00000050: 5604 2e3d 0dba 0bbe 08d6 bfbe 2b49 74bd
00000060: 0c9b 97bd 0c65 0c3e a754 e8bd dd5c b23e
00000070: 32ea 88be 60d8 11bd 183f c0be aafd de3e
00000080: 816a ccbe bcd9 273e f441 bcbd ac56 ae3e
00000090: fc72 c83d b2f9 593d 3433 27be c585 a43e
000000a0: fa85 80be a6e9 6bbe fa16 b83c f74c 233e
000000b0: 12a4 143e 5bb2 fa3e 5fd6 eabd 6dd0 d3be
000000c0: 7f63 8cbe 7e82 dbba 44c9 8f3e 2b19 bf3d
000000d0: 0215 41be b1e3 64bc e97b 333e 4d6d afbd
000000e0: a186 adbe e42c 813e 59e2 56be 0b3d 1ebe
000000f0: be38 41bd ee05 59be 59e9 713e c09e 293e
00000100: 87e6 3c3c 7c1d f83d 9141 bcbd 43ee eebc
00000110: 852d b23e 691a 03be 1005 60bd d788 a73c
00000120: 1e33 413e 588c f63e 4f33 a4be 2cfa 38be
00000130: 527b 02bd a1e3 d43e a46a c93e f17d a0bd
00000140: 2922 9d3d f2e1 55be 6c28 053d ed72 d1bd
00000150: df07 413e ef4b 26bd abfc 533f 4e27 1ebe
00000160: b403 f0bd 82b3 cd3d 76e5 9f3e fc2f 783e
00000170: 15ed 8a3e 0c3e e93e 96df ff3c e1d7 23bf
00000180: 3a6e 9a3e 3be0 fc3c 1d29 f83d e631 c33e
00000190: c1fc 82be 47cf b537 3a9e 8abe 8d97 9ebe
000001a0: 3f5c 913e c3b8 f7be 9b8c bdbd 8ada 9e3b
000001b0: a77c 693e 2ff7 d7bd 2c10 cfbc 4db0 41be
000001c0: f776 1bbe 3b49 c83e c5c6 16bd b981 123e
000001d0: 1c1e aebe 4489 a5bd 2b27 fe3d ea7d 1a3d
000001e0: 6325 84be ea45 91be 708e 9dbd c805 3cbe
000001f0: b229 a33d 28a9 2ebd 22ee 413e e394 3e3e
00000200: 263e 5e3e a11c ac3d ce23 893e efb9 073d
00000210: 97c9 c93c 531e 3fbe 3008 6ebe f07e 583e
00000220: 457c 22be 9474 ae3d dfed 9dbc 6026 9f3e
00000230: 809b acbc 9713 543e 33bb 58bb ac42 6bbe
00000240: 496a 323e a82e 56be be19 803d a692 8dbe
00000250: a7e1 1c3d dbb6 b23d 2ae1 a5bd e5a5 eebc
00000260: d97d 9ebe d4ba 903d 61cd a5bd a605 0a3e
00000270: 0485 753e 4356 f63c 9d2d 0ebe 9f06 e13d
00000280: 284a 91be a448 9cbe 9e83 e0bd cc97 303e
00000290: b05d a83c 4633 48be e0d4 babd ebf4 65bd
000002a0: 9f52 3a3e 6c8e c3be 35a7 aa3d 759f 6c3e
000002b0: f94a 833c 139c 1a3e 1179 5a3e 63b0 f9bd
000002c0: 9f9f e93c 5ed8 4dbe 23bc 9dbd 003e 21be
000002d0: f2c5 cebc 6686 32be 9ea4 1d3c 75ab 7c3e
000002e0: feb5 8cbd e1f4 d73e 361f 0e3e aea3 1a3e
000002f0: 5fcd 6c3e aa34 223d efeb 13be 1424 b3bd
00000300: 5d6b 2dbe 9ca8 063f 2afc 793d 6798 ac3e
00000310: 8b0d 8c3d c0eb 383e 8a24 adbc 06f1 e83d
00000320: 3dc4 44be 8cb1 0bbe d51c c03e 0b7a 3c3e
00000330: 78cb 5e3e c762 823e 2608 19be 33a9 193e
00000340: 0c29 323d 9263 863e d3cf ae3d 65ce 733e
00000350: 66da a5bd 5d7d 98bd 780d 043d bf46 083e
00000360: 6983 c13d 3e96 27be 9ded 163e 78c5 a7be
00000370: 332b 17be 6e47 1b3e 7d63 08bd ad79 8d3b
00000380: c919 c53e 0688 203c 9a02 7a3e 4886 a33d
00000390: fb63 373e ad12 90be 1de3 73be 289a 2dbe
000003a0: ddb0 9cbe 644a e33e b04b 97bd f1a9 293e
000003b0: c9cd 29be 27b5 983d 1c83 6bbd 6750 5fbd
000003c0: 49e4 383e 4026 cb3d e4cc 883e 6d90 9cbd
000003d0: 1c95 27be 8122 dc3b 9a1c c23d 2613 7b3e
000003e0: 38ec 3fbe b815 97bc f2d3 e3bc 05e5 183d
000003f0: 1dba fabd b52c 493e ca87 bf3c 3b75 853c
0.18930939 -0.09139786 -0.09339022 -0.043991495 -0.26104754 -0.052809678 0.015591975 0.1018466
0.015010391 -0.019586276 0.018159369 -0.3229301 -0.013868477 0.15694639 0.20600723 -0.24312918
-0.12967496 -0.25555354 0.14658833 0.4545634 0.042484604 -0.13645191 -0.3746798 -0.05964009
-0.0740262 0.13710421 -0.11344271 0.34836474 -0.26741177 -0.035606742 -0.37548137 0.43552905
-0.39925006 0.16391653 -0.09192267 0.340505 0.097875565 0.053216644 -0.16328126 0.32133308
-0.25102216 -0.23038349 0.022471894 0.15947329 0.14515713 0.489642 -0.11466669 -0.41369954
-0.2741966 -0.0016747264 0.2808324 0.09330972 -0.1885567 -0.0139703015 0.17527737 -0.08565769
-0.33891776 0.2522956 -0.20984782 -0.15452974 -0.047173254 -0.21193668 0.23624171 0.16564465
0.011529571 0.12114999 -0.09192193 -0.029166346 0.34800354 -0.12803043 -0.054692328 0.020450993
0.18867156 0.4815395 -0.32070395 -0.18064183 -0.03185589 0.41579917 0.39339173 -0.078365214
0.07672531 -0.20886973 0.032509252 -0.102269985 0.18850659 -0.04059976 0.82807416 -0.15444681
-0.11719456 0.10044004 0.31229752 0.24237055 0.27134004 0.4555515 0.031234544 -0.6400128
0.3016222 0.03086864 0.12117217 0.38124007 -0.2558346 2.1673402e-05 -0.27073842 -0.30975
0.2839069 -0.4838315 -0.09255334 0.004847829 0.22801457 -0.105451934 -0.025276266 -0.1891491
-0.151821 0.3911837 -0.036810655 0.14307298 -0.34007347 -0.08082822 0.124098144 0.037717737
-0.25809774 -0.28373653 -0.076931834 -0.1836158 0.07966937 -0.04264179 0.18938497 0.18611483
0.21703395 0.08403898 0.2678513 0.033136304 0.024632258 -0.18663912 -0.23245311 0.21142173
-0.15867718 0.08518329 -0.019278465 0.31083965 -0.021070242 0.20710598 -0.0033070564 -0.22974652
0.17423357 -0.20916235 0.0625491 -0.27650946 0.038301136 0.08726283 -0.08099587 -0.029131839
-0.3095539 0.07066885 -0.080958135 0.13478717 0.23976523 0.03007043 -0.13884588 0.10987591
-0.2837689 -0.3052417 -0.10962604 0.17245406 0.020552486 -0.1955081 -0.09122634 -0.056141775
0.1819558 -0.38194597 0.083326735 0.23107703 0.01602696 0.150986 0.21335246 -0.12191846
0.028518496 -0.20102069 -0.077019 -0.15746307 -0.025240872 -0.17434081 0.009621767 0.2467478
-0.0687065 0.42179015 0.13879094 0.15101501 0.23125218 0.039601006 -0.1444547 -0.08747116
-0.16935487 0.5260103 0.061031498 0.33710024 0.068385206 0.18058681 -0.021135587 0.113740966
-0.19215484 -0.13641948 0.37521997 0.1840593 0.21757305 0.25465986 -0.14944515 0.1500595
0.043496177 0.2624784 0.08535733 0.23809202 -0.08098297 -0.07445786 0.032239407 0.13308237
0.094488926 -0.16365907 0.1473908 -0.32767844 -0.14762573 0.15163967 -0.033298004 0.0043174834
0.38496235 0.0097980555 0.24415055 0.079845965 0.17909233 -0.28139248 -0.23817106 -0.16953337
-0.30603686 0.44392693 -0.07387483 0.16568734 -0.16582407 0.07456427 -0.057498083 -0.054520037
0.18055834 0.09919405 0.2671882 -0.076447345 -0.16365474 0.0067179804 0.094781116 0.24519023
-0.18742454 -0.018442973 -0.027811024 0.037327785 -0.122425295 0.1964596 0.023380179 0.016291251

network_body._body_endoder.seq_layers.0.bias f4 [128]
00000000: 04ef 173c 0bf9 b13b ba32 293c 2c60 393c
00000010: cbe5 483b c489 643b 75f3 b038 76f8 2e3c
00000020: e309 183c aef1 3d3c bfa2 483c 6a9b 1a3c
00000030: f9b1 273c 530e 443c fca8 133c 6533 423c
00000040: 0bf8 3d3b a795 083c 8063 213c ee16 f8ba
00000050: 1ab3 223c 57e4 163c e373 283c 3f12 13bb
00000060: 0542 f73b 9f77 323c 8cc8 ffbb 45c3 a3bb
00000070: 0695 80bb d2da 94ba 17e3 d63b f268 e839
00000080: ce9c e4bb 2f7e b73b 65b5 aa3b 2bae c53b
00000090: 0b00 2f3b 79e0 0a3c 2759 243c b56c da3b
000000a0: 311d 0ebc b77c f93a fe00 21bc 2055 c2bb
000000b0: 8eb2 653b 0648 2a3a 750b 3e3c 4681 97bb
000000c0: 1dec 593a 984e e23b 9905 293c 541d 3f3c
000000d0: 421f d33a c353 1c3c 7f8c f33a a5f9 163c
000000e0: 6b7d 3f3b 4f57 243c 4149 f7bb 160f 863a
000000f0: a509 d73b 4ee4 2e3b d482 333b 97a1 0d3c
00000100: 25aa 2b3c 82c7 a73b c889 433c 5f3a 063c
00000110: ea5f f23b 2823 923b 2f26 d33b 0b41 c13b
00000120: 3c10 163c 8ec7 b8bb cf34 0fbc ad3b cf3b
00000130: 6ae8 213c 41e3 b83b 53f2 fe3b e0b7 f43b
00000140: b1db c33b 0d9c 233c 0b2d 193c 49bd 263c
00000150: f44b 203b 3b2a 81ba 5bb6 4c3b c567 353c
00000160: addb 0f3c f7ef b63b 5662 743b 8803 c13b
00000170: b483 24bc e730 e63b b294 ad3b c6ac 1a3c
00000180: df32 f83b e5bb 2b3c 1394 4e3b eea2 74ba
00000190: b548 393c ec2d 3d3c 4a7c df3b 6c99 d7ba
000001a0: 64cb b93b 2bf6 88ba dfb6 093c 5331 4a3a
000001b0: 782f bd3b ab57 84ba 84fd 323c df78 4f39
000001c0: 1583 223c 2351 7cbb 07b9 ce3b d7cf 24ba
000001d0: 56f7 05bc ea61 f638 007e b63b 2e6f 7a3b
000001e0: 3005 1e3c 0fb2 de3b 5dfc a7bb 9f2b 443c
000001f0: 6001 c63b b80e eb3b d693 0e3b f248 263c
0.009273294 0.0054312996 0.010327036 0.011314433 0.0030654545 0.0034872154 8.4376814e-05 0.010679355
0.009279701 0.011593265 0.012245833 0.009436468 0.010235303 0.011966306 0.009012457 0.011853074
0.0028986956 0.008336461 0.009850383 -0.0018927732 0.009930396 0.009209714 0.010281536 -0.0022441295
0.007545712 0.010892778 -0.0078058895 -0.004997643 -0.003924015 -0.0011356717 0.006557833 0.0004432868
-0.0069767004 0.005599759 0.005209612 0.0060327253 0.0026702906 0.00847637 0.010031021 0.006665791
-0.008673952 0.001903436 -0.009826897 -0.005930558 0.0035049054 0.00064957177 0.011599411 -0.004623565
0.00083130767 0.0069063418 0.010316276 0.011664707 0.0016107338 0.009541455 0.00185813 0.009214793
0.0029219042 0.010030582 -0.0075465743 0.0010227885 0.006562429 0.0026686373 0.0027391212 0.008644483
0.010477577 0.0051202187 0.011934705 0.008192628 0.0073966878 0.0044597574 0.006443761 0.0058976463
0.009159144 -0.005639023 -0.008740618 0.0063242526 0.009882072 0.005642325 0.007780352 0.0074682087
0.005977117 0.009985936 0.009349118 0.010176965 0.0024459334 -0.0009854505 0.0031236622 0.011072104
0.008780402 0.0055828053 0.0037290058 0.0058903135 -0.010041166 0.0070248726 0.005297267 0.009440606
0.0075744237 0.010481809 0.0031521365 -0.000933214 0.011308839 0.011546593 0.0068202363 -0.0016448922
0.005669998 -0.001044934 0.008405416 0.00077130384 0.005773481 -0.0010096928 0.010924701 0.00019786086
0.009918948 -0.003850051 0.006308678 -0.0006287074 -0.008176645 0.00011748432 0.0055692196 0.003821324
0.0096447915 0.0067961286 -0.0051265196 0.011973291 0.0060426444 0.0071733855 0.0021755598 0.010149227

network_body._body_endoder.seq_layers.2.weight f4 [128, 128]
00000000: 494c bebb 90c4 863d c7c5 7f3d 8449 8dbd
00000010: cdab cbbd 36fb fe3d cc01 00be 54b4 b2bd
00000020: 5dbb 98bc 35b3 98bd aa31 993d 0a7b 103e
00000030: 6fd8 a23d 7510 7a3b 61da 0a3e 05ba 973d
00000040: edbe 44bd cc0c cf3d 4dd9 acbb 8730 04be
00000050: 4e39 5a3b 3e4e 143c 4514 b2bb d404 96bd
00000060: 6be4 793d 6e77 c1bd 15a8 f9bd 9640 a33d
00000070: 68e4 c6bd be97 59bd f9e1 a2bd 15a7 96bc
00000080: 5411 f5bd 4be5 2abe a3f6 7cbd 8b45 ac3d
00000090: be55 273e 9320 63bc 5ea4 85bd b284 f1bd
000000a0: 45f9 b93d c593 91bc 80f5 c7bb 3f19 13bd
000000b0: 80f0 7ebd 08b8 903d a9d5 973d a6bf 9ebd
000000c0: 2b59 c0bd 5903 433d 2132 273d 3f56 5fbe
000000d0: 6981 183d bfc3 c3bc 2b51 d5bb cc3a 95bc
000000e0: 0c82 ae3d 19ca 8abe 8839 9d3c 35a4 f13d
000000f0: cb3e 59bd 79be 37bd 0977 053e d122 4d3e
00000100: c2d1 c93d 9a08 d7bd 4560 3d3d 3e2c 0cbd
00000110: eb11 b13c 0094 13be b344 d63d c2f6 b3bd
00000120: c4cc c039 0ff9 0c3e f9ec 3e3c ca3a 6c3d
00000130: d02b 9e3d fc3d 093e 066a 58bc 29c2 f13d
00000140: 31ce da3d 2293 a83d f8e5 62be 7fe8 f1bc
00000150: bb6c 09be 1c2e 65bd f524 86bc cadf 5c3c
00000160: fcb6 c03d 5851 c33b c3a2 9dbd 234a 3aba
00000170: e226 953c 77ff b23c 604f 1cbc 47f3 aa3d
00000180: d295 b73d 54ac 603d 7689 52bb bd21 eabd
00000190: ce11 0fbd 0939 a73c 0543 9f3d e23d ccbd
000001a0: a812 553d 5c5f 18bd 12b0 a1ba 85c9 46bc
000001b0: f914 243c a087 613d 300b a3bd e282 923c
000001c0: 8476 bbbd 575e 513c 679e a33b 24d2 5c3d
000001d0: 57c9 95bc e69c 263d ef5e 2b3e 75ad 07be
000001e0: b7a0 4c3d 0d90 7a3d 33aa 9a3c 809d a63d
000001f0: 1ab0 093d 26ad c73c 6449 953c 8455 29bd
00000200: d719 f23d 7265 86bb 82e8 c03d ca40 043e
00000210: 8e23 babd 0ab5 2dbc 89fd babb f39b 40bd
00000220: a328 c5bc 1bae e7bd 044a ab3d 04f5 72bd
00000230: 53c8 fcbd 366a e83d d30e 9e3d 206c 44bc
00000240: 7ca4 c5bd 401a 803d 2760 fd3a 45f6 55bd
00000250: 182d a8bd 3c0c 2fbb 6279 83bd 11ef 5fbc
00000260: 2958 f33c 965c 5b3d d03e 0bbd cecc d83d
00000270: f123 c83d 0783 eb3c 9db8 95bd 9fe9 e43c
00000280: f80c 48bd 1ae4 93bd a915 c03c bb55 583d
00000290: 036a 82bd 342b ec3d 8875 64bd edd4 c43d
000002a0: 0415 533d 0158 533e d5a0 0cbd f3cd be3d
000002b0: fb28 02be 9ac1 373d 01dd c53d 1646 6dbe
000002c0: 389a ac3d 7de9 6d3d 969e 3abe f5f8 09be
000002d0: cea9 fdbb 9c22 47bd 7eac fcbd 99f4 73bd
000002e0: c5aa 943d b24e 34bd 1f2b f7bc c25d 6c3d
000002f0: 1ef6 a83d 1815 bc3c 2a81 b6bd b269 813d
00000300: 0403 bd3d 0e65 2ebe 0bd3 4dbd 1088 24bd
00000310: c0c1 d6bb f22b 7b3d 1160 283e a912 27bd
00000320: a23a 4f3a ed5e 133d c045 473d 9736 993d
00000330: 98ac 62bc 419b 83bc ff86 01be b0eb 7cbd
00000340: c80e f13c 5fda b0bd 4e0d 083d 5e5d febc
00000350: a23b 493c 744c 8cbd 4af3 e13d 586c df3d
00000360: 2cc4 553e 5240 3b3e a9e6 de3d bfb4 e3bd
00000370: c38a f5bd 9018 d5bb 68e7 c8bc 0680 9abc
00000380: 9834 c13d a942 9fbb a103 93bd 70bd fa3c
00000390: 8669 983b 9cff 133e 0e88 39be 7eb6 323d
000003a0: 676e 563d b055 09be f6c8 8b3d 1b9a 8a3d
000003b0: c50e 5abc 849f ac3d b9e6 0bbe 3072 9dbd
000003c0: 0b02 35bd 34a3 50bd 57c8 893d fa42 763d
000003d0: bb7d 773d d0e2 0f3d 52ab a1bd 7ef0 b6bd
000003e0: 0a4b c6bc 0bad 56bc 859b 36bc 07d2 4d3e
000003f0: 0d4a b93d 52d5 f83d 7e52 16be d718 32bd
-0.0058074337 0.0658046 0.062444475 -0.068987876 -0.09944878 0.124502584 -0.12500685 -0.08725801
-0.01864403 -0.07456056 0.07480176 0.14109436 0.07951438 0.0038156782 0.13559867 0.07408527
-0.048033644 0.10109863 -0.0052749277 -0.12909137 0.0033298316 0.0090518575 -0.005434545 -0.0732514
0.061008852 -0.094466075 -0.12190262 0.07971303 -0.09711534 -0.05312323 -0.07953257 -0.018390218
-0.11966196 -0.16689031 -0.06175865 0.08411702 0.16341302 -0.013862747 -0.06525491 -0.11792888
0.090807475 -0.017770657 -0.006102264 -0.03591275 -0.062241077 0.07066351 0.07413799 -0.07751398
-0.093920074 0.047610614 0.04081929 -0.21810244 0.03723279 -0.02389705 -0.00650992 -0.018216513
0.08520898 -0.27107313 0.019192472 0.11798898 -0.0530384 -0.044859383 0.1303369 0.20032813
0.09854461 -0.104996875 0.046234388 -0.03422188 0.02161499 -0.14411926 0.10462322 -0.087873
0.00036773656 0.13766883 0.011653178 0.057673253 0.077232 0.13402551 -0.013208872 0.11804611
0.10683859 0.08231188 -0.22158039 -0.029529808 -0.13420384 -0.055952176 -0.016375044 0.01348109
0.094099015 0.0059606247 -0.0769706 -0.0007106384 0.018207017 0.02185033 -0.009540409 0.08347183
0.08964123 0.054851845 -0.003212539 -0.11432216 -0.03492909 0.020412939 0.07776455 -0.09972741
0.052019745 -0.037200317 -0.0012335798 -0.012133007 0.010014766 0.055060983 -0.07961118 0.017884675
-0.091534644 0.01277884 0.0049932483 0.053911343 -0.018284483 0.040676974 0.16735433 -0.13249762
0.049957957 0.061172534 0.018879985 0.081355095 0.03361521 0.024374556 0.018223472 -0.04134132
0.11821335 -0.0041014487 0.09419347 0.1291534 -0.09088813 -0.010602245 -0.0057064933 -0.047023725
-0.024067229 -0.11312505 0.08363727 -0.059315696 -0.12342896 0.11348383 0.07717671 -0.01198867
-0.096505135 0.06255007 0.0019331024 -0.052236814 -0.08211726 -0.0026710173 -0.06419636 -0.013667838
0.029705124 0.053555094 -0.03399545 0.105859384 0.0977248 0.028749002 -0.07310603 0.02794343
-0.048840493 -0.07221241 0.023447828 0.052816134 -0.063678764 0.11531678 -0.05577615 0.09610925
0.051533714 0.2063904 -0.03433307 0.093166254 -0.12710945 0.044862367 0.09661294 -0.23171267
0.084278524 0.058084 -0.18224558 -0.13473876 -0.0077411896 -0.04861699 -0.12337588 -0.05955944
0.07259134 -0.044020362 -0.030171929 0.057706602 0.08250068 0.022959277 -0.08911355 0.06318988
0.09229091 -0.17030737 -0.050250094 -0.04016882 -0.0065538585 0.061321206 0.16442896 -0.04078928
0.00079051603 0.0359792 0.048650503 0.07481115 -0.013835095 -0.016065242 -0.12649153 -0.061748207
0.029425994 -0.08635401 0.033215813 -0.03105038 0.012282284 -0.0685052 0.11032732 0.10909337
0.20875615 0.18286255 0.10883839 -0.11118459 -0.11989357 -0.006503172 -0.024524406 -0.018859874
0.094338596 -0.0048602414 -0.071784265 0.030607909 0.0046512512 0.14452976 -0.18118307 0.04363107
0.05235138 -0.13411593 0.0682544 0.067676745 -0.013309185 0.08428863 -0.13662232 -0.07687795
-0.0441914 -0.050936893 0.06727665 0.060122468 0.06042264 0.035128415 -0.07894005 -0.08932589
-0.024205703 -0.01310278 -0.011145477 0.2009965 0.09047327 0.121500626 -0.14679906 -0.04348072

network_body._body_endoder.seq_layers.2.bias f4 [128]
00000000: 9091 f63b 16b9 fdb9 d2b1 093c de4e 04bb
00000010: 357b e2b9 ea2c 5bbb b6d4 05ba 7c8e d63b
00000020: bf19 33bb ac83 e739 4ac3 173c b4d5 ceba
00000030: 18c8 173c 04b8 a83a 0158 f33b 4b03 733a
00000040: dceb f8ba 4130 0a3c 1301 503b bf19 c23b
00000050: 093d dc3b 0e41 ec3b a67f be3b 8f16 b13a
00000060: 307d fe3b ad1a 2a3c 3a1b 31bb 55ba e63b
00000070: fb54 743b 1095 073c c81c 9b3b 347b 353b
00000080: c10a 963b 822f e53a 78f7 903b 0bfb c93b
00000090: 5cee 063c 6da8 993b d0a3 193c 731c ed3b
000000a0: ec86 8f3a 9520 b13b 980f 143c 2ef9 8c3b
000000b0: a565 093c 9103 233c 78ac 53bb 2410 c8ba
000000c0: a87e 70ba a670 37ba b402 753b 53ba 803b
000000d0: 2175 f83b a60d 033c 07bf aa3b 258c 2e39
000000e0: 9b61 6f3b 0fa9 ae3b 5095 8b3b c8e8 cc3b
000000f0: c4f1 0a3c 6da7 703a 5990 20ba 2cc7 9f3b
00000100: 70ce 623b efe4 2e3b 6ceb 12ba 7492 773b
00000110: 4655 903b 88fb 923a 99f2 593b 4f39 293c
00000120: 7973 eb3b c464 153c 31ae 683b c3eb bb3b
00000130: 8e90 c53a dff0 eb3b dd84 953b 230f ea3b
00000140: 3271 073c 3c87 343b 250d ca3b f9f0 c53b
00000150: 2499 98b9 b516 213c 9c30 ed3a 4d9b 023c
00000160: 030a b23b 1df3 cd3b 00ef 713a dcf6 ea3b
00000170: b463 d33b 5eae 0e3c 47d8 f33b 6bec 153b
00000180: 4c56 f03b 5b62 ca3b 21fb d63b 764a ff3b
00000190: c4a1 f73b e39e b43b e271 a63b c993 873b
000001a0: c8ac 8eba 88ed e8ba 8e0f 063b 2ed5 263c
000001b0: e660 ea3b aa71 e13b e1df 7fba 37a5 5bbb
000001c0: 811a 9e3b e578 443b 0f62 a13b fc10 873a
000001d0: 598d 043a 20a7 a93b ca91 b03b 0f93 0b3c
000001e0: 2cdf d23b da65 e03b 3043 7838 80a6 3039
000001f0: d475 fe3b 9cc2 e83b a58b 3f3b e0a8 fc3a
0.0075246766 -0.0004839382 0.008404212 -0.002018861 -0.00043197875 -0.003344352 -0.0005105244 0.006547747
-0.0027328578 0.00044157857 0.009262869 -0.0015780241 0.009264015 0.0012872224 0.0074262624 0.0009270205
-0.001899119 0.008434356 0.0031738922 0.0059234793 0.006721143 0.0072099036 0.0058135567 0.0013510751
0.0077663884 0.010382337 -0.0027024285 0.0070412555 0.0037282098 0.008275285 0.0047336556 0.0027691843
0.0045789187 0.0017485472 0.004424032 0.00616396 0.00823554 0.0046892674 0.009377435 0.0072360574
0.0010950244 0.0054054954 0.009036921 0.0043021655 0.00838605 0.009949581 -0.0032298844 -0.0015263599
-0.00091741467 -0.0006997682 0.0037385644 0.0039284616 0.007582322 0.0079988595 0.0052107605 0.00016646141
0.0036526683 0.005330212 0.004259743 0.0062533356 0.008480493 0.0009180222 -0.0006125025 0.004876038
0.003460791 0.0026686748 -0.00056045386 0.0037776502 0.0044046966 0.0011213878 0.0033256172 0.010328605
0.0071853963 0.009118263 0.0035504217 0.005734892 0.0015072988 0.007200345 0.0045629577 0.0071429177
0.008266734 0.0027546426 0.0061661177 0.006040689 -0.00029105798 0.009832074 0.0018096152 0.007971597
0.0054333224 0.006285085 0.0009229034 0.007170541 0.0064510945 0.008708565 0.0074415538 0.0022876512
0.007334506 0.0061762757 0.0065606986 0.007790859 0.0075571258 0.005512105 0.005079494 0.0041374904
-0.0010885233 -0.0017770985 0.0020456049 0.010182662 0.0071526645 0.006880005 -0.00097608386 -0.0033515224
0.004824937 0.0029979285 0.0049250196 0.0010304744 0.0005056463 0.0051773936 0.005388473 0.008518948
0.0064352956 0.006848079 5.919038e-05 0.00016846694 0.007765511 0.0071032774 0.0029227522 0.0019276403

action_model._discrete_distribution.branches.0.weight f4 [6, 128]
00000000: 7935 8f3c fb90 23bc 3456 2d3c 0d8b 1f3c
00000010: eced 8a3c df1f ccba 913a acbc 6071 3a3c
00000020: 3890 8d3b d33a 6bbc 3d2d 573c 8d8f 283b
00000030: 3165 b73c 4632 88bc 8652 6cbc a2dd 963c
00000040: db02 8a3b 9818 ce3c 13bc 70bb f406 d13b
00000050: ffe4 9b3c 1b8a 98bc 519c c33c 8d78 96bb
00000060: 8c07 c3bb 1d13 4c3c 6055 65bc b269 eabb
00000070: a508 98bc ee22 1b3b 8b15 373c 21ba 37bc
00000080: abb4 c3ba c8f1 093b f232 d1bc 93c4 e53b
00000090: 06ce cbbc 7f1e cebb d4a6 3abb 3555 823b
000000a0: 08d1 82bc 0f18 9abb 22cb 2f3c 4283 0fbc
000000b0: 304c 16bc 4baa 143d c5be 0f3c 10ad 9aba
000000c0: ee59 a33b 2b3e 98bc 8bb3 96ba bab2 c03a
000000d0: 7429 e4bb a6e1 763c 8404 823c 051b b3ba
000000e0: d0ae 88bb e5dd 833c 0c81 313b 9cb5 9ebc
000000f0: 8bdc d9bc cefb 06bc 5fbe 8dbc 666c 743c
00000100: 8276 e0ba 7385 263a 678d fcbb b28c 2d3b
00000110: fcd0 70bc a80e 113c c825 5cbc f563 923c
00000120: c0f0 823c 3b6c 22bd 7b0e eabb 4c93 69bc
00000130: 219b a4ba 9d87 7f3b 592e 9e3c 948f efbb
00000140: 2241 5b3c 523f a33c df9d f33c ec2f 2abc
00000150: 2e24 6b3b 3932 743c 5b78 3dbc 554a 0c3a
00000160: aa66 57bc 1d08 b0bb 458d f8bb d2e3 d43c
00000170: 7ada 7b3c 4dab 643b f0d7 ea3b 8a32 81bc
00000180: b5c2 cfbb 2713 31bc f5fd 38bc 4cfb acbc
00000190: b58a 8b3b fb0a d7bc 4809 b83c 44ca d3bc
000001a0: 26e4 b9bb ebab 563c 3a44 39bc 2abd a73c
000001b0: 3973 c03b eafe 563c 676a 13bc 7287 023c
000001c0: 3050 99bb f3e7 94bc 2243 66bc 5f7f 21ba
000001d0: 0fdc 7fbc 5b54 733c dde0 5c3c ce3c 2abc
000001e0: a71c cabc 0cad 0b3c f686 c6bb 20f0 5e3a
000001f0: d23a a53b ed3e caba 3a4e 523c 21b6 84bc
00000200: 8a76 ea3a 2dff 58ba a362 e13c f615 273c
00000210: f837 7dba 241e e9bb ee39 f13b 041d f13b
00000220: c30d 9f3c 0a3d 073c a1dd f9bb f5f8 33bc
00000230: cbf2 9abb 8b45 503c 93b6 c3bc 637e d1bb
00000240: ab0e d9bc 3017 a5bc 8e52 09bc 1968 7a3c
00000250: aad0 8d3b 6af2 2abc 3606 6c3a 4578 b7bc
00000260: ce98 6a3b 27a7 5f3b a431 a339 782b d23c
00000270: 744d 943c d0b3 7dbc ee59 cb3b 7213 21bc
00000280: 36fb 1cbc 44d9 74bc 4380 d13c 0702 bfbc
00000290: 7e7f e53b 8ff7 17bc 61a6 34bc dc06 c53c
000002a0: 00de 023c 22dd 4fbc da3e c83b cd56 ea3c
000002b0: c91b 813c 22e3 413b 881c 573b b339 7a3a
000002c0: b473 5ebc 9313 27bc 58fd 80bc c17e 1dbc
000002d0: 74e7 e6bb 69fc 85bc 7042 4d3c 7606 a83c
000002e0: 7a60 ba3a c76c 66bc fd15 44bb 3430 353c
000002f0: c679 8dbb b2d9 99bb 7d86 c9bb 8941 99bc
00000300: 412c 9ebc 85d2 133c 4091 bb3c ecfc 9a3c
00000310: 379b 2b3c aa22 9b3b 0144 393c 0423 f4bb
00000320: 9330 f33b 91a1 2fbc 10ab cf3c bce7 663c
00000330: 1a03 9c3c 7f99 63bb c504 973c 9431 7e3b
00000340: 527e b1bc 8a4d bfbb ac76 4d3c 888b e6bb
00000350: d5be 3c3c 9f2a 4c3c 0908 aa3c 3137 9cbc
00000360: 29c5 943c 9a5f 1b3c b4de b93b 4912 6dbc
00000370: 83d6 83bb 76e7 16bc 1636 5fbc a5b9 41bb
00000380: f2dd e8bb 633c 34bc ac0e 313c 3d45 0bbc
00000390: dfbd a03c d828 a03b 4cde 0bbc 9a6f 873b
000003a0: 5a6f dc3c 09e7 77bc e4c4 e6b9 477c 783b
000003b0: 1901 a13c f201 69bc 39a3 da3a a8fa 703c
000003c0: 6bdd 80bc e45e b33c 54c8 823c 7fa0 f03c
000003d0: 4202 f5bb c761 093d c9ed 1f3c 2720 fb3b
000003e0: 276e 6f3c 611a afbc cce2 e8bb 9355 933c
000003f0: 5642 e8bc 657a 9b3b b566 c03b ad3e 43bb
0.017481552 -0.0099832965 0.010579634 0.009737742 0.016959153 -0.0015573463 -0.02102402 0.01137957
0.0043201707 -0.0143572865 0.013133344 0.0025720329 0.022387119 -0.016625535 -0.014423972 0.01841623
0.004211766 0.025158212 -0.0036733195 0.0063790027 0.019030092 -0.018620541 0.023878248 -0.0045920075
-0.0059518274 0.012455729 -0.013997406 -0.007153713 -0.01855881 0.0023671943 0.01117457 -0.01121381
-0.0014931163 0.0021048654 -0.025536988 0.007011959 -0.024878513 -0.0062902565 -0.0028480785 0.0039774426
-0.015968814 -0.004702575 0.010729583 -0.008759322 -0.009173438 0.036295217 0.00877351 -0.0011800844
0.0049850857 -0.018584331 -0.00114976 0.0014701702 -0.0069629494 0.015068447 0.015871294 -0.0013664669
-0.00417123 0.016097018 0.0027084975 -0.019373707 -0.02659442 -0.008238746 -0.01730269 0.014918422
-0.0017125162 0.0006352283 -0.007707286 0.0026481566 -0.014698263 0.008853592 -0.013436742 0.017869929
0.01598394 -0.039653998 -0.0071428395 -0.01425631 -0.0012558439 0.0038990744 0.01930921 -0.007310817
0.013382228 0.019927654 0.029738365 -0.010387402 0.003587972 0.014904552 -0.0115643395 0.00053516525
-0.013147036 -0.005372061 -0.0075852 0.02598754 0.015371913 0.0034892142 0.007166855 -0.01577117
-0.0063403496 -0.010807789 -0.011291017 -0.021115921 0.0042584785 -0.026250353 0.022465363 -0.025853284
-0.0056729494 0.013102512 -0.01130777 0.020475943 0.0058731106 0.0131223 -0.008997536 0.007966863
-0.0046787485 -0.018177008 -0.014054092 -0.00061606424 -0.015616431 0.014851655 0.013481346 -0.0103904735
-0.024671866 0.008525144 -0.006058569 0.00085044093 0.0050424123 -0.001543013 0.0128360335 -0.016200127
0.0017888111 -0.000827777 0.027512854 0.010198107 -0.0009659524 -0.0071141887 0.007361642 0.0073581953
0.019415742 0.008254299 -0.007625297 -0.010984649 -0.00472865 0.012711893 -0.02389077 -0.0063932403
-0.026496252 -0.020152658 -0.008381499 0.015283608 0.004327853 -0.010433773 0.0009003611 -0.022396216
0.0035796645 0.003412673 0.00031126768 0.025655493 0.018103339 -0.015484765 0.006205789 -0.009831296
-0.009581378 -0.014944378 0.025573855 -0.023316396 0.0070037236 -0.009275331 -0.011025996 0.024051122
0.007987499 -0.0126869995 0.006111008 0.028605843 0.01576032 0.0029584845 0.0032823402 0.0009545341
-0.01357739 -0.010197538 -0.015745804 -0.00961274 -0.0070466343 -0.01635571 0.012528047 0.020510893
0.0014219426 -0.0140640205 -0.0029920333 0.011058856 -0.004317495 -0.0046951408 -0.0061500655 -0.018708007
-0.019308211 0.00902236 0.022896409 0.01891943 0.010474018 0.004734357 0.011307717 -0.0074504633
0.007421562 -0.010719673 0.025350124 0.014093336 0.019044448 -0.0034728942 0.018434891 0.0038786875
-0.02166668 -0.005838101 0.012540501 -0.0070356764 0.011520107 0.012461334 0.020755785 -0.019069286
0.01816042 0.009483242 0.0056723002 -0.014469692 -0.0040233745 -0.009210458 -0.013623735 -0.0029560116
-0.007106536 -0.011000725 0.010806721 -0.008500394 0.019621788 0.0048876815 -0.008536886 0.004133177
0.026908565 -0.015130767 -0.00044015714 0.0037915872 0.019653844 -0.014221655 0.0016680724 0.014708199
-0.01573058 0.021895833 0.015964665 0.029373406 -0.007477076 0.033540513 0.009761282 0.007663745
0.014613665 -0.021374883 -0.0071071144 0.01798514 -0.028351944 0.004744815 0.0058716186 -0.0029791996

action_model._discrete_distribution.branches.0.bias f4 [6]
00000000: eb08 6f3b 0fa4 94ba e7b0 853b 1184 12bb
00000010: 1bbc af3a 698a 9bbb
0.0036473821 -0.0011340397 0.0040799263 -0.002235655 0.00134075 -0.0047467244

exp_avg f4 [128, 6]
00000000: c21b a4b9 d065 b1b8 b28d 16b9 7a6b dd38
00000010: a417 6b35 9305 4a39 8520 88b9 5ad9 c438
00000020: bcaa 70ba 77a9 0338 96cb 9939 aad5 5e38
00000030: a9e8 14ba 41d4 39b8 f245 91ba 42ce 3039
00000040: 59a9 5137 de74 ed39 795c f534 86bc 41b9
00000050: 1d25 9f39 0012 51ba 1f61 dab9 8bba ebb9
00000060: ce93 9939 1ed0 aaba d4df c6b8 3cce 6639
00000070: d690 3539 fa6b 4039 10e1 6bba b39b 2139
00000080: ea60 34b8 5034 f5b7 ec8d d9b9 d673 9b39
00000090: b6bb e339 4ac3 08b8 aa07 82ba 9c3b 5139
000000a0: ff14 8438 f851 0739 7e0c 0fba bd28 a638
000000b0: 4f8d 40b9 9902 0339 044d 4138 004a ab38
000000c0: c206 a3b9 746f 2639 3652 9639 a809 8cba
000000d0: d737 9f39 5314 a8b9 25a1 eeba 63c6 e139
000000e0: 814c 6439 d96d c639 5fed 6fba 67e0 d239
000000f0: 4d6f cfb9 09bc 94ba cdba 23b7 7dfc cdb9
00000100: 1ba4 9339 f870 0039 8ed3 93ba 96f1 a639
00000110: 5350 c339 663b ae35 91d1 83b9 6387 87b9
00000120: d8c8 4aba 132d 8638 cecd 0cbb 9b68 a339
00000130: 3d69 e639 5e19 c839 8a57 36ba f0af ae38
00000140: 6795 deba 881b ea38 2820 ba39 7bf9 8a38
00000150: f3bc edb8 a9e1 4739 7eb4 6fb8 3f8e 2eb9
00000160: 151c 1839 ef3f 36b9 7aac a6b9 ef36 f0b9
00000170: 89e4 6b39 78f1 70b9 fade c6b9 ce3f 0739
00000180: 419a 3cb8 74ce 193a 1912 ae38 5084 edb8
00000190: 5dce b1b8 3b61 33ba 12fc 58ba 0f78 deb8
000001a0: af3a 0d38 cd24 6db8 238c e539 d750 a738
000001b0: 3ba6 5dba dbde 0cba ab4e 05ba 7923 4838
000001c0: 6b77 a439 0f01 053a 5bbd 03b9 ce6b fb38
000001d0: a508 76b8 1a5a 7e39 4307 1a39 3080 81b9
000001e0: 475c 5bba 0d4e 4239 2c92 3a39 1d45 85ba
000001f0: a578 b939 e8e7 9cb8 bede cbb9 a852 2e38
00000200: d328 89b8 739d f3b9 8f2d b538 3fd9 cdb7
00000210: a94f 34ba b6b8 1239 12ec af39 b08d 8238
00000220: fe4f 94ba c26c 6fb6 e42c 74b9 f000 2b39
00000230: b2a1 a6b8 eaf3 d637 c044 0634 2575 d938
00000240: c172 c638 1fb7 c0b9 7bcf b3b9 e469 01b9
00000250: 6f73 b439 6f57 0bb9 4ecc 4239 0095 c039
00000260: 5b68 af39 4727 5fba 5bfe e3ba a0ec b3b3
00000270: 005e ff39 b681 6ab9 5756 ddb8 09c2 a5b7
00000280: cd2e b039 a13c 9bb9 08dc 8338 37f5 2d39
00000290: 29da 6439 1c77 51b8 4254 8139 147e 5bba
000002a0: 6e5e 10b8 33fc 1239 d5cc abb9 1b8f bf38
000002b0: 9957 a5b9 bd02 a239 55d9 af37 dad2 9337
000002c0: 705d 96b9 2e49 e7b9 0815 8439 88ab a539
000002d0: 5739 273a 6223 b0b9 84f1 1b3a f381 5f39
000002e0: 39e0 feb9 cded 72ba 4ccd 44ba cd87 d2b7
000002f0: a299 ae38 beb0 e5b8 0cb2 ea39 193a a0b6
00000300: ded1 9bb8 bd0f 5ab9 c403 dcb9 02a4 00b7
00000310: df6e 0a3a f7e6 8d39 7969 93b8 a61e 6fba
00000320: 160a 0939 33c7 f338 6556 88b8 cb5f 2b39
00000330: 8e20 ab39 773e 10ba 8817 efb9 9eed ab39
00000340: c042 6a35 1e85 fd38 9c69 2a3a 5aae 183a
00000350: 5a0c bf37 c0e7 e139 3356 86b9 ccae 04bb
00000360: 4bea 08b7 a8c0 7737 25d9 8639 2b60 1138
00000370: 6381 c538 50e0 a4ba dd62 87ba 4405 6738
00000380: 3b43 3c39 d426 6937 a0c8 2839 08f4 a5b9
00000390: 353a 19ba e820 1bba 5737 cdb9 23a0 5139
000003a0: 5220 8239 109c d3b7 0cd2 d839 de17 65ba
000003b0: 2777 64b7 97de 0a39 5f8e ea38 e05d 9cb9
000003c0: 4a85 8139 2695 5cb9 2bb7 05b9 e9d2 9439
000003d0: 1002 2038 f6e4 1237 6fa3 f0b8 1356 ae39
000003e0: b097 7aba 55dc 8038 39fd fb39 4108 f7b9
000003f0: f808 0cb7 85fe d137 a12c 6c39 6e18 84b7
-0.000313012 -8.458982e-05 -0.000143579 0.0001055812 8.7578724e-07 0.00019266298 -0.0002596417 9.386493e-05
-0.0009180715 3.139066e-05 0.00029334117 5.3127915e-05 -0.0005680421 -4.4305114e-05 -0.0011083467 0.00016861505
1.24968e-05 0.00045291235 4.570209e-07 -0.00018476145 0.00030354495 -0.00079753995 -0.0004165256 -0.00044961678
0.00029292557 -0.0013031994 -9.483067e-05 0.00022011338 0.0001731546 0.00018350771 -0.00089980755 0.00015412159
-4.3005602e-05 -2.9230636e-05 -0.00041495205 0.00029650208 0.0004343667 -3.2606804e-05 -0.0009920497 0.00019954
6.298161e-05 0.00012905139 -0.00054568786 7.923085e-05 -0.00018363188 0.00012494101 4.6086512e-05 8.167699e-05
-0.00031094818 0.00015872513 0.0002867148 -0.001068403 0.00030368447 -0.000320586 -0.0018205984 0.00043063154
0.00021772274 0.00037847346 -0.00091524975 0.00040221514 -0.00039565042 -0.0011347543 -9.75905e-06 -0.00039288765
0.00028160293 0.00012249115 -0.0011278258 0.00031841983 0.00037253145 1.2981297e-06 -0.00025142406 -0.00025850078
-0.00077356165 6.398014e-05 -0.0021484974 0.0003116772 0.00043947427 0.00038165873 -0.00069557934 8.3297375e-05
-0.0016981781 0.000111631176 0.00035500643 6.626822e-05 -0.00011336235 0.00019062184 -5.7150137e-05 -0.00016646924
0.00014506311 -0.0001738069 -0.00031790492 -0.00045817296 0.00022496482 -0.00022978138 -0.00037931633 0.00012898372
-4.4966353e-05 0.0005867251 8.3003375e-05 -0.00011325686 -8.478456e-05 -0.00068427966 -0.00082773075 -0.000106081476
3.3671673e-05 -5.6539477e-05 0.00043782694 7.978238e-05 -0.0008455251 -0.0005373784 -0.000508527 4.7716752e-05
0.0003136949 0.0005073705 -0.00012563674 0.00011988693 -5.865902e-05 0.00024256893 0.0001468929 -0.00024700304
-0.00083679374 0.00018530358 0.00017792796 -0.0010167692 0.00035375837 -7.4818556e-05 -0.00038885133 4.1561812e-05
-6.540273e-05 -0.0004646588 8.6392385e-05 -2.4539067e-05 -0.00068783254 0.00013992455 0.00033554487 6.2252744e-05
-0.0011315343 -3.567708e-06 -0.00023286376 0.0001630818 -7.945615e-05 2.562437e-05 1.2504734e-07 0.00010369186
9.46275e-05 -0.0003675753 -0.00034296126 -0.00012341846 0.0003441828 -0.00013288645 0.00018577391 0.00036732107
0.00033456352 -0.00085126277 -0.001739453 -8.378379e-08 0.00048707426 -0.000223643 -0.00010554183 -1.9759887e-05
0.00033604205 -0.00029609076 6.287551e-05 0.00016589915 0.00021825045 -4.9940412e-05 0.00024667574 -0.0008372974
-3.442022e-05 0.00014017597 -0.00032768273 9.134245e-05 -0.00031536518 0.00030901088 2.0962829e-05 1.7621951e-05
-0.00028679846 -0.00044114277 0.00025192671 0.00031599053 0.0006379089 -0.00033595698 0.00059487694 0.00021315347
-0.00048613714 -0.00092670025 -0.0007507398 -2.5097188e-05 8.325583e-05 -0.00010952492 0.00044764613 -4.775135e-06
-7.430067e-05 -0.00020795963 -0.00041964476 -7.667581e-06 0.00052808033 0.00027065698 -7.029152e-05 -0.00091216934
0.00013069095 0.00011624247 -6.5010776e-05 0.00016343516 0.00032639917 -0.0005502472 -0.00045603164 0.000327927
8.7268927e-07 0.00012088775 0.00065007224 0.000582432 2.2774726e-05 0.0004308801 -0.00025622695 -0.0020245789
-8.160782e-06 1.47672035e-05 0.00025720257 3.4660257e-05 9.417792e-05 -0.0012579057 -0.0010329146 5.5079596e-05
0.00017954122 1.3896923e-05 0.00016096467 -0.0003165307 -0.00058451603 -0.0005917684 -0.00039141878 0.00019991449
0.00024819613 -2.5225832e-05 0.00041355228 -0.0008739213 -1.3617601e-05 0.00013243627 0.00011184508 -0.0002982458
0.00024704105 -0.00021036397 -0.00012752104 0.000283859 3.8148894e-05 8.755587e-06 -0.00011474534 0.00033251997
-0.00095593464 6.144556e-05 0.00048063116 -0.0004711766 -8.3467385e-06 2.5033261e-05 0.0002252334 -1.5747002e-05

exp_avg_sq f4 [128, 6]
00000000: 2137 be31 f0a4 2c30 19c4 c430 3c55 2730
00000010: 0b5d 0f30 0351 7c31 1ce3 5531 9823 7f30
00000020: 4c01 3b33 9f60 f32f 834c 2b32 67cf 252f
00000030: c133 6232 432e 9730 0968 9e33 f799 da30
00000040: 4e7a 0b31 3c3a 6132 f7d2 2128 e60f 3831
00000050: b562 cb31 b295 0733 2e77 8c32 7b0a 3a32
00000060: b456 9a31 b0ec c333 415a 2d30 a742 4731
00000070: 20f7 3d31 54e1 0c31 8c6b 1a33 56fd b430
00000080: e63b 0a30 7e26 2930 d463 3132 7a2a b631
00000090: 8d0d 6032 f57d c22f a9db 5333 957b 6131
000000a0: f564 b22f b4d0 6930 9d27 8f32 4a80 2330
000000b0: 10bb ef30 6e0f 6030 bb29 b22f 4f22 c02f
000000c0: 9108 d231 d009 3f31 d63a a031 213f 8633
000000d0: b106 e631 c144 0932 5c3d 2e34 aedd 1e32
000000e0: 0217 2e31 24b6 0332 c265 8c33 6d9a 2832
000000f0: 103b 1e32 917c 9133 ba44 b62f bd6a 0b32
00000100: de84 d531 9a8e 5b30 2e82 8e33 1286 bb31
00000110: b86c 0132 54d2 c02f 8e67 a431 36a2 d831
00000120: 6897 e032 5884 7530 9e84 a334 a48c b131
00000130: b86a a632 15c4 1332 c8c9 d732 22f5 9a30
00000140: 5b37 2334 05e7 8930 a9a4 3632 6a7c b02f
00000150: 94e9 8830 bc10 1331 5529 1630 7173 e230
00000160: bccc fe30 e3be 1431 4b19 a131 a46e 6e32
00000170: b655 3731 2a1e 2131 404b 3432 1abb 8f30
00000180: 0928 b630 c7cc bd32 4c85 0130 a5b7 9730
00000190: b54c 9c30 c3be d232 845d 2233 71f6 a730
000001a0: 76f3 042f 43bb df2f b98c 9b32 d9fa be2f
000001b0: 3f6e 0833 0532 aa32 db8f bd32 b855 5e2f
000001c0: e56c 5e32 5baa 8a32 d4da 3e31 8591 b130
000001d0: ada3 4630 17c1 5531 ed54 d830 a077 b031
000001e0: 3bfc 5833 00a3 2331 584d d230 2cc5 4b33
000001f0: 2fd2 6e32 fc3c 2b30 9dd4 1032 c4a4 362f
00000200: dabd c82f 97e1 3932 a394 1330 bc69 842f
00000210: 26e6 b732 7865 8530 2edb df31 b5bf 3a30
00000220: fc6e b333 ed6e d42e fed2 2631 8678 ca30
00000230: 5c5b 2330 0cd3 192f f806 0f30 edc0 3430
00000240: 936c 3130 ee15 c831 6052 dc31 9abc 6330
00000250: 5d6a 2032 d24e d030 40ec 3031 a4ee 2332
00000260: 22fb ce31 a191 2a33 5242 7b34 91f0 a231
00000270: 85f4 6832 a6d0 ff31 e78d 1731 8053 1d30
00000280: 3d74 fd31 018d 9f31 2d31 832f b825 cb30
00000290: ed46 ac31 bbd6 b12f 21ba c931 02a8 2633
000002a0: 9d5d f930 fcc0 b730 cb9e 9a31 3218 2330
000002b0: da2b cb31 1b0e c131 e27f 5e2f 208e 562f
000002c0: 505b ae31 9e9b 4932 c465 0732 a4d3 0c32
000002d0: b142 be32 f414 f231 7dc3 b732 b9d7 5631
000002e0: f9b6 dd32 5142 5233 5b42 0133 cb81 e12f
000002f0: fceb f12f 0f26 a130 f50b 9832 737f 892f
00000300: 2b48 3431 9f10 9f31 dc7d 3c32 b2d6 bf2f
00000310: ddbb d332 57dd 8531 c63c bf2f 22d0 3033
00000320: dd30 8230 da10 b230 97c9 9f30 1df1 c530
00000330: 6476 da31 ab0f 9232 a1eb 2832 2bc2 e531
00000340: c599 b430 61e9 5e30 6ee3 af32 aaf4 a932
00000350: 1c51 2130 c80f 4132 7b92 2532 c042 7234
00000360: 2d0e de30 82fe 812e 36c5 a731 66a2 722f
00000370: 4c2b 2930 681c be33 a597 4c33 d6c2 182f
00000380: 5c70 ca30 6506 bc2f 2f2c 1831 74a4 bb31
00000390: d9f1 7632 ab63 a032 aaae 4132 c1b9 1c31
000003a0: 4d15 9d31 435d f22f cbd9 3832 52be 2e33
000003b0: c02d 162f 0846 9630 ebf8 6a30 d566 8f31
000003c0: 2c1a 6032 5aad 6f31 e3e1 ac30 b9c2 9331
000003d0: 6677 9a30 8510 132f af62 e230 6779 eb31
000003e0: 8bad 5433 46bd bf2f 40d2 b032 deb9 5132
000003f0: 0c08 2d2f 9329 822f 9923 6431 c2ac a130
5.535995e-09 6.2807626e-10 1.4316611e-09 6.087537e-10 5.215532e-10 3.6716876e-09 3.1124676e-09 9.281904e-10
4.354051e-08 4.4270096e-10 9.970907e-09 1.5080347e-10 1.3166699e-08 1.0999844e-09 7.376372e-08 1.5905347e-09
2.0296684e-09 1.3109965e-08 8.983041e-15 2.6784561e-09 5.9192993e-09 3.1568284e-08 1.6352342e-08 1.0829008e-08
4.491847e-09 9.123448e-08 6.306529e-10 2.8996199e-09 2.7643594e-09 2.0500766e-09 3.5953732e-08 1.3168726e-09
5.028923e-10 6.153654e-10 1.0325454e-08 5.301726e-09 1.3041597e-08 3.5377892e-10 4.9327046e-08 3.2812058e-09
3.2449746e-10 8.506149e-10 1.6665405e-08 5.9481364e-10 1.7442705e-09 8.151265e-10 3.2407663e-10 3.4948974e-10
6.1127783e-09 2.7799736e-09 4.6633017e-09 6.251344e-08 6.6946417e-09 7.990082e-09 1.6227335e-07 9.2472145e-09
2.533341e-09 7.666618e-09 6.537768e-08 9.813999e-09 9.21024e-09 6.774747e-08 3.315444e-10 8.115134e-09
6.214221e-09 7.9874385e-10 6.63607e-08 5.4576583e-09 7.533508e-09 3.5074044e-10 4.784801e-09 6.3048686e-09
2.6145884e-08 8.931855e-10 3.0457608e-07 5.167367e-09 1.9373473e-08 8.60111e-09 2.5121054e-08 1.1274646e-09
1.5200696e-07 1.0033722e-09 1.0631234e-08 3.2102615e-10 9.961689e-10 2.1400828e-09 5.462842e-10 1.6476475e-09
1.8539121e-09 2.164534e-09 4.688592e-09 1.387858e-08 2.6678726e-09 2.344573e-09 1.0494489e-08 1.0457797e-09
1.3253622e-09 2.2095618e-08 4.7119353e-10 1.1038891e-09 1.1372295e-09 2.4533966e-08 3.7803616e-08 1.2220892e-09
1.2091825e-10 4.069652e-10 1.8108368e-08 3.4739037e-10 3.1765236e-08 1.9813351e-08 2.2067914e-08 2.0221236e-10
1.29468605e-08 1.6142783e-08 2.7773028e-09 1.2919804e-09 7.226458e-10 3.1105338e-09 1.5740206e-09 5.135874e-09
5.052082e-08 2.3812277e-09 1.5301493e-09 4.7443947e-08 1.39012135e-08 6.22961e-10 8.430246e-09 1.661134e-10
3.6514686e-10 1.08197105e-08 5.3689514e-10 2.408579e-10 2.1408663e-08 9.705863e-10 6.515072e-09 6.793884e-10
8.355525e-08 9.660348e-11 2.4276114e-09 1.4731689e-09 5.9428884e-10 1.3990248e-10 5.2033e-10 6.575778e-10
6.454652e-10 5.823259e-09 6.4122077e-09 8.285014e-10 9.33741e-09 1.5156394e-09 2.5745663e-09 9.542109e-09
6.0239396e-09 3.9713658e-08 2.3400324e-07 4.7421698e-09 1.3559775e-08 7.4451973e-09 2.2054054e-09 5.723493e-10
7.376484e-09 4.6435393e-09 2.3863703e-10 1.4780914e-09 5.013922e-09 3.2348688e-10 5.8710303e-09 3.880269e-08
1.8143741e-09 1.3369852e-09 4.5000426e-09 5.933344e-10 5.913063e-09 5.618643e-09 2.0236215e-10 1.951368e-10
5.0744475e-09 1.1735123e-08 7.881173e-09 8.197194e-09 2.2149239e-08 7.045509e-09 2.1392902e-08 3.1263723e-09
2.5810992e-08 4.895475e-08 3.0095503e-08 4.1019485e-10 4.4005322e-10 1.1725109e-09 1.7700566e-08 2.5010713e-10
2.623447e-09 4.6293986e-09 1.0971657e-08 3.4895248e-10 2.4649063e-08 3.895973e-09 3.478588e-10 4.116749e-08
9.472633e-10 1.2955994e-09 1.1626068e-09 1.4402165e-09 6.3580945e-09 1.7003762e-08 9.832463e-09 6.6868515e-09
1.3140428e-09 8.109478e-10 2.0476104e-08 1.978545e-08 5.868672e-10 1.1237667e-08 9.63757e-09 2.256229e-07
1.6156655e-09 5.9114505e-11 4.88276e-09 2.2067467e-10 6.154337e-10 8.8527315e-08 4.763537e-08 1.3893539e-10
1.4729369e-09 3.4201544e-10 2.2144027e-09 5.4611125e-09 1.4374074e-08 1.8671775e-08 1.1273793e-08 2.2806577e-09
4.571723e-09 4.408581e-10 1.075973e-08 4.0685627e-08 1.3658674e-10 1.093384e-09 8.548244e-10 4.1735384e-09
1.3044467e-08 3.4877616e-09 1.2578848e-09 4.3004005e-09 1.123891e-09 1.3375441e-10 1.6471712e-09 6.853202e-09
4.9517933e-08 3.4877184e-10 2.0584707e-08 1.2207662e-08 1.5737117e-10 2.3676403e-10 3.3198602e-09 1.1763392e-09

exp_avg f4 [128]
00000000: b3d1 7db9 1512 39ba 976e 8eba de6e caba
00000010: 8b7f 0aba de76 75ba a45e 50b9 0758 d0b9
00000020: f93f 79ba 1c49 abba 4d67 c8ba 84db 77ba
00000030: 6a22 e2ba d3fc e8ba 089c 37b9 3d2a 87ba
00000040: fa08 87b9 1133 e6b9 620a 86ba c3ae a338
00000050: 8fc7 9eba 21c7 55ba 9474 a8ba 4011 a6b7
00000060: 926b 0aba ec3b dfba 33bb 3a39 31f0 4ab9
00000070: 3f97 0fb9 23ad feb8 89c8 9eb9 b557 bcb9
00000080: f1fd ba38 4403 27ba c45f 71b9 10e2 1bba
00000090: 86d2 62ba d867 76ba bd0d 96ba 3266 0aba
000000a0: e892 7b39 0feb 2eba 10c1 9d39 b09e 8539
000000b0: 0919 2bba c181 21ba 6baf 39ba 6c7c b738
000000c0: fffc 3db9 0d1f d2b9 0527 84ba 2b93 08bb
000000d0: 6563 4bba cf06 6eba b6fd 56ba a46f 47ba
000000e0: 0bbe 57b9 e5b1 18ba d446 5739 7794 c1b9
000000f0: 0be9 8f36 81ed 3bba de8e 78b9 4fae 2bba
00000100: ada5 3dba 9c86 5eba 5a93 c6ba 7d74 49ba
00000110: 7991 49ba 8cd4 25b9 ff3c a9b9 a9e4 4cb9
00000120: 28ff 9cba f5f0 e6b8 e08e 5939 6256 c1b9
00000130: 189b 33ba 2a13 15ba 33bf 1fba 4371 d7b9
00000140: 75dc d9b9 645a f2b9 4011 02ba a796 8bba
00000150: 1439 d3b9 35dc b6b9 293b 6dba 3e08 76ba
00000160: fc35 25ba b4d9 a9b9 228e 97b9 9f16 63b9
00000170: bc5d 043a b711 0dba 0354 66b9 1ff6 4bba
00000180: 7693 4dba a633 92ba 248e 57b9 7d6e 9b39
00000190: 08cc 51ba 243f e6ba 6d04 5db9 9e0c 91b8
000001a0: 4163 82ba 50d0 eeb5 112b 1cba b3f6 06ba
000001b0: b5c3 34b9 74bf 0bba 1293 5eba 5eb0 f638
000001c0: b40c abba a0ea 05b8 f52a ffb9 6ac0 0739
000001d0: fb76 9339 8616 a2b9 25ee 17ba 558c 94b9
000001e0: 6252 94ba 5fed f5b9 9287 0db8 e706 9aba
000001f0: 8949 3fb9 ca0c 08ba 4838 90b8 dcaf 05ba
-0.00024206079 -0.00070598844 -0.0010866699 -0.0015444418 -0.00052832876 -0.0009363721 -0.00019871682 -0.00039738437
-0.0009508129 -0.0013068053 -0.0015289575 -0.00094550126 -0.0017252688 -0.0017775543 -0.00017510366 -0.0010312271
-0.00025755895 -0.00043907066 -0.0010226483 7.8049976e-05 -0.0012113916 -0.00081549777 -0.0012852126 -1.9796775e-05
-0.00052803115 -0.0017031408 0.0001780808 -0.000193537 -0.00013693886 -0.00012143913 -0.0003028552 -0.000359235
8.9164714e-05 -0.0006371031 -0.00023019227 -0.00059464667 -0.0008652586 -0.0009399629 -0.0011448186 -0.00052795105
0.00023991952 -0.00066725997 0.00030089216 0.00025485968 -0.0006526863 -0.00061609974 -0.0007083329 8.7492954e-05
-0.00018118693 -0.00040077456 -0.001008243 -0.0020839672 -0.00077586464 -0.0009079994 -0.0008201258 -0.00076078833
-0.00020574794 -0.0005824848 0.00020530383 -0.00036922444 4.288862e-06 -0.0007168875 -0.00023704345 -0.00065491063
-0.00072344654 -0.0008488686 -0.0015150115 -0.00076848996 -0.00076892186 -0.00015814806 -0.00032279638 -0.00019540139
-0.0011977898 -0.000110121364 0.00020747958 -0.0003687619 -0.0006851419 -0.00056867546 -0.00060938596 -0.00041092382
-0.0004155372 -0.00046225183 -0.0004961677 -0.0010649756 -0.00040287583 -0.00034877812 -0.0009049648 -0.00093853835
-0.0006302295 -0.00032396393 -0.00028906862 -0.00021656834 0.0005049368 -0.0005381363 -0.00021965806 -0.00077805104
-0.0007842103 -0.0011154308 -0.0002055695 0.00029646224 -0.00080031203 -0.0017566425 -0.00021077851 -6.916489e-05
-0.0009947793 -1.7793009e-06 -0.0005957345 -0.00051484554 -0.00017239044 -0.0005330958 -0.0008490543 0.00011763045
-0.001305005 -3.1928183e-05 -0.00048669396 0.00012946283 0.00028126672 -0.0003091583 -0.0005795679 -0.00028333315
-0.0011316056 -0.00046906897 -3.374328e-05 -0.0011751325 -0.00018242573 -0.0005189894 -6.876938e-05 -0.00050997525

exp_avg_sq f4 [128]
00000000: b01b db31 0f19 eb32 873c 9c33 0a36 0334
00000010: c1f1 fa32 22ec 4433 b698 4932 8af8 4532
00000020: 7f78 6e33 ff0e 1934 abb0 f533 d4bd 7033
00000030: 69c9 5334 9031 3134 199e 6d31 24cc 7533
00000040: 53f3 7b32 e858 6b32 fe94 8333 289e 5231
00000050: 6873 9933 8505 0233 e682 eb33 d2e8 de30
00000060: d2a1 6e32 8559 7734 623f 6b32 20aa 6432
00000070: 3228 9f31 7b4e a331 6d55 f032 0ae2 2432
00000080: f23e 5532 ae44 cd32 aac7 3b32 0a31 9c33
00000090: 8c36 5633 c553 2b33 afb8 8633 efc7 a632
000000a0: bc8b 5b32 a40f fd32 eee7 0d32 f611 3632
000000b0: 2037 fa32 9f5a c632 9ddc 1233 44ad 9532
000000c0: 1abf 0932 3924 3632 22d7 8b33 7dd4 7334
000000d0: cec8 1d33 bd8e 9733 95a6 3633 51e7 3a33
000000e0: 3342 4032 ea10 9133 2e9c 3431 721a 8732
000000f0: 56f6 8b31 5a22 e832 96e6 4632 383b f732
00000100: 1404 1133 2e8b 5133 3cd9 e233 155a 4233
00000110: 2a73 1433 805a e430 f64b f332 ef40 4032
00000120: 0946 0334 8ecd 6031 890f 8232 e2c7 8e32
00000130: 3db7 0333 e761 b032 4ab1 fe32 0b76 9c32
00000140: 8552 3f32 87ef 8e32 c8a8 b332 6b67 ba33
00000150: 5f9a 0233 e24d 2532 2d62 5633 0ebc 8233
00000160: 6d71 f932 48d9 a332 b374 d632 1c1b 8733
00000170: 8eb9 9732 ecf6 4a33 6bdb 2332 2a1c 8833
00000180: 19a4 8a33 74e4 c833 ea8b 7632 0bdf bf31
00000190: 3604 1633 4ca5 4534 ffc2 3533 9f75 4b32
000001a0: 06cc 8233 d31e 9530 ad0e ba32 f5c4 0533
000001b0: 3bb3 8c32 3755 ba32 4cfe 4533 ca31 f130
000001c0: d3b6 2334 6e77 5132 2f26 8432 bc44 8332
000001d0: eb7a 3e32 07dd 0332 7ad9 b632 fab8 2d33
000001e0: da02 da33 dfc0 ad32 c7ff fc31 5430 9a33
000001f0: cb44 3732 3ed0 9932 5308 2332 686c ac32
6.3768866e-09 2.7368996e-08 7.275326e-08 1.2219985e-07 2.9213767e-08 4.5849568e-08 1.1734462e-08 1.152342e-08
5.5523284e-08 1.4254691e-07 1.1440837e-07 5.6052002e-08 1.9724179e-07 1.650244e-07 3.4577907e-09 5.7229173e-08
1.4665448e-08 1.3699015e-08 6.1272644e-08 3.0648923e-09 7.14561e-08 3.0273004e-08 1.09668505e-07 1.6218797e-09
1.3890217e-08 2.3036235e-07 1.3693212e-08 1.3310029e-08 4.6320787e-09 4.7528466e-09 2.7978524e-08 9.597452e-09
1.2412544e-08 2.3896373e-08 1.0930231e-08 7.273236e-08 4.9875368e-08 3.9890228e-08 6.273455e-08 1.9415863e-08
1.277925e-08 2.9460189e-08 8.260015e-09 1.0597878e-08 2.9128898e-08 2.3091443e-08 3.419392e-08 1.7424675e-08
8.017901e-09 1.060203e-08 6.511824e-08 2.2708441e-07 3.6737042e-08 7.0574494e-08 4.2526683e-08 4.351688e-08
1.1190923e-08 6.755165e-08 2.6282225e-09 1.5728094e-08 4.0734376e-09 2.7023976e-08 1.1577546e-08 2.8781514e-08
3.3764152e-08 4.8788188e-08 1.056346e-07 4.5251074e-08 3.4563676e-08 1.6614905e-09 2.8323466e-08 1.1190635e-08
1.2225804e-07 3.2713134e-09 1.5141056e-08 1.6621872e-08 3.066747e-08 2.0533617e-08 2.9650113e-08 1.821447e-08
1.1136426e-08 1.66399e-08 2.0915095e-08 8.6801116e-08 3.0408383e-08 9.6219726e-09 4.9915048e-08 6.087804e-08
2.9038995e-08 1.9074506e-08 2.4965948e-08 6.2913585e-08 1.7663094e-08 4.7256364e-08 9.537739e-09 6.3381165e-08
6.455975e-08 9.354781e-08 1.4350897e-08 5.5841887e-09 3.4928426e-08 1.840719e-07 4.2319694e-08 1.1842899e-08
6.0907084e-08 1.0849938e-09 2.1659924e-08 3.1145607e-08 1.637965e-08 2.1692001e-08 4.609892e-08 1.7549209e-09
1.5247069e-07 1.2192556e-08 1.5384186e-08 1.5281664e-08 1.1087404e-08 7.675459e-09 2.1286485e-08 4.0447937e-08
1.0151935e-07 2.0227558e-08 7.363244e-09 7.179975e-08 1.0667644e-08 1.7906242e-08 9.489741e-09 2.0072733e-08
