Assets/ML-Agents/results/color-chooser2/Color Chooser/Color Chooser-39344.pt (torch, 579189 bytes, 33 tensors)

network_body._body_endoder.seq_layers.0.weight f4 [128, 49]
000000 de ab 2d 3d de 5a e9 bd 35 57 04 bd c2 e1 5c 3e
       0.042400233 -0.11394285 -0.03230973 0.21570495
000010 21 ca ff bd 06 b0 67 3e 70 67 60 3e 25 58 3b bd
       -0.12489725 0.22625741 0.21914458 -0.045738358
000020 7c f7 3f 3e b4 9d fc bb 62 3e 76 3d 06 ca 5e 3e
       0.18746752 -0.0077092294 0.060118087 0.21756753
000030 c6 cb 78 3e 15 1c cb 3d 74 85 d0 be 4d e6 ac 3d
       0.24296483 0.099174656 -0.40726817 0.08442364
000040 a7 70 3f 3e e9 63 53 bd 2d 38 ac bc e6 f3 bb bd
       0.18695317 -0.051608954 -0.02102288 -0.09177379
000050 c2 2d 84 bc 3c 40 5e 3d d0 46 a2 3c e3 7c 83 3e
       -0.0161351 0.054260477 0.019809157 0.25681219
000060 e0 e6 b5 3e e9 b3 77 3e a7 04 14 3d 25 dc c8 bd
       0.35527706 0.24189724 0.03613725 -0.09807614
000070 a6 cf 0e 3e 44 1d 8d 3e 5d 09 ba bd fc da a5 3d
       0.13946399 0.2756139 -0.09083817 0.080984086
000080 96 78 10 be d7 07 9d be bd 00 73 3d 6c 15 6e bd
       -0.141085 -0.30670044 0.059326876 -0.0581259
000090 0a 56 a8 bd b4 11 ea 3c c9 53 ed bb 23 7d 41 be
       -0.08219536 0.028572895 -0.007242654 -0.18895392
0000a0 98 14 2c be 6b ca 3b 3e 22 58 89 3c e9 78 45 be
       -0.16804731 0.18338935 0.016765658 -0.19284405
0000b0 86 a9 07 3d 60 2a 2a be 2f 6c 47 be 93 d1 e8 bd
       0.033120655 -0.16617727 -0.19474863 -0.11368098
0000c0 79 1a fc 3d 04 c0 24 be 90 5d ab 3e ef cc cf bd
       0.12309737 -0.16088873 0.3346982 -0.1014651
0000d0 30 a0 28 be 29 ff ae 3e 52 aa 9a bd 5c c9 30 3e
       -0.16467357 0.34179047 -0.07552017 0.17264313
0000e0 26 7c ec bb 97 16 ba 3d 86 49 3b 3c c4 09 20 3d
       -0.007216948 0.0908634 0.011431104 0.039071813
0000f0 08 ea 00 3f 04 d4 ae 3d ed a4 5b 3d 12 a2 a7 bd
       0.50357103 0.085365325 0.053624082 -0.08185209
000100 ad 63 52 3e e3 ef d6 3c de a5 af 3e a5 49 a0 3d
       0.20545836 0.026237434 0.34306234 0.078265466
000110 a7 16 29 bd 3a 5b 08 3e 36 79 a1 bd de 08 90 bd
       -0.04128137 0.1331605 -0.07884447 -0.07032941
000120 33 07 76 3c b3 a6 2d 3e 69 22 fd 3d 27 9c 93 3e
       0.015016365 0.16958122 0.12360079 0.28830072
000130 1b 63 ff bb df 6e c2 3d 2a 1e 0f bf 67 57 24 3d
       -0.0077937967 0.09493803 -0.559054 0.040122416
000140 7a 56 31 bd cc e0 08 bd bd 04 77 3e fc e0 4a 3e
       -0.04329536 -0.033417508 0.24122901 0.19812387
000150 b2 43 01 3c 92 49 73 3e 04 2c 84 3c 8a c1 ad bc
       0.007889675 0.23758534 0.01613427 -0.02121045
000160 2f ae a3 3e 30 cd 5c 3e e4 2c 21 3c 9d ea 7c 3d
       0.3196883 0.21562648 0.009837363 0.061747182
000170 d4 df 40 be 3f c8 55 be c1 3e e8 3d 6b 13 0c be
       -0.18835384 -0.20877169 0.11340094 -0.13679282
000180 bb e5 9c bd 7a 64 84 3e d1 24 24 be 34 4e 5d bd
       -0.07661005 0.25857908 -0.1602967 -0.05402966
000190 79 d4 bf 3d d2 d8 65 3e 1a 7b 87 bd 96 08 d8 3d
       0.09366698 0.22445992 -0.06615277 0.10548513
0001a0 01 f0 1c be a1 4e 92 3c e8 26 af 3e be d3 eb 3e
       -0.15325929 0.017859759 0.3420937 0.46059984
0001b0 f5 26 27 be 23 1e aa 3d 8b 6f 9d bd e4 de 2e be
       -0.16323455 0.083065294 -0.07687291 -0.17077214
0001c0 c4 ca b1 3c d5 38 91 3e ad 6c 28 3e e7 25 af bc
       0.021703131 0.28363672 0.16447707 -0.021380378
0001d0 26 73 91 3e c5 ca a3 be 12 59 61 bd 3f f2 84 bd
       0.28408164 -0.31990638 -0.055016585 -0.06491517
0001e0 88 3d 8f 3d bd 97 82 bd 48 31 96 3a ef ea 4a 3c
       0.06994158 -0.06376598 0.0011458779 0.012385114
0001f0 64 91 02 be 4f cd 8c bc ee 8c 6a 3d 3b 1c 6a 3a
       -0.12750775 -0.017187743 0.057263307 0.0008930598
000200 e8 f2 86 3d ec 26 83 3d 8b c6 20 3e cb 4b 91 bd
       0.065892994 0.06403908 0.15700738 -0.070945345
000210 de e3 bb bc 5b 8a 51 be 92 0a 58 3d d6 af ad 3c
       -0.022935804 -0.20462935 0.052744456 0.02120201
000220 d4 70 04 3e d2 b2 25 be 7d ed ce be 13 ef 97 bd
       0.12933666 -0.16181496 -0.40415564 -0.07418647
000230 2c 67 2b be 6e 83 6a 3b db d6 89 3d 7f 1e 73 be
       -0.16738576 0.0035783905 0.067304336 -0.23742102
000240 b4 ea 58 bd 96 19 ac 3d 7d fc 14 3e 1a 1a 40 be
       -0.052958205 0.08403318 0.14549442 -0.18759957
000250 70 b9 2d bd 2f 5d 5a 3e df e8 73 3e b6 34 18 3d
       -0.042413175 0.21324609 0.23819302 0.037159644
000260 45 ee f2 3d 53 72 8d 3c 63 8e a3 3d e9 d1 4f 3d
       0.118618526 0.017266428 0.079861425 0.050737295
000270 eb 50 12 3e a3 bd 16 be 7f 89 aa 3e b5 be b8 3d
       0.1428868 -0.14720778 0.33308026 0.090207495
000280 d0 63 07 bd d2 24 35 3c 35 ca d6 3d 78 55 5f 3e
       -0.033054173 0.011056142 0.10487787 0.21809947
000290 b1 16 2e 3d 2f bf 40 bd fd ee 8c be 4d 72 eb bc
       0.04250211 -0.047057327 -0.27526084 -0.028741026
0002a0 f6 81 a1 bc aa fa f8 3d 5b 8f 1e 3d e9 f2 e7 be
       -0.01971529 0.121571854 0.038710933 -0.45302513
0002b0 1c 76 68 be bd 47 63 bd 85 e3 82 bd 3f bf 4a bd
       -0.22701305 -0.055488337 -0.06391052 -0.049498793
0002c0 ff 74 82 be cf e7 4e be 32 9e 10 3d 3e 47 90 3d
       -0.25479886 -0.20205615 0.035307117 0.07044838
0002d0 e4 94 69 3d b5 39 a0 bd 5a c0 25 be 4e 65 1b 3d
       0.05702676 -0.07823507 -0.16186658 0.03793841
0002e0 1c a2 8b bd 12 f6 6f 3d 99 31 53 be 23 57 f3 3d
       -0.06818029 0.05858428 -0.20624389 0.118818544
0002f0 b7 00 d3 bc 04 02 1b be 14 19 cc bd 69 98 c0 bc
       -0.025757177 -0.15137488 -0.09965721 -0.023510175
000300 48 2d 68 be ba 7d 0c be ec f1 d7 bd 89 be cf 3d
       -0.22673523 -0.13719836 -0.1054419 0.101437636
000310 79 eb 2a 3d e4 94 01 3e a8 e4 29 3e c5 b6 fe 3d
       0.04172847 0.12654454 0.16591132 0.12437204
000320 a5 61 06 3f ea 7c 28 3d 36 9f 3b 3e 47 be 32 3e
       0.52492744 0.041134752 0.18322453 0.17455398
000330 98 05 f5 bd 31 59 a1 3e 22 4a 96 3d 05 a2 01 3e
       -0.119639575 0.3151336 0.073383585 0.12659462
000340 66 81 2c 3e 48 e8 b6 3e 95 c8 79 bb bd 71 21 3e
       0.16846237 0.35724092 -0.003811394 0.15766044
000350 d8 b8 99 3c 55 a7 66 3e a0 f6 aa bc 2c 32 34 3c
       0.018764898 0.2252477 -0.020869553 0.01099829
000360 ce a4 88 3e c0 fe 2e 3e 28 86 99 3c 99 8f a1 bc
       0.26688236 0.17089367 0.018740728 -0.019721793
000370 a8 be 5e bd 50 96 84 3d 9e 00 07 bc 25 5f 19 be
       -0.054381043 0.06473982 -0.008239893 -0.14977701
000380 bd f9 4c be 68 0b 07 be 51 a2 69 3e 25 dc 83 be
       -0.20017143 -0.13187945 0.22815825 -0.25753894
000390 8c b3 8b bd 53 08 e2 3b b1 fd 65 bc 49 6d b7 3d
       -0.06821355 0.006897965 -0.0140375355 0.08956391
0003a0 5b ae 84 be 0f 7f 96 3d e2 c0 3d be ca dc ca bc
       -0.25914273 0.07348453 -0.1853061 -0.024763484
0003b0 d5 a8 8b be a9 e2 09 3e 21 7c 50 3c 02 e6 7b 3e
       -0.27277246 0.1346537 0.012724907 0.2459946
0003c0 c6 00 e8 bd 0b 09 bf bd 29 f2 2e 3e d0 c2 3f 3e
       -0.113282725 -0.09327897 0.17084564 0.18726659
0003d0 9a 34 e5 bc 58 bf f8 3d 4f 3b 4e bd 38 17 bc 3d
       -0.027979184 0.12145871 -0.05034953 0.09184116
0003e0 bb 5d a4 bd cd 4f ee be 50 3e 99 be 9e db 78 3e
       -0.0802569 -0.46545258 -0.29930353 0.24302527
0003f0 c6 a1 66 3e 7b ee 4e bc 29 ab 12 3d e8 9b 27 3e
       0.22522649 -0.0126301 0.035807762 0.16368067

network_body._body_endoder.seq_layers.0.bias f4 [128]
000000 d3 ef 83 3d 0b 4a ab 3d af f7 9f 3d 6e 6e ee 3c
       0.06442227 0.08363732 0.07810914 0.029105391
000010 41 8f 7b 3d 7c 1c 0d 3d b3 69 a7 3d 13 fe 2d 3d
       0.061415914 0.034450993 0.081744574 0.042478632
000020 47 8c 8a 3d db 18 89 3d 7b 6d 6a 3d 89 87 9b 3d
       0.06765037 0.06694194 0.057233315 0.07594211
000030 a2 50 dc 3d c9 a8 b1 3d 1b c0 92 3d a5 63 e2 3c
       0.10757567 0.08674771 0.071655475 0.027635405
000040 86 00 85 3d 91 90 61 3d 76 7c ec 3c da 6b aa 3d
       0.064942405 0.05506951 0.028867941 0.08321352
000050 40 05 5a 3d 52 1f aa 3d 05 27 89 3d 45 02 12 3d
       0.053227663 0.08306755 0.066968955 0.035646696
000060 f4 ab 8e 3d 10 c8 41 3d 64 d0 4a bc ea 4c bd 3a
       0.06966391 0.047309935 -0.012378786 0.0014442478
000070 f4 9a 4a 3d 67 1a 90 3d b1 80 9c 3d c5 85 b9 3d
       0.04946418 0.07036286 0.076417334 0.09058718
000080 3d cf 9b 3d 96 72 7d 3c 62 ed 6e 3d b1 b1 92 3c
       0.07607887 0.015469214 0.058331855 0.017906995
000090 1d 4b f1 3d cf 33 91 3d f0 16 a1 3d 02 57 a5 3d
       0.11781905 0.0708996 0.07865703 0.08073236
0000a0 67 fd 9b 3d c8 28 4b 3d 81 1d 1b 3d fe 7b b5 3d
       0.07616692 0.04959944 0.037869934 0.0886154
0000b0 1d 4c 6c 3d 2c 84 1f 3d fd 13 29 3d 6e 90 73 3d
       0.057689775 0.03894441 0.041278828 0.05946391
0000c0 a7 07 9a 3d f3 af c2 3c d0 77 49 3d c5 a9 47 bc
       0.07520991 0.02376554 0.049186528 -0.012186472
0000d0 da 06 8e 3d 9d b0 85 3d cc 35 00 3d cc be 86 3d
       0.069349006 0.06527827 0.031301305 0.0657936
0000e0 5d ca 1f 3d 91 40 ae 3d 77 a9 5f 3d dc 1b 68 3d
       0.039011348 0.08508409 0.054604974 0.056667194
0000f0 97 40 6b bb 34 68 07 bd 26 3e 41 3d 41 c0 99 3d
       -0.0035896653 -0.03305836 0.04717841 0.07507373
000100 0b e8 7e 3d 77 c0 9c 3d 92 de 84 3d 92 06 3c 3d
       0.062233012 0.07653897 0.064877644 0.045904703
000110 2d 2d 3b 3d fa 4e 62 3d 95 bc a8 3d c9 aa 42 3d
       0.04569738 0.0552511 0.08239094 0.047526155
000120 97 3d 8a 3d 91 d3 a7 3d 4e 1a a3 3d 83 06 49 3d
       0.067500286 0.0819465 0.079640016 0.049078476
000130 59 b2 5b 3c 35 b2 6a 3d 04 c8 3c 3d 82 94 65 3d
       0.013409221 0.057298858 0.046089187 0.05604983
000140 79 7b 85 3d 0b f3 9d 3d 27 8e 8c 3d 71 f1 4f 3d
       0.06517691 0.077123724 0.06863051 0.050767366
000150 24 28 4e 3d cc 53 53 3b 46 55 5e 3d e4 3d f7 3c
       0.05033125 0.0032245992 0.05428054 0.030180879
000160 42 45 0a 3d 6d 8c 7a 3d 1b 66 80 3d 4a 47 5f 3d
       0.033757456 0.061169077 0.06269475 0.054511346
000170 c4 58 0e 3d 31 08 97 3d fc 35 78 3d c9 9c 3b 3d
       0.034752622 0.07374609 0.06059836 0.04580382
000180 95 8e 93 3c 88 46 8f 3d 8b 56 6b 3d 6e a6 76 3d
       0.018012324 0.06995875 0.05745558 0.060217313
000190 5b c5 ad 3c ab a1 74 3d 6c c4 6e 3d fd ea 99 3d
       0.02121227 0.05972449 0.05829279 0.075155236
0001a0 fb 96 2b 3d 7d 95 f6 3c 16 78 90 3d 9b 6f 71 3d
       0.041892033 0.030100578 0.070541546 0.058944326
0001b0 73 25 11 3d 5b f7 82 3d cf da 58 bd c7 ed 8a 3d
       0.035436105 0.063948356 -0.052943047 0.06783634
0001c0 8b c5 4a 3d 5c 95 76 3d 22 e4 51 3d 10 ab 38 3d
       0.049504798 0.060201034 0.051242955 0.045085013
0001d0 15 5f 31 3b dc 02 b4 3d d7 70 05 3c 50 d5 c4 3d
       0.002706473 0.08789608 0.008144579 0.09610999
0001e0 dd 9d 80 3d 62 ee 54 3d 7a dc 71 3d 5c ac d9 3c
       0.0628011 0.051985152 0.059048153 0.026571445
0001f0 79 8e e1 3c 8e ff 3e 3d f7 6e 63 bc 17 18 0d 3c
       0.027533757 0.046630435 -0.013881437 0.0086117005

network_body._body_endoder.seq_layers.2.weight f4 [128, 128]
000000 76 ae 67 bd 7c b9 00 3d 45 99 b3 bd cb 63 a8 bd
       -0.056562863 0.03142689 -0.08769468 -0.08222159
000010 b0 90 1a 3e ed cc d7 bd 80 a5 88 be 05 fa 4b 3e
       0.15094256 -0.10537133 -0.26688766 0.19919594
000020 f7 08 4d 3e 9b 10 83 bd b3 9c 62 be f9 85 aa 3d
       0.20022951 -0.063996516 -0.22130089 0.083263345
000030 75 af b1 bc 59 90 2e 3e ed 69 0d 3e 84 54 de bc
       -0.02169011 0.17047252 0.13809939 -0.02713991
000040 1b 54 2c 3c 4e e3 13 3b 83 52 48 be a0 c7 2c 3d
       0.010518099 0.0022565904 -0.19562726 0.042182565
000050 a3 b2 c6 3d 15 9d 17 3e 28 24 2f be fd c6 77 3e
       0.09702041 0.14806016 -0.17103636 0.24197002
000060 ac 1d 66 3d af b8 70 3e c9 11 06 3e a2 46 35 bd
       0.05618064 0.23507951 0.13092722 -0.044256814
000070 a7 39 08 3e 21 26 e7 bc 6f 77 1c be 6a 1c 25 3d
       0.13303243 -0.028216423 -0.15279935 0.0403103
000080 95 b3 86 3c de af 97 bd de a2 f4 3c 2f a5 3e bd
       0.016443053 -0.07406591 0.029862817 -0.04654425
000090 37 26 16 3e fe 7e 57 3d d3 23 8e bc 70 39 64 3d
       0.14663015 0.052611344 -0.017351067 0.05571884
0000a0 2b 28 2d 3e 6d 5d 12 3d 92 41 d6 3d 45 4b e3 bc
       0.16909854 0.03573363 0.10461725 -0.027745852
0000b0 76 44 58 3e 5f 94 97 bd 98 87 5b be 79 0c 72 bd
       0.21119866 -0.074013464 -0.21438444 -0.059093926
0000c0 0f 18 50 3c 82 16 0a 3e 93 64 68 3d b9 b4 df bd
       0.0127010485 0.13485149 0.05673654 -0.10923142
0000d0 de f9 20 3b 14 b7 1a bd 0e 0b f1 3d 94 57 63 3e
       0.0024562995 -0.037772253 0.11769687 0.22201377
0000e0 76 05 98 bd ab dd 87 3e d3 5d 35 bd 0a a3 1b be
       -0.074229166 0.26536307 -0.04427893 -0.15198913
0000f0 6d 65 53 bc f8 4f 87 bc b0 b5 82 be 98 13 7f 3e
       -0.0129026 -0.016517624 -0.25529242 0.24909818
000100 c6 88 a1 3d 1b 14 1a 3d 27 e4 9a bd ee 78 d0 3c
       0.078874156 0.03761683 -0.07563048 0.025448289
000110 22 7a 69 be c7 d7 4a 3d ad 49 45 be 8e d8 03 bd
       -0.22800496 0.049522188 -0.19266386 -0.032188945
000120 57 21 81 bd ee 53 87 3c 38 3e 03 3e ae 64 69 bb
       -0.06305187 0.016519513 0.12816703 -0.0035612988
000130 1c 5a e4 bb 50 05 bc 3d 9d c1 b0 bc 75 0e b1 bb
       -0.0069687497 0.09180701 -0.021576697 -0.0054033347
000140 f2 24 55 3e 09 c3 1d be 78 85 03 be b1 e9 bf 3d
       0.20814875 -0.15406431 -0.12843883 0.09370745
000150 2c b2 a7 bb 81 a6 aa 3d 35 2a 2e be bf 6f 6c 3d
       -0.0051176753 0.08332539 -0.17008288 0.057723757
000160 5c 95 85 bd b6 1a 1c 3e 05 2f 7f bd d6 98 1b 3e
       -0.06522629 0.15244564 -0.0623007 0.15195021
000170 2e 46 72 3e df 23 ff bd 16 a2 89 bd 9c 66 10 be
       0.23659584 -0.12458014 -0.067203686 -0.14101642
000180 4f 19 a1 bc fb 65 40 bd a5 31 6b bd 97 83 2f be
       -0.019665388 -0.046972256 -0.05742039 -0.17140041
000190 98 ef da 3d 62 9d 73 3d d1 6a 0c 3e 71 34 78 bd
       0.1069023 0.059476264 0.13712622 -0.060596887
0001a0 f2 14 96 3c c3 e4 95 bd 9e 36 36 3e f9 d4 4e 3d
       0.018320534 -0.073190235 0.17794272 0.050496075
0001b0 1b 27 ea bd e6 0b bb 3d 56 f2 d1 bd 71 db 29 3d
       -0.1143324 0.09133129 -0.102513 0.04146904
0001c0 c0 d4 54 3e 56 dc 9e bd c6 8f 30 3e ee 23 9b 3b
       0.20784283 -0.077568695 0.17242345 0.0047345078
0001d0 ab e6 a2 bd ad 2f d6 3d 50 e4 8e 39 88 ab aa 3d
       -0.07954153 0.10458312 0.00027254457 0.08333498
0001e0 8d 29 54 be 0b df a6 3d e8 92 90 bc f1 77 84 3d
       -0.20718975 0.08148011 -0.017648175 0.064681895
0001f0 e6 6d 62 3c 8d 5d 1c bc d5 24 b5 bd 8f 14 5b be
       0.013820147 -0.009543789 -0.08844916 -0.21394561
000200 6a ef b8 bd 97 60 b1 bd e8 dd c7 bd 09 ee 64 3c
       -0.090300396 -0.08661001 -0.09759122 0.013972768
000210 56 3f 53 3d 46 33 0f be 7e 7d 0f bd 7f 03 1a bd
       0.051574074 -0.13984403 -0.035031788 -0.03760099
000220 db ce 3e bd df b9 fc bb 1e 6e fe 3d 32 86 ac 3e
       -0.04658399 -0.0077125872 0.12423347 0.33696133
000230 57 20 2c be 2a e9 2f be b3 de e0 bd 7e 28 7b bd
       -0.16809212 -0.17178789 -0.109799765 -0.061317913
000240 52 2a 55 be cc 2b 91 3d 71 d9 c9 bc 7a 62 83 3e
       -0.20816925 0.07088432 -0.024639817 0.2566107
000250 9f 70 c9 3d c9 74 16 be 65 ad d5 3c 42 0c 82 3d
       0.09835934 -0.14692988 0.026083658 0.06349994
000260 c5 80 90 3d 1a 8b 2a 3c 3c 0a 13 bd 48 50 4e be
       0.07055811 0.010409141 -0.035898432 -0.20147812
000270 17 04 6d bc c2 f8 08 bd e6 fd 98 3e 06 6c fb 3d
       -0.014466307 -0.03344036 0.2988121 0.12276463
000280 29 4d da 3d ae b1 b1 bd 12 0c 3e 3e 74 2d 0d bb
       0.106592484 -0.08676468 0.18559292 -0.0021541985
000290 7b 36 5b bd 50 1a 97 bd 94 ab 7a 3c f4 2f 22 bd
       -0.053518753 -0.073780656 0.0152996965 -0.039596513
0002a0 03 d0 20 3e b5 31 3d bd 5d a9 89 3e 5f 63 2d 3e
       0.1570435 -0.046189982 0.26887026 0.16932438
0002b0 ee 64 94 3d 76 32 47 3d 00 4c f8 3d 4b 56 56 3d
       0.07245813 0.048632108 0.12123871 0.05232839
0002c0 93 54 9c bd a6 a8 06 3c 16 9a 71 bb c7 a6 f9 bd
       -0.07633319 0.00821892 -0.0036865524 -0.121900134
0002d0 c1 1c a6 bd 49 50 85 3d b7 35 b3 3d 0f 11 8c 3e
       -0.08110953 0.06509454 0.0875048 0.27356765
0002e0 88 bc 04 3e 2b 21 91 3d 7f 34 6e bd 5d 89 45 bd
       0.12962544 0.070864044 -0.058155533 -0.048226703
0002f0 2f 8b dc bd 7c c9 ec bd 8f f2 2a be 19 a8 4b 3e
       -0.10768735 -0.115618676 -0.16694091 0.19888343
000300 b3 7d 06 bd c3 23 72 bc ba fc d6 bc 14 eb 42 be
       -0.03283472 -0.014779034 -0.026243556 -0.19034988
000310 11 96 a1 3d 04 47 3d 3d c8 f1 99 3d 4e 2a 1e 3d
       0.07889951 0.046210304 0.07516819 0.038614564
000320 f6 0d 8b bd 5f 8e cb bd 64 c8 82 bb 5d 95 05 3e
       -0.06789772 -0.099392645 -0.0039911736 0.13045259
000330 60 4e 27 3e 5a 78 1a 3e 63 50 8f bd 0c 2f 46 3d
       0.16338491 0.15084973 -0.069977544 0.04838471
000340 8e 11 dc bc 1f 0d e5 3d 09 e1 11 3e f2 c3 ca 3c
       -0.02686384 0.11184143 0.14246 0.024751637
000350 5e d6 30 3d ef 17 b1 3d 0e 6a 70 3d e3 bf 9d bd
       0.043173186 0.08647143 0.05869489 -0.07702615
000360 99 75 9a ba 90 5f f1 3d 9a c1 cc 3c 7c 58 2e 3d
       -0.0011784314 0.11785805 0.02499466 0.042564854
000370 55 17 03 3d 7a 8d f1 3d 3d 60 29 3d d5 0a 03 3e
       0.032004673 0.11794563 0.041351546 0.12797101
000380 94 f8 3b be 30 ff 4a 3e 7d 6d bd 3d 06 19 d3 bd
       -0.18356544 0.19823909 0.09249399 -0.10307507
000390 73 9c 4e be ad 93 d9 bd 35 82 0e 3e 82 0b a9 bd
       -0.20176868 -0.1062387 0.13916858 -0.08254148
0003a0 7e 47 55 3e d5 1d ae 3c 46 73 b0 3b 38 25 b2 bd
       0.20828053 0.02125446 0.0053848354 -0.08698505
0003b0 19 ac 4e 3d ad bb 17 bc 7c 3a 86 bc ba 48 87 3e
       0.050457094 -0.009261054 -0.01638531 0.26422673
0003c0 53 19 36 be b3 1a 2e 3e 55 3b 60 3e 36 4e b7 3d
       -0.17783098 0.17002372 0.21897633 0.089504644
0003d0 86 64 65 bd d1 45 bd bd 99 36 69 bd 0d 56 74 be
       -0.05600407 -0.09241832 -0.056936834 -0.23860951
0003e0 ec 01 66 3d f1 08 ee bc 1d ee 72 bd 80 19 03 3e
       0.056154177 -0.029056998 -0.059309114 0.12802696
0003f0 b8 fa e6 bd d4 df 9c 37 af 1a 8c bd 23 c5 ca bd
       -0.112782896 1.8700877e-05 -0.06841027 -0.09900882

network_body._body_endoder.seq_layers.2.bias f4 [128]
000000 0e 23 c2 3c a7 29 8b 3c ce a7 57 3d 4d 85 28 3d
       0.023698356 0.016987635 0.052650265 0.04114275
000010 fc 8a 55 3d 1a b2 19 3d eb 1d d4 3c 3f b2 cc 3c
       0.0521345 0.037523367 0.025893172 0.024987338
000020 fb 4f 33 3d a1 63 7f 3d 6e 5e 85 3c ba 53 5c 3d
       0.043777447 0.062350873 0.01628038 0.053790785
000030 27 c8 57 3d 45 79 3f 3d de 01 4a 3d 6b 3f f1 3c
       0.052681115 0.04674651 0.049318187 0.029449185
000040 00 08 19 3d 06 a7 6a 3c ec fb 5c 3d 5e 11 27 3d
       0.037361145 0.014322048 0.05395119 0.040788047
000050 75 aa 23 3d 83 be 14 3d b5 7c 0c 3d ff 3f a0 3c
       0.039957482 0.0363145 0.034298617 0.019561766
000060 8f 87 27 3d a1 bf 68 3d c3 6a b1 3c 34 b5 d8 3c
       0.040900763 0.056823377 0.021657353 0.026453592
000070 b0 01 4e 3d 1d 51 0b 3d 72 33 fd 3c b6 09 47 3d
       0.050294578 0.034012903 0.03090832 0.048593245
000080 a3 24 eb 3c d9 d5 60 3d 02 cc 1e 3d ea 78 da 3c
       0.028703993 0.05489144 0.038768776 0.026668984
000090 4b bc ec 3c 0f 8f 74 3c f0 75 0a 3d bd b2 0f 3c
       0.028898379 0.014926686 0.03380388 0.008770642
0000a0 8c d3 2a 3d e1 57 7a 3c 8b b1 38 3d b2 23 17 3d
       0.041705653 0.015279741 0.045091193 0.036899276
0000b0 1b 2b be 3c 0e b2 24 3d 5e f6 5b 3d a3 7d 21 3d
       0.023213914 0.04020887 0.05370175 0.039426457
0000c0 8e 10 ae 3c 1c a3 78 3c ee 69 1a 3d 4e 65 f4 3c
       0.021248128 0.015175607 0.03769868 0.029833462
0000d0 21 55 23 3d 61 ae 34 3d bb 2a 43 3d 48 5e 2b 3d
       0.039876107 0.044111613 0.047648173 0.04183796
0000e0 f9 2e 00 3d e2 d1 33 3d 32 55 2e 3d 84 08 42 3c
       0.031294797 0.04390133 0.042561717 0.011842851
0000f0 66 a4 56 3d fb 15 48 3d f9 c7 b2 3c 5e 26 99 3c
       0.052402876 0.048849087 0.02182387 0.018695053
000100 1b ff 76 3d 79 6b b3 3c e9 93 8a 3c c0 3e ca 3c
       0.06030188 0.021901833 0.016916232 0.024688125
000110 cc 65 ce 3c 3b fe 72 3d 3e 60 1a 3d a6 70 26 3d
       0.025195025 0.059324484 0.03768944 0.040634774
000120 38 db 4e 3d ba a3 db 3c 61 11 13 3d fa 37 08 3d
       0.050502032 0.02681147 0.035905246 0.03325651
000130 d2 30 d7 3c 3f 62 ca 3c 98 90 98 3c fa e5 1a 3d
       0.026268397 0.02470505 0.018623635 0.03781698
000140 ab 89 80 3c 82 0a 9c 3d 69 22 5f 3d da 22 59 3d
       0.015690645 0.07619192 0.054476175 0.053011753
000150 01 0b 32 3d 5d 26 28 3d c9 7b 09 3d e8 1f 1e 3d
       0.043467525 0.04105221 0.033565316 0.038604647
000160 9a c6 1b 3d e0 f8 eb 3c 55 c6 38 3d f5 be 60 3d
       0.038031198 0.028805196 0.04511102 0.05486961
000170 1f 3b 3c 3d d6 dc 53 3d d6 ea 2e 3d bd 46 8a 3d
       0.04595482 0.051724277 0.042704426 0.067517735
000180 4c 8f 2d 3d 65 f5 a9 3c 4c a9 20 3d 15 51 e4 3c
       0.042372987 0.020746896 0.039223954 0.027870694
000190 8c 8b c2 3c bc 6e 28 3d 11 de dc 3c bf 65 36 3d
       0.023748182 0.04112123 0.026961358 0.044530626
0001a0 ad 33 11 3d 6e f3 49 3d 31 00 22 3d b4 96 06 3d
       0.035449672 0.04930442 0.039550964 0.032858565
0001b0 3d a2 dd 3c 9c ca 18 3d ab 07 3a 3d bd 83 55 3d
       0.0270549 0.0373026 0.04541747 0.05212759
0001c0 0b 69 93 3c 02 8c 1d 3d ce 39 2c 3d 7b 6f 19 3d
       0.017994424 0.0384636 0.042047314 0.03745983
0001d0 34 b0 05 3d 52 70 cf 3c 7f c5 fe 3c 8d 07 00 3d
       0.032638744 0.025322113 0.031100033 0.0312572
0001e0 b3 b4 47 3d b8 ec 33 3d 2b 43 df 3c b1 97 54 3d
       0.048756313 0.043926924 0.027253708 0.051902477
0001f0 93 ec 2e 3d c6 f2 b2 3c c0 51 56 3d 80 58 38 3d
       0.042706084 0.021844279 0.052324057 0.045006275

action_model._discrete_distribution.branches.0.weight f4 [6, 128]
000000 47 8d 8b 3d 41 5f 8d ba dc 53 4b 3b 1e f3 ee 3d
       0.06814056 -0.0010785834 0.0031025326 0.11667465
000010 30 ae de bc 34 18 c9 3c a5 22 e3 bd c4 42 b2 3c
       -0.027182668 0.024547674 -0.11090592 0.021760352
000020 36 77 35 3d 7f 89 bd bd 4c 4d 4a 3d 72 b5 02 3e
       0.04430314 -0.09254741 0.049390122 0.12764528
000030 89 d0 70 bd c0 d5 8a bd 92 59 10 3e a5 e9 94 3c
       -0.058792625 -0.06779051 0.14096668 0.018177817
000040 0e dd 93 bd 9f 0c 99 bd df f6 02 3d 1a db 0e 3d
       -0.07219897 -0.074731104 0.031973716 0.03487692
000050 1b ca 46 3d 85 e4 80 3d 47 d0 23 be 3f 64 4b bd
       0.048532587 0.06293587 -0.1599742 -0.04965615
000060 ec e7 b9 bd c1 d1 c0 bd a7 96 76 bd d5 2e 3a bd
       -0.09077439 -0.094150074 -0.060202267 -0.04545482
000070 79 68 9e 3d 95 4e 89 3c 7a ab b1 3d a0 50 85 bc
       0.0773477 0.016761104 0.08675285 -0.016273797
000080 f1 e0 bc bd 1c 1e 7f bc 14 ba 01 be dd d5 00 be
       -0.09222592 -0.0155711435 -0.1266864 -0.12581582
000090 a1 19 e7 bd 4b cc 34 3d d2 45 a1 3d d3 49 6d 3d
       -0.11284185 0.04414014 0.07874645 0.057931732
0000a0 ba 25 80 3c 02 d0 8a 39 a3 0f 03 3c ef e9 1b 3d
       0.01564299 0.0002647639 0.007999334 0.038064893
0000b0 13 16 f9 3d 1a 61 8a 3d 91 0a d7 bc 77 5e 5b bd
       0.121624134 0.06756802 -0.026250156 -0.053556886
0000c0 c0 36 07 bd af 0e 04 3d b9 da 98 bd c0 cf 84 bd
       -0.033011198 0.032240566 -0.07463593 -0.06484938
0000d0 7f 7a 40 3d fb f6 63 3c a5 62 95 3c 85 a1 65 3c
       0.04699182 0.013913865 0.018235514 0.01401556
0000e0 bd 2e 0e bd 02 f9 4f 3d 98 9a f1 bc 46 d0 2e 3d
       -0.03471254 0.05077458 -0.029492661 0.042679094
0000f0 a9 55 7b 3d 37 fe c0 3d a6 be bb bd 28 66 26 bc
       0.06136099 0.09423488 -0.09167223 -0.010156192
000100 64 21 28 3e 12 f8 e9 bc 78 24 a6 bd 65 7a c6 3c
       0.16418988 -0.028560672 -0.081124246 0.024228284
000110 de 83 cf bd 60 4b 88 3d b3 7f ac bd a0 67 d5 3d
       -0.101325735 0.06655002 -0.08422794 0.104201555
000120 6b be 0a be 17 2b 46 3d 6f 7b 5a bd 90 8f f8 3d
       -0.13549201 0.048380937 -0.05334037 0.121367574
000130 9f 68 69 3d b2 06 1d 3d 5d 74 ae bd d5 a9 64 bd
       0.05698454 0.038336463 -0.08518288 -0.055826027
000140 91 ac 57 bd 29 9e 39 3d c7 60 c9 bd f7 eb df 3d
       -0.052654807 0.04531685 -0.09832912 0.109336786
000150 46 25 3b 3d b1 50 87 bc 3b c0 d8 bd 03 9b b9 bd
       0.045689844 -0.016517969 -0.1058354 -0.09062769
000160 c0 1f 3f bd b7 ef 4e bc cc 29 14 be 39 19 e6 bd
       -0.04666114 -0.012630395 -0.14469069 -0.112352796
000170 59 81 16 be d7 7c ed bd 94 f2 46 bc 62 43 c1 3d
       -0.1469778 -0.11596077 -0.012142796 0.094366804
000180 0d 38 b7 3d bc 1c f0 bd 0e 0b aa bd 33 c1 2d be
       0.08946238 -0.11724231 -0.0830289 -0.16968231
000190 4f 70 db bd ad c8 3b bd 21 61 e6 bd 3e f6 1b 3d
       -0.107147805 -0.045845676 -0.112489946 0.03807663
0001a0 19 14 77 3d d3 a2 bb bd c4 1a 00 3e 3e 50 c1 bd
       0.0603219 -0.09161916 0.1251021 -0.09439133
0001b0 0e 49 6b bb 47 b9 fe bc 35 08 bc bc af b5 1c 3e
       -0.0035901698 -0.031094206 -0.022953132 0.15303682
0001c0 2a 04 7c 3d a9 3c ac 3d cd ae 8e 3d 55 69 ad bd
       0.06152741 0.084100075 0.06966934 -0.08467356
0001d0 df cb 75 3d 96 7b ac 3c 18 c6 01 3e 86 17 1a bc
       0.06000888 0.021055024 0.12673223 -0.0094050225
0001e0 b9 c9 85 3d 7b 4f 2d 3d e7 d2 05 be 1a 47 d4 3d
       0.06532616 0.042312127 -0.13068734 0.10365124
0001f0 b4 c6 e8 3d 6c 0e 3e 3d 0f 06 78 3c 19 8e 0f 3e
       0.113660246 0.046400473 0.015138163 0.1401905
000200 cd 75 e5 bd 24 74 00 be e8 66 2b bd ec 5a 0a be
       -0.11204109 -0.12544304 -0.041846186 -0.13511246
000210 f6 25 8d bb 80 56 ea 3b 91 b6 14 be a6 3f 6c bd
       -0.004307504 0.007151425 -0.14522769 -0.057677887
000220 da 49 9e 3d ef 39 1b 3d c9 0c a8 bd 9a 69 ae 3d
       0.0772893 0.037897047 -0.082055636 0.08516236
000230 15 86 db bd 37 9e 52 3b 33 90 29 be 13 83 f9 bd
       -0.107189335 0.003213776 -0.16558914 -0.121832035
000240 09 7b 12 3e bf 96 c4 3c e2 aa f8 3d db ae 85 3c
       0.14304747 0.023997663 0.12141968 0.01631873
000250 17 6a b8 bc e3 70 16 be 30 6b c1 bd 4f e7 3e 3c
       -0.022511525 -0.146915 -0.094442725 0.011651828
000260 df a2 9f 3d 4e 5d 16 be eb ea e7 3d 6d 6e e2 bd
       0.07794737 -0.1468403 0.11324104 -0.11056218
000270 4e c3 1d bd 24 91 8d 3b f5 a4 df 3c 2e a0 a0 bd
       -0.038516335 0.0043202806 0.027300337 -0.07843052
000280 04 74 48 3d 80 ad 8c 3d c8 e9 86 bd 69 14 60 3c
       0.048938766 0.0686903 -0.06587559 0.013676741
000290 b2 6b bc bd ca 5b 0e be bc b4 81 bc bf 96 2c bd
       -0.09200229 -0.13902202 -0.015833251 -0.04213595
0002a0 17 06 74 bd 2c dc bd 3c 65 02 79 3d cb ac 3a bd
       -0.05957612 0.023176275 0.0607933 -0.045574944
0002b0 50 bc 99 bc 13 6c 1b 3c 2a ac f1 bc 51 91 11 3e
       -0.018766552 0.009486216 -0.02950104 0.1421559
0002c0 60 3d cc bc 0a 27 d6 3c e2 d1 f7 3d 8e c3 ca 3a
       -0.02493161 0.026141662 0.12100579 0.0015469657
0002d0 c9 bc 05 3e 02 1f 0c be 0e 3f c2 bd a7 fc 2b 3d
       0.13060297 -0.13683704 -0.09484683 0.041988995
0002e0 72 4a da bd fb 85 02 3e ff 38 0d 3e 8b 78 44 3d
       -0.106587306 0.12746422 0.13791274 0.04796652
0002f0 7b d2 f7 bd 09 c8 09 bc b4 c2 43 bc 9a df 05 bd
       -0.12100693 -0.0084095085 -0.011948276 -0.032683946
000300 b5 c6 e0 bd bb 09 a7 bd de 3a c4 3b 13 27 c3 bd
       -0.109754 -0.08156153 0.005988463 -0.09528937
000310 e4 6b 94 3d 1c ac 88 bd 35 eb 6f 3c 48 11 7a bd
       0.07247141 -0.06673452 0.01464348 -0.061051637
000320 54 e9 bc 3c 7c 88 af bd 03 43 56 3c 68 0f e6 3c
       0.023060478 -0.08570954 0.0130775 0.028083518
000330 d2 69 c2 bd 60 e0 4f bc 3e f8 88 bd 61 a4 a9 3d
       -0.0949284 -0.0126877725 -0.066879734 0.08283306
000340 a5 8c 03 be 5f 00 8e bc 31 24 f6 bc 43 64 f2 3d
       -0.1284662 -0.017334161 -0.030046554 0.1183553
000350 8f 6f 1e be 0f 80 b2 3d 18 a6 c2 3d 6f df 32 3d
       -0.15472244 0.087158315 0.09504336 0.043670114
000360 d9 2c ea 3d a5 76 75 bd 9d 6d cd bd ff 4e 6f 3c
       0.11434335 -0.0599276 -0.10030673 0.0146062365
000370 2e 80 6d bd 09 ab e1 3d ab cc b9 3c 8f 6e 0a 3d
       -0.05798357 0.110189505 0.022680601 0.033796843
000380 22 4e 24 bd 23 d6 15 bd d8 53 ec 3b 30 dd 46 3b
       -0.040113576 -0.03658117 0.0072121434 0.003034424
000390 a1 f8 f1 3c 7a 81 8b bd d4 d5 4f 3c 66 83 14 3e
       0.0295375 -0.06811805 0.012685258 0.1450325
0003a0 f7 2d 24 be 53 d2 13 3e 27 e0 1b be e3 4a ce bc
       -0.16033159 0.14435701 -0.15222226 -0.025182193
0003b0 2c db e2 3d 74 6d 6c bd b8 9d ba 3b df c0 6a bd
       0.1107696 -0.05772157 0.005695071 -0.057312842
0003c0 04 b2 8a bc 93 e4 1f 3b 44 ff 10 3e db 30 c4 3d
       -0.016930588 0.0024397715 0.14159876 0.09579631
0003d0 fb 40 0c bb 97 95 a8 bc f5 29 19 bd 49 c7 d1 3d
       -0.0021401036 -0.020579142 -0.03739353 0.10243089
0003e0 13 c0 2a 3d ae af ba 3d 91 84 38 3d 36 3c 93 3d
       0.041687082 0.091155395 0.0450483 0.07189219
0003f0 5a bc c9 bb 70 ed e3 3c bd f8 05 3e ba 1e 5e bd
       -0.0061564865 0.02782318 0.13083167 -0.054228522

action_model._discrete_distribution.branches.0.bias f4 [6]
000000 66 83 2c 3b 8f cf f6 3b b5 38 70 bc e2 ec 24 3c
       0.0026323437 0.007532067 -0.0146619575 0.010066243
000010 ba 79 83 3b 64 da 2a bc
       0.0040123137 -0.010428045

exp_avg f4 [128, 49]
000000 d1 fe cf ba 99 90 48 bb 67 f7 d6 b9 ab 5a e8 ba
       -0.0015868788 -0.0030603765 -0.0004100159 -0.0017727216
000010 a3 9d 80 ba 00 00 00 00 17 4a 64 3a a7 5f 47 ba
       -0.0009812604 0.0 0.000870855 -0.0007605501
000020 af f2 ee b9 de 51 b0 ba e1 a9 8a b9 13 b1 0d b7
       -0.0004557571 -0.0013452133 -0.0002644798 -8.445483e-06
000030 a8 84 99 ba 65 b0 2b bb bf e8 8f b9 e1 a9 0a ba
       -0.0011712508 -0.0026197669 -0.00027448495 -0.0005289596
000040 be 0e cb ba 40 6a 97 b9 93 34 04 bb 02 f9 13 b8
       -0.0015492064 -0.00028880127 -0.0020172938 -3.5279438e-05
000050 d1 fe 4f ba 6c 1d bb ba ae c6 f4 b9 33 52 79 b9
       -0.0007934394 -0.0014275736 -0.00046687335 -0.00023777112
000060 df e0 e5 ba e1 a9 8a ba d2 b4 bb b9 b5 f2 88 ba
       -0.001753833 -0.0010579192 -0.0003580214 -0.0010448309
000070 62 8c ad 39 34 02 e4 ba 59 54 ad ba 00 00 00 00
       0.00033101725 -0.0017395676 -0.001322399 0.0
000080 00 00 00 00 00 00 00 00 00 00 00 00 25 ff 1b 3b
       0.0 0.0 0.0 0.00238032
000090 00 00 00 00 00 00 00 00 00 00 00 00 00 00 00 00
       0.0 0.0 0.0 0.0
0000a0 25 ff 1b 3b 00 00 00 00 00 00 00 00 00 00 00 00
       0.00238032 0.0 0.0 0.0
0000b0 00 00 00 00 25 ff 1b 3b a5 a3 d1 b9 66 45 13 bb
       0.0 0.00238032 -0.0003998551 -0.0022471785
0000c0 a5 10 d6 ba ba fc 35 bb da 8f 64 b9 48 7e c3 ba
       -0.0016331865 -0.0027769045 -0.00021797363 -0.0014914954
0000d0 9d f8 de ba 26 d2 d2 bb 00 00 00 00 3e 52 43 bb
       -0.0017011348 -0.006433743 0.0 -0.0029803659
0000e0 78 7f b2 ba b5 89 61 bb e8 44 af ba 4e a6 f2 b9
       -0.0013618311 -0.0034414355 -0.0013371976 -0.00046281744
0000f0 89 46 3b 3a 80 07 90 ba 41 6b ad bb 5e 0a e8 ba
       0.00071439944 -0.0010988563 -0.0052923267 -0.0017703285
000100 4e a6 72 ba da e0 a6 3a 72 66 a7 bb 8c ea 60 ba
       -0.0009256349 0.0012731806 -0.005108648 -0.0008579872
000110 d3 9f 6f ba ba fc b5 ba d8 1a 94 bb 89 75 3d ba
       -0.0009140942 -0.0013884522 -0.0045198016 -0.0007227292
000120 f9 ab 92 ba 8f 45 82 ba 4e a6 f2 ba 10 7a 81 bb
       -0.0011190168 -0.0009938943 -0.0018512697 -0.0039513186
000130 a4 1f 26 3b 46 0d 13 3a 41 be 01 b7 f0 a7 17 bb
       0.002534845 0.0005609583 -7.733296e-06 -0.002314087
000140 00 00 00 00 00 00 00 00 00 00 00 00 00 00 00 00
       0.0 0.0 0.0 0.0
000150 8e 7d 88 3b 00 00 00 00 00 00 00 00 00 00 00 00
       0.004165358 0.0 0.0 0.0
000160 00 00 00 00 8e 7d 88 3b 00 00 00 00 00 00 00 00
       0.0 0.004165358 0.0 0.0
000170 00 00 00 00 00 00 00 00 8e 7d 88 3b 80 ad d2 ba
       0.0 0.0 0.004165358 -0.0016073436
000180 e6 2b 4a b9 82 1f 34 bb f6 55 ca 3a 6c 66 0d 3b
       -0.00019280575 -0.00274846 0.0015436995 0.002157594
000190 7d 35 55 39 7f 37 e7 b9 e9 3e 81 3a 00 00 00 00
       0.00020333189 -0.000441011 0.0009860668 0.0
0001a0 80 81 16 b8 f1 53 92 39 2d 41 50 39 34 c2 9e 39
       -3.5883393e-05 0.0002790983 0.00019860706 0.000302808
0001b0 f5 e3 86 39 32 1f d2 38 e0 f4 27 ba 3d 0a 53 3b
       0.00025728313 0.00010019391 -0.00064070337 0.0032202147
0001c0 25 81 d2 39 f5 e3 06 3a 73 67 e6 3a ec f4 b0 39
       0.00040150541 0.00051456626 0.0017578438 0.00033751817
0001d0 bf 6b 3d 3b 42 6e b5 b8 f6 55 4a 3a a8 25 9e 3a
       0.0028903333 -8.65129e-05 0.00077184977 0.0012065666
0001e0 c7 06 b0 3a 5c fb aa 3a 7d d7 bd 3a f5 e3 86 3a
       0.0013429754 0.0013044882 0.0014483776 0.0010291325
0001f0 58 6b 4d 39 f6 52 24 3b 16 41 19 ba 21 b6 24 3b
       0.00019590312 0.0025073863 -0.00058461854 0.0025132971
000200 f5 9c a8 3a 00 00 00 00 00 00 00 00 00 00 00 00
       0.001286416 0.0 0.0 0.0
000210 00 00 00 00 79 c0 17 bb 00 00 00 00 00 00 00 00
       0.0 -0.0023155494 0.0 0.0
000220 00 00 00 00 00 00 00 00 79 c0 17 bb 00 00 00 00
       0.0 0.0 -0.0023155494 0.0
000230 00 00 00 00 00 00 00 00 00 00 00 00 79 c0 17 bb
       0.0 0.0 0.0 -0.0023155494
000240 6e 47 e6 38 80 0d 4b 3b e3 ad 76 3a b9 31 79 b7
       0.000109805595 0.0030983388 0.00094100664 -1.48531335e-05
000250 23 98 19 3a 43 ed 86 b9 5b df dc b7 42 68 00 ba
       0.0005859157 -0.00025735245 -2.6330052e-05 -0.0004898348
000260 00 00 00 00 de e1 c7 b9 0e 82 17 38 e6 89 6b b5
       0.0 -0.00038124522 3.612233e-05 -8.774499e-07
000270 c4 ad 14 b9 56 21 26 b6 34 8f d1 38 21 2e 59 b9
       -0.00014179113 -2.4755332e-06 9.99257e-05 -0.00020711917
000280 96 98 6c 39 b5 d4 8e b9 56 21 a6 b6 56 23 c9 39
       0.00022563557 -0.0002724283 -4.9510663e-06 0.00038364035
000290 38 a0 f7 b9 24 b9 b9 39 f7 6d f3 b8 b9 31 f9 b6
       -0.00047230884 0.0003542389 -0.000116076255 -7.4265668e-06
0002a0 05 b7 f4 b9 d6 1c e4 38 4b 40 33 b9 a6 e4 ce 39
       -0.00046675667 0.00010877258 -0.00017094721 0.00039461738
0002b0 56 21 26 b7 43 45 8f b9 90 6c 45 3a 8e 5d e9 b9
       -9.902133e-06 -0.0002732669 0.00075311307 -0.00044510927
0002c0 ca ac 05 3a 42 aa 4f b7 00 00 00 00 00 00 00 00
       0.0005099295 -1.2377803e-05 0.0 0.0
0002d0 00 00 00 00 00 00 00 00 96 e5 ba 37 00 00 00 00
       0.0 0.0 2.2279837e-05 0.0
0002e0 00 00 00 00 00 00 00 00 00 00 00 00 96 e5 ba 37
       0.0 0.0 0.0 2.2279837e-05
0002f0 00 00 00 00 00 00 00 00 00 00 00 00 00 00 00 00
       0.0 0.0 0.0 0.0
000300 96 e5 ba 37 65 2c 7d b9 12 9d 23 3a 6d d1 51 38
       2.2279837e-05 -0.00024144498 0.0006241362 5.0024526e-05
000310 ae b4 1c bb 78 c2 d2 38 ff 29 1f bb af fd f6 ba
       -0.0023911404 0.00010049803 -0.0024286506 -0.0018843914
000320 ec 9f d2 bb 00 00 00 00 86 a8 f6 ba e3 d8 ce ba
       -0.0064277556 0.0 -0.0018818534 -0.001578119
000330 85 f4 01 bb 6b 0a c1 ba f2 f0 d0 b9 f3 b2 54 3a
       -0.0019829583 -0.0014727836 -0.0003985237 0.0008113824
000340 28 b9 c7 ba 66 a0 91 bb 69 83 e2 ba f2 f0 50 ba
       -0.0015237676 -0.00444417 -0.0017281595 -0.0007970474
000350 66 15 d0 3a 2c a9 8a bb eb c0 bb ba 39 52 ef b9
       0.0015875518 -0.0042315926 -0.0014324462 -0.00045646893
000360 ae b4 9c ba 90 b1 bf bb 26 02 b5 39 4a db 37 ba
       -0.0011955702 -0.0058500245 0.0003452461 -0.00070135726
000370 93 e0 d0 b7 f2 f0 d0 ba e8 73 4b bb 25 16 50 3b
       -2.4900108e-05 -0.0015940948 -0.0031044427 0.003175148
000380 8c 62 7c 39 92 43 3c 3a 98 96 02 bb 00 00 00 00
       0.00024069304 0.00071816996 -0.0019926187 0.0
000390 00 00 00 00 00 00 00 00 00 00 00 00 0f 0f 6b 3b
       0.0 0.0 0.0 0.003586713
0003a0 00 00 00 00 00 00 00 00 00 00 00 00 00 00 00 00
       0.0 0.0 0.0 0.0
0003b0 0f 0f 6b 3b 00 00 00 00 00 00 00 00 00 00 00 00
       0.003586713 0.0 0.0 0.0
0003c0 00 00 00 00 0f 0f 6b 3b 74 c8 0e bb f3 22 06 ba
       0.0 0.003586713 -0.002178696 -0.0005116902
0003d0 eb 40 53 bb 20 f2 14 3b 4e 1b 99 3a 95 7c fd 3a
       -0.003223474 0.0022727326 0.0011681111 0.0019339497
0003e0 c2 b7 2a 3a 1e b4 7a 3b 00 00 00 00 2e ba 0b 3a
       0.00065123674 0.003825433 0.0 0.0005330172
0003f0 e1 2c 1e 3a cb a4 20 38 f4 d1 d6 3a 2d 98 c6 39
       0.0006033909 3.8300448e-05 0.0016389475 0.00037878883

exp_avg_sq f4 [128, 49]
000000 b3 ed 76 39 fc 78 0f 39 ad e4 13 39 e8 a7 16 39
       0.00023548938 0.00013682613 0.00014104201 0.00014367665
000010 5e c6 19 39 00 00 00 00 84 d2 15 39 9e de fc 38
       0.00014665115 0.0 0.0001428817 0.00012057762
000020 11 76 1a 39 ea d5 f9 38 fa 7d db 36 fd ea 25 39
       0.00014730568 0.0001191309 6.541374e-06 0.00015823166
000030 1c 8e 9f 38 86 f1 70 39 5d 9f 2b 39 fa 7d db 37
       7.608181e-05 0.00022978158 0.00016367198 2.6165497e-05
000040 ac 5e 29 39 b5 48 ea 38 cd fa 80 39 75 2c ce 38
       0.00016152364 0.00011171532 0.00024600924 9.831126e-05
000050 b3 ed 76 38 7c 57 1b 39 ce f6 fb 38 00 0f 3d 39
       5.8872345e-05 0.00014814542 0.000120145836 0.00018030033
000060 84 a2 30 39 fa 7d db 38 02 28 32 39 38 d8 ca 38
       0.0001684521 0.00010466199 0.00016990307 9.6723845e-05
000070 33 f4 41 39 d4 5d 57 39 63 7a 2b 39 00 00 00 00
       0.00018496886 0.00020538952 0.00016353423 0.0
000080 00 00 00 00 00 00 00 00 00 00 00 00 b7 e5 0a 3a
       0.0 0.0 0.0 0.00052985124
000090 00 00 00 00 00 00 00 00 00 00 00 00 00 00 00 00
       0.0 0.0 0.0 0.0
0000a0 b7 e5 0a 3a 00 00 00 00 00 00 00 00 00 00 00 00
       0.00052985124 0.0 0.0 0.0
0000b0 00 00 00 00 b7 e5 0a 3a 6d 0f ce 38 ba 39 2b 39
       0.0 0.00052985124 9.825719e-05 0.00016329336
0000c0 d2 ee 39 39 62 c7 9e 39 1e 62 7f 39 76 9a e0 38
       0.00017731942 0.0003028466 0.00024355247 0.00010709923
0000d0 bc 12 2b 39 a9 55 99 39 00 00 00 00 a0 7e 99 39
       0.0001631481 0.00029246256 0.0 0.00029276777
0000e0 3f 94 08 39 7f fc aa 39 a5 69 3a 39 fd 22 0d 37
       0.00013025197 0.0003261305 0.00017777698 8.412401e-06
0000f0 a2 e5 86 39 fa 4e 9c 38 b2 28 a8 39 cf 1a e4 38
       0.00025729561 7.45337e-05 0.00032073777 0.00010876881
000100 fd 22 0d 38 ab 32 fc 38 17 b6 4a 39 46 73 92 39
       3.3649605e-05 0.00012025734 0.00019332055 0.00027933175
000110 7d c8 0d 39 62 c7 9e 38 b2 98 0c 39 d1 b2 5a 39
       0.00013521496 7.571165e-05 0.00013408324 0.00020856714
000120 7a 26 88 39 72 18 54 39 fd 22 0d 39 b7 37 7b 39
       0.0002596861 0.00020227002 0.00013459842 0.00023957981
000130 51 ce 46 39 84 8f 41 39 d3 f2 87 39 ae 86 5c 39
       0.0001895961 0.00018459378 0.00025930125 0.00021031007
000140 00 00 00 00 00 00 00 00 00 00 00 00 00 00 00 00
       0.0 0.0 0.0 0.0
000150 53 a0 32 3a 00 00 00 00 00 00 00 00 00 00 00 00
       0.00068140513 0.0 0.0 0.0
000160 00 00 00 00 53 a0 32 3a 00 00 00 00 00 00 00 00
       0.0 0.00068140513 0.0 0.0
000170 00 00 00 00 00 00 00 00 53 a0 32 3a d6 bf b5 38
       0.0 0.0 0.00068140513 8.666485e-05
000180 fe b0 77 39 cf 18 59 39 db a5 9e 39 d1 38 8d 39
       0.0002362169 0.00020703975 0.0003025968 0.00026935947
000190 1b e6 25 39 87 a7 86 39 79 8f 50 39 00 00 00 00
       0.00015821347 0.0002568329 0.00019889874 0.0
0001a0 57 17 ba 38 05 1f 8a 39 c8 ee 6a 39 e3 2c de 39
       8.8735185e-05 0.00026344522 0.00022404932 0.00042376583
0001b0 31 05 0d 37 93 26 7a 39 90 96 28 39 65 a4 6a 39
       8.405464e-06 0.00023856228 0.00016077817 0.00022377221
0001c0 26 3f f0 38 31 05 0d 38 a6 f2 91 39 49 68 c7 38
       0.00011455854 3.3621855e-05 0.00027837342 9.508484e-05
0001d0 5f 79 b2 39 80 71 37 39 db a5 9e 38 a5 1e 58 39
       0.00034041234 0.00017494522 7.56492e-05 0.00020610781
0001e0 ed 73 e4 38 a3 90 88 39 a2 46 e1 38 31 05 0d 39
       0.0001089348 0.00026047704 0.000107419924 0.00013448742
0001f0 4a e2 51 39 04 0d 29 39 11 b8 89 39 5e 96 47 39
       0.00020016092 0.00016121945 0.00026267816 0.00019034135
000200 25 58 5c 39 00 00 00 00 00 00 00 00 00 00 00 00
       0.00021013671 0.0 0.0 0.0
000210 00 00 00 00 99 7a 32 3a 00 00 00 00 00 00 00 00
       0.0 0.00068084296 0.0 0.0
000220 00 00 00 00 00 00 00 00 99 7a 32 3a 00 00 00 00
       0.0 0.0 0.00068084296 0.0
000230 00 00 00 00 00 00 00 00 00 00 00 00 99 7a 32 3a
       0.0 0.0 0.0 0.00068084296
000240 9b 49 c0 38 1f fe 97 39 0a 60 79 39 bd 5d 2b 38
       9.1689835e-05 0.000289903 0.00023782268 4.0856878e-05
000250 a4 99 df 37 d9 f9 ed 37 b2 80 06 38 db 9e d1 37
       2.6655216e-05 2.8368946e-05 3.2067946e-05 2.4988714e-05
000260 00 00 00 00 fc 2f 97 37 ce 31 c7 37 28 d9 ed 37
       0.0 1.8022947e-05 2.374584e-05 2.8353723e-05
000270 9c 9c 32 38 52 53 98 35 3c 58 0c 38 e1 03 9b 37
       4.258436e-05 1.1349132e-06 3.3460776e-05 1.8479246e-05
000280 70 51 23 38 59 e6 cd 37 52 53 98 36 0b 8e 27 38
       3.8938073e-05 2.4545168e-05 4.5396528e-06 3.994819e-05
000290 a8 9c 80 37 b2 af 1f 38 e0 6b 8e 37 bd 5d 2b 37
       1.5331738e-05 3.8072183e-05 1.6977952e-05 1.0214219e-05
0002a0 9b f1 d1 37 da d9 be 37 12 e5 11 38 17 5a c2 37
       2.5027248e-05 2.275121e-05 3.4784032e-05 2.3168554e-05
0002b0 52 53 98 37 1c d7 dd 37 4c a3 80 37 71 a4 13 38
       1.8158611e-05 2.6445421e-05 1.533483e-05 3.520068e-05
0002c0 32 1c e0 37 3c 02 ee 37 00 00 00 00 00 00 00 00
       2.671601e-05 2.8372851e-05 0.0 0.0
0002d0 00 00 00 00 00 00 00 00 79 c9 c0 38 00 00 00 00
       0.0 0.0 9.192801e-05 0.0
0002e0 00 00 00 00 00 00 00 00 00 00 00 00 79 c9 c0 38
       0.0 0.0 0.0 9.192801e-05
0002f0 00 00 00 00 00 00 00 00 00 00 00 00 00 00 00 00
       0.0 0.0 0.0 0.0
000300 79 c9 c0 38 03 22 5b 37 27 dd 02 38 f3 f2 11 38
       9.192801e-05 1.3061336e-05 3.120038e-05 3.4796958e-05
000310 5c d0 46 39 ca de fd 38 84 55 fd 38 3f 68 08 39
       0.00018960371 0.00012105478 0.000120799086 0.00013008805
000320 ae 1a 50 39 00 00 00 00 78 2b fa 38 0d 7a e2 38
       0.00019846365 0.0 0.00011929026 0.000107992535
000330 bc d0 17 39 ee 9e 18 39 33 b9 b0 36 9b 07 11 39
       0.00014478242 0.00014555056 5.2667688e-06 0.00013831111
000340 96 61 97 38 57 56 59 39 08 58 c5 38 33 b9 b0 37
       7.218418e-05 0.00020726897 9.410089e-05 2.1067075e-05
000350 9a 30 19 39 e7 f3 c4 38 d4 7b 46 39 7c 18 9c 38
       0.00014609323 9.391439e-05 0.00018928881 7.44322e-05
000360 5c d0 46 38 9a 7a 14 39 df f4 d4 38 c0 bc 36 39
       4.740093e-05 0.00014160053 0.000101545585 0.00017427187
000370 91 bc e6 38 33 b9 b0 38 85 09 27 39 3a 27 ce 38
       0.00011002378 8.42683e-05 0.00015929907 9.830152e-05
000380 ed a2 04 39 9f d8 07 39 b8 10 0a 39 00 00 00 00
       0.00012649196 0.00012955301 0.00013166934 0.0
000390 00 00 00 00 00 00 00 00 00 00 00 00 60 aa df 39
       0.0 0.0 0.0 0.00042660814
0003a0 00 00 00 00 00 00 00 00 00 00 00 00 00 00 00 00
       0.0 0.0 0.0 0.0
0003b0 60 aa df 39 00 00 00 00 00 00 00 00 00 00 00 00
       0.00042660814 0.0 0.0 0.0
0003c0 00 00 00 00 60 aa df 39 ff 92 93 38 20 7f 21 39
       0.0 0.00042660814 7.0368864e-05 0.00015401514
0003d0 28 b5 17 39 64 5f 84 39 53 ca 1d 39 21 bc 1b 39
       0.00014467968 0.00025248074 0.00015048058 0.00014852035
0003e0 24 8b 65 39 35 4d 56 39 00 00 00 00 27 65 11 39
       0.00021890976 0.00020437392 0.0 0.0001386596
0003f0 8b bc 15 39 f2 25 21 39 eb 5f 07 39 4b 54 eb 36
       0.00014279985 0.00015368292 0.00012910335 7.0133588e-06

exp_avg f4 [128]
000000 21 ff 1b bb 8e 7d 88 bb 78 c0 17 3b 82 e5 ba b7
       -0.0023803192 -0.004165358 0.0023155492 -2.22798e-05
000010 0d 0f 6b bb 2f 6b 5f 3b d4 b1 b9 3b 22 4c 58 bb
       -0.0035867125 0.0034090986 0.0056669507 -0.0033004363
000020 2f 6c 0f bc 69 77 2e 39 15 dd cc 3a 24 b0 fb b9
       -0.00875382 0.00016638417 0.0015629852 -0.00048005686
000030 0d 5e 9b 3a 31 cf 28 3b 8f b4 df bb c5 a8 8b ba
       0.0011853591 0.0025758261 -0.006826944 -0.0010655156
000040 d1 a8 3c ba c1 9e 5d 38 92 86 cf 3a d1 c5 a1 ba
       -0.00071967865 5.2838357e-05 0.0015832952 -0.0012342279
000050 d8 69 ab bb ca ef 9a bb 90 e8 10 b9 e6 5b 74 3b
       -0.0052311234 -0.004728292 -0.00013819546 0.003728622
000060 60 e4 3a ba ca 57 3c bb 3b ae 5e b9 2f e5 36 3a
       -0.00071293674 -0.002873885 -0.00021236476 0.00069769
000070 bc 8f ec 3a c5 4a f8 3a 80 c3 a8 3b 7d c9 72 bb
       0.0018048207 0.0018943181 0.0051502585 -0.0037046366
000080 f5 6c ce b9 ca 9a 75 3a 17 2d 5b 3b 34 9c c2 3a
       -0.0003937256 0.00093690737 0.0033443624 0.0014847578
000090 f8 42 4a 39 70 ab 73 bb 51 54 5f 3a 26 a6 c0 bb
       0.00019289169 -0.0037181042 0.0008519339 -0.0058791814
0000a0 fc 1b b7 bb 34 1d 81 3a 18 04 7e 3b 2b 6d 16 bb
       -0.005588053 0.0009850622 0.0038759764 -0.0022953253
0000b0 b9 74 10 3b fa 9e 2d 3b 25 59 87 3a cd 5b a3 3a
       0.0022042228 0.0026492462 0.001032625 0.0012463272
0000c0 ad 06 1c bb de 14 7e b8 d2 ea 41 ba 31 35 8e 39
       -0.002380769 -6.0577753e-05 -0.00073973567 0.0002712398
0000d0 34 3a 13 bb f7 b4 c6 39 97 12 36 ba ac 8d 41 bb
       -0.0022465112 0.00037900332 -0.0006945519 -0.0029533906
0000e0 f3 77 2c ba a8 f1 29 bc dc 6d 1d 3b 18 19 1a 3b
       -0.0006579153 -0.010372557 0.002402178 0.0023513492
0000f0 64 a4 8d 39 5b 0a 09 b8 05 7f 42 3b 3b 98 92 bb
       0.00027016096 -3.267299e-05 0.002967776 -0.0044737137
000100 ee 38 66 bb 33 3c 80 bb 73 35 5e 3b 60 88 e7 b8
       -0.0035129148 -0.0039134263 0.003390637 -0.0001104034
000110 6c 88 6d 39 b6 b7 3e 3a 25 9b ee ba 6b 77 5d bb
       0.00022652902 0.00072753 -0.0018204196 -0.0033793102
000120 28 ce 2f ba 6a 3f 07 3c 72 79 a5 bb fd 90 94 3b
       -0.000670644 0.008254865 -0.005049878 0.0045338855
000130 be ef f6 ba e2 55 1a 3b 81 89 07 3a da 18 6b ba
       -0.0018839759 0.0023549725 0.0005170331 -0.0008968242
000140 df 83 89 bb ce 0c 60 3b f7 9f 49 ba be d9 32 bb
       -0.0041966285 0.003418732 -0.0007691378 -0.002729043
000150 fb 8e a0 bb 67 8f 84 38 0c 55 c2 ba 2a 21 3d 3b
       -0.004899857 6.320961e-05 -0.0014826371 0.0028858879
000160 c1 a0 2b 3b 73 a0 5c ba 6d de 2f bb 8e 49 bf ba
       0.0026188346 -0.0008416243 -0.0026835457 -0.0014594065
000170 21 8a bc bb ab 45 be 3a 96 53 69 3a f3 32 91 3b
       -0.005753771 0.0014516612 0.00089007 0.0044311224
000180 e9 97 05 39 22 6b 16 3b 05 db df bb 58 b8 3a b8
       0.0001274046 0.002295204 -0.006831529 -4.451754e-05
000190 bc f5 1c bb 21 7d 01 3b df ee 70 ba 43 54 ac 3b
       -0.002395018 0.001975842 -0.0009190868 0.005259068
0001a0 33 6c 20 3b 2f 95 04 ba 13 58 31 3a 0d 90 1f 3b
       0.0024478554 -0.00050576305 0.0006765138 0.0024347336
0001b0 f6 4a 03 39 44 95 6a bb 4d f6 a7 b8 7a 0f c3 3b
       0.00012521059 -0.0035794536 -8.009058e-05 0.0059527727
0001c0 04 47 81 bb 4c 33 bd 3b a2 6f c8 bb c6 81 b8 3a
       -0.0039452333 0.0057739373 -0.0061168233 0.0014076761
0001d0 39 a7 3f 38 8b 95 07 bb 87 85 a0 39 8d b9 b5 3a
       4.5693687e-05 -0.00206885 0.00030617064 0.0013864503
0001e0 6f 94 f8 3b 2c 05 ea b6 18 61 89 3b 5a b5 97 bb
       0.007586054 -6.9743455e-06 0.0041924827 -0.004629773
0001f0 a7 20 e6 b9 58 c1 42 ba 6f 22 85 38 bb 6d 97 37
       -0.00043893346 -0.0007429323 6.348348e-05 1.80517e-05

exp_avg_sq f4 [128]
000000 b9 e5 0a 3a 54 a0 32 3a 98 7a 32 3a 78 c9 c0 38
       0.00052985136 0.0006814052 0.0006808429 9.1928e-05
000010 61 aa df 39 54 eb 14 3a 50 ae 3a 3a e4 68 11 3a
       0.00042660817 0.00056808186 0.00071213115 0.0005546941
000020 ba 74 5f 3a 7a ac bb 39 6b 10 bd 39 a7 2f 81 3a
       0.00085241685 0.00035795924 0.00036061122 0.000985612
000030 52 39 b0 39 03 4e 1e 3a 71 b9 ec 39 b2 65 b7 39
       0.00033612043 0.00060388463 0.00045151592 0.0003498025
000040 6b 0f 55 3a 57 1c bf 39 10 bd 34 38 f7 65 c7 3a
       0.00081276026 0.00036451474 4.3091422e-05 0.0015212883
000050 89 ab 75 3a de 22 8c 39 89 0b d0 39 c1 81 dd 39
       0.0009371569 0.0002672886 0.00039681446 0.0004224908
000060 b8 46 85 3a f4 cc 35 3a e4 74 e7 35 4c 04 47 37
       0.001016817 0.00069351424 1.7244861e-06 1.1862325e-05
000070 9e 07 ff 39 5d 15 2e 3a d5 15 61 3a a1 40 fd 39
       0.00048643065 0.00066407566 0.0008586322 0.00048304073
000080 e3 bc 0c 3a cc 36 1b 39 53 fa 26 3a be 90 6b 39
       0.00053687225 0.00014802365 0.00063696987 0.00022465267
000090 e4 18 c1 38 ac cb 58 3a a5 8a ee 39 db ff 7a 3a
       9.2075934e-05 0.00082700956 0.00045498196 0.00095748686
0000a0 59 cc 8a 3a 37 a4 bd 39 44 26 e8 39 a7 71 0a 3a
       0.0010589465 0.0003617124 0.00044278998 0.0005281218
0000b0 77 c0 b8 39 37 2d 91 38 4c 36 88 3a 65 37 8c 3a
       0.00035238612 6.922561e-05 0.0010392158 0.0010697661
0000c0 e7 fe 52 3a e5 82 26 39 25 00 08 3a 64 74 12 38
       0.00080488477 0.00015879756 0.000518801 3.491751e-05
0000d0 d3 0d 1a 3a da cb 04 3a 49 43 3f 3a a6 bf e2 39
       0.0005876694 0.00050657766 0.0007296098 0.00043248868
0000e0 ba 04 83 38 10 e5 b9 3a 12 84 63 39 bc 68 97 3a
       6.247447e-05 0.0014182646 0.00021697607 0.0011551599
0000f0 16 bb 5d 38 ce 4c 36 34 e5 3a 00 3a 02 42 46 3a
       5.2864743e-05 1.6978012e-07 0.00048915885 0.00075629365
000100 da 3b 1a 3a 0e 72 0c 3a df 6d 69 3a cf 8d ab 39
       0.00058835524 0.00053575716 0.00089046167 0.00032721317
000110 85 05 dc 39 6f 48 b2 39 52 40 0f 3a fa db 62 39
       0.00041965782 0.00034004773 0.00054646016 0.00021634987
000120 a1 e3 16 3a de d4 6e 3a fc 9f 17 3a 5d 00 be 39
       0.0005755965 0.0009110699 0.00057840324 0.00036239895
000130 2f 51 b7 39 f4 00 7e 3a 65 94 7a 39 52 1f 38 3a
       0.00034964966 0.0009689473 0.00023897139 0.000702371
000140 6b e9 36 3a 66 6d f2 39 ab c8 83 3a 16 49 d5 39
       0.0006977531 0.00046239345 0.001005431 0.0004068098
000150 ae a7 97 39 65 a0 e2 36 fb 43 95 39 1f 03 f1 39
       0.00028925895 6.7539972e-06 0.00028470144 0.00045969427
000160 e5 0d 1a 3a bb ab 01 3a b7 04 96 3a c3 a8 00 3a
       0.0005876704 0.00049465493 0.0011445497 0.000490796
000170 6b 1e 3d 3a d3 11 53 3a a9 87 0f 39 22 db a7 39
       0.00072143105 0.0008051667 0.0001368808 0.0003201599
000180 c0 5c b5 39 72 bd 3e 3a 3d 9f 4f 3a b3 89 10 3a
       0.00034592114 0.00072761544 0.00079201517 0.0005513683
000190 67 92 3b 38 fa fb 00 3a ea 1b 09 3a b3 b8 27 3a
       4.4720622e-05 0.000492036 0.0005230295 0.0006398067
0001a0 6d 0d fe 39 9b 45 d5 39 7f bf 1c 3a de d2 30 3a
       0.00048456658 0.00040678386 0.0005979463 0.0006745289
0001b0 6c 61 c8 39 31 f8 46 3a 44 3e 84 34 3b ff 69 3a
       0.00038219558 0.0007590084 2.463222e-07 0.0008926277
0001c0 4b c0 f3 39 74 f0 3e 3a 98 ba 24 3a a6 4b b2 39
       0.0004649184 0.0007283755 0.0006283908 0.00034007168
0001d0 98 3e 0c 38 9a ef 42 3a 3f 54 4d 36 5b ab 8e 3a
       3.3436896e-05 0.0007436216 3.0596418e-06 0.0010884808
0001e0 9d f1 7b 3a e7 ea 30 39 0c 86 87 3a a2 b3 83 39
       0.00096108933 0.00016872176 0.0010339632 0.00025120104
0001f0 df 18 02 38 5b fb 4a 39 d0 a7 1e 34 55 73 4d 36
       3.101758e-05 0.00019357858 1.4775947e-07 3.0614513e-06
