results/color-train1/ColorMatchAgent/checkpoint.pt (torch, 446562 bytes, 33 tensors)

network_body._body_endoder.seq_layers.0.weight f4 [128, 6]
000000 74 58 eb be 61 cb d7 be ab 45 19 3f 93 db 56 3f
       -0.45965922 -0.42147353 0.5987193 0.83928794
000010 c3 34 2e bf da bb 79 be 1c 0d d3 bd 10 b2 86 bd
       -0.6804926 -0.24388066 -0.10305235 -0.065769315
000020 f3 73 10 be 56 35 74 be 10 12 75 be d4 2c d4 be
       -0.14106731 -0.23848471 -0.23932672 -0.4144045
000030 3d 6e db 3e e3 2a ac 3e 8c 74 9c 3e f2 f3 55 bd
       0.42857543 0.3362647 0.30557668 -0.052234598
000040 7f 76 43 3e 49 b8 00 bf f1 f5 9f be 53 d5 49 be
       0.19088171 -0.50281197 -0.31242326 -0.19710283
000050 06 42 b3 3e d9 e8 2c be 85 6c 78 be a6 55 85 3e
       0.3501131 -0.168857 -0.24260147 0.26041907
000060 97 c5 27 bd c7 b5 7d 3e d1 a3 18 3f 68 cb b2 be
       -0.04095992 0.24776374 0.59624964 -0.34920812
000070 21 02 b8 3e a5 66 82 be f7 f6 ab be 83 c2 9a 3d
       0.35939124 -0.25468937 -0.33586857 0.075566314
000080 6a 02 b0 be 40 c2 d1 be be 2b 95 be 33 89 ad be
       -0.34376842 -0.40968513 -0.29134935 -0.33893737
000090 9b c6 36 3f 67 56 78 be eb f8 1d bf d3 d5 00 3f
       0.713968 -0.2425171 -0.61707944 0.5032627
0000a0 61 09 b5 be a3 8c be 3e e4 c6 f4 3d ad 24 69 be
       -0.35358718 0.37216672 0.11951998 -0.22767897
0000b0 af ac 51 3e f5 1f 90 be c1 84 9f 3e 37 e0 5f be
       0.2047603 -0.2814938 0.3115597 -0.21862875
0000c0 9e ef 03 bf 0d 41 17 3f 2c d5 2f 3d bd 00 ad be
       -0.515375 0.59083635 0.042927906 -0.33789626
0000d0 dc 1d 77 3e ad 87 e1 be c2 21 bd 3e 9f 8b 47 be
       0.24132484 -0.44048825 0.36939818 -0.19486855
0000e0 41 ac 09 bf 61 0f 0b bf 9b 86 50 bf 10 2c 29 bf
       -0.53778464 -0.5432034 -0.8145539 -0.6608286
0000f0 1f d3 77 3e 4a 79 0b bd 24 c6 78 bc fd d9 f5 be
       0.2420163 -0.034051217 -0.015183959 -0.48017874
000100 ea d8 61 3e 1a dc 9f be 31 f9 5f 3d 5b bc 71 be
       0.22055402 -0.31222612 0.054681007 -0.23607008
000110 fb df b3 3e 71 b6 34 bf f9 df 50 bf c8 cf 9b 3e
       0.3513182 -0.70590883 -0.81591755 0.30431962
000120 fd dc b7 be 96 3f 0c 3e f3 8c 13 bf 0c f7 1d bf
       -0.35910788 0.13696131 -0.57636946 -0.6170509
000130 43 a0 ac be 50 3f e8 be d4 29 33 be fd 19 60 be
       -0.3371602 -0.45360804 -0.17496425 -0.21884914
000140 5b c4 ab be 5c 98 18 bf 75 95 ab be 51 13 a2 bc
       -0.33548245 -0.5960748 -0.33512464 -0.019784601
000150 f3 b0 2e be 1e bd 6f bd 35 ab c4 be a4 82 d4 bd
       -0.17059688 -0.058529966 -0.3841187 -0.1037648
000160 9f 44 c2 be 29 ef a2 be d2 32 33 3f 56 53 21 be
       -0.3794298 -0.3182309 0.6999942 -0.15754446
000170 60 78 47 3e 62 74 10 bf 97 8f ea be 50 61 9f 3f
       0.19479513 -0.56427586 -0.45812675 1.2451572
000180 54 fa a8 3e 32 41 10 be 34 5d 4b 3e c5 14 8b 3f
       0.33003485 -0.1408737 0.19859773 1.0865713
000190 42 02 38 3e c3 63 21 be fb a3 26 be a9 f9 44 bd
       0.17969611 -0.15760712 -0.16273491 -0.048089657
0001a0 62 7c 55 be b9 0b b6 3e 17 35 06 3e 7f 01 9c 3e
       -0.2084823 0.3555582 0.1310619 0.3046989
0001b0 7b 8c 7f be 41 86 b3 bd cb ff 3c 3e 82 58 58 be
       -0.24955933 -0.08765841 0.18456952 -0.21127513
0001c0 bb 69 50 bd 63 23 c5 bc 0f c9 8a be 42 08 89 3e
       -0.050882082 -0.024064725 -0.2710652 0.26764113
0001d0 26 4b bd 3e ea 13 76 bf 3c 8c e0 bc f6 75 76 3e
       0.36971396 -0.96124136 -0.027410619 0.24068436
0001e0 45 00 7b bf 33 e8 67 be 2b ea 84 be 8a 82 44 bf
       -0.98047286 -0.2264717 -0.25959906 -0.76761687
0001f0 40 24 1b 3f df bd 08 3c 91 32 df 3e f6 f8 32 3e
       0.6060219 0.00834605 0.43593267 0.17477784
000200 bd ac 68 be fe 39 47 3f 9f 79 91 be 45 34 0d bd
       -0.22722144 0.77822864 -0.28413102 -0.034473676
000210 8f 3f 9d 3d 25 c5 76 bd 59 59 86 be 19 74 9b be
       0.076781385 -0.060246605 -0.26240042 -0.30362013
000220 ec fb 42 be 34 42 4f 3b 8e 9b 6c bd a1 25 04 3f
       -0.19041413 0.0031625153 -0.057765536 0.5161992
000230 43 0d 0a bf 53 a3 4e 3e 3d f1 4f bf 5e 3b e1 3e
       -0.53926486 0.20179491 -0.81227475 0.43990606
000240 91 8a 31 3e f5 ab 86 3e 35 4e dc 3e ce 09 80 be
       0.17338015 0.26303068 0.43028417 -0.2500748
000250 2b 4c 00 3d 58 e8 c2 3e 18 77 aa be 1e dd b4 be
       0.03132264 0.3806789 -0.33293986 -0.3532495
000260 e2 a4 2e bf 35 2a ac be 48 0b e5 bb c8 fa 1a bf
       -0.6822034 -0.3362595 -0.00698987 -0.6053891
000270 8b f2 b1 be 4c 62 68 bf e6 ed d5 bd 81 b0 fe 3d
       -0.34755358 -0.9077499 -0.10445766 0.12436009
000280 b6 9c b7 be 9c 14 92 3e 67 25 55 3f 31 7e 09 3d
       -0.35861748 0.2853135 0.83260196 0.03356761
000290 92 3a f3 3e f9 09 1b be ba 4f bd be 16 c0 61 be
       0.47505623 -0.15140523 -0.3697489 -0.22045931
0002a0 9b 1d 06 bb 05 c0 0c bf 54 8e d3 3d f3 9f df be
       -0.0020464424 -0.549805 0.10329881 -0.4367672
0002b0 fd b1 81 bd eb fb 3f bf 29 46 d6 3e 4e 82 af be
       -0.06332777 -0.7499377 0.41850403 -0.34279102
0002c0 89 be 1d be a9 52 f0 3e 9a eb 5e 3e 37 7f e5 bd
       -0.15404715 0.46938065 0.21769562 -0.11205905
0002d0 b9 5f a3 be 88 1a ac be 1c 49 04 3f 80 66 df be
       -0.31908968 -0.33613992 0.51674056 -0.4363289
0002e0 86 d2 ab be 3e 96 8e bf 7e d6 1a 3d e8 a2 dd 3e
       -0.33559054 -1.11396 0.037802212 0.4328835
0002f0 53 6e fb 3d b7 a4 8d be e6 8f ae bd 5d 14 04 bf
       0.12276902 -0.2766473 -0.0852354 -0.5159357
000300 7c 83 03 3f af 40 93 3d 31 02 b1 3e 7c 61 d5 bd
       0.51372504 0.07190072 0.34571984 -0.10418984
000310 c5 11 53 3f 6f 6e 75 bd 9a 8a 27 3e e5 15 0a 3e
       0.8244899 -0.05991977 0.16361466 0.13484915
000320 9f 01 b3 3e e7 5e 04 3e 89 81 a9 bd 36 ac ba 3e
       0.34962174 0.12926827 -0.0827666 0.36459512
000330 ef 9f e8 bd cc 18 7e bd 99 fd 21 bf 28 55 12 3e
       -0.1135863 -0.062035367 -0.63277584 0.14290297
000340 9b 5e 70 bd a5 5b 4b 3e f8 f7 b4 3e 96 19 9b 3d
       -0.058683973 0.19859178 0.35345435 0.075732395
000350 c3 b4 da be 83 e8 f2 3e c4 4b bf 3d 90 53 18 3e
       -0.42716035 0.47443017 0.09340623 0.14875627
000360 34 ef f8 be b8 dc c6 3e 61 f1 7c 3e 7d d2 12 3e
       -0.48619998 0.3884027 0.24701454 0.14338107
000370 e3 9d 59 3e 90 0f 72 3e c4 ec c4 bd da 40 02 be
       0.21251635 0.23638749 -0.09615472 -0.12720051
000380 7f b6 97 3d 6e 3f cb 3e 15 9f b9 bd b1 e5 c5 be
       0.07407855 0.3969683 -0.090635456 -0.38651803
000390 07 30 3e bf a2 d1 d8 3e 1e 36 48 be 5e e9 84 be
       -0.74292034 0.42347437 -0.19551894 -0.25959295
0003a0 69 c5 05 be 2e f1 91 bf 7c 26 2d 3f d2 30 b2 3e
       -0.13063587 -1.1401727 0.6763685 0.34802872
0003b0 01 32 0d 3e 8b d6 46 3e 4d 3e 77 3e 0c 36 c4 3e
       0.13788606 0.19417779 0.2414486 0.38322484
0003c0 00 39 ea 3e 26 ad 21 bf 38 a2 11 bf 8c 15 a4 bc
       0.45746613 -0.6315483 -0.5688815 -0.020029806
0003d0 12 45 58 be 18 d6 8e bc 42 f9 15 3d 0f 8d 68 bc
       -0.21120098 -0.017436072 0.036614664 -0.014193787
0003e0 09 74 58 3e fa 96 48 bf 95 06 8c 3e b3 cd b1 bc
       0.21138014 -0.7835537 0.27348772 -0.02170453
0003f0 30 b8 1b be 47 44 76 3d 54 5e 79 3e f6 05 08 3f
       -0.1520698 0.060123708 0.2435239 0.53134096

network_body._body_endoder.seq_layers.0.bias f4 [128]
000000 e1 e9 b3 3b c2 ad 2c bc af 7b 5d 3c f6 61 c8 3b
       0.005490527 -0.010539474 0.013518258 0.0061151935
000010 79 80 00 3c 0a d4 88 3b 67 a6 33 3c 48 7e f4 3b
       0.00784313 0.0041756677 0.010964966 0.007461343
000020 88 79 e5 3b 48 55 b1 3b c8 a7 02 3c 07 de 28 3c
       0.007003013 0.0054117776 0.0079745725 0.010306842
000030 62 9c a9 3b 0d c8 bc 3a f8 c1 94 3b cd bf 28 3c
       0.005176113 0.0014402881 0.0045397244 0.010299635
000040 4e 8a b3 3b 5d 38 0f 3c a8 2f 8a bb ba 13 12 3b
       0.0054791337 0.008741465 -0.004217107 0.002228959
000050 9e 05 4b 3c 0e 40 c7 3b bc 32 e6 3b a7 e2 a9 3b
       0.012391476 0.006080634 0.007025091 0.00518449
000060 73 26 01 3c 2e 20 47 3c a5 d1 7d 3c 87 21 09 3c
       0.007882702 0.012153668 0.015491878 0.00836981
000070 32 92 4b 3c 35 90 0a bb 38 34 7b 3c 98 94 2b bb
       0.012424992 -0.0021143083 0.015332274 -0.0026181098
000080 7c 24 c7 bb c7 e1 1a 3c ac 25 e2 bb b2 9c 21 3c
       -0.0060773473 0.009453244 -0.0069014635 0.009864019
000090 76 aa 5d bb e2 e9 17 3c a2 ff f0 3b 1c 4c 11 3c
       -0.0033823526 0.009272071 0.0073546926 0.008868244
0000a0 5c 2d e7 3a 48 f9 34 3c 8d 51 8b bb 7e 74 35 3c
       0.001763742 0.011045761 -0.004251665 0.011075137
0000b0 cf d6 24 3c e8 4c 60 bb 06 ac 58 3c a5 05 4b 3c
       0.01006098 -0.0034225527 0.013224607 0.0123914825
0000c0 19 c2 df 3b fd b5 6f 3c a4 41 c3 3b 2a 85 78 3c
       0.006828558 0.014630792 0.0059587527 0.015168468
0000d0 c1 61 83 3b e2 97 e7 3b 21 94 ca 3b e2 08 71 39
       0.004009456 0.0070676664 0.006182209 0.0002298686
0000e0 e7 79 8d 3b d8 be d9 bb b1 c2 3e 3c b0 69 41 3c
       0.0043175104 -0.006645065 0.011643098 0.011804983
0000f0 7b 80 0c 3c d4 78 0c 3c b7 fa 0c 3c 55 94 78 3c
       0.008575554 0.00857373 0.008604697 0.015172084
000100 22 c2 87 3b c3 e7 fa 3b fa d4 2c bc a0 b2 0c 3c
       0.0041430155 0.0076570227 -0.010548824 0.008587509
000110 53 b0 ad 3b 73 a1 02 3c 8d 68 1b 3c 9b 46 3a 3c
       0.0053005605 0.007973063 0.009485376 0.011369373
000120 4c c2 4c 3c df 95 24 3c cf 4c af bb 30 29 4f 3c
       0.012497496 0.010045498 -0.0053497325 0.012644097
000130 5e 99 d7 3b 64 a0 65 3a ec d0 ab 3b fb f2 df bb
       0.006579562 0.0008759557 0.0052434113 -0.0068343855
000140 d6 38 53 3c 54 7b 29 3c 3f a0 4a 3c 37 f5 7c bb
       0.012891969 0.010344345 0.012367307 -0.0038598308
000150 00 b1 d5 3b 3c 7d 96 3b 53 55 3d 3c 28 82 bb 3b
       0.006521344 0.004592566 0.011555987 0.005722303
000160 6c 03 be 3b f7 77 68 3c 0e 11 49 3c 7d 23 59 bb
       0.0057987478 0.014188758 0.012272133 -0.0033132725
000170 93 f0 62 3c 88 4c 5c bb da f7 47 3c c1 c4 16 bc
       0.013851303 -0.0033614952 0.0122050885 -0.009202183
000180 02 92 a5 ba 0e a3 50 bb b1 c6 b0 ba d2 6f 86 bb
       -0.0012632015 -0.003183547 -0.0013486949 -0.0041026855
000190 d0 cb 17 bc 6a c0 1a 3c a9 42 32 3c 5b 90 24 3c
       -0.009264901 0.009445289 0.010880151 0.010044183
0001a0 4b d7 31 3c 6b fa 23 bb 8e 4e 57 3c 6e f6 4e 3c
       0.0108545525 -0.0025021087 0.0131412875 0.012631996
0001b0 9b 0d 0b bc f0 14 74 3b 93 dd ad bb b3 4e 3f 3c
       -0.0084871305 0.0037243925 -0.0053059547 0.011676478
0001c0 da de 00 bc 3f ff 02 3c 2b 70 30 3c fd c8 af 3b
       -0.007865632 0.007995426 0.01076893 0.005364536
0001d0 ff e7 4b 3c da b8 14 3c 3e ef 1f 3c b7 b7 93 3b
       0.012445449 0.009077275 0.00976163 0.0045079845
0001e0 77 fd 35 3c 74 e7 9c 3a 32 38 6f 3c 3e 32 56 3c
       0.011107794 0.0011970834 0.0146008 0.013073502
0001f0 12 cd 50 3b 08 35 55 bb 73 24 6e 3c 4c 24 08 bc
       0.0031860513 -0.003253283 0.014535057 -0.008309435

network_body._body_endoder.seq_layers.2.weight f4 [128, 128]
000000 be 60 fa bd 31 cb d9 bc b8 c9 11 bd b0 e3 3e bd
       -0.12225483 -0.026586147 -0.035592765 -0.04660386
000010 44 95 a3 bd a6 11 85 bc f7 a5 3a bd 75 c2 b9 bc
       -0.079874545 -0.016243767 -0.045568433 -0.022675732
000020 c5 26 56 be c4 a1 a2 3c 46 db 6e bd 08 ea eb bc
       -0.20913227 0.019852526 -0.058314584 -0.028798118
000030 6a 03 23 bd a3 6f 91 3c f7 89 bf 3c bc 79 e3 bd
       -0.039798178 0.017753428 0.023381216 -0.11107203
000040 8d 83 fe 3c ad 0d 95 bd 59 d9 e4 bd 23 30 ba 3d
       0.031068588 -0.07277999 -0.11174268 0.090912126
000050 23 a8 59 3e b6 8c e7 3d 1b 58 cb 3d 70 13 00 be
       0.21255545 0.11306135 0.09928914 -0.12507415
000060 4f 24 9a bd 2c e6 05 3e a6 a7 21 3e 6e c2 30 bc
       -0.075264566 0.13076085 0.15786609 -0.010788543
000070 44 40 14 3e 1d 66 50 bc 11 be 50 bc 2a e5 04 be
       0.1447764 -0.012719658 -0.012740628 -0.12978044
000080 0b 65 ee bb 1b d4 51 bb f2 8e 37 be f7 cb f4 ba
       -0.007275229 -0.0032017294 -0.17925623 -0.0018676509
000090 40 e3 14 bd 81 8b 9a 3d 20 11 52 bc dd 81 0e 3e
       -0.036349535 0.075461395 -0.012821466 0.13916726
0000a0 3d d6 1d 3e 9d 84 9b 3c ba 4c 48 3a 16 15 92 3d
       0.15413757 0.018984133 0.00076408277 0.07132928
0000b0 83 97 a1 bd 95 a1 bc bc 97 10 11 be 84 a0 68 bc
       -0.07890227 -0.023026267 -0.14166485 -0.014198426
0000c0 04 8b 79 bd 64 d4 5d be 0c fb 8a 3d 14 65 23 be
       -0.06092359 -0.21663052 0.06786165 -0.15956527
0000d0 47 7e 05 be 81 0f 06 be a4 e5 17 3d b0 00 6e bc
       -0.13036452 -0.13091852 0.037084237 -0.014526531
0000e0 d1 f8 47 bd ff d6 41 3b 7d 31 08 bd 75 40 ee bd
       -0.048821274 0.002957761 -0.03325032 -0.11633388
0000f0 1e f1 b2 3d 30 b4 65 bd ce 7d 95 bc 10 3a 27 be
       0.08737396 -0.056080043 -0.018248465 -0.16330743
000100 c0 cf ee bd 90 41 cd 3d 4a 23 75 3c b8 43 70 bd
       -0.11660719 0.10022271 0.014962027 -0.05865833
000110 74 ad 62 bd 80 84 c0 bd 41 e2 f3 3b 42 45 5d be
       -0.0553412 -0.09400272 0.007442743 -0.21608451
000120 52 a8 84 bd e9 47 c3 3d 2a 76 93 bd 7a 22 81 3d
       -0.06477417 0.095352 -0.072002724 0.06305404
000130 f7 54 00 3e 0c ff 0d bd ab fb db bc 9d 67 14 3c
       0.12532412 -0.03466706 -0.026853403 0.009057906
000140 63 ba 88 3d 50 1a 33 be b3 81 83 bd 6f 5d 0c 3d
       0.066761754 -0.17490506 -0.064212225 0.034268793
000150 45 98 f5 3d 2b 60 40 bd dd a0 67 3c e2 b1 13 3e
       0.11991934 -0.046966713 0.014137474 0.14423326
000160 ec 56 c9 bc 8e 91 d6 3d fb 33 b8 bd 0f 03 d4 bd
       -0.02457758 0.10476981 -0.089942895 -0.10352146
000170 5a bd 3b be 7f d7 f9 bd 30 fc 86 3c 0c 30 a6 3d
       -0.1833395 -0.12199306 0.016477674 0.08114633
000180 f6 fa 35 3d 7f f4 17 3d d7 35 b7 bc 0c 4b b2 3d
       0.044428788 0.037098404 -0.02236454 0.0870572
000190 37 30 e7 bd 94 59 f3 bc 80 59 bd bd 3c c1 d0 3d
       -0.11288493 -0.0297058 -0.092455864 0.101931065
0001a0 85 b4 28 bd 9f 60 e3 3d ad 32 98 bd 21 8b f0 bd
       -0.04118778 0.111024134 -0.07431541 -0.11745287
0001b0 c0 0a 56 bd 33 04 22 3e 8d 69 14 bd 17 76 e1 3c
       -0.052256346 0.15821914 -0.036233474 0.02752213
0001c0 1c 56 00 be 6b 9f 8a 3d 14 3c 2e bd 89 44 32 bd
       -0.12532848 0.06768688 -0.042537764 -0.04352239
0001d0 42 df 5c 3d 3c 7b 29 3d 1a 93 ac 3c b8 3e d6 bd
       0.053923853 0.04137729 0.021066237 -0.104611814
0001e0 a6 d5 4c bc 48 2d bf bd 3c 77 43 3d bb 7f 22 bd
       -0.01250211 -0.093348086 0.047721133 -0.039672595
0001f0 03 a5 86 3d 24 18 c1 bc 42 fb d3 3d e1 fd f4 3c
       0.06574442 -0.023571081 0.10350658 0.029906215
000200 f5 de a3 3b 49 c4 25 bc 75 35 ad 3c 69 3d ba bd
       0.005000944 -0.010117599 0.021143654 -0.09093744
000210 d7 a2 55 bc 33 51 63 bd 90 22 a4 bd c4 5b 00 be
       -0.013039312 -0.05549736 -0.08014405 -0.12535006
000220 25 75 97 bd 0a 77 c9 3d 06 5d f9 bd fe 67 17 3e
       -0.073953904 0.09837158 -0.12175946 0.14785764
000230 89 0a cb bd f6 1b 0f be ed 1f 41 bc 47 1c b2 3c
       -0.09914119 -0.1397551 -0.011787397 0.021742
000240 1c 55 60 bd 59 c4 f0 3a b7 10 6d 3d b7 fa 4a 3c
       -0.054768667 0.0018369063 0.05787727 0.012388877
000250 17 83 9e bc 21 5b 01 be fa 92 f1 bd 60 c2 d6 bd
       -0.019349618 -0.12632419 -0.11795612 -0.10486293
000260 04 ee 2b bd ca dc d7 3d 3a 09 89 3c de ed 95 bd
       -0.041975036 0.10540159 0.016728032 -0.0732076
000270 82 f0 8a 3d ca 69 fa bc e0 52 b2 3d 7b a1 d4 3c
       0.067841545 -0.030568022 0.087072134 0.025955906
000280 34 33 42 3d 59 69 8e bd 96 51 8c bc c1 38 96 3d
       0.047412112 -0.06953687 -0.017128747 0.07335044
000290 b1 58 a9 3d e2 99 e4 3d 9f e9 2f 3d 73 a1 64 bd
       0.0826887 0.11162163 0.042947408 -0.055818032
0002a0 7c cd 9a 3d 00 c8 d5 3c e1 70 bd 3d 19 19 71 bd
       0.07558724 0.026096344 0.092500456 -0.058861826
0002b0 3b ed 41 be dc 0d ef 3c 42 76 3b be 2d 98 c8 bc
       -0.18938152 0.029181413 -0.1830683 -0.024486626
0002c0 56 25 c9 bb b9 ca 28 3d 12 26 b4 bd d9 d2 64 3d
       -0.006138484 0.041208956 -0.08796324 0.055865142
0002d0 e6 80 c7 ba 2c 77 3c 3c 6c 14 77 bd a0 78 b8 3c
       -0.001522091 0.011503022 -0.06032221 0.022518456
0002e0 a7 b1 0f 3e 5a 95 c8 3c 19 2f ce bc df a2 56 3d
       0.14032613 0.024485279 -0.025168942 0.05240142
0002f0 d5 cb ff 3d 42 5f bd 3c 43 83 ca bd cd 97 0d be
       0.1249005 0.023116712 -0.098883174 -0.13827439
000300 8b 8f eb bd d7 bb 13 3e 5c 67 de 3d 91 c9 38 be
       -0.11501988 0.14427124 0.10859558 -0.18045641
000310 d3 8c 0b 3e 76 51 e1 3c ee 43 ce bc 95 07 62 3d
       0.13627939 0.027504664 -0.025178876 0.055183012
000320 f1 0f a9 3b cc 2d 2a 3d 9e 6e 1c be 9e 70 b1 bd
       0.005159371 0.04154758 -0.15276572 -0.08664058
000330 81 71 fb 3d 2b 36 8a 3c ea 59 0e bd 29 6e 54 be
       0.122775085 0.016871532 -0.034753717 -0.20745148
000340 08 7f ff 3c 12 66 61 bc 90 67 6c 3c ee 20 01 3e
       0.031188503 -0.013757246 0.014428988 0.12610218
000350 e4 ea 5a bd 1e eb 67 3d 9a 61 c5 bd f2 7e 17 3d
       -0.053446665 0.05662071 -0.09637757 0.0369863
000360 fe 7a b8 3c fb ff 32 3d e1 b1 e3 bd 61 78 2f 3d
       0.022519585 0.043701153 -0.11117912 0.04283941
000370 43 08 a8 bd 98 d7 a4 bd 6c 18 85 bc d8 6b 99 bc
       -0.08204701 -0.08048934 -0.016246997 -0.018728182
000380 e5 d2 29 be e3 f1 40 3d 98 9b 32 3d 05 e0 cd bc
       -0.16584356 0.04710568 0.043605417 -0.025131235
000390 68 99 cc 3d d4 ca 72 bd 1e c6 82 3d 98 15 18 3d
       0.099901974 -0.059275463 0.06385444 0.03712997
0003a0 ff 22 cb bd 66 1b 6d bc f8 3c bc 3d 19 6d 25 3e
       -0.09918784 -0.014471864 0.09191316 0.16154899
0003b0 a0 93 28 3d fd 75 bc 3d 95 26 83 bd 9d 9e f3 3d
       0.04115641 0.09202192 -0.06403843 0.118954875
0003c0 ca 12 28 3e 2e 4c 30 3e ef af a9 bc 6f 69 6d 3c
       0.16413417 0.1721656 -0.020713774 0.014490469
0003d0 ad 17 78 3d a1 19 1d 3e 1b 65 b9 3b bf be 65 bc
       0.060569454 0.15341808 0.0056578047 -0.014022528
0003e0 a5 aa 8e bd c7 f8 88 bd 9a e2 4c bd 79 6f 87 3c
       -0.069661416 -0.066880755 -0.05002079 0.016532646
0003f0 93 88 b0 3d 47 b1 3d be e4 69 63 bd 7c a9 24 3e
       0.086197995 -0.18524657 -0.055520907 0.16080278

network_body._body_endoder.seq_layers.2.bias f4 [128]
000000 71 5d 3b 3b c2 de 59 3b c2 d9 14 bb 6f 46 ec 3b
       0.002858963 0.0033244346 -0.0022712802 0.007210545
000010 a0 4a b3 3b 57 c4 9e ba 95 b6 bb 3b 68 cb 43 3c
       0.0054715425 -0.0012112957 0.0057285526 0.011950351
000020 d4 47 11 3c 0d 13 e9 3b 87 04 ea 3b 3a 3b 67 bb
       0.008867223 0.0071128667 0.007141653 -0.0035283105
000030 eb 67 12 3c 09 61 08 3c 24 9a d7 3b d2 3b c9 b9
       0.008935909 0.008323916 0.0065796543 -0.00038382277
000040 9f e9 c7 3b db 5a 23 3c 8c 1c 90 3b b9 5d 17 3b
       0.006100848 0.009970392 0.0043979343 0.0023096635
000050 31 87 15 3c b9 8a a2 3b 43 90 fd 3a cf 4b b8 3b
       0.00912647 0.0049603847 0.0019345362 0.0056242715
000060 9c 29 d6 3b 24 96 dd 3b 53 8f 03 3c 15 5f c1 3b
       0.006535722 0.006762283 0.008029777 0.0059012272
000070 19 5d 3a 3c 21 ac c3 3b 1e a8 a5 3b 73 ff 17 3c
       0.011374735 0.005971447 0.0050554415 0.009277212
000080 6b 39 80 3b 7b 7c 6a 3b 3e dd b4 39 6a 6d c2 3b
       0.0039130948 0.0035779763 0.00034497114 0.0059334533
000090 4e 9b 14 bb 32 85 19 3b cf 96 05 3c 57 e2 14 3c
       -0.0022675577 0.0023425338 0.008153631 0.009087167
0000a0 76 ee d8 3b 59 e0 8f bb d5 af 1b 3c e5 75 fa ba
       0.0066202236 -0.004390758 0.009502371 -0.0019108622
0000b0 31 fc 2b 3c 6f 9e 93 3b d8 dc d2 3a c7 53 16 3c
       0.010497139 0.0045049707 0.0016087545 0.0091752475
0000c0 78 21 c8 3b 37 a2 9a ba cc 12 d6 3b 2d 74 08 3c
       0.0061075054 -0.0011797611 0.0065330025 0.00832848
0000d0 a3 99 ec 3a a6 24 12 3c 35 1f 0f 3a d2 e3 e6 3b
       0.0018051158 0.0089198705 0.00054596673 0.0070462013
0000e0 2d 35 e7 b9 44 f7 93 ba a4 6c 32 bb f8 d6 26 3c
       -0.00044099372 -0.0011288901 -0.00272254 0.0101830885
0000f0 6c 18 51 3b 27 aa 8d bb 39 09 d6 3b 22 75 44 3c
       0.0031905426 -0.0043232623 0.006531861 0.011990817
000100 c1 1f 2c 3c 87 58 19 3c 8f 43 f2 3b f7 1a 0b 3c
       0.010505618 0.0093594855 0.0073933075 0.008490316
000110 5f 7f 90 3b b2 0c 95 3b 0a b2 cc 3b 7b fd 49 bb
       0.004409715 0.0045486325 0.00624681 -0.0030821252
000120 24 80 cc 3b db 78 d5 ba a8 c6 e3 3a ff 27 e6 3b
       0.0062408615 -0.0016286628 0.001737793 0.007023811
000130 ed 87 e1 3b 84 ef 83 3a de 43 c8 3b 3c f9 29 3c
       0.0068826587 0.0010065888 0.006111606 0.0103743635
000140 04 3b d4 3b 34 f2 0a 3b 2f ca db 3b a0 d5 d4 37
       0.006476762 0.0021201493 0.006707452 2.5371846e-05
000150 00 12 87 3b e9 71 06 3c 3d 5b bb 3b 2a cb 0b 3b
       0.004122019 0.008205869 0.0057176636 0.0021330812
000160 44 eb 99 3b 39 08 94 3b d8 73 ea 3b 56 5c 76 3a
       0.0046972353 0.004517582 0.007154923 0.00093979144
000170 f8 9b 8b 3b 00 0e 50 3b a2 4d ff 3b db a9 9f 3b
       0.0042605363 0.0031746626 0.007791237 0.0048725433
000180 80 11 ee 3b 4a ab 1f 3c 5f 2b d4 3b 66 12 c9 3a
       0.0072652698 0.009745428 0.006474897 0.0015340566
000190 0c af 5a 3c e2 fb 44 3a 80 6a e4 3b 04 c3 2e ba
       0.0133473985 0.000751434 0.0069707036 -0.0006666633
0001a0 e8 b8 d3 39 ae 11 23 3b 84 7a d8 3b b9 b3 25 3b
       0.00040382822 0.0024882364 0.006606402 0.0025284125
0001b0 ea eb c0 bb 01 89 0b 3c 59 3d 3f 3c 98 93 14 3b
       -0.005887498 0.008516551 0.011672341 0.002267098
0001c0 c2 5c cb 3b 6f 86 d1 3a 3b af 05 3c 72 15 1c 3b
       0.006206126 0.0015985499 0.008159454 0.0023816493
0001d0 a3 57 5a 3b 86 ca 18 39 08 04 cb 3b 82 b7 bd 3b
       0.0033316396 0.00014571295 0.006195549 0.005789698
0001e0 44 7b 90 3b 99 5a d2 3b 26 14 05 3c fa 1d 96 3b
       0.0044092257 0.0064194915 0.00812248 0.00458121
0001f0 20 c8 87 3b 4f ad f0 3b a8 e7 86 ba 60 40 f6 3b
       0.00414373 0.0073448787 -0.0010292428 0.0075149983

action_model._discrete_distribution.branches.0.weight f4 [6, 128]
000000 a8 d5 20 bb 66 b2 80 3c 78 e9 0d bc 7d 66 8c 3c
       -0.0024541412 0.015710067 -0.00866162 0.017138714
000010 f2 65 12 3c 7f 31 28 3c 71 1a 01 3d 0a fa c5 bb
       0.0089354385 0.010265707 0.031519357 -0.00604177
000020 0d 27 28 3c 05 27 d3 bc 15 d2 99 bc 2f 81 c4 bb
       0.010263217 -0.025775442 -0.018776933 -0.005996845
000030 a0 8a 05 3d 92 a4 4d bc a5 a4 da 38 78 53 fa 3a
       0.032602906 -0.012551444 0.000104257175 0.0019098362
000040 60 f4 88 3c b6 cb 6d bc df 1e 6a 3c 06 fb ca 3b
       0.01671809 -0.0145139005 0.014289587 0.006194475
000050 56 c5 01 bc 53 d4 a9 3c b1 9b 91 3b ff 23 79 bb
       -0.007920584 0.020731127 0.0044436087 -0.003801584
000060 f9 c1 f2 3b d1 79 8c bc 5f b7 45 3c 62 f8 8e ba
       0.0074083772 -0.01714793 0.012067645 -0.0010907764
000070 36 c2 96 bc 8a 8e 26 3c 81 6e 45 bb ce d8 0e bc
       -0.018403154 0.01016582 -0.003012568 -0.008718682
000080 30 26 9e 3c e4 e8 ba 3c e6 04 28 3c ce c6 5b 3c
       0.019305319 0.022816129 0.010255074 0.013414098
000090 54 60 2e 3c 8b fe 6f 3c 8f 07 15 3c be 86 a5 bc
       0.010643084 0.01464809 0.00909604 -0.020205852
0000a0 b3 07 4b 3c 50 6c 74 bc 60 52 91 3c 6e 56 16 bc
       0.012391972 -0.014918402 0.017739475 -0.00917588
0000b0 dd e0 ce bc 62 fe 99 bc 9d 8f dd 3c 37 3d 87 bc
       -0.025253708 -0.018798057 0.02704602 -0.016508682
0000c0 3e ac a4 bc 3c de 66 bc 92 ff 06 3c 70 1b c8 bc
       -0.020101663 -0.014091071 0.008239644 -0.024427146
0000d0 14 27 00 3b 8a 42 a4 bc 20 2e aa 3b 2b 95 b0 bb
       0.0019554542 -0.02005126 0.005193487 -0.005388876
0000e0 55 6a 99 ba 4e 59 97 bc b5 b0 01 3b f9 e6 b5 3b
       -0.0011704663 -0.018475201 0.0019789163 0.0055512157
0000f0 a3 4d 17 3c 85 cc f1 bb 3c c6 e5 ba 24 58 6d 3c
       0.009234819 -0.007379117 -0.0017530392 0.014486346
000100 3b ef a9 bc 0f 73 51 bc 27 19 50 3c 8d 4f 54 bc
       -0.020743957 -0.01278378 0.012701309 -0.0129584195
000110 27 63 1c bd 3c 40 9a 39 a3 c8 1a 3c 49 a9 35 3b
       -0.038180497 0.00029421027 0.00944725 0.002771931
000120 6f 83 4e bc d2 53 6c 3b a6 e6 d7 bc 04 69 d6 3c
       -0.012604578 0.0036060703 -0.026355099 0.026173122
000130 26 3b 87 bc b7 34 b1 3c 7b 62 e8 bc 32 96 c6 3c
       -0.016507696 0.021631582 -0.028367272 0.02424154
000140 13 9e b3 ba 04 ef 4a 3c 7d 2a 9c bc a2 9b 2a 3b
       -0.0013703726 0.012386087 -0.019063229 0.0026032706
000150 a3 3c 31 bc 92 27 4a 3c 27 94 0f 3d 94 cf 2f bb
       -0.01081768 0.012338536 0.0350534 -0.0026826607
000160 19 10 c9 3b 20 ee 7e bc 6e c2 40 3c 67 43 36 bc
       0.006135952 -0.015559703 0.011765106 -0.011124468
000170 72 07 a3 bc 65 d4 8d 3b 31 33 17 bc 71 d2 f6 3b
       -0.019901011 0.004328298 -0.009228514 0.007532411
000180 bd 6b 5f bc 6c 79 c9 3c aa dc 51 bc 6c e3 2f 3b
       -0.013636527 0.024594031 -0.012808958 0.0026838435
000190 ca 5c 24 3c ac b0 0a bc 63 79 3b bc fe 56 e2 3b
       0.010031888 -0.008464973 -0.011442515 0.006907343
0001a0 49 a2 8f 3b 3e 4c a1 bc 8f 8b b9 bc 8b 79 3c 3c
       0.0043833596 -0.019689675 -0.022649555 0.0115035875
0001b0 10 57 ea bb 8d 29 52 bc 9f 0b 36 bc ea b2 71 bc
       -0.007151492 -0.012827289 -0.011111169 -0.014752129
0001c0 26 90 81 3c c0 bb a1 bb 69 02 de 3b b4 34 55 bc
       0.015815806 -0.0049357116 0.0067751897 -0.013013054
0001d0 c0 3c c8 ba 95 ad 9e 3b 8a f1 43 bc dc 26 bf 3c
       -0.0015276894 0.00484247 -0.011959443 0.02333396
0001e0 b2 51 cc 3c e4 cb 65 bb 66 59 a3 bc ce 73 b0 bc
       0.0249413 -0.0035064155 -0.01994009 -0.021539595
0001f0 85 cc 57 3c 4a 6e 12 ba a0 0c 2d 3c 51 f4 af 3c
       0.01317132 -0.00055858924 0.010562092 0.021478804
000200 fa 71 ad bc 06 fa a8 bc 25 9e 29 3c 56 78 88 bb
       -0.021172512 -0.020627033 0.010352646 -0.004164736
000210 d1 6d b4 3c 77 e7 87 bb ac 8c 68 bc a3 02 ac 3c
       0.02202502 -0.004147466 -0.014193695 0.020997351
000220 9c 4d 6c 3c c6 7c 10 bc 88 c5 07 3d e5 ed 9c bc
       0.0144228 -0.008818811 0.033147365 -0.019156406
000230 b9 0b 87 bc 70 d3 7a 3b 04 b7 8f 3c 56 6b e9 39
       -0.016485082 0.0038273 0.017543323 0.00044521195
000240 11 9a 3f bc dc 2d 2e bb 07 bb a1 bc d3 8c 8e bb
       -0.011694447 -0.0026577627 -0.019742502 -0.0043502836
000250 3a a4 4f 3c 52 44 42 bc df 9a 0d ba 78 6a 3b 3c
       0.012673432 -0.011857109 -0.0005401801 0.011438958
000260 38 50 92 bc 02 a7 ec 3b 8a 8f 4f bc a6 40 08 bc
       -0.017860517 0.0072220573 -0.0126685 -0.008316195
000270 cb 68 92 3c 23 dc 4f 3c 7a 73 ca b9 12 f7 95 3c
       0.017872235 0.012686762 -0.0003861448 0.018306289
000280 de f0 38 bb 32 e4 5e bb c2 0d 6a bc 5b 78 cb bc
       -0.002821974 -0.0034010527 -0.014285507 -0.024837663
000290 b4 da f5 3b 25 44 8e bc 16 ed 9a bc a5 e4 b1 3c
       0.007502878 -0.017366478 -0.01891188 0.021715472
0002a0 6c db d9 3b 89 61 68 bb 5f 57 8a bc 93 7f ff bc
       0.0066484716 -0.0035458526 -0.016887365 -0.031188762
0002b0 66 5a a9 bb 16 84 13 3c 45 b3 25 bc 14 0a b2 bc
       -0.005168247 0.00900366 -0.010113542 -0.021733321
0002c0 77 51 de 3c a1 3c 2e bc 48 72 65 bc 76 96 b2 3c
       0.027138455 -0.010634572 -0.014004298 0.021800261
0002d0 ca 8a 97 3c 6c c4 3c 3c df b2 4d 3b 1b d3 43 3c
       0.018498797 0.01152144 0.0031387133 0.011952187
0002e0 50 f5 17 3b 4b 8f 31 bc ad 19 ec b8 85 94 4e 3c
       0.002318699 -0.010837386 -0.000112581394 0.012608652
0002f0 65 07 a3 bc 55 d4 89 bb f0 77 22 3c 56 ab f1 bb
       -0.019900987 -0.00420622 0.009916291 -0.007375161
000300 a5 a7 25 bc 2a 9e 9d 3c 03 cb 16 bb 1c 8a 78 3c
       -0.01011077 0.019240458 -0.0023009188 0.015169647
000310 e5 69 59 3c b8 4a 7e bc b6 52 9d 3c 6d a9 3f 3c
       0.013269876 -0.015520744 0.019204479 0.011698109
000320 2a 4e e1 bb bb 3b a6 3b d7 f5 d8 3b da 35 92 bb
       -0.006875773 0.0050730384 0.0066211033 -0.004461986
000330 0c 31 70 3c 75 d7 d5 bc 0e cd a7 bc 8b 73 aa bc
       0.014660131 -0.026103714 -0.02048352 -0.020807048
000340 f0 79 27 3c 45 1d cf bc 40 a7 6f bc f2 e3 e5 ba
       0.010221943 -0.025282511 -0.014627278 -0.0017539246
000350 78 5b b0 ba ed 52 9e 3c aa de af bb 4c e2 16 3c
       -0.0013454994 0.019326651 -0.00536712 0.009209227
000360 08 77 2b 3a d5 5b 71 3c 48 45 9d 3c 30 a1 85 bc
       0.00065408694 0.014731367 0.019198075 -0.016312212
000370 25 1e 34 bc 00 1f 3c bc bf c7 9a 3b 48 42 db bc
       -0.010993515 -0.011482 0.0047235186 -0.026765004
000380 b1 36 8c bc 35 61 ac bc 42 b2 9f 3c 0a da 6d bc
       -0.017115923 -0.021042446 0.01949418 -0.014517317
000390 6d cc 33 3b be ef 9f bc e4 8e 00 3c 4d 3c 24 bb
       0.002743508 -0.019523498 0.007846568 -0.0025060356
0003a0 cb bb ba 3b 75 c0 d7 3a bf 54 a5 3c e3 60 5f bc
       0.005698656 0.0016460555 0.020182012 -0.013633939
0003b0 84 78 18 bc e2 88 ac bc df 83 88 3c fc 80 03 3c
       -0.009306077 -0.021061365 0.016664444 0.008026358
0003c0 97 b1 92 bc 5e b2 f8 bb c6 57 b4 3b d8 5f 25 3c
       -0.017906947 -0.0075896224 0.0055036275 0.010093652
0003d0 32 b9 03 3b 0e d7 db bb 79 c2 45 bc 30 ac 0b b9
       0.0020099399 -0.006708986 -0.012070292 -0.00013320218
0003e0 84 08 71 bc c4 8c 15 bc 1b be ac bc 3c c0 6a bb
       -0.014711503 -0.009127799 -0.021086743 -0.0035820147
0003f0 01 96 79 bc 67 af 8b 3c 0f 8b e5 3a 87 d6 97 bb
       -0.015233518 0.017051412 0.0017512756 -0.004633728

action_model._discrete_distribution.branches.0.bias f4 [6]
000000 2a d2 b4 38 c3 f0 55 3a e3 1c 0c ba d3 00 21 3b
       8.622215e-05 0.00081611815 -0.00053448806 0.0024567142
000010 95 b7 81 bb 9a c9 2c bb
       -0.0039586523 -0.002636528

exp_avg f4 [128, 6]
000000 d0 5d 21 39 f4 8d 90 35 3f 10 84 ba a8 56 38 b9
       0.00015389104 1.077015e-06 -0.0010075642 -0.0001757989
000010 76 ff 36 39 02 b2 4b 38 1a 6c 59 38 27 cd c1 38
       0.00017452039 4.8564754e-05 5.183751e-05 9.24117e-05
000020 d1 44 d0 b8 9d f5 6d 38 13 59 9f 38 ba 0c 0e b9
       -9.931031e-05 5.673395e-05 7.598302e-05 -0.00013546916
000030 ef 6e 6c b9 16 36 d7 b9 ad ca 7b b9 32 b4 da b6
       -0.0002254804 -0.00041048293 -0.00024012728 -6.517884e-06
000040 ca 48 2b 39 53 32 97 39 fc c1 89 38 7c ab cd b8
       0.00016334947 0.0002883846 6.5688015e-05 -9.807103e-05
000050 ec 7f a6 b8 6c a1 af 38 00 e5 8b 39 43 7e 23 ba
       -7.939324e-05 8.3747174e-05 0.00026682764 -0.0006236771
000060 2a 26 a9 38 7f 44 5f b9 fe 5d d5 b9 3e 1a 84 38
       8.0656566e-05 -0.00021292454 -0.00040696556 6.2991385e-05
000070 1b 02 e6 b8 37 ee b8 38 92 5b f8 38 33 44 89 b9
       -0.00010967647 8.818175e-05 0.00011842618 -0.0002618149
000080 85 fe e3 38 4f bf 23 37 53 4d 5f b8 17 65 8f 39
       0.000108716114 9.7601e-06 -5.3239357e-05 0.00027350403
000090 29 60 b0 b9 a0 75 64 b6 5e c7 50 39 97 79 b0 b9
       -0.0003364098 -3.4043114e-06 0.00019910696 -0.00033659927
0000a0 18 fd 85 39 09 b1 2f 39 2a 7b f6 b8 4c 14 a6 b7
       0.00025556306 0.00016755251 -0.00011753135 -1.9798194e-05
0000b0 8c f4 83 b9 d1 71 fc 38 5e 15 e5 b9 49 52 98 39
       -0.0002516847 0.00012037496 -0.00043694203 0.00029053006
0000c0 6e 25 0e 39 0e 7b 80 b9 6e 06 44 b8 ea 75 aa b7
       0.00013556119 -0.00024505745 -4.673603e-05 -2.0320487e-05
0000d0 57 19 97 b9 d4 c0 8e 38 e4 ba 66 b8 bc e3 04 b9
       -0.00028819844 6.807005e-05 -5.501033e-05 -0.00012673339
0000e0 af 21 5c 36 db b5 3e 37 1f 2b 27 38 25 da da 38
       3.280216e-06 1.1367224e-05 3.9856062e-05 0.000104356826
0000f0 33 05 90 38 e7 a2 17 b8 5a d9 80 b9 c3 f4 c3 38
       6.8674235e-05 -3.615292e-05 -0.00024576002 9.343915e-05
000100 e8 8c 2b ba 2b 22 6c 39 e5 63 76 b9 b3 c1 c7 37
       -0.0006544129 0.00022519442 -0.00023497602 2.3812847e-05
000110 22 45 bb b8 ea c3 7a 38 ec 3e 6e 38 a6 48 99 b7
       -8.929732e-05 5.9787104e-05 5.6802222e-05 -1.827285e-05
000120 96 a4 7a 38 37 63 a2 b8 73 78 14 b7 32 f1 b2 36
       5.9757927e-05 -7.743242e-05 -8.849532e-06 5.332892e-06
000130 55 08 9e b9 2e bf 24 39 05 75 0e 38 24 a5 9c b7
       -0.00030142316 0.00015711479 3.396442e-05 -1.8673549e-05
000140 67 ec 00 38 0b a2 b4 b6 55 e4 84 39 e6 ae 44 b9
       3.0737745e-05 -5.3832823e-06 0.00025347123 -0.00018757171
000150 26 be 7d 39 fe af 3c b9 5c ea e0 b8 97 1c de b8
       0.00024198796 -0.0001799464 -0.00010724805 -0.0001059111
000160 7a 9f 41 39 ba f5 9e 38 b9 87 d7 b9 71 8a 04 39
       0.00018465324 7.579797e-05 -0.00041109117 0.00012640074
000170 e2 5d f4 b7 50 c3 f1 38 00 cc ec b7 e3 07 6e ba
       -2.9130784e-05 0.00011528155 -2.8228387e-05 -0.00090801547
000180 77 80 53 b9 e7 c6 60 39 9a 08 aa 39 1b eb d9 b9
       -0.00020170385 0.00021436402 0.00032431335 -0.00041564633
000190 9e 03 05 3a 80 9f c2 b9 e5 3a 87 b8 8a df d5 37
       0.00050740864 -0.000371214 -6.4482716e-05 2.5495672e-05
0001a0 36 e0 eb 39 d2 38 bb b8 14 79 05 39 01 c5 19 ba
       0.00044989743 -8.9274385e-05 0.00012728974 -0.00058658427
0001b0 5f 13 2b 37 8a 8f c9 38 12 eb 69 b9 bf 91 fa 38
       1.0196904e-05 9.611163e-05 -0.00022308182 0.00011948076
0001c0 cc 17 4f b9 7d 26 e1 b8 26 d8 cb 38 8e 61 c6 37
       -0.00019749923 -0.00010736005 9.720055e-05 2.3648867e-05
0001d0 7b 04 ee b8 9c e1 82 37 54 e8 ae b6 2a 3e d0 b9
       -0.00011349559 1.5602265e-05 -5.2126506e-06 -0.00039719167
0001e0 5a 0b 2d b4 74 0e c1 37 15 a7 8c 39 1d cb c3 37
       -1.611601e-07 2.3014123e-05 0.00026827367 2.3340393e-05
0001f0 19 e5 b2 ba ea 8f 9b b8 a3 ea 1e b9 95 8b 20 b8
       -0.0013648599 -7.417782e-05 -0.00015155463 -3.827697e-05
000200 42 44 06 3a 5f e1 43 b9 80 64 96 b8 cc 7c a1 b7
       0.00051218655 -0.00018680606 -7.171277e-05 -1.9250809e-05
000210 6c c0 49 38 84 ca 22 b9 1a af 8d 39 87 81 48 b8
       4.810134e-05 -0.00015524967 0.00027024077 -4.7804348e-05
000220 c8 fc 86 b8 29 3e 97 b8 de 3e 25 b7 45 10 a5 36
       -6.436702e-05 -7.211819e-05 -9.849404e-06 4.919277e-06
000230 ba ac 3d 39 51 20 a5 b8 b2 18 9c 38 e2 2b 10 ba
       0.0001808879 -7.8738325e-05 7.4432595e-05 -0.0005499703
000240 a6 8c 16 39 36 bb a2 b8 7f 8d 2c ba 8b e3 d6 b7
       0.0001435751 -7.759633e-05 -0.0006582364 -2.5616746e-05
000250 5c 45 64 39 27 39 2c b9 10 62 0d b9 7f 76 ac 38
       0.00021769613 -0.00016424489 -0.00013483339 8.223671e-05
000260 9b 50 cb 38 4f 0e 37 b7 27 72 21 ba 4a 53 04 39
       9.694808e-05 -1.09109815e-05 -0.00061586726 0.00012619529
000270 00 d3 69 38 43 08 4c 38 04 a6 f8 38 88 79 01 b9
       5.5748038e-05 4.8645084e-05 0.00011856484 -0.00012347673
000280 74 be 1e b8 2e dd 47 ba 87 5f da b8 36 83 89 37
       -3.784751e-05 -0.0007624206 -0.000104128434 1.6392773e-05
000290 c7 b0 a6 b9 3c e0 10 b9 09 88 64 39 12 60 14 39
       -0.00031793697 -0.00013816444 0.00021794451 0.00014150169
0002a0 36 f9 92 b9 47 75 a4 38 fe cf 6f b9 d6 7a 09 38
       -0.00028032967 7.841974e-05 -0.000228703 3.2777745e-05
0002b0 53 09 4d 38 e1 b1 35 38 36 53 ac b8 b9 57 6a b8
       4.8884493e-05 4.3319425e-05 -8.2170984e-05 -5.5871646e-05
0002c0 a4 0b f5 38 f0 64 d7 37 20 f5 05 ba b4 59 af 39
       0.000116846786 2.5677e-05 -0.0005110074 0.00033445435
0002d0 44 9d 66 36 9b 67 60 b8 3b fb 83 ba e2 5e 3a 38
       3.4364211e-06 -5.3502252e-05 -0.0010069379 4.4434222e-05
0002e0 fb ed 25 39 3c 1e b1 36 4a 96 81 37 4b ef 8c b9
       0.00015824281 5.278531e-06 1.5447982e-05 -0.00026881168
0002f0 a1 03 2d 39 34 81 77 38 ca cc 91 37 e9 d5 82 39
       0.00016499918 5.900972e-05 1.738071e-05 0.00024954908
000300 23 f1 06 39 e5 e4 fe 38 fd d7 04 39 b3 78 29 38
       0.00012869066 0.00012154299 0.00012668963 4.040515e-05
000310 c2 d0 02 ba 27 05 8e b9 d7 ae 20 b8 e4 72 e1 38
       -0.0004990214 -0.0002708819 -3.8309805e-05 0.00010750236
000320 b5 c2 8f b9 b3 a1 fd b8 91 5f ce 39 79 54 05 ba
       -0.00027420153 -0.00012094099 0.00039362584 -0.0005086135
000330 d9 17 0c 38 7e 0b 2a 38 b9 47 0e 39 ac c8 80 38
       3.340081e-05 4.054186e-05 0.00013568894 6.140894e-05
000340 3a 07 44 b9 6b 7f e3 b8 2d 6a ae 38 97 2c d7 b8
       -0.00018694709 -0.00010847937 8.316743e-05 -0.000102603044
000350 f9 94 97 39 b7 a4 ae b9 26 ae 63 b8 5c 20 1c b7
       0.00028911958 -0.00033310588 -5.4283206e-05 -9.305859e-06
000360 64 d0 32 b8 cd a3 a1 b6 48 95 9b 39 7e 68 3f b9
       -4.2632586e-05 -4.817243e-06 0.00029675127 -0.00018254106
000370 29 4b 20 39 2c ec a4 b6 3a 77 22 37 8b 96 b7 b8
       0.00015286788 -4.915075e-06 9.683712e-06 -8.754161e-05
000380 52 8a 77 39 a3 c7 84 b9 49 cd 79 b9 d7 7c a8 39
       0.00023607284 -0.00025325743 -0.00023822965 0.0003213647
000390 27 67 81 b6 cb 74 82 b9 34 19 0d 39 4e 05 a6 b8
       -3.856508e-06 -0.0002488255 0.00013456197 -7.916485e-05
0003a0 51 ac 06 b9 e7 15 b4 37 d7 27 b3 b9 00 bc ce b8
       -0.00012843429 2.1467871e-05 -0.00034171224 -9.857863e-05
0003b0 37 6e 15 3a 55 17 07 39 ab 15 2f b9 e2 32 89 b9
       0.0005700322 0.00012883295 -0.00016697372 -0.00026168587
0003c0 06 0b 2b b9 56 cd 07 38 ae 63 17 39 5c 38 89 b8
       -0.00016311937 3.2377742e-05 0.00014437616 -6.543167e-05
0003d0 84 c6 aa 38 ee c1 b5 b8 e5 fa 04 38 1f 4b fd 38
       8.143208e-05 -8.666875e-05 3.1704916e-05 0.000120779725
0003e0 03 7b ec b9 8a ee 87 38 d7 82 e0 b9 71 8d f6 b9
       -0.0004510508 6.481733e-05 -0.00042822093 -0.00047026158
0003f0 95 dd 2d b7 22 9b 65 39 fc 64 22 b9 e2 d7 86 b5
       -1.0363195e-05 0.00021896933 -0.00015487144 -1.0046608e-06

exp_avg_sq f4 [128, 6]
000000 9e da 60 31 f7 76 af 2d 74 6f 20 33 2b 07 9d 31
       3.272056e-09 1.9948028e-11 3.735427e-08 4.5701163e-09
000010 76 13 49 30 78 95 a6 30 64 84 b9 2f 62 77 39 31
       7.315103e-10 1.2120571e-09 3.3745373e-10 2.6988904e-09
000020 0b f3 da 2f 19 b5 3b 30 81 ba a1 2f 7c da 0a 31
       3.9826661e-10 6.828756e-10 2.9418248e-10 2.0205837e-09
000030 f0 da d4 31 ca 8c 00 33 ab 16 10 31 a3 3b bf 2f
       6.1949024e-09 2.993037e-08 2.0967643e-09 3.4785072e-10
000040 0b 62 d5 30 ab 90 78 31 87 5f 47 30 ad 8a bb 31
       1.5525655e-09 3.6170984e-09 7.253153e-10 5.458182e-09
000050 92 e0 5d 31 92 c6 87 30 20 db 09 31 3c 9d 6f 32
       3.2287386e-09 9.87898e-10 2.0060682e-09 1.3947382e-08
000060 66 cc 47 30 d1 f2 1e 32 58 ca c4 31 09 dc 02 30
       7.2686246e-10 9.2520205e-09 5.7273546e-09 4.7606413e-10
000070 73 61 04 31 b5 39 18 30 cf 32 c3 30 f3 5f 5e 32
       1.9263922e-09 5.5379284e-10 1.4202558e-09 1.2943917e-08
000080 c3 5f 3e 30 62 3e 8d 2e 8f 25 70 2f 21 e9 61 31
       6.9257683e-10 6.423019e-11 2.1841216e-10 3.2874328e-09
000090 29 dd 5d 32 dc 3b 31 30 bb 60 e6 30 b3 84 59 32
       1.2914179e-08 6.447729e-10 1.6762195e-09 1.2661235e-08
0000a0 04 a5 ee 30 79 4d 9f 31 a8 2a d3 30 e1 a8 68 2f
       1.7363679e-09 4.6363167e-09 1.5364394e-09 2.1160275e-10
0000b0 86 d2 32 31 70 af b8 30 05 29 c4 31 34 bd 84 31
       2.6022078e-09 1.3437624e-09 5.709014e-09 3.8632155e-09
0000c0 b7 90 0f 31 25 44 2c 32 31 15 54 2f ac 51 0f 2f
       2.08915e-09 1.0027212e-08 1.9288816e-10 1.303479e-10
0000d0 0d fc 22 31 34 9a a5 2f cf d6 9c 30 0c 66 a2 31
       2.3717377e-09 3.0122893e-10 1.1411546e-09 4.726422e-09
0000e0 53 11 8b 2e e3 53 35 2f fd d6 71 2e a4 11 fe 2f
       6.3240656e-11 1.6491657e-10 5.4988004e-11 4.6214865e-10
0000f0 f5 56 97 31 9f 11 04 30 02 03 36 31 bf 2f 4b 30
       4.4045643e-09 4.804636e-10 2.6486195e-09 7.391882e-10
000100 4e 71 73 32 b5 d8 17 31 80 d7 e7 31 f2 20 ae 2f
       1.4170224e-08 2.2096576e-09 6.7474843e-09 3.1673825e-10
000110 d0 31 ef 2f b6 c9 08 30 ab d7 bd 2e 35 66 26 30
       4.350924e-10 4.976316e-10 8.633035e-11 6.0535693e-10
000120 96 65 2e 30 fc e2 8b 30 f0 1c 7d 2e 12 4d 81 2d
       6.3445194e-10 1.0178094e-09 5.755124e-11 1.4699828e-11
000130 15 61 67 31 78 52 70 30 c2 4c e0 2e 4e 99 5d 2f
       3.367011e-09 8.7428687e-10 1.01999756e-10 2.0154298e-10
000140 77 32 4c 2f 06 c6 98 2d 95 c1 e5 30 af 72 a9 30
       1.857162e-10 1.736834e-11 1.6716962e-09 1.2328963e-09
000150 8e 4f 07 32 6e 1e ec 31 b9 78 13 30 33 3d c3 30
       7.876123e-09 6.8719634e-09 5.3649846e-10 1.4205511e-09
000160 f1 64 71 30 3b c5 1b 30 ef 54 99 32 fa 90 3e 31
       8.7818736e-10 5.6668953e-10 1.7850168e-08 2.7731049e-09
000170 e6 1a 12 30 39 14 c4 30 23 3e 3c 2f 3d 84 fb 32
       5.3152716e-10 1.4266625e-09 1.7120576e-10 2.928038e-08
000180 68 8c 3e 32 6b c1 30 32 4b 6d c0 31 c4 f9 7d 32
       1.109138e-08 1.02885265e-08 5.6003606e-09 1.4783328e-08
000190 23 1f 1d 32 ad 0c 08 32 28 e9 83 30 e0 2e 02 30
       9.145682e-09 7.919124e-09 9.597771e-10 4.736034e-10
0001a0 54 c5 06 32 97 f2 c8 30 2b 5c 28 30 20 83 69 32
       7.844694e-09 1.4620863e-09 6.124902e-10 1.3592199e-08
0001b0 25 73 7a 2f 39 ad 00 31 ec be fb 30 48 46 71 31
       2.2778275e-10 1.8724917e-09 1.8316917e-09 3.5110066e-09
0001c0 54 c4 0e 31 77 1e 41 30 b2 d4 af 30 c5 2c 72 30
       2.077532e-09 7.0256284e-10 1.2793377e-09 8.810271e-10
0001d0 49 07 b0 30 0c cc cf 2d d8 ab 78 2e ff f1 0e 32
       1.2807756e-09 2.362379e-11 5.65413e-11 8.320511e-09
0001e0 92 54 91 2b fc a5 d5 2e 75 c9 51 31 ff 12 83 2e
       1.0326343e-12 9.715603e-11 3.0528018e-09 5.960565e-11
0001f0 f0 1b 64 33 9f b3 ce 30 b0 32 4f 31 11 f1 c3 2f
       5.3110796e-08 1.5039524e-09 3.0151277e-09 3.564158e-10
000200 e0 08 33 32 82 51 49 31 b3 f8 b4 2f cd c5 1d 30
       1.0421189e-08 2.9295681e-09 3.291852e-10 5.739736e-10
000210 43 3f 90 30 3b 19 e2 31 2f 67 47 31 73 c2 90 30
       1.0495359e-09 6.580334e-09 2.9016964e-09 1.0532645e-09
000220 22 3e 23 2f 64 d7 7b 30 07 5b c0 2f 94 9c c8 30
       1.4846838e-10 9.1619357e-10 3.4989275e-10 1.4596417e-09
000230 78 da a3 30 db cc 4c 30 c9 0c 17 2f a7 38 2e 32
       1.1921903e-09 7.4505885e-10 1.3737912e-10 1.0141014e-08
000240 26 5d 67 31 ca 9a 6d 30 b5 f1 89 32 ec f5 3f 31
       3.3667873e-09 8.6440066e-10 1.6058815e-08 2.7933948e-09
000250 60 37 b0 30 02 c6 da 30 7b 76 18 31 4d 3d 84 30
       1.2821424e-09 1.5917865e-09 2.218626e-09 9.621687e-10
000260 ea 8a c0 2f 0a 59 54 2f 3f 0a 23 32 84 9e 2e 30
       3.50233e-10 1.9312921e-10 9.490178e-09 6.3526095e-10
000270 d1 f2 ae 2f e2 03 d1 2f 51 78 3a 30 c5 ae d7 30
       3.1822947e-10 3.8019637e-10 6.7837386e-10 1.5692981e-09
000280 54 dd d4 2e ff 8e d6 32 86 1f 0b 31 3f 49 39 2f
       9.6799596e-11 2.4977906e-08 2.0245081e-09 1.6851674e-10
000290 52 e5 82 31 f6 e2 8e 31 63 30 ae 30 67 ba d3 30
       3.8095687e-09 4.1585464e-09 1.2673919e-09 1.5405249e-09
0002a0 1a 51 1d 32 d1 8a ab 30 02 1b 26 31 fc 6f 38 2f
       9.157043e-09 1.2481342e-09 2.4171531e-09 1.6774487e-10
0002b0 cc 0f c6 2f 99 5a f2 2e 22 d4 6d 30 37 09 81 30
       3.6027215e-10 1.1020979e-10 8.6521557e-10 9.388604e-10
0002c0 3e 4c 1a 30 5f 01 9f 30 56 77 13 32 9b af c1 31
       5.613322e-10 1.1569162e-09 8.58366e-09 5.6370033e-09
0002d0 97 b6 76 2d 87 72 eb 2f 68 7c 1e 33 d6 ea de 2f
       1.4024024e-11 4.2827628e-10 3.690039e-08 4.0548426e-10
0002e0 ea 85 4d 30 16 93 a8 2c a5 8b c9 2e 33 bf 42 32
       7.476887e-10 4.791177e-12 9.1652276e-11 1.133576e-08
0002f0 ff 10 de 30 30 8c d8 2f 8d 98 b0 2f 61 77 10 31
       1.6157456e-09 3.938978e-10 3.2122607e-10 2.1022617e-09
000300 8f 2f 5e 31 1e cb 23 31 44 dc 91 30 16 fc 92 2f
       3.2332286e-09 2.383508e-09 1.0612742e-09 2.6736363e-10
000310 af f5 d5 31 9e 34 b4 31 54 52 97 2f ac 9a 13 31
       6.227047e-09 5.2446714e-09 2.7525238e-10 2.1479236e-09
000320 bc 6f 6f 31 b9 b8 70 31 c2 5b 9e 31 44 44 36 32
       3.484259e-09 3.50296e-09 4.608837e-09 1.0609316e-08
000330 db c9 10 2f d8 8b 5b 2f eb cc 37 30 d2 5c 90 30
       1.3168437e-10 1.9967616e-10 6.686622e-10 1.050376e-09
000340 fa a6 bb 30 85 ab 4f 30 56 49 62 30 bf 41 65 31
       1.3653498e-09 7.5549905e-10 8.232254e-10 3.3361258e-09
000350 33 58 63 31 01 f6 30 32 25 a7 75 2f fd ab 80 30
       3.3082983e-09 1.0300483e-08 2.2342002e-10 9.362108e-10
000360 10 d8 24 30 6e 9d e1 30 15 af 90 31 7b 3f c8 31
       5.9969896e-10 1.6415649e-09 4.210856e-09 5.827983e-09
000370 20 9a db 30 e0 ff 42 30 89 be 94 2d 5e cd 6d 31
       1.5978152e-09 7.094041e-10 1.6910267e-11 3.4604777e-09
000380 49 7a 87 31 9d f9 db 31 1b 9c 1a 31 e2 79 91 31
       3.9429193e-09 6.4021166e-09 2.2498685e-09 4.233912e-09
000390 8a d9 94 2c dc 36 2d 32 18 ba b4 30 4e 6e 08 31
       4.2305647e-12 1.0082399e-08 1.3149615e-09 1.9853306e-09
0003a0 60 1f 0b 30 38 a5 87 2d c3 f7 56 32 8d 19 e4 30
       5.061249e-10 1.5421095e-11 1.2512774e-08 1.6596445e-09
0003b0 54 f7 5b 32 a7 ec 49 31 c9 d4 de 30 7f 85 94 31
       1.2803714e-08 2.938387e-09 1.6213103e-09 4.3225437e-09
0003c0 57 62 3e 31 c7 a8 21 2f b9 b5 59 30 65 fb 2f 30
       2.7704539e-09 1.4702826e-10 7.9202384e-10 6.402188e-10
0003d0 fd c6 55 2f 46 e2 14 30 d1 69 2b 30 f2 4b 9a 31
       1.9442932e-10 5.416364e-10 6.235981e-10 4.490624e-09
0003e0 82 da 08 32 58 59 bf 2f 5e 01 a1 31 ae e4 66 32
       7.965925e-09 3.480618e-10 4.685872e-09 1.3439758e-08
0003f0 d9 2b cb 2e be 43 32 32 ee 66 0b 31 35 b6 57 30
       9.23916e-11 1.0376366e-08 2.028567e-09 7.8475476e-10

exp_avg f4 [128]
000000 71 1b 53 ba 9f f1 30 38 fc e6 e1 b9 86 c9 c9 b9
       -0.00080531003 4.2186697e-05 -0.0004308744 -0.00038487854
000010 8f 7a 02 ba 76 d7 4c 39 00 4b 63 b8 39 9b d9 b9
       -0.0004977369 0.00019535222 -5.4190867e-05 -0.00041505115
000020 a5 f9 cf b9 b2 f5 bf b7 fa eb 0f ba a0 f6 53 b9
       -0.00039668116 -2.2883385e-05 -0.00054901803 -0.00020214403
000030 f0 89 2d b9 d8 70 df 38 0e 4a e5 38 06 bd 94 ba
       -0.00016549951 0.000106544874 0.00010933365 -0.0011347837
000040 90 43 71 38 6f 58 10 b9 21 6a 9e b9 ad f0 c6 b9
       5.75218e-05 -0.00013765854 -0.0003021518 -0.0003794482
000050 54 66 93 ba 2c 01 3b 38 71 d0 b1 b7 04 59 c6 b9
       -0.0011245706 4.4585366e-05 -2.1197107e-05 -0.00037831825
000060 cb f5 13 ba 5e 32 ef b9 05 b5 37 ba 0e 59 41 b9
       -0.0005644231 -0.0004562316 -0.000700787 -0.0001843909
000070 22 3d a0 b9 2d 6e 34 b9 ab 92 5e ba 86 1d 79 39
       -0.00030563126 -0.00017207181 -0.0008490483 0.00023757489
000080 c9 d9 b8 b9 a3 2d e7 b9 69 90 cc b7 43 2e 05 b9
       -0.00035257477 -0.00044093755 -2.4385941e-05 -0.00012701102
000090 a2 24 61 39 4a c6 47 b7 ea 83 9f b9 ec 58 32 b9
       0.00021471319 -1.1907492e-05 -0.00030425127 -0.00017008529
0000a0 96 37 6f b8 60 67 94 ba d7 bf 73 b9 36 de 58 b9
       -5.703381e-05 -0.0011322312 -0.00023245752 -0.00020682145
0000b0 47 b9 bb b9 ed 08 1f 35 97 05 46 ba 54 0c f2 b9
       -0.00035805462 5.9245104e-07 -0.00075539335 -0.00046167022
0000c0 bb 00 af b9 07 a3 70 ba b3 33 c5 b8 ff cb 54 ba
       -0.00033379145 -0.00091795664 -9.403322e-05 -0.0008117556
0000d0 ff 71 32 ba ab ba 15 b9 91 9b c3 b9 fe 89 2a b8
       -0.0006807148 -0.00014279287 -0.00037309204 -4.0659674e-05
0000e0 66 b9 21 ba 34 8b 06 39 0d 67 47 ba b4 23 0d ba
       -0.0006169289 0.00012831093 -0.00076066033 -0.00053840433
0000f0 c0 30 4d 35 1b 93 1a b9 bb 86 8f b8 aa 1e d3 b9
       7.643939e-07 -0.00014741386 -6.843867e-05 -0.00040267903
000100 82 19 12 39 2e 0d bf b9 b8 f1 a2 39 b6 f0 3c 39
       0.00013933147 -0.00036440179 0.00031079142 0.00018018749
000110 f1 fb 48 38 37 6c ac b9 83 1b b3 b9 d3 16 0d ba
       4.7918355e-05 -0.00032887023 -0.00034162038 -0.0005382124
000120 4e ed 55 b9 fe b3 18 b9 5e c4 0c 39 07 21 3f ba
       -0.00020401666 -0.00014562902 0.00013424593 -0.0007290993
000130 35 da fd b9 27 a5 8f b8 bc d9 c7 b9 b4 bd ea b8
       -0.00048418497 -6.8495334e-05 -0.00038118463 -0.000111933245
000140 55 a8 35 ba 71 da 8e b9 41 f0 6e ba 2a eb bb 37
       -0.00069296855 -0.00027247102 -0.000911478 2.2401644e-05
000150 98 17 22 b9 d7 94 40 b9 55 fd 29 ba 1f 64 54 ba
       -0.00015458313 -0.00018365994 -0.0006484588 -0.00081020774
000160 4f 76 e1 b9 c8 8b 06 ba 2d f9 b3 b9 98 d4 27 ba
       -0.0004300349 -0.00051325234 -0.0003432719 -0.00064022234
000170 8b 0a 47 ba 72 51 30 3a 4f 29 1b ba 0e a3 fb 38
       -0.00075928186 0.00067260035 -0.0005918936 0.00011998984
000180 0f 4b ac b9 50 bd 69 39 3a 19 86 b9 ac 76 58 b9
       -0.0003286232 0.00022291136 -0.00025577267 -0.00020643574
000190 50 d4 16 39 7d ca 58 39 50 cb 11 b7 c2 e8 8a b9
       0.00014384207 0.00020674798 -8.690011e-06 -0.0002649483
0001a0 82 73 8e b9 ab 18 1a ba 6c c1 1f ba 48 7d 9c b9
       -0.0002717041 -0.00058783096 -0.0006094191 -0.0002984798
0001b0 d5 7f 58 38 0d ad 80 39 15 a9 f7 b9 28 b8 04 37
       5.1617466e-05 0.00024542995 -0.00047237487 7.91069e-06
0001c0 62 d4 ba 37 33 bd 51 ba f0 4b bf b9 9c b0 9b b8
       2.2271826e-05 -0.000800091 -0.00036486937 -7.423872e-05
0001d0 b2 00 e9 b9 ac 27 a1 38 cf 09 16 ba 0e d2 a1 37
       -0.0004444174 7.684468e-05 -0.00057235075 1.929051e-05
0001e0 29 35 02 b9 9b 9b 86 b9 27 a0 6d ba 4e c9 d2 b9
       -0.0001241757 -0.00025674407 -0.0009064697 -0.00040204305
0001f0 dc 6f ee 38 72 51 04 39 fe 57 2a ba 98 ee 3f 38
       0.0001136956 0.00012618842 -0.0006498097 4.5760156e-05
