results/color-train1/ColorMatchAgent/ColorMatchAgent-3629.onnx (onnx, 77663 bytes, 6 tensors)

network_body._body_endoder.seq_layers.0.weight f4 [128, 6]
0	0xbeeb5874	-0.45965922
1	0xbed7cb61	-0.42147353
2	0x3f1945ab	0.5987193
3	0x3f56db93	0.83928794
4	0xbf2e34c3	-0.6804926
5	0xbe79bbda	-0.24388066
6	0xbdd30d1c	-0.10305235
7	0xbd86b210	-0.065769315
8	0xbe1073f3	-0.14106731
9	0xbe743556	-0.23848471
10	0xbe751210	-0.23932672
11	0xbed42cd4	-0.4144045
12	0x3edb6e3d	0.42857543
13	0x3eac2ae3	0.3362647
14	0x3e9c748c	0.30557668
15	0xbd55f3f2	-0.052234598
16	0x3e43767f	0.19088171
17	0xbf00b849	-0.50281197
18	0xbe9ff5f1	-0.31242326
19	0xbe49d553	-0.19710283
20	0x3eb34206	0.3501131
21	0xbe2ce8d9	-0.168857
22	0xbe786c85	-0.24260147
23	0x3e8555a6	0.26041907
24	0xbd27c597	-0.04095992
25	0x3e7db5c7	0.24776374
26	0x3f18a3d1	0.59624964
27	0xbeb2cb68	-0.34920812
28	0x3eb80221	0.35939124
29	0xbe8266a5	-0.25468937
30	0xbeabf6f7	-0.33586857
31	0x3d9ac283	0.075566314
32	0xbeb0026a	-0.34376842
33	0xbed1c240	-0.40968513
34	0xbe952bbe	-0.29134935
35	0xbead8933	-0.33893737
36	0x3f36c69b	0.713968
37	0xbe785667	-0.2425171
38	0xbf1df8eb	-0.61707944
39	0x3f00d5d3	0.5032627
40	0xbeb50961	-0.35358718
41	0x3ebe8ca3	0.37216672
42	0x3df4c6e4	0.11951998
43	0xbe6924ad	-0.22767897
44	0x3e51acaf	0.2047603
45	0xbe901ff5	-0.2814938
46	0x3e9f84c1	0.3115597
47	0xbe5fe037	-0.21862875
48	0xbf03ef9e	-0.515375
49	0x3f17410d	0.59083635
50	0x3d2fd52c	0.042927906
51	0xbead00bd	-0.33789626
52	0x3e771ddc	0.24132484
53	0xbee187ad	-0.44048825
54	0x3ebd21c2	0.36939818
55	0xbe478b9f	-0.19486855
56	0xbf09ac41	-0.53778464
57	0xbf0b0f61	-0.5432034
58	0xbf50869b	-0.8145539
59	0xbf292c10	-0.6608286
60	0x3e77d31f	0.2420163
61	0xbd0b794a	-0.034051217
62	0xbc78c624	-0.015183959
63	0xbef5d9fd	-0.48017874
64	0x3e61d8ea	0.22055402
65	0xbe9fdc1a	-0.31222612
66	0x3d5ff931	0.054681007
67	0xbe71bc5b	-0.23607008
68	0x3eb3dffb	0.3513182
69	0xbf34b671	-0.70590883
70	0xbf50dff9	-0.81591755
71	0x3e9bcfc8	0.30431962
72	0xbeb7dcfd	-0.35910788
73	0x3e0c3f96	0.13696131
74	0xbf138cf3	-0.57636946
75	0xbf1df70c	-0.6170509
76	0xbeaca043	-0.3371602
77	0xbee83f50	-0.45360804
78	0xbe3329d4	-0.17496425
79	0xbe6019fd	-0.21884914
80	0xbeabc45b	-0.33548245
81	0xbf18985c	-0.5960748
82	0xbeab9575	-0.33512464
83	0xbca21351	-0.019784601
84	0xbe2eb0f3	-0.17059688
85	0xbd6fbd1e	-0.058529966
86	0xbec4ab35	-0.3841187
87	0xbdd482a4	-0.1037648
88	0xbec2449f	-0.3794298
89	0xbea2ef29	-0.3182309
90	0x3f3332d2	0.6999942
91	0xbe215356	-0.15754446
92	0x3e477860	0.19479513
93	0xbf107462	-0.56427586
94	0xbeea8f97	-0.45812675
95	0x3f9f6150	1.2451572
96	0x3ea8fa54	0.33003485
97	0xbe104132	-0.1408737
98	0x3e4b5d34	0.19859773
99	0x3f8b14c5	1.0865713
100	0x3e380242	0.17969611
101	0xbe2163c3	-0.15760712
102	0xbe26a3fb	-0.16273491
103	0xbd44f9a9	-0.048089657
104	0xbe557c62	-0.2084823
105	0x3eb60bb9	0.3555582
106	0x3e063517	0.1310619
107	0x3e9c017f	0.3046989
108	0xbe7f8c7b	-0.24955933
109	0xbdb38641	-0.08765841
110	0x3e3cffcb	0.18456952
111	0xbe585882	-0.21127513
112	0xbd5069bb	-0.050882082
113	0xbcc52363	-0.024064725
114	0xbe8ac90f	-0.2710652
115	0x3e890842	0.26764113
116	0x3ebd4b26	0.36971396
117	0xbf7613ea	-0.96124136
118	0xbce08c3c	-0.027410619
119	0x3e7675f6	0.24068436
120	0xbf7b0045	-0.98047286
121	0xbe67e833	-0.2264717
122	0xbe84ea2b	-0.25959906
123	0xbf44828a	-0.76761687
124	0x3f1b2440	0.6060219
125	0x3c08bddf	0.00834605
126	0x3edf3291	0.43593267
127	0x3e32f8f6	0.17477784
128	0xbe68acbd	-0.22722144
129	0x3f4739fe	0.77822864
130	0xbe91799f	-0.28413102
131	0xbd0d3445	-0.034473676
132	0x3d9d3f8f	0.076781385
133	0xbd76c525	-0.060246605
134	0xbe865959	-0.26240042
135	0xbe9b7419	-0.30362013
136	0xbe42fbec	-0.19041413
137	0x3b4f4234	0.0031625153
138	0xbd6c9b8e	-0.057765536
139	0x3f0425a1	0.5161992
140	0xbf0a0d43	-0.53926486
141	0x3e4ea353	0.20179491
142	0xbf4ff13d	-0.81227475
143	0x3ee13b5e	0.43990606
144	0x3e318a91	0.17338015
145	0x3e86abf5	0.26303068
146	0x3edc4e35	0.43028417
147	0xbe8009ce	-0.2500748
148	0x3d004c2b	0.03132264
149	0x3ec2e858	0.3806789
150	0xbeaa7718	-0.33293986
151	0xbeb4dd1e	-0.3532495
152	0xbf2ea4e2	-0.6822034
153	0xbeac2a35	-0.3362595
154	0xbbe50b48	-0.00698987
155	0xbf1afac8	-0.6053891
156	0xbeb1f28b	-0.34755358
157	0xbf68624c	-0.9077499
158	0xbdd5ede6	-0.10445766
159	0x3dfeb081	0.12436009
160	0xbeb79cb6	-0.35861748
161	0x3e92149c	0.2853135
162	0x3f552567	0.83260196
163	0x3d097e31	0.03356761
164	0x3ef33a92	0.47505623
165	0xbe1b09f9	-0.15140523
166	0xbebd4fba	-0.3697489
167	0xbe61c016	-0.22045931
168	0xbb061d9b	-0.0020464424
169	0xbf0cc005	-0.549805
170	0x3dd38e54	0.10329881
171	0xbedf9ff3	-0.4367672
172	0xbd81b1fd	-0.06332777
173	0xbf3ffbeb	-0.7499377
174	0x3ed64629	0.41850403
175	0xbeaf824e	-0.34279102
176	0xbe1dbe89	-0.15404715
177	0x3ef052a9	0.46938065
178	0x3e5eeb9a	0.21769562
179	0xbde57f37	-0.11205905
180	0xbea35fb9	-0.31908968
181	0xbeac1a88	-0.33613992
182	0x3f04491c	0.51674056
183	0xbedf6680	-0.4363289
184	0xbeabd286	-0.33559054
185	0xbf8e963e	-1.11396
186	0x3d1ad67e	0.037802212
187	0x3edda2e8	0.4328835
188	0x3dfb6e53	0.12276902
189	0xbe8da4b7	-0.2766473
190	0xbdae8fe6	-0.0852354
191	0xbf04145d	-0.5159357
192	0x3f03837c	0.51372504
193	0x3d9340af	0.07190072
194	0x3eb10231	0.34571984
195	0xbdd5617c	-0.10418984
196	0x3f5311c5	0.8244899
197	0xbd756e6f	-0.05991977
198	0x3e278a9a	0.16361466
199	0x3e0a15e5	0.13484915
200	0x3eb3019f	0.34962174
201	0x3e045ee7	0.12926827
202	0xbda98189	-0.0827666
203	0x3ebaac36	0.36459512
204	0xbde89fef	-0.1135863
205	0xbd7e18cc	-0.062035367
206	0xbf21fd99	-0.63277584
207	0x3e125528	0.14290297
208	0xbd705e9b	-0.058683973
209	0x3e4b5ba5	0.19859178
210	0x3eb4f7f8	0.35345435
211	0x3d9b1996	0.075732395
212	0xbedab4c3	-0.42716035
213	0x3ef2e883	0.47443017
214	0x3dbf4bc4	0.09340623
215	0x3e185390	0.14875627
216	0xbef8ef34	-0.48619998
217	0x3ec6dcb8	0.3884027
218	0x3e7cf161	0.24701454
219	0x3e12d27d	0.14338107
220	0x3e599de3	0.21251635
221	0x3e720f90	0.23638749
222	0xbdc4ecc4	-0.09615472
223	0xbe0240da	-0.12720051
224	0x3d97b67f	0.07407855
225	0x3ecb3f6e	0.3969683
226	0xbdb99f15	-0.090635456
227	0xbec5e5b1	-0.38651803
228	0xbf3e3007	-0.74292034
229	0x3ed8d1a2	0.42347437
230	0xbe48361e	-0.19551894
231	0xbe84e95e	-0.25959295
232	0xbe05c569	-0.13063587
233	0xbf91f12e	-1.1401727
234	0x3f2d267c	0.6763685
235	0x3eb230d2	0.34802872
236	0x3e0d3201	0.13788606
237	0x3e46d68b	0.19417779
238	0x3e773e4d	0.2414486
239	0x3ec4360c	0.38322484
240	0x3eea3900	0.45746613
241	0xbf21ad26	-0.6315483
242	0xbf11a238	-0.5688815
243	0xbca4158c	-0.020029806
244	0xbe584512	-0.21120098
245	0xbc8ed618	-0.017436072
246	0x3d15f942	0.036614664
247	0xbc688d0f	-0.014193787
248	0x3e587409	0.21138014
249	0xbf4896fa	-0.7835537
250	0x3e8c0695	0.27348772
251	0xbcb1cdb3	-0.02170453
252	0xbe1bb830	-0.1520698
253	0x3d764447	0.060123708
254	0x3e795e54	0.2435239
255	0x3f0805f6	0.53134096

network_body._body_endoder.seq_layers.0.bias f4 [128]
0	0x3bb3e9e1	0.005490527
1	0xbc2cadc2	-0.010539474
2	0x3c5d7baf	0.013518258
3	0x3bc861f6	0.0061151935
4	0x3c008079	0.00784313
5	0x3b88d40a	0.0041756677
6	0x3c33a667	0.010964966
7	0x3bf47e48	0.007461343
8	0x3be57988	0.007003013
9	0x3bb15548	0.0054117776
10	0x3c02a7c8	0.0079745725
11	0x3c28de07	0.010306842
12	0x3ba99c62	0.005176113
13	0x3abcc80d	0.0014402881
14	0x3b94c1f8	0.0045397244
15	0x3c28bfcd	0.010299635
16	0x3bb38a4e	0.0054791337
17	0x3c0f385d	0.008741465
18	0xbb8a2fa8	-0.004217107
19	0x3b1213ba	0.002228959
20	0x3c4b059e	0.012391476
21	0x3bc7400e	0.006080634
22	0x3be632bc	0.007025091
23	0x3ba9e2a7	0.00518449
24	0x3c012673	0.007882702
25	0x3c47202e	0.012153668
26	0x3c7dd1a5	0.015491878
27	0x3c092187	0.00836981
28	0x3c4b9232	0.012424992
29	0xbb0a9035	-0.0021143083
30	0x3c7b3438	0.015332274
31	0xbb2b9498	-0.0026181098
32	0xbbc7247c	-0.0060773473
33	0x3c1ae1c7	0.009453244
34	0xbbe225ac	-0.0069014635
35	0x3c219cb2	0.009864019
36	0xbb5daa76	-0.0033823526
37	0x3c17e9e2	0.009272071
38	0x3bf0ffa2	0.0073546926
39	0x3c114c1c	0.008868244
40	0x3ae72d5c	0.001763742
41	0x3c34f948	0.011045761
42	0xbb8b518d	-0.004251665
43	0x3c35747e	0.011075137
44	0x3c24d6cf	0.01006098
45	0xbb604ce8	-0.0034225527
46	0x3c58ac06	0.013224607
47	0x3c4b05a5	0.0123914825
48	0x3bdfc219	0.006828558
49	0x3c6fb5fd	0.014630792
50	0x3bc341a4	0.0059587527
51	0x3c78852a	0.015168468
52	0x3b8361c1	0.004009456
53	0x3be797e2	0.0070676664
54	0x3bca9421	0.006182209
55	0x397108e2	0.0002298686
56	0x3b8d79e7	0.0043175104
57	0xbbd9bed8	-0.006645065
58	0x3c3ec2b1	0.011643098
59	0x3c4169b0	0.011804983
60	0x3c0c807b	0.008575554
61	0x3c0c78d4	0.00857373
62	0x3c0cfab7	0.008604697
63	0x3c789455	0.015172084
64	0x3b87c222	0.0041430155
65	0x3bfae7c3	0.0076570227
66	0xbc2cd4fa	-0.010548824
67	0x3c0cb2a0	0.008587509
68	0x3badb053	0.0053005605
69	0x3c02a173	0.007973063
70	0x3c1b688d	0.009485376
71	0x3c3a469b	0.011369373
72	0x3c4cc24c	0.012497496
73	0x3c2495df	0.010045498
74	0xbbaf4ccf	-0.0053497325
75	0x3c4f2930	0.012644097
76	0x3bd7995e	0.006579562
77	0x3a65a064	0.0008759557
78	0x3babd0ec	0.0052434113
79	0xbbdff2fb	-0.0068343855
80	0x3c5338d6	0.012891969
81	0x3c297b54	0.010344345
82	0x3c4aa03f	0.012367307
83	0xbb7cf537	-0.0038598308
84	0x3bd5b100	0.006521344
85	0x3b967d3c	0.004592566
86	0x3c3d5553	0.011555987
87	0x3bbb8228	0.005722303
88	0x3bbe036c	0.0057987478
89	0x3c6877f7	0.014188758
90	0x3c49110e	0.012272133
91	0xbb59237d	-0.0033132725
92	0x3c62f093	0.013851303
93	0xbb5c4c88	-0.0033614952
94	0x3c47f7da	0.0122050885
95	0xbc16c4c1	-0.009202183
96	0xbaa59202	-0.0012632015
97	0xbb50a30e	-0.003183547
98	0xbab0c6b1	-0.0013486949
99	0xbb866fd2	-0.0041026855
100	0xbc17cbd0	-0.009264901
101	0x3c1ac06a	0.009445289
102	0x3c3242a9	0.010880151
103	0x3c24905b	0.010044183
104	0x3c31d74b	0.0108545525
105	0xbb23fa6b	-0.0025021087
106	0x3c574e8e	0.0131412875
107	0x3c4ef66e	0.012631996
108	0xbc0b0d9b	-0.0084871305
109	0x3b7414f0	0.0037243925
110	0xbbaddd93	-0.0053059547
111	0x3c3f4eb3	0.011676478
112	0xbc00deda	-0.007865632
113	0x3c02ff3f	0.007995426
114	0x3c30702b	0.01076893
115	0x3bafc8fd	0.005364536
116	0x3c4be7ff	0.012445449
117	0x3c14b8da	0.009077275
118	0x3c1fef3e	0.00976163
119	0x3b93b7b7	0.0045079845
120	0x3c35fd77	0.011107794
121	0x3a9ce774	0.0011970834
122	0x3c6f3832	0.0146008
123	0x3c56323e	0.013073502
124	0x3b50cd12	0.0031860513
125	0xbb553508	-0.003253283
126	0x3c6e2473	0.014535057
127	0xbc08244c	-0.008309435

network_body._body_endoder.seq_layers.2.weight f4 [128, 128]
0	0xbdfa60be	-0.12225483
1	0xbcd9cb31	-0.026586147
2	0xbd11c9b8	-0.035592765
3	0xbd3ee3b0	-0.04660386
4	0xbda39544	-0.079874545
5	0xbc8511a6	-0.016243767
6	0xbd3aa5f7	-0.045568433
7	0xbcb9c275	-0.022675732
8	0xbe5626c5	-0.20913227
9	0x3ca2a1c4	0.019852526
10	0xbd6edb46	-0.058314584
11	0xbcebea08	-0.028798118
12	0xbd23036a	-0.039798178
13	0x3c916fa3	0.017753428
14	0x3cbf89f7	0.023381216
15	0xbde379bc	-0.11107203
16	0x3cfe838d	0.031068588
17	0xbd950dad	-0.07277999
18	0xbde4d959	-0.11174268
19	0x3dba3023	0.090912126
20	0x3e59a823	0.21255545
21	0x3de78cb6	0.11306135
22	0x3dcb581b	0.09928914
23	0xbe001370	-0.12507415
24	0xbd9a244f	-0.075264566
25	0x3e05e62c	0.13076085
26	0x3e21a7a6	0.15786609
27	0xbc30c26e	-0.010788543
28	0x3e144044	0.1447764
29	0xbc50661d	-0.012719658
30	0xbc50be11	-0.012740628
31	0xbe04e52a	-0.12978044
32	0xbbee650b	-0.007275229
33	0xbb51d41b	-0.0032017294
34	0xbe378ef2	-0.17925623
35	0xbaf4cbf7	-0.0018676509
36	0xbd14e340	-0.036349535
37	0x3d9a8b81	0.075461395
38	0xbc521120	-0.012821466
39	0x3e0e81dd	0.13916726
40	0x3e1dd63d	0.15413757
41	0x3c9b849d	0.018984133
42	0x3a484cba	0.00076408277
43	0x3d921516	0.07132928
44	0xbda19783	-0.07890227
45	0xbcbca195	-0.023026267
46	0xbe111097	-0.14166485
47	0xbc68a084	-0.014198426
48	0xbd798b04	-0.06092359
49	0xbe5dd464	-0.21663052
50	0x3d8afb0c	0.06786165
51	0xbe236514	-0.15956527
52	0xbe057e47	-0.13036452
53	0xbe060f81	-0.13091852
54	0x3d17e5a4	0.037084237
55	0xbc6e00b0	-0.014526531
56	0xbd47f8d1	-0.048821274
57	0x3b41d6ff	0.002957761
58	0xbd08317d	-0.03325032
59	0xbdee4075	-0.11633388
60	0x3db2f11e	0.08737396
61	0xbd65b430	-0.056080043
62	0xbc957dce	-0.018248465
63	0xbe273a10	-0.16330743
64	0xbdeecfc0	-0.11660719
65	0x3dcd4190	0.10022271
66	0x3c75234a	0.014962027
67	0xbd7043b8	-0.05865833
68	0xbd62ad74	-0.0553412
69	0xbdc08480	-0.09400272
70	0x3bf3e241	0.007442743
71	0xbe5d4542	-0.21608451
72	0xbd84a852	-0.06477417
73	0x3dc347e9	0.095352
74	0xbd93762a	-0.072002724
75	0x3d81227a	0.06305404
76	0x3e0054f7	0.12532412
77	0xbd0dff0c	-0.03466706
78	0xbcdbfbab	-0.026853403
79	0x3c14679d	0.009057906
80	0x3d88ba63	0.066761754
81	0xbe331a50	-0.17490506
82	0xbd8381b3	-0.064212225
83	0x3d0c5d6f	0.034268793
84	0x3df59845	0.11991934
85	0xbd40602b	-0.046966713
86	0x3c67a0dd	0.014137474
87	0x3e13b1e2	0.14423326
88	0xbcc956ec	-0.02457758
89	0x3dd6918e	0.10476981
90	0xbdb833fb	-0.089942895
91	0xbdd4030f	-0.10352146
92	0xbe3bbd5a	-0.1833395
93	0xbdf9d77f	-0.12199306
94	0x3c86fc30	0.016477674
95	0x3da6300c	0.08114633
96	0x3d35faf6	0.044428788
97	0x3d17f47f	0.037098404
98	0xbcb735d7	-0.02236454
99	0x3db24b0c	0.0870572
100	0xbde73037	-0.11288493
101	0xbcf35994	-0.0297058
102	0xbdbd5980	-0.092455864
103	0x3dd0c13c	0.101931065
104	0xbd28b485	-0.04118778
105	0x3de3609f	0.111024134
106	0xbd9832ad	-0.07431541
107	0xbdf08b21	-0.11745287
108	0xbd560ac0	-0.052256346
109	0x3e220433	0.15821914
110	0xbd14698d	-0.036233474
111	0x3ce17617	0.02752213
112	0xbe00561c	-0.12532848
113	0x3d8a9f6b	0.06768688
114	0xbd2e3c14	-0.042537764
115	0xbd324489	-0.04352239
116	0x3d5cdf42	0.053923853
117	0x3d297b3c	0.04137729
118	0x3cac931a	0.021066237
119	0xbdd63eb8	-0.104611814
120	0xbc4cd5a6	-0.01250211
121	0xbdbf2d48	-0.093348086
122	0x3d43773c	0.047721133
123	0xbd227fbb	-0.039672595
124	0x3d86a503	0.06574442
125	0xbcc11824	-0.023571081
126	0x3dd3fb42	0.10350658
127	0x3cf4fde1	0.029906215
128	0x3ba3def5	0.005000944
129	0xbc25c449	-0.010117599
130	0x3cad3575	0.021143654
131	0xbdba3d69	-0.09093744
132	0xbc55a2d7	-0.013039312
133	0xbd635133	-0.05549736
134	0xbda42290	-0.08014405
135	0xbe005bc4	-0.12535006
136	0xbd977525	-0.073953904
137	0x3dc9770a	0.09837158
138	0xbdf95d06	-0.12175946
139	0x3e1767fe	0.14785764
140	0xbdcb0a89	-0.09914119
141	0xbe0f1bf6	-0.1397551
142	0xbc411fed	-0.011787397
143	0x3cb21c47	0.021742
144	0xbd60551c	-0.054768667
145	0x3af0c459	0.0018369063
146	0x3d6d10b7	0.05787727
147	0x3c4afab7	0.012388877
148	0xbc9e8317	-0.019349618
149	0xbe015b21	-0.12632419
150	0xbdf192fa	-0.11795612
151	0xbdd6c260	-0.10486293
152	0xbd2bee04	-0.041975036
153	0x3dd7dcca	0.10540159
154	0x3c89093a	0.016728032
155	0xbd95edde	-0.0732076
156	0x3d8af082	0.067841545
157	0xbcfa69ca	-0.030568022
158	0x3db252e0	0.087072134
159	0x3cd4a17b	0.025955906
160	0x3d423334	0.047412112
161	0xbd8e6959	-0.06953687
162	0xbc8c5196	-0.017128747
163	0x3d9638c1	0.07335044
164	0x3da958b1	0.0826887
165	0x3de499e2	0.11162163
166	0x3d2fe99f	0.042947408
167	0xbd64a173	-0.055818032
168	0x3d9acd7c	0.07558724
169	0x3cd5c800	0.026096344
170	0x3dbd70e1	0.092500456
171	0xbd711919	-0.058861826
172	0xbe41ed3b	-0.18938152
173	0x3cef0ddc	0.029181413
174	0xbe3b7642	-0.1830683
175	0xbcc8982d	-0.024486626
176	0xbbc92556	-0.006138484
177	0x3d28cab9	0.041208956
178	0xbdb42612	-0.08796324
179	0x3d64d2d9	0.055865142
180	0xbac780e6	-0.001522091
181	0x3c3c772c	0.011503022
182	0xbd77146c	-0.06032221
183	0x3cb878a0	0.022518456
184	0x3e0fb1a7	0.14032613
185	0x3cc8955a	0.024485279
186	0xbcce2f19	-0.025168942
187	0x3d56a2df	0.05240142
188	0x3dffcbd5	0.1249005
189	0x3cbd5f42	0.023116712
190	0xbdca8343	-0.098883174
191	0xbe0d97cd	-0.13827439
192	0xbdeb8f8b	-0.11501988
193	0x3e13bbd7	0.14427124
194	0x3dde675c	0.10859558
195	0xbe38c991	-0.18045641
196	0x3e0b8cd3	0.13627939
197	0x3ce15176	0.027504664
198	0xbcce43ee	-0.025178876
199	0x3d620795	0.055183012
200	0x3ba90ff1	0.005159371
201	0x3d2a2dcc	0.04154758
202	0xbe1c6e9e	-0.15276572
203	0xbdb1709e	-0.08664058
204	0x3dfb7181	0.122775085
205	0x3c8a362b	0.016871532
206	0xbd0e59ea	-0.034753717
207	0xbe546e29	-0.20745148
208	0x3cff7f08	0.031188503
209	0xbc616612	-0.013757246
210	0x3c6c6790	0.014428988
211	0x3e0120ee	0.12610218
212	0xbd5aeae4	-0.053446665
213	0x3d67eb1e	0.05662071
214	0xbdc5619a	-0.09637757
215	0x3d177ef2	0.0369863
216	0x3cb87afe	0.022519585
217	0x3d32fffb	0.043701153
218	0xbde3b1e1	-0.11117912
219	0x3d2f7861	0.04283941
220	0xbda80843	-0.08204701
221	0xbda4d798	-0.08048934
222	0xbc85186c	-0.016246997
223	0xbc996bd8	-0.018728182
224	0xbe29d2e5	-0.16584356
225	0x3d40f1e3	0.04710568
226	0x3d329b98	0.043605417
227	0xbccde005	-0.025131235
228	0x3dcc9968	0.099901974
229	0xbd72cad4	-0.059275463
230	0x3d82c61e	0.06385444
231	0x3d181598	0.03712997
232	0xbdcb22ff	-0.09918784
233	0xbc6d1b66	-0.014471864
234	0x3dbc3cf8	0.09191316
235	0x3e256d19	0.16154899
236	0x3d2893a0	0.04115641
237	0x3dbc75fd	0.09202192
238	0xbd832695	-0.06403843
239	0x3df39e9d	0.118954875
240	0x3e2812ca	0.16413417
241	0x3e304c2e	0.1721656
242	0xbca9afef	-0.020713774
243	0x3c6d696f	0.014490469
244	0x3d7817ad	0.060569454
245	0x3e1d19a1	0.15341808
246	0x3bb9651b	0.0056578047
247	0xbc65bebf	-0.014022528
248	0xbd8eaaa5	-0.069661416
249	0xbd88f8c7	-0.066880755
250	0xbd4ce29a	-0.05002079
251	0x3c876f79	0.016532646
252	0x3db08893	0.086197995
253	0xbe3db147	-0.18524657
254	0xbd6369e4	-0.055520907
255	0x3e24a97c	0.16080278

network_body._body_endoder.seq_layers.2.bias f4 [128]
0	0x3b3b5d71	0.002858963
1	0x3b59dec2	0.0033244346
2	0xbb14d9c2	-0.0022712802
3	0x3bec466f	0.007210545
4	0x3bb34aa0	0.0054715425
5	0xba9ec457	-0.0012112957
6	0x3bbbb695	0.0057285526
7	0x3c43cb68	0.011950351
8	0x3c1147d4	0.008867223
9	0x3be9130d	0.0071128667
10	0x3bea0487	0.007141653
11	0xbb673b3a	-0.0035283105
12	0x3c1267eb	0.008935909
13	0x3c086109	0.008323916
14	0x3bd79a24	0.0065796543
15	0xb9c93bd2	-0.00038382277
16	0x3bc7e99f	0.006100848
17	0x3c235adb	0.009970392
18	0x3b901c8c	0.0043979343
19	0x3b175db9	0.0023096635
20	0x3c158731	0.00912647
21	0x3ba28ab9	0.0049603847
22	0x3afd9043	0.0019345362
23	0x3bb84bcf	0.0056242715
24	0x3bd6299c	0.006535722
25	0x3bdd9624	0.006762283
26	0x3c038f53	0.008029777
27	0x3bc15f15	0.0059012272
28	0x3c3a5d19	0.011374735
29	0x3bc3ac21	0.005971447
30	0x3ba5a81e	0.0050554415
31	0x3c17ff73	0.009277212
32	0x3b80396b	0.0039130948
33	0x3b6a7c7b	0.0035779763
34	0x39b4dd3e	0.00034497114
35	0x3bc26d6a	0.0059334533
36	0xbb149b4e	-0.0022675577
37	0x3b198532	0.0023425338
38	0x3c0596cf	0.008153631
39	0x3c14e257	0.009087167
40	0x3bd8ee76	0.0066202236
41	0xbb8fe059	-0.004390758
42	0x3c1bafd5	0.009502371
43	0xbafa75e5	-0.0019108622
44	0x3c2bfc31	0.010497139
45	0x3b939e6f	0.0045049707
46	0x3ad2dcd8	0.0016087545
47	0x3c1653c7	0.0091752475
48	0x3bc82178	0.0061075054
49	0xba9aa237	-0.0011797611
50	0x3bd612cc	0.0065330025
51	0x3c08742d	0.00832848
52	0x3aec99a3	0.0018051158
53	0x3c1224a6	0.0089198705
54	0x3a0f1f35	0.00054596673
55	0x3be6e3d2	0.0070462013
56	0xb9e7352d	-0.00044099372
57	0xba93f744	-0.0011288901
58	0xbb326ca4	-0.00272254
59	0x3c26d6f8	0.0101830885
60	0x3b51186c	0.0031905426
61	0xbb8daa27	-0.0043232623
62	0x3bd60939	0.006531861
63	0x3c447522	0.011990817
64	0x3c2c1fc1	0.010505618
65	0x3c195887	0.0093594855
66	0x3bf2438f	0.0073933075
67	0x3c0b1af7	0.008490316
68	0x3b907f5f	0.004409715
69	0x3b950cb2	0.0045486325
70	0x3bccb20a	0.00624681
71	0xbb49fd7b	-0.0030821252
72	0x3bcc8024	0.0062408615
73	0xbad578db	-0.0016286628
74	0x3ae3c6a8	0.001737793
75	0x3be627ff	0.007023811
76	0x3be187ed	0.0068826587
77	0x3a83ef84	0.0010065888
78	0x3bc843de	0.006111606
79	0x3c29f93c	0.0103743635
80	0x3bd43b04	0.006476762
81	0x3b0af234	0.0021201493
82	0x3bdbca2f	0.006707452
83	0x37d4d5a0	2.5371846e-05
84	0x3b871200	0.004122019
85	0x3c0671e9	0.008205869
86	0x3bbb5b3d	0.0057176636
87	0x3b0bcb2a	0.0021330812
88	0x3b99eb44	0.0046972353
89	0x3b940839	0.004517582
90	0x3bea73d8	0.007154923
91	0x3a765c56	0.00093979144
92	0x3b8b9bf8	0.0042605363
93	0x3b500e00	0.0031746626
94	0x3bff4da2	0.007791237
95	0x3b9fa9db	0.0048725433
96	0x3bee1180	0.0072652698
97	0x3c1fab4a	0.009745428
98	0x3bd42b5f	0.006474897
99	0x3ac91266	0.0015340566
100	0x3c5aaf0c	0.0133473985
101	0x3a44fbe2	0.000751434
102	0x3be46a80	0.0069707036
103	0xba2ec304	-0.0006666633
104	0x39d3b8e8	0.00040382822
105	0x3b2311ae	0.0024882364
106	0x3bd87a84	0.006606402
107	0x3b25b3b9	0.0025284125
108	0xbbc0ebea	-0.005887498
109	0x3c0b8901	0.008516551
110	0x3c3f3d59	0.011672341
111	0x3b149398	0.002267098
112	0x3bcb5cc2	0.006206126
113	0x3ad1866f	0.0015985499
114	0x3c05af3b	0.008159454
115	0x3b1c1572	0.0023816493
116	0x3b5a57a3	0.0033316396
117	0x3918ca86	0.00014571295
118	0x3bcb0408	0.006195549
119	0x3bbdb782	0.005789698
120	0x3b907b44	0.0044092257
121	0x3bd25a99	0.0064194915
122	0x3c051426	0.00812248
123	0x3b961dfa	0.00458121
124	0x3b87c820	0.00414373
125	0x3bf0ad4f	0.0073448787
126	0xba86e7a8	-0.0010292428
127	0x3bf64060	0.0075149983

action_model._discrete_distribution.branches.0.weight f4 [6, 128]
0	0xbb20d5a8	-0.0024541412
1	0x3c80b266	0.015710067
2	0xbc0de978	-0.00866162
3	0x3c8c667d	0.017138714
4	0x3c1265f2	0.0089354385
5	0x3c28317f	0.010265707
6	0x3d011a71	0.031519357
7	0xbbc5fa0a	-0.00604177
8	0x3c28270d	0.010263217
9	0xbcd32705	-0.025775442
10	0xbc99d215	-0.018776933
11	0xbbc4812f	-0.005996845
12	0x3d058aa0	0.032602906
13	0xbc4da492	-0.012551444
14	0x38daa4a5	0.000104257175
15	0x3afa5378	0.0019098362
16	0x3c88f460	0.01671809
17	0xbc6dcbb6	-0.0145139005
18	0x3c6a1edf	0.014289587
19	0x3bcafb06	0.006194475
20	0xbc01c556	-0.007920584
21	0x3ca9d453	0.020731127
22	0x3b919bb1	0.0044436087
23	0xbb7923ff	-0.003801584
24	0x3bf2c1f9	0.0074083772
25	0xbc8c79d1	-0.01714793
26	0x3c45b75f	0.012067645
27	0xba8ef862	-0.0010907764
28	0xbc96c236	-0.018403154
29	0x3c268e8a	0.01016582
30	0xbb456e81	-0.003012568
31	0xbc0ed8ce	-0.008718682
32	0x3c9e2630	0.019305319
33	0x3cbae8e4	0.022816129
34	0x3c2804e6	0.010255074
35	0x3c5bc6ce	0.013414098
36	0x3c2e6054	0.010643084
37	0x3c6ffe8b	0.01464809
38	0x3c15078f	0.00909604
39	0xbca586be	-0.020205852
40	0x3c4b07b3	0.012391972
41	0xbc746c50	-0.014918402
42	0x3c915260	0.017739475
43	0xbc16566e	-0.00917588
44	0xbccee0dd	-0.025253708
45	0xbc99fe62	-0.018798057
46	0x3cdd8f9d	0.02704602
47	0xbc873d37	-0.016508682
48	0xbca4ac3e	-0.020101663
49	0xbc66de3c	-0.014091071
50	0x3c06ff92	0.008239644
51	0xbcc81b70	-0.024427146
52	0x3b002714	0.0019554542
53	0xbca4428a	-0.02005126
54	0x3baa2e20	0.005193487
55	0xbbb0952b	-0.005388876
56	0xba996a55	-0.0011704663
57	0xbc97594e	-0.018475201
58	0x3b01b0b5	0.0019789163
59	0x3bb5e6f9	0.0055512157
60	0x3c174da3	0.009234819
61	0xbbf1cc85	-0.007379117
62	0xbae5c63c	-0.0017530392
63	0x3c6d5824	0.014486346
64	0xbca9ef3b	-0.020743957
65	0xbc51730f	-0.01278378
66	0x3c501927	0.012701309
67	0xbc544f8d	-0.0129584195
68	0xbd1c6327	-0.038180497
69	0x399a403c	0.00029421027
70	0x3c1ac8a3	0.00944725
71	0x3b35a949	0.002771931
72	0xbc4e836f	-0.012604578
73	0x3b6c53d2	0.0036060703
74	0xbcd7e6a6	-0.026355099
75	0x3cd66904	0.026173122
76	0xbc873b26	-0.016507696
77	0x3cb134b7	0.021631582
78	0xbce8627b	-0.028367272
79	0x3cc69632	0.02424154
80	0xbab39e13	-0.0013703726
81	0x3c4aef04	0.012386087
82	0xbc9c2a7d	-0.019063229
83	0x3b2a9ba2	0.0026032706
84	0xbc313ca3	-0.01081768
85	0x3c4a2792	0.012338536
86	0x3d0f9427	0.0350534
87	0xbb2fcf94	-0.0026826607
88	0x3bc91019	0.006135952
89	0xbc7eee20	-0.015559703
90	0x3c40c26e	0.011765106
91	0xbc364367	-0.011124468
92	0xbca30772	-0.019901011
93	0x3b8dd465	0.004328298
94	0xbc173331	-0.009228514
95	0x3bf6d271	0.007532411
96	0xbc5f6bbd	-0.013636527
97	0x3cc9796c	0.024594031
98	0xbc51dcaa	-0.012808958
99	0x3b2fe36c	0.0026838435
100	0x3c245cca	0.010031888
101	0xbc0ab0ac	-0.008464973
102	0xbc3b7963	-0.011442515
103	0x3be256fe	0.006907343
104	0x3b8fa249	0.0043833596
105	0xbca14c3e	-0.019689675
106	0xbcb98b8f	-0.022649555
107	0x3c3c798b	0.0115035875
108	0xbbea5710	-0.007151492
109	0xbc52298d	-0.012827289
110	0xbc360b9f	-0.011111169
111	0xbc71b2ea	-0.014752129
112	0x3c819026	0.015815806
113	0xbba1bbc0	-0.0049357116
114	0x3bde0269	0.0067751897
115	0xbc5534b4	-0.013013054
116	0xbac83cc0	-0.0015276894
117	0x3b9ead95	0.00484247
118	0xbc43f18a	-0.011959443
119	0x3cbf26dc	0.02333396
120	0x3ccc51b2	0.0249413
121	0xbb65cbe4	-0.0035064155
122	0xbca35966	-0.01994009
123	0xbcb073ce	-0.021539595
124	0x3c57cc85	0.01317132
125	0xba126e4a	-0.00055858924
126	0x3c2d0ca0	0.010562092
127	0x3caff451	0.021478804
128	0xbcad71fa	-0.021172512
129	0xbca8fa06	-0.020627033
130	0x3c299e25	0.010352646
131	0xbb887856	-0.004164736
132	0x3cb46dd1	0.02202502
133	0xbb87e777	-0.004147466
134	0xbc688cac	-0.014193695
135	0x3cac02a3	0.020997351
136	0x3c6c4d9c	0.0144228
137	0xbc107cc6	-0.008818811
138	0x3d07c588	0.033147365
139	0xbc9cede5	-0.019156406
140	0xbc870bb9	-0.016485082
141	0x3b7ad370	0.0038273
142	0x3c8fb704	0.017543323
143	0x39e96b56	0.00044521195
144	0xbc3f9a11	-0.011694447
145	0xbb2e2ddc	-0.0026577627
146	0xbca1bb07	-0.019742502
147	0xbb8e8cd3	-0.0043502836
148	0x3c4fa43a	0.012673432
149	0xbc424452	-0.011857109
150	0xba0d9adf	-0.0005401801
151	0x3c3b6a78	0.011438958
152	0xbc925038	-0.017860517
153	0x3beca702	0.0072220573
154	0xbc4f8f8a	-0.0126685
155	0xbc0840a6	-0.008316195
156	0x3c9268cb	0.017872235
157	0x3c4fdc23	0.012686762
158	0xb9ca737a	-0.0003861448
159	0x3c95f712	0.018306289
160	0xbb38f0de	-0.002821974
161	0xbb5ee432	-0.0034010527
162	0xbc6a0dc2	-0.014285507
163	0xbccb785b	-0.024837663
164	0x3bf5dab4	0.007502878
165	0xbc8e4425	-0.017366478
166	0xbc9aed16	-0.01891188
167	0x3cb1e4a5	0.021715472
168	0x3bd9db6c	0.0066484716
169	0xbb686189	-0.0035458526
170	0xbc8a575f	-0.016887365
171	0xbcff7f93	-0.031188762
172	0xbba95a66	-0.005168247
173	0x3c138416	0.00900366
174	0xbc25b345	-0.010113542
175	0xbcb20a14	-0.021733321
176	0x3cde5177	0.027138455
177	0xbc2e3ca1	-0.010634572
178	0xbc657248	-0.014004298
179	0x3cb29676	0.021800261
180	0x3c978aca	0.018498797
181	0x3c3cc46c	0.01152144
182	0x3b4db2df	0.0031387133
183	0x3c43d31b	0.011952187
184	0x3b17f550	0.002318699
185	0xbc318f4b	-0.010837386
186	0xb8ec19ad	-0.000112581394
187	0x3c4e9485	0.012608652
188	0xbca30765	-0.019900987
189	0xbb89d455	-0.00420622
190	0x3c2277f0	0.009916291
191	0xbbf1ab56	-0.007375161
192	0xbc25a7a5	-0.01011077
193	0x3c9d9e2a	0.019240458
194	0xbb16cb03	-0.0023009188
195	0x3c788a1c	0.015169647
196	0x3c5969e5	0.013269876
197	0xbc7e4ab8	-0.015520744
198	0x3c9d52b6	0.019204479
199	0x3c3fa96d	0.011698109
200	0xbbe14e2a	-0.006875773
201	0x3ba63bbb	0.0050730384
202	0x3bd8f5d7	0.0066211033
203	0xbb9235da	-0.004461986
204	0x3c70310c	0.014660131
205	0xbcd5d775	-0.026103714
206	0xbca7cd0e	-0.02048352
207	0xbcaa738b	-0.020807048
208	0x3c2779f0	0.010221943
209	0xbccf1d45	-0.025282511
210	0xbc6fa740	-0.014627278
211	0xbae5e3f2	-0.0017539246
212	0xbab05b78	-0.0013454994
213	0x3c9e52ed	0.019326651
214	0xbbafdeaa	-0.00536712
215	0x3c16e24c	0.009209227
216	0x3a2b7708	0.00065408694
217	0x3c715bd5	0.014731367
218	0x3c9d4548	0.019198075
219	0xbc85a130	-0.016312212
220	0xbc341e25	-0.010993515
221	0xbc3c1f00	-0.011482
222	0x3b9ac7bf	0.0047235186
223	0xbcdb4248	-0.026765004
224	0xbc8c36b1	-0.017115923
225	0xbcac6135	-0.021042446
226	0x3c9fb242	0.01949418
227	0xbc6dda0a	-0.014517317
228	0x3b33cc6d	0.002743508
229	0xbc9fefbe	-0.019523498
230	0x3c008ee4	0.007846568
231	0xbb243c4d	-0.0025060356
232	0x3bbabbcb	0.005698656
233	0x3ad7c075	0.0016460555
234	0x3ca554bf	0.020182012
235	0xbc5f60e3	-0.013633939
236	0xbc187884	-0.009306077
237	0xbcac88e2	-0.021061365
238	0x3c8883df	0.016664444
239	0x3c0380fc	0.008026358
240	0xbc92b197	-0.017906947
241	0xbbf8b25e	-0.0075896224
242	0x3bb457c6	0.0055036275
243	0x3c255fd8	0.010093652
244	0x3b03b932	0.0020099399
245	0xbbdbd70e	-0.006708986
246	0xbc45c279	-0.012070292
247	0xb90bac30	-0.00013320218
248	0xbc710884	-0.014711503
249	0xbc158cc4	-0.009127799
250	0xbcacbe1b	-0.021086743
251	0xbb6ac03c	-0.0035820147
252	0xbc799601	-0.015233518
253	0x3c8baf67	0.017051412
254	0x3ae58b0f	0.0017512756
255	0xbb97d687	-0.004633728

action_model._discrete_distribution.branches.0.bias f4 [6]
0	0x38b4d22a	8.622215e-05
1	0x3a55f0c3	0.00081611815
2	0xba0c1ce3	-0.00053448806
3	0x3b2100d3	0.0024567142
4	0xbb81b795	-0.0039586523
5	0xbb2cc99a	-0.002636528
