Assets/ML-Agents/results/color-chooser1/Color Chooser/Color Chooser-13336.pt (torch, 579189 bytes, 33 tensors)

network_body._body_endoder.seq_layers.0.weight f4 [128, 49]
00000000: 3226 f83c 5ad0 903e e8f8 8ebd b3ba 6dbe
00000010: 2953 4bbe b249 d7be 5b7c d33d f86f 5e3e
00000020: f7ee d93b cb63 063e 7a49 56bd eeda 773d
00000030: 6906 943d 1248 cbbb 6e3d 27bd 1b10 b4bd
00000040: 6f34 0ebe 6076 9b3d 82f4 36be 0bea 0d3d
00000050: 158e 10be b383 ebbc 3443 85be 5aa5 94bd
00000060: 9f39 1a3e 5d6d 0cbd 1fec 073e 151d e8bc
00000070: 6eff 57bd 679a 67be 7ad2 e33d 2c80 0e3e
00000080: 8fc7 d83c 7b46 dabd 4f0c a33c b6ff 073e
00000090: 574a 293d 4a2d 573d 94c5 e23d ac31 43be
000000a0: c558 4d3e da46 0f3e be98 b1bd d401 ba3c
000000b0: 3c77 b1bb 2592 7e3e aaa9 533e fe53 9d3d
000000c0: 2b85 9bbb d3c6 d73c 4214 06be c5b4 47be
000000d0: d426 b9bd 7d54 4ebd ea67 8dbe 82b6 983d
000000e0: f5a7 e63d 058c 793c fa82 7cbd bf06 d0bd
000000f0: 18f3 e53d c0a5 debb e014 1abd bf2c d0bd
00000100: f5eb 89bd eca3 bb3d d2bb f43c 237f f5bd
00000110: 28b9 3f3e aa5f 98bd cc6a 3abd 8a96 1d3d
00000120: 9159 0bbd 012b cebd 6564 7bbe dec2 6fbe
00000130: 51cd c3bd 907f f23c 3aa0 e63d bb57 a53d
00000140: 73e2 003e 21fd 323e cc7c a63d b797 4c3e
00000150: 974f 59be 092b 583d 1489 8ebc 85fa cd3c
00000160: edbe b53d 16c1 933c 22d1 673d c341 623d
00000170: 0e32 aa3d 41bd 513e a75b c43d c326 3b3e
00000180: 6d7a fcbe 6938 563e aded 073e bfe3 003e
00000190: 02a2 213e 9e43 2ebd 4795 213e a9cd d438
000001a0: 7bd8 533e c8b7 753d 04ed 32bd d56f 713e
000001b0: 8b01 59be 87dc c5bc 81fc 3f3e ca7a e53d
000001c0: e2f0 bf3e a3af acbd c78f ad3d e651 cb3d
000001d0: 8dbd 253e 2451 debe 037b ea3d 6363 a53e
000001e0: 5092 8a3d ba85 553b 637f 57bd 7b0f 6e3e
000001f0: 0adf 553e a26f 543e 4c9a 1f3c c00c b9b7
00000200: 688b 9a3e ea43 a83d 8527 d53c d27e 7b3c
00000210: 744b eabd 1e10 70be ff65 1a3e 71ae 903d
00000220: eb0b f33c 2d2f 8dbd 2319 c33d 5c19 6a3e
00000230: 8af8 35bb 15fc 39bd 2ba1 1f3d 6fa6 8b3d
00000240: 72d8 53be 0928 793e fa1d c9bd 28bb d2bb
00000250: 1809 b93c 7475 f73d f439 1dbd 37e0 d3bc
00000260: 1585 32bc dc57 fe3d 2d4e f63c 0361 0a3c
00000270: 25cf 9c3e ef34 06bd 41d8 7dbd fa4f 82bc
00000280: 711e 093e 487b ee3d 0a5b c43a 0414 5cbd
00000290: b5d1 263e 0a42 4dbe 47e6 12bd 0364 aa3d
000002a0: 17ce 52be 9300 69bc 6acc b13d 89b8 eb3d
000002b0: 38b9 173e 9f6a 4d3e cfbd 35be bf61 af3a
000002c0: db72 57be 90fc 49bc af19 84bd f55a 7a3d
000002d0: 1b56 51bd 764c 9bbd cc29 173c 20ed 8c3d
000002e0: 7efc 143e b6f9 553d 3ea4 da3d 775f 73be
000002f0: 64d1 a53d 5259 c9bc 19ee 553e 90ea 5fbe
00000300: 9a3f 1bbd 0512 b2bd f51c 253d 194b 673e
00000310: 469c 883e bc0b a53d 701a fbbb e2a0 c0bd
00000320: ace6 5fbe 37b2 3b3e 1414 b8bc 51c4 573e
00000330: 7c36 cd3c 1fef 8a3e f172 e0bc 2ffd d3bd
00000340: 9bd3 2bbe 3150 ac3d edaa 5d3e 60aa 34bd
00000350: e7c6 7b3e eed5 f43d 65aa 0d3e 7517 1c3c
00000360: f573 2b3e e022 38bb 034a 4ebc 83ad b9bd
00000370: 5064 01be 543b 27be e270 303e d330 efbc
00000380: 60a4 1cbe e1a2 f5bc 9246 ecbb 3b58 5cbe
00000390: eafd e6bd 4ace a03e 7afe 03be 3db3 cfbc
000003a0: dcc0 2f3d 62ae 053e 9a0a 29be 0a48 65be
000003b0: 90d2 18be d7a2 28bc 5b9c db3c 2edb 11be
000003c0: 2538 6dbe 7d9a 413d e08c 213e 1cf8 993e
000003d0: afaf f33d 4bc9 38bb 6abb 65bd f28a 6e3c
000003e0: 6477 0ebd 0cf3 0fbd 12aa 813d 2467 15be
000003f0: df65 b13c 4b9e 0c3e 53a5 fc3c c653 473e
0.03029165 0.2828396 -0.06981069 -0.23215751 -0.19855942 -0.42048413 0.10326453 0.217224
0.0066508013 0.13124005 -0.052316166 0.060511522 0.07227785 -0.00620366 -0.04083007 -0.087921344
-0.1388719 0.075909376 -0.1786671 0.03464703 -0.141167 -0.028749323 -0.26027834 -0.07258101
0.15061043 -0.034283984 0.13273667 -0.02833418 -0.05273383 -0.22617494 0.111241296 0.13916081
0.026462344 -0.10657974 0.01990333 0.1328114 0.04133066 0.052533425 0.11072841 -0.19061917
0.20053394 0.13991871 -0.086717114 0.02270595 -0.005415825 0.24860437 0.2067019 0.07682036
-0.0047460995 0.026339924 -0.13093665 -0.19502552 -0.09040609 -0.050373543 -0.27618343 0.074566856
0.11262504 0.015231137 -0.061648346 -0.10157537 0.11228007 -0.0067946613 -0.037617564 -0.10164785
-0.06734458 0.09162125 0.029874716 -0.1198714 0.18722975 -0.074401215 -0.045512006 0.038473643
-0.034020964 -0.10066796 -0.24550016 -0.2341418 -0.09560645 0.029601842 0.112610295 0.08073374
0.12586384 0.17479374 0.08129272 0.1997975 -0.21221767 0.052775417 -0.017399348 0.025143871
0.08874307 0.018036406 0.05659593 0.055238497 0.083103284 0.20482351 0.09587794 0.18276505
-0.49312153 0.20919956 0.1327426 0.12586878 0.15784457 -0.042544954 0.15779601 0.00010147255
0.2068805 0.05998972 -0.043683067 0.23577817 -0.21191995 -0.024153007 0.18748666 0.11205061
0.37488467 -0.084319375 0.08474689 0.0992773 0.16185589 -0.4342128 0.11449244 0.3230239
0.06766188 0.0032580928 -0.05261172 0.23248093 0.20885864 0.2074571 0.009741377 -2.2059656e-05
0.30184484 0.082160786 0.026019821 0.015350061 -0.11440173 -0.23443648 0.15077971 0.07064522
0.029668769 -0.06893764 0.09526279 0.22861236 -0.002776655 -0.04540642 0.03897206 0.06818854
-0.20688036 0.24331678 -0.09820171 -0.006431002 0.022587344 0.12082949 -0.038385347 -0.02586375
-0.010895987 0.124191016 0.030066574 0.008445981 0.3062679 -0.032765325 -0.061973814 -0.015907276
0.13390519 0.11644608 0.0014980745 -0.053730026 0.16290934 -0.20044723 -0.03586414 0.08319857
-0.2058643 -0.014221328 0.08681567 0.11509807 0.14816749 0.20060204 -0.17748187 0.0013380571
-0.21039908 -0.012328282 -0.06450211 0.0611219 -0.051107507 -0.07582943 0.009226274 0.068811655
0.14549443 0.052240096 0.10675858 -0.23766886 0.08096579 -0.024578724 0.20891608 -0.21866822
-0.037902452 -0.08694843 0.04031082 0.22587241 0.26681727 0.08058879 -0.0076630637 -0.09405686
-0.21865338 0.18329702 -0.022470511 0.21070983 0.025050394 0.2713556 -0.027398558 -0.10351025
-0.1677994 0.08413733 0.21647234 -0.044107795 0.24587594 0.11954866 0.13834532 0.009527077
0.16743453 -0.002809696 -0.012590888 -0.09066298 -0.12635922 -0.16331226 0.17230561 -0.029198086
-0.15297079 -0.029984893 -0.007210561 -0.21518032 -0.11278899 0.31407386 -0.12890044 -0.025354022
0.042908534 0.13054803 -0.1650795 -0.22390762 -0.14924073 -0.01029273 0.026807955 -0.14243767
-0.23165949 0.047266472 0.15776396 0.30072105 0.11898743 -0.0028196152 -0.056086935 0.014559494
-0.03478183 -0.035143897 0.063312665 -0.14590126 0.021655021 0.13732259 0.030840551 0.19465551

network_body._body_endoder.seq_layers.0.bias f4 [128]
00000000: 1a2d e9bc cd68 7d3d 260d 1a3d d26e 203d
00000010: f2c2 563d ceb8 50bb 5b4e 46bd b250 3f3d
00000020: 767f 3a3d 56bb ab3c 4906 ed3c a783 c93c
00000030: 9a9d df3b 5c03 07bd 23c1 4c3d 92ac c33c
00000040: 4ceb 043d afcc d43c 8494 693c fc15 9ebc
00000050: 74ab 553d 06cd 943c 2916 423d 59c4 423d
00000060: 884b 913d 1528 723d 9c15 9b3c a412 5a3d
00000070: f8cd da3c a662 db3c 7a16 493d e218 333d
00000080: 6efc 07bd 7c51 1f3d da8a 383d 838e 453d
00000090: c6b7 8b3d dd68 793d ca24 d23c c689 a13c
000000a0: 6cc7 183c 88e1 373c fb9e 7f3d 2afd 183d
000000b0: 71f1 903c 83b1 413d 97da bb3c 53f4 083d
000000c0: 89f3 abbc c844 2c3d cd4f 253d 98b4 f23c
000000d0: 5804 4a3d 52ac 8d3b 932b bfbb 57c7 433d
000000e0: b504 093d 9783 e03c a93e 1ebc e448 2c3d
000000f0: ebf9 7f3c 21bf 0f3a 73fc bf3c 9534 863d
00000100: 7738 133d b729 4bbb 58ee 8d3c 31b3 0f3d
00000110: e64a 353c 68ec 063d 5db6 3f3d 4a0a 593d
00000120: 3c34 703d 827f 663c 3c57 58bc 393f 663d
00000130: ee4e 733d 2543 4d3d 0874 4d3d ebe3 493d
00000140: 915c 403d 9463 1c3d 67a2 173d 96b5 623d
00000150: 7dba 623d 6d7a cb3c 5178 2b3d 1698 94bc
00000160: bd7d 0a3d 0242 2b3d 667a a7bc 9fea 003d
00000170: 0703 553d 688c 7b3d 1e60 a73c 210e 3d3d
00000180: d01e 37bd f485 283d 9aeb 773b b192 433d
00000190: 7143 cc3c b0e3 e13c 24e5 ce3c 24f6 993c
000001a0: 7062 0f3d 54d4 813c a145 ea3c b9ae c23c
000001b0: 7489 273c ddea 2a3c 1633 653d 13da c13c
000001c0: d693 d83a 0088 563d 7834 423d 1510 a73c
000001d0: 5c6b 0e3c 40ac c73c 1c02 3b3d 68f4 cc3c
000001e0: 2c6a 113d b234 313d c11c 8f3c 97f9 093d
000001f0: 3ff7 9ebb bcd3 453c de83 013d b4aa ea3c
-0.028463889 0.061867524 0.037610196 0.039168186 0.052432008 -0.0031848433 -0.04841457 0.046707816
0.045531712 0.020963352 0.028933661 0.02459891 0.0068242075 -0.032962188 0.049988877 0.023885999
0.03245096 0.025976507 0.0142566 -0.019297592 0.052165464 0.018164169 0.047384415 0.047550533
0.070944846 0.059120256 0.018931203 0.053240433 0.026709542 0.026780438 0.0490937 0.043724902
-0.03319972 0.03889607 0.045054294 0.048231613 0.068221614 0.06089102 0.025652308 0.019719016
0.00932489 0.011223204 0.062407475 0.03735081 0.017693253 0.04728843 0.02293138 0.03343613
-0.02099015 0.042057782 0.040359307 0.02962713 0.04932055 0.0043235207 -0.005834052 0.047797527
0.033451755 0.027406497 -0.009658494 0.0420617 0.01562355 0.00054834975 0.023435807 0.06552998
0.03594252 -0.0031000206 0.017325565 0.035083 0.01106522 0.0329403 0.046804775 0.052988328
0.058643565 0.014068486 -0.013204392 0.056212638 0.059401445 0.050112862 0.050159484 0.049289625
0.04696328 0.038180903 0.037020113 0.055348955 0.05535363 0.02483865 0.04186279 -0.018138926
0.03381132 0.041810997 -0.020444106 0.031473752 0.05200484 0.0614132 0.020431574 0.046156053
-0.04470712 0.041143373 0.0037829638 0.047747318 0.024934502 0.02757439 0.025255747 0.018794127
0.035005987 0.015848316 0.028597655 0.023764955 0.0102256425 0.010431972 0.055956922 0.023663556
0.0016523551 0.052375793 0.04741332 0.02039341 0.008692589 0.024374127 0.04565631 0.025018886
0.035501644 0.043263145 0.017469766 0.033685293 -0.0048512514 0.012074407 0.0316199 0.02864585

network_body._body_endoder.seq_layers.2.weight f4 [128, 128]
00000000: a463 093d 1e3b c33c 614d 87bd 19bd c43d
00000010: 611d 323c 3e8a 60bd 65e5 83bc da07 84bd
00000020: 3274 51bd 0261 863d 3bb8 73be 4141 963d
00000030: fade 0bbe 7c39 f9bc c65e 7fbd 4b6b f73a
00000040: 349f 833b 7244 2abe 4414 893d ef54 7ebc
00000050: 52cf 363d ae7e 8f3d f85c d4bd 6f3c 7ebd
00000060: bc49 76bd 6422 b1bd d1c9 053e 2cb8 d9bd
00000070: 07e8 833e 9845 063e 8f0a 643e d488 0e3e
00000080: 8c17 8dbd b6b9 f6bd d9fe e93d 45c3 173e
00000090: 5f29 cfbd 024b adbd b757 203d 8990 2abe
000000a0: e3b9 16bd 0668 133e 5f16 63bd db42 18be
000000b0: a1e9 913d e800 31bd d068 853d 6d8f 80bd
000000c0: 292f c1bc 7cbe 73bc 6766 4b3d 388d 183d
000000d0: 6289 b53d b10b ad3c 55b8 c3ba 85c5 393d
000000e0: 38db c3bd 9152 85bb 858f 5dbe 709f ed3d
000000f0: 4f03 4e3e 804e 843d d5a3 513e d48c 2cbe
00000100: dd14 513e e688 0cbe 123b c8bd ea93 bcbd
00000110: a4d4 9bbc b9bd 283e 3919 3d3e b2f8 07be
00000120: 2c5b 6a3d 7576 093d 69d6 f63d 5a4c 0dbe
00000130: d249 23be 4b17 d9bd 63db 313e 6a76 db3d
00000140: 3d6a c2bd 169b beb9 eafc 623d 5712 493d
00000150: f9b5 55be f6a2 d2bc 6b48 533e 90a1 cc3c
00000160: fe09 32bd 7503 0bbd 91ba 21bd 5627 9dbd
00000170: a95c 433e 0feb 66bc 3b46 2dbe cd39 1e3e
00000180: b38d 7e3d 49df a9bb eba9 b4bd 28b7 a9bd
00000190: b610 9dbd abd5 863a b3bb d83b b7cc f9bd
000001a0: d46f aebd 3edc 07bd ae18 1d3e 7028 20be
000001b0: 053e 6a3d cca3 4f3d 8b67 ea3d 3dbc 743e
000001c0: 9f9b bcbc c745 c8bb add0 d7bd 0b8c e9bd
000001d0: c18e c6bc b9ca b5bd 8a7d 1dbe 3dd1 283b
000001e0: 2853 b93d b224 0f3e d328 76bd 84c2 0e3e
000001f0: 1796 18bd 357d 21be 7089 6c3c 0807 963d
00000200: 7b82 21be a0f7 e63d 9335 3ebe f09e 043e
00000210: 3c8a d13c 1451 76bd e43b 083e 2012 5f3e
00000220: 3417 063e 071e c1bd 6be5 21be e938 33be
00000230: 751b 98bd 229a 86bd 05e4 8e3e 8c61 d3bb
00000240: 8c96 233e e565 76be b596 febc 0b97 13be
00000250: fd97 15bc 8147 923d 9b23 ddbd 8f5b 18be
00000260: c6d8 32bb 08e9 2c3e bb6f 5f3e 982e 023e
00000270: 0bd8 5cbc 3d5e 60bc 732f 033e b2de 4b3d
00000280: c0fd e7bd 43c7 55bd 3332 1cbe cc77 5fbe
00000290: 1f4d 043e e7d3 2ebe 3b6c adbd 6246 c739
000002a0: bfc7 e03d e39b 503d fd78 0cbd a5d1 823e
000002b0: 3edc 2dbd 829e 8a3e d2bf b2ba d385 13bd
000002c0: 8ed2 4bbd 2caf 00be f443 c13d 2e71 293e
000002d0: a422 24bc 950d ecbb 4ef1 01bd 35ab 01be
000002e0: 7d97 b83d 0ead 29be 1986 1bbe df9a e73d
000002f0: 328d 0fbe adba 99bd 4dcc 9a3d 1af2 0bbe
00000300: cbc7 4bbb 4f2e 703b be31 963b efbe 863c
00000310: bb26 123e 8572 53bd a6c5 0bbe d81e 713d
00000320: a79b 1d3e 7527 7cbd 6b56 b43d 045b 1a3e
00000330: e513 283d 45b7 24bd cb79 efbd 2469 40bc
00000340: ed1c dd3d fdc9 0e3e a7c5 553e 19f0 f6bc
00000350: 6b42 6a3e 5fd6 103d db95 a5bd 3a15 7e3d
00000360: f55e d03c bcff 01bc 84c6 86bd 0dc5 8f3d
00000370: 98d4 57bd fa96 473e 9449 ee3a d893 343e
00000380: 84cb a8bd 446f 3b3d 12de c03c cc19 a13d
00000390: 61bd aabd 223d ec3d e24b 91bd 3fab 47bc
000003a0: 892a c2bc b3d9 dfbd baf0 0dbd 7c36 16bd
000003b0: 12a4 e6bd 6146 37bc 5c68 b1bc be0e 84bd
000003c0: 8949 0dbe 302d b53d ad66 c03d 5a88 b4bd
000003d0: 486c 83bd 94df 4d3d 8cbd 803d bb61 f3bc
000003e0: 6f59 88bd 2166 9cbd 22f2 bc3c 13ff afbd
000003f0: 3163 c03d 13a7 3b3e 18cc 0a3d 04f7 54bd
0.03354229 0.0238319 -0.06606556 0.0960638 0.010871262 -0.054819338 -0.016100595 -0.0644681
-0.051136203 0.065614715 -0.23800747 0.07336665 -0.13659278 -0.030422918 -0.062346242 0.001887658
0.004016781 -0.16627672 0.066933185 -0.015523179 0.04463131 0.07006584 -0.10369295 -0.062069353
-0.060128912 -0.086491376 0.13065268 -0.10630831 0.2576296 0.13112485 0.22269653 0.13919383
-0.06889257 -0.1204714 0.114255615 0.14820583 -0.10115313 -0.08461572 0.03914615 -0.16656698
-0.03679837 0.1439515 -0.055441257 -0.14869253 0.07124639 -0.043213755 0.06514132 -0.06277356
-0.023582058 -0.014876958 0.049658205 0.03724405 0.08864094 0.021123739 -0.0014932255 0.045354385
-0.09563297 -0.0040686806 -0.2163678 0.11602676 0.2011845 0.06460285 0.20472653 -0.16850597
0.20418115 -0.13724098 -0.09776892 -0.092079 -0.019022293 0.16478623 0.18466653 -0.13278463
0.057215855 0.033560235 0.12052614 -0.13798657 -0.15946129 -0.10600146 0.17368846 0.10715945
-0.094929196 -0.00036355172 0.05541698 0.049089756 -0.20870198 -0.025712471 0.20633094 0.024979383
-0.04346656 -0.033938844 -0.039484564 -0.07673518 0.19078316 -0.014094128 -0.16921322 0.15451737
0.062146854 -0.0051840884 -0.08821472 -0.082868874 -0.07669203 0.0010287067 0.0066141724 -0.121972494
-0.08517423 -0.033169024 0.15341446 -0.15640426 0.057188053 0.05069332 0.114455305 0.23899932
-0.023023425 -0.0061118337 -0.105378486 -0.11403664 -0.024237992 -0.08876557 -0.1537992 0.0025759481
0.09049064 0.13978842 -0.060097527 0.1394139 -0.03725251 -0.15770419 0.0144370645 0.0732556
-0.1577243 0.112776995 -0.18575124 0.12951255 0.02557861 -0.060135916 0.13304096 0.21784258
0.13094789 -0.094295554 -0.15810172 -0.17502178 -0.07427112 -0.06572367 0.2790834 -0.0064508375
0.15975398 -0.24062307 -0.031077722 -0.14413087 -0.009130475 0.071425445 -0.10797807 -0.14878677
-0.0027289852 0.1688577 0.21819966 0.12713087 -0.013479243 -0.013694343 0.12811069 0.049772926
-0.11327696 -0.052191984 -0.15253524 -0.21823043 0.12920044 -0.17073022 -0.08467909 0.00038008677
0.109755985 0.050929915 -0.03429507 0.2555057 -0.042446367 0.27074057 -0.0013637489 -0.036016297
-0.049761347 -0.12566823 0.09436789 0.16547081 -0.010018025 -0.0072037675 -0.031724267 -0.12662967
0.09013269 -0.16569921 -0.15187873 0.11308836 -0.14018705 -0.07506309 0.075584985 -0.13666573
-0.0031094428 0.0036648696 0.0045835664 0.016448466 0.14272587 -0.051622886 -0.13649616 0.058867306
0.15391408 -0.061561067 0.088055454 0.15073782 0.041034598 -0.040213842 -0.11693152 -0.0117438175
0.10796533 0.1394424 0.2087618 -0.030143784 0.22876899 0.03536069 -0.08085223 0.062031962
0.025435904 -0.007934507 -0.065808326 0.07020006 -0.05269298 0.19491187 0.0018179887 0.17634523
-0.082419425 0.045760408 0.023543391 0.078662485 -0.083369024 0.11535098 -0.070945516 -0.012186824
-0.023701923 -0.10930195 -0.034653403 -0.036673054 -0.11261763 -0.011186213 -0.021656208 -0.06448124
-0.13797583 0.088465095 0.09394584 -0.088150695 -0.064171374 0.05026205 0.06286153 -0.029709687
-0.06657683 -0.07636667 0.023064677 -0.085935734 0.09393919 0.18325453 0.033886045 -0.051993385

network_body._body_endoder.seq_layers.2.bias f4 [128]
00000000: 48b2 e23c 5508 063d 8d09 2d3d 870b 133d
00000010: 1ef7 2b3c 085f f03c ad12 bc3c 8d49 1b3d
00000020: b91c b03c 9c2a c83c c13b 1f3d 2a7b a13c
00000030: 200e 023d 93fe 893c fd9a 6a3c 1050 7a3c
00000040: 5ff6 cc3c 9b08 113d aa82 b33c 0683 933c
00000050: 2c1b b43c 41c1 2e3d 1f03 223d 3bd4 053d
00000060: 83a4 d53c 06c5 093c c7c4 4b3d 7eb4 d13c
00000070: e8d5 dd3c 25f8 e13c 6409 d63c e808 ab3b
00000080: e799 363d f4b4 b93c e76b 4d3d 8f04 653c
00000090: 1b36 1c3d 99f7 5a3d 7fdc c33c 30b6 4e3c
000000a0: fcd4 453d 3450 113d eb1d bb3c 5169 043d
000000b0: a40e 873b 32e1 fc3c 1995 a03c 7b2e ac3c
000000c0: f132 4e3d 99d4 b83c 7be5 2e3d 12aa 0c3c
000000d0: 33c2 ad3c d2d8 063d 59dc 093d 9af4 f13c
000000e0: 87fd 2d3d f4a1 eb3c aa65 ea3c 8503 813c
000000f0: 5b4c 443c ff33 2b3d a1d4 2f3d d905 f53c
00000100: 52d0 f93c d319 ae3c 6f7d ae3c 4843 da3c
00000110: 37a0 cf3c fad7 1c3d 7117 0b3d 5cbb 143d
00000120: 73a7 413d a336 fe3c fc94 ac3c 8a7a 1e3d
00000130: 3bd0 cf3c a6b3 af3b ef05 043d 3030 bc3c
00000140: 2319 313d f6f0 463c 4e91 453c 85eb 1e3d
00000150: 4a5d 293d 13a1 cc3c c658 503d b879 9f3c
00000160: 5e44 193d 9581 2a3d 110a e33c a726 183d
00000170: 96f8 913c 3f3b d83c fe66 243d 564d 123d
00000180: 2653 b93c a8dd d33c bd7e ee3b 0bc9 e73c
00000190: 71f1 0c3d 6c6c 403d ebb6 253d 8d1d 053d
000001a0: a5d8 b23c 4972 f73c b06f e93c 18a0 0c3d
000001b0: 249b cb3c 015a b43c 1fce 9a3c c0df 023d
000001c0: 4ae5 393d 1c27 1f3d 93c3 3f3d 27d4 133d
000001d0: fc57 103d e309 833c dd4b a63c e796 333d
000001e0: 656a 4c3c a2a5 113d 5cd6 fe3c 0d16 063d
000001f0: 3c53 b53c 7252 243d c364 cf3c 8b52 c03c
0.027672902 0.03272279 0.042245436 0.035899665 0.010495929 0.02934219 0.022958124 0.03791194
0.021498071 0.02443438 0.038875345 0.01971205 0.031751752 0.016845023 0.014319179 0.015277877
0.025019823 0.035408597 0.021912891 0.018006813 0.021985613 0.04266477 0.039553758 0.032673102
0.026079422 0.00840879 0.04974821 0.02559876 0.027079538 0.027584145 0.026127525 0.0052195676
0.044580366 0.022669293 0.05015173 0.013978138 0.038137536 0.053458784 0.023908852 0.012616679
0.04829882 0.03547688 0.022841414 0.032327 0.0041216183 0.0308691 0.019602345 0.021018257
0.05034155 0.022562312 0.04269932 0.00858547 0.021210765 0.03292162 0.033657406 0.02953558
0.04247811 0.028763749 0.02861293 0.015748749 0.011981095 0.041797634 0.042927388 0.029910015
0.030494843 0.021252548 0.021300046 0.02664341 0.025344951 0.03829191 0.033957902 0.036311492
0.047278833 0.031031912 0.021067135 0.03869108 0.025367847 0.005361992 0.03223222 0.022972196
0.043236863 0.0121424105 0.012058569 0.038798828 0.041348733 0.02497915 0.05086591 0.01946722
0.037418716 0.041627485 0.027714761 0.037146237 0.01781873 0.026395438 0.040137284 0.035718285
0.022622656 0.02586253 0.007278292 0.028294107 0.034409944 0.0469784 0.040457647 0.032498885
0.02183182 0.030205863 0.02849564 0.034332365 0.02485425 0.022015573 0.018897114 0.031951666
0.045384683 0.038855657 0.046817373 0.036090996 0.03524016 0.015995925 0.020299846 0.043845084
0.012476538 0.03555835 0.031108074 0.032735873 0.022134416 0.04011769 0.025316602 0.02347686

action_model._discrete_distribution.branches.0.weight f4 [6, 128]
00000000: d642 77bd f52f 523d ced7 113d a5ec 513d
00000010: afa5 83bd 82f4 943d 5452 403d 2474 4b3d
00000020: 6830 28bc f57f 093d 32c6 623d 27ad 57bd
00000030: 1503 c8bc abc8 26bd 2cf5 45bd ef27 f0bc
00000040: d978 66bd 5f24 193d 885a 563d 7e32 a9bd
00000050: e0fd 913c 50cf 353d 31de 63bd a60d bebd
00000060: 3062 183d 19ac 33bd 1b71 f43c ba03 04bd
00000070: 92bc 49bd 44cb 64bd ab99 96bd 7075 aebc
00000080: ce90 8e3d fdd9 54bd 9ac7 8ebd 52ba 233d
00000090: 9718 ddbc fa71 0cbd d13f 903d c988 423d
000000a0: 7afd 93bc 8b6b a8bc a106 37bd 2234 a3bd
000000b0: 6b8d 403c 8e70 20bd 55c0 b5bd 775d e2bc
000000c0: eab6 5d3d e1cd 84bd b76b a13c 3f40 d73c
000000d0: e97a 87bd 41dc 583d 1385 0bbd 9e3d 80bd
000000e0: 86b8 57bd c64f 7e3d e30e a73d e9a1 52bd
000000f0: c554 64bd 8049 86bd 1c40 9d3c b50f 92bd
00000100: a92e 9abd 06f7 ec3b ee3d 9f3c 53a5 673c
00000110: 1c8d d83c d1eb 363d bfda 85bd 6bde 0ebd
00000120: 4e6c 463d 31ef ae3c c0ce 823d 60cd 2c3d
00000130: c07d 643d 0f75 4abc ab96 4ebd b016 c5bc
00000140: 0864 aa3b 56e0 37bd 65b9 44bd 7cda 193d
00000150: d498 5abc a4e3 2cbd 5170 5d3d dd57 84bd
00000160: 949c ae3d a652 513d fdb5 92bc 39f0 583d
00000170: 583c 773d 8e8d 723d 8812 0fbd ba03 953d
00000180: d446 bbba f2f4 ca3c e109 d8bc b436 24bc
00000190: 2753 863d 17ba c73d 3c50 39bc f1cb 723d
000001a0: 2a70 e8bc 89b5 80bd 91f3 7ebd 6631 5abd
000001b0: 7c40 103c 086e 97bd d46a 17bc e98c 503d
000001c0: 88b2 aa3d a3b7 3e3d 7778 9d3d f3bb 40bd
000001d0: d94b 8c3d 7981 8abd 4fab 263d 72b8 97bd
000001e0: 4131 35bd e26e 9abd 7df7 13bd 2c45 8dbd
000001f0: e6fa 80bd 5f20 963d 243f 88bd 3048 8d3d
00000200: 8a9c 86bd 624f da3c 2b98 263d ea65 8fbd
00000210: 930f 073c 5c99 76bd 95d9 74bd e916 753b
00000220: 8051 3b3c ce50 e8bc fefc 9dbd fc8c e4bc
00000230: 193c 773d 636b 5e3b 3b0f 863c a64f 8f3b
00000240: 5516 8ebc c6a7 2bbb 4d8f c33c cf82 30bb
00000250: aa30 9e3c 3f50 603d 5d05 dd3b 64ad 933d
00000260: c03c be3a 1d79 623d 5a66 68bd 420c 9e3d
00000270: 37d8 3c3d fb11 aabc 2393 803d f70f 7fbd
00000280: 7ec2 85bd be36 693d 90c0 883d d878 c7bc
00000290: 9d3a f6bc 9c87 89bd 2a7b 91bd ac9b 6fbd
000002a0: b407 7cbd 9d3c 503d bb0c 8fbd d0b7 243d
000002b0: bff6 2b3c 1345 7d3d fc18 a23d db43 40bb
000002c0: 6c83 9fbd c367 8a3d 023e 02bd 1a90 55bd
000002d0: f2af 7d3d b323 53bd f6a1 11b9 32ea af3d
000002e0: 5264 803d 7eac 93bd 0f4d 08bd d092 243d
000002f0: c53f 45bc d92e a23d fe0a 1f3d d33b 6d3d
00000300: f433 1b3d 47a8 81bd 5d94 083d cfee 6fbc
00000310: bdd1 84bd 1179 24bd 24bf 15bd fce8 8ebc
00000320: d8f3 79bd ee75 0b3d f188 62bd 4418 7a3c
00000330: 6d7d 4dbd 9776 b9bc 3423 8b3d df4c b5bd
00000340: c2d2 a4bd 6140 253d b0bd e4bc e65a ea3c
00000350: a816 81bd e5a9 78bc eca2 113d fa8e 803b
00000360: c056 61bd 99ef 6bbd 4388 35bd f379 2ebd
00000370: 3f0f 39bd 23b5 4cbd 6a06 86bd 9599 86bd
00000380: 14e1 b2bc 0f1f 3ebc 6f99 c0bc 9305 4b3d
00000390: 7c90 9ebd 8332 98bd a896 2dbd 6a4f f5bc
000003a0: ec12 463d 3516 633c 4fe5 843d 2a22 21bd
000003b0: 075f 89bc e466 273d 061e 293d 689c 8ebd
000003c0: 6031 7dbd 15a9 cc3c 6690 adbd 844f 613d
000003d0: 9c64 33bd 6719 0abb 1b90 99bd 7535 a13c
000003e0: 5ead c73c 9f83 f63c 1a4c 723d 071d 633d
000003f0: 4eb3 843d dace 92bd e4b0 5e3d 6eb0 b1bd
-0.060366474 0.051315267 0.035606198 0.051251072 -0.06428086 0.07273199 0.046953514 0.049671307
-0.010265447 0.033569295 0.055364795 -0.052655365 -0.024415532 -0.040718716 -0.048329517 -0.029315917
-0.056267593 0.0373882 0.05233243 -0.08261584 0.017821252 0.04438716 -0.05563182 -0.09279947
0.037203014 -0.043865297 0.02983909 -0.032230116 -0.0492521 -0.05585791 -0.073535286 -0.021296233
0.06961213 -0.051965702 -0.06971665 0.03997261 -0.026989264 -0.034288384 0.07043422 0.04749373
-0.018065203 -0.020559093 -0.044684056 -0.07968928 0.011752467 -0.03916984 -0.08874575 -0.027632458
0.05412952 -0.06484581 0.019704683 0.026275752 -0.0661524 0.052944425 -0.034062456 -0.062617525
-0.05266621 0.062087797 0.08157136 -0.05142394 -0.055744905 -0.06556988 0.019195609 -0.07131902
-0.07528431 0.007231596 0.01943871 0.014138537 0.026434474 0.044658486 -0.06535863 -0.034880083
0.04844313 0.02135429 0.06387091 0.04218805 0.055783987 -0.0123570105 -0.050436657 -0.02405867
0.005199913 -0.044891678 -0.04802837 0.03756188 -0.013342101 -0.042209283 0.05406219 -0.06462071
0.08525959 0.05110421 -0.017909044 0.05296347 0.060360283 0.05921703 -0.034929782 0.072761014
-0.0014288076 0.024775002 -0.026371898 -0.010022808 0.06558829 0.09752291 -0.011310633 0.059276525
-0.028373796 -0.06284625 -0.062244 -0.053269766 0.008804437 -0.07394034 -0.009241778 0.050915632
0.083348334 0.04656185 0.076889925 -0.047054242 0.06850404 -0.06762976 0.040690716 -0.07408227
-0.044236425 -0.075406805 -0.036124695 -0.06897959 -0.06297855 0.07330393 -0.06652668 0.06898534
-0.06572826 0.02664918 0.040672462 -0.070018604 0.008243459 -0.06020485 -0.059777815 0.0037397689
0.011433005 -0.028358843 -0.0771427 -0.027899258 0.060360048 0.003393852 0.016364684 0.0043735085
-0.017344633 -0.002619253 0.023872042 -0.0026933437 0.019310314 0.05476403 0.006745024 0.07210806
0.0014513955 0.055291284 -0.056738235 0.07717182 0.046104636 -0.020760527 0.06278064 -0.062271085
-0.06531237 0.05693697 0.066773534 -0.024349615 -0.030057246 -0.067153186 -0.0710357 -0.05849807
-0.061530784 0.050839055 -0.0698485 0.04021436 0.010495841 0.061833452 0.07914922 -0.002933732
-0.077887386 0.06758072 -0.031797417 -0.05213938 0.061935373 -0.051547717 -0.00013888613 0.08589591
0.062691346 -0.07210635 -0.033276614 0.040179074 -0.01203913 0.07919092 0.038828842 0.05791838
0.037891343 -0.063309245 0.033344615 -0.014644339 -0.06485317 -0.04015452 -0.03655924 -0.01744508
-0.061023563 0.034048013 -0.05530638 0.015264574 -0.050168443 -0.022639556 0.06793824 -0.088525526
-0.08048011 0.0403446 -0.027922481 0.028607797 -0.063031495 -0.015177225 0.035555765 0.003923294
-0.055014372 -0.057601545 -0.044319402 -0.04259677 -0.045180555 -0.049977433 -0.06544192 -0.06572262
-0.021835841 -0.011604085 -0.023510663 0.049565863 -0.07742402 -0.07431509 -0.042380005 -0.029945094
0.04835789 0.013860275 0.0648905 -0.039339222 -0.016768945 0.04086961 0.0412884 -0.06963426
-0.061814666 0.024982968 -0.084748074 0.055007473 -0.04379712 -0.002107227 -0.07498189 0.01967881
0.02437466 0.030092059 0.059154607 0.055447605 0.06479512 -0.0716836 0.054367915 -0.086762294

action_model._discrete_distribution.branches.0.bias f4 [6]
00000000: 8051 9b3b f10c cbba cbe3 d6bb 7a23 31bc
00000010: e91f 7b3a 41fe 223c
0.00473994 -0.0015491528 -0.0065579168 -0.010811681 0.0009579645 0.009948314

exp_avg f4 [128, 49]
00000000: 4882 85b6 5743 c8b6 0000 0000 0000 0000
00000010: a819 c637 0000 0000 1a56 0eb5 0000 0000
00000020: 5743 c8b6 2882 4fb7 f902 32b5 0000 0000
00000030: 5743 c8b6 6c04 87b5 a8b9 5cb7 f902 b2b5
00000040: 5743 c8b6 0000 0000 ca80 bab6 c347 bdb7
00000050: 4882 05b6 90ad bcb5 063e 94b6 b140 95b6
00000060: 64fe 35b8 f902 32b6 0000 0000 0000 0000
00000070: 0000 0000 8df9 e037 a183 5eb6 0000 0000
00000080: 0000 0000 0000 0000 0000 0000 5743 c836
00000090: 0000 0000 0000 0000 0000 0000 0000 0000
000000a0: 5743 c836 0000 0000 0000 0000 0000 0000
000000b0: 0000 0000 5743 c836 ae29 01b7 3155 35b8
000000c0: af97 7fb8 0a0e 0db8 2695 53b8 0000 0000
000000d0: 0000 0000 e3c6 38b6 0000 0000 9d61 96b6
000000e0: 0000 0000 2695 53b8 677c afb8 ba12 bcb6
000000f0: 0000 0000 2695 53b8 22a6 0eb7 6dac e538
00000100: ba12 3cb7 2695 53b8 0000 0000 390b 45b8
00000110: cd9b 44b9 0a0e 8db7 af57 47b7 069f 1cb8
00000120: 53b0 1db8 2d8a 89b7 ba12 bcb7 0000 0000
00000130: 0000 0000 0000 0000 d46f 2837 5917 ebb7
00000140: 0000 0000 0000 0000 0000 0000 0000 0000
00000150: 2695 5338 0000 0000 0000 0000 0000 0000
00000160: 0000 0000 2695 5338 0000 0000 0000 0000
00000170: 0000 0000 0000 0000 2695 5338 ef39 0cb9
00000180: 7aa8 f838 f776 5db9 7b65 b1b9 190c 05ba
00000190: 0000 0000 0000 0000 c8c4 d6b8 0000 0000
000001a0: 3c20 3db8 0000 0000 190c 05ba cee5 d637
000001b0: 4e87 6cb8 0000 0000 190c 05ba ac66 b3b8
000001c0: 66dc 53ba 4e87 ecb8 190c 05ba 0000 0000
000001d0: 74cf f7b9 2af4 d039 7b65 31b9 74b3 fab8
000001e0: 29f9 c4b9 d550 c6b9 e6cf 7cb8 4e87 6cb9
000001f0: 0000 0000 0000 0000 0000 0000 c17c d9b9
00000200: 93d4 93b9 0000 0000 0000 0000 0000 0000
00000210: 0000 0000 190c 053a 0000 0000 0000 0000
00000220: 0000 0000 0000 0000 190c 053a 0000 0000
00000230: 0000 0000 0000 0000 0000 0000 190c 053a
00000240: b2ed cc39 87c9 24ba 276d 0b3a 35fe a037
00000250: 937d f137 0000 0000 0000 0000 7010 ab39
00000260: 0000 0000 6da3 2b36 0000 0000 937d f137
00000270: dbc5 dcb9 96a8 5636 0000 0000 937d f137
00000280: c0cf a236 14ea 8338 96a8 d636 937d f137
00000290: 0000 0000 a2e5 e037 bd54 d2b8 35fe 2037
000002a0: ce84 e336 4cc2 b237 58fa b337 7e58 00ba
000002b0: 96a8 5637 0000 0000 0000 0000 0000 0000
000002c0: a2f4 fc38 4a29 8637 0000 0000 0000 0000
000002d0: 0000 0000 0000 0000 937d f1b7 0000 0000
000002e0: 0000 0000 0000 0000 0000 0000 937d f1b7
000002f0: 0000 0000 0000 0000 0000 0000 0000 0000
00000300: 937d f1b7 87ae 8e39 f498 f6b8 374e 42ba
00000310: 1dda 90b9 2b47 d9b9 0000 0000 0000 0000
00000320: c9b5 cd38 0000 0000 fe6d 1ab8 0000 0000
00000330: 2b47 d9b9 c167 33b9 ce22 41b8 0000 0000
00000340: 2b47 d9b9 247d 92b8 82b0 0fba ce22 c1b8
00000350: 2b47 d9b9 0000 0000 1b59 cab9 9682 59b8
00000360: 1dda 10b9 5fb5 ccb8 65d6 a0b9 fcee a1b9
00000370: eeb4 06ba ce22 41b9 0000 0000 0000 0000
00000380: 0000 0000 c801 24b7 846b 71b9 0000 0000
00000390: 0000 0000 0000 0000 0000 0000 2b47 d939
000003a0: 0000 0000 0000 0000 0000 0000 0000 0000
000003b0: 2b47 d939 0000 0000 0000 0000 0000 0000
000003c0: 0000 0000 2b47 d939 f69f 9538 0056 3fba
000003d0: 3b6d bcb9 9d6f 31b9 bd13 85b9 0000 0000
000003e0: 0000 0000 f8cc 97b9 0000 0000 022b bdb7
000003f0: 0000 0000 bd13 85b9 e4bf dd38 d194 ecb7
-3.9788756e-06 -5.968304e-06 0.0 0.0 2.3615386e-05 0.0 -5.3024417e-07 0.0
-5.968304e-06 -1.2368466e-05 -6.6314493e-07 0.0 -5.968304e-06 -1.0059571e-06 -1.3156248e-05 -1.3262899e-06
-5.968304e-06 0.0 -5.558225e-06 -2.2563972e-05 -1.9894378e-06 -1.4057605e-06 -4.417964e-06 -4.448077e-06
-4.3390683e-05 -2.6525797e-06 0.0 0.0 0.0 2.6819087e-05 -3.3157196e-06 0.0
0.0 0.0 0.0 5.968304e-06 0.0 0.0 0.0 0.0
5.968304e-06 0.0 0.0 0.0 0.0 5.968304e-06 -7.6987035e-06 -4.3233103e-05
-6.0938004e-05 -3.3630095e-05 -5.0445225e-05 0.0 0.0 -2.7533904e-06 0.0 -4.481712e-06
0.0 -5.0445225e-05 -8.367822e-05 -5.6050167e-06 0.0 -5.0445225e-05 -8.50254e-06 0.00010951688
-1.1210033e-05 -5.0445225e-05 0.0 -4.6978912e-05 -0.00018750057 -1.6815047e-05 -1.188174e-05 -3.73414e-05
-3.759593e-05 -1.6396016e-05 -2.2420067e-05 0.0 0.0 0.0 1.0039617e-05 -2.8025055e-05
0.0 0.0 0.0 0.0 5.0445225e-05 0.0 0.0 0.0
0.0 5.0445225e-05 0.0 0.0 0.0 0.0 5.0445225e-05 -0.00013373022
0.00011856943 -0.0002112052 -0.0003383568 -0.000507535 0.0 0.0 -0.000102409685 0.0
-4.5091132e-05 0.0 -0.000507535 2.56178e-05 -5.6392797e-05 0.0 -0.000507535 -8.554509e-05
-0.0008081853 -0.000112785594 -0.000507535 0.0 -0.00047266076 0.00039854768 -0.0001691784 -0.00011954355
-0.00037569672 -0.00037825727 -6.0275102e-05 -0.00022557119 0.0 0.0 0.0 -0.00041482414
-0.00028196405 0.0 0.0 0.0 0.0 0.000507535 0.0 0.0
0.0 0.0 0.000507535 0.0 0.0 0.0 0.0 0.000507535
0.0003908701 -0.00062861334 0.0005318694 1.919186e-05 2.8787914e-05 0.0 0.0 0.00032627909
0.0 2.5576112e-06 0.0 2.8787914e-05 -0.00042109084 3.1986615e-06 0.0 2.8787914e-05
4.8521615e-06 6.290167e-05 6.397323e-06 2.8787914e-05 0.0 2.6809812e-05 -0.00010029364 9.59593e-06
6.7805877e-06 2.130973e-05 2.1455038e-05 -0.0004895999 1.2794646e-05 0.0 0.0 0.0
0.00012061863 1.5993272e-05 0.0 0.0 0.0 0.0 -2.8787914e-05 0.0
0.0 0.0 0.0 -2.8787914e-05 0.0 0.0 0.0 0.0
-2.8787914e-05 0.00027214384 -0.00011758684 -0.00074121676 -0.00027628327 -0.0004144249 0.0 0.0
9.809022e-05 0.0 -3.68189e-05 0.0 -0.0004144249 -0.00017109422 -4.60472e-05 0.0
-0.0004144249 -6.985132e-05 -0.0005481319 -9.20944e-05 -0.0004144249 0.0 -0.0003859483 -5.185845e-05
-0.00013814164 -9.761261e-05 -0.00030677314 -0.0003088637 -0.0005138655 -0.0001841888 0.0 0.0
0.0 -9.7755765e-06 -0.00023023604 0.0 0.0 0.0 0.0 0.0004144249
0.0 0.0 0.0 0.0 0.0004144249 0.0 0.0 0.0
0.0 0.0004144249 7.134669e-05 -0.0007298887 -0.00035939537 -0.00016921615 -0.00025382443 0.0
0.0 -0.00028953678 0.0 -2.2550583e-05 0.0 -0.00025382443 0.000105738436 -2.820269e-05

exp_avg_sq f4 [128, 49]
00000000: b489 5c33 e71a f833 0000 0000 0000 0000
00000010: 658f 1d33 0000 0000 84aa 7a30 0000 0000
00000020: e71a f833 a030 d832 a508 c430 0000 0000
00000030: e71a f833 da8c 6131 2a2c 0b33 a508 c431
00000040: e71a f833 0000 0000 2e2e d733 f560 f232
00000050: b489 5c32 d43a dc31 29f3 8733 2acf 8933
00000060: 7d6e 3f33 a508 c432 0000 0000 0000 0000
00000070: 0000 0000 cd7b 5833 bf26 1933 0000 0000
00000080: 0000 0000 0000 0000 0000 0000 e71a f833
00000090: 0000 0000 0000 0000 0000 0000 0000 0000
000000a0: e71a f833 0000 0000 0000 0000 0000 0000
000000b0: 0000 0000 e71a f833 bacc 0333 8535 1133
000000c0: a5ff 9c33 2f7b d634 944a 7135 0000 0000
000000d0: 0000 0000 aaa8 6834 0000 0000 2fc8 f331
000000e0: 0000 0000 944a 7135 4d3b bf34 68a6 3e32
000000f0: 0000 0000 944a 7135 185b db32 b648 3634
00000100: 68a6 3e33 944a 7135 0000 0000 4d45 5135
00000110: 78d3 3835 2f7b d633 752e 5633 5937 0435
00000120: 4406 0635 28df 8234 68a6 3e34 0000 0000
00000130: 0000 0000 0000 0000 6173 3f34 fcf1 9434
00000140: 0000 0000 0000 0000 0000 0000 0000 0000
00000150: 944a 7135 0000 0000 0000 0000 0000 0000
00000160: 0000 0000 944a 7135 0000 0000 0000 0000
00000170: 0000 0000 0000 0000 944a 7135 36fb 3135
00000180: 5119 6234 2317 4535 abca a536 0684 3a37
00000190: 0000 0000 0000 0000 0405 1536 0000 0000
000001a0: e570 bc33 0000 0000 0684 3a37 186f 2536
000001b0: d15e 1334 0000 0000 0684 3a37 548f a934
000001c0: 8552 0237 d15e 1335 0684 3a37 0000 0000
000001d0: a1c3 2137 ce74 8236 abca a535 608f 2535
000001e0: 4c67 cc36 f532 cf36 160f 9a36 d15e 1336
000001f0: 0000 0000 0000 0000 0000 0000 8614 8a36
00000200: 2444 6636 0000 0000 0000 0000 0000 0000
00000210: 0000 0000 0684 3a37 0000 0000 0000 0000
00000220: 0000 0000 0000 0000 0684 3a37 0000 0000
00000230: 0000 0000 0000 0000 0000 0000 0684 3a37
00000240: be3d c236 48c3 dd36 64d9 8a36 3bf5 3836
00000250: dd13 d036 0000 0000 0000 0000 f0f8 b735
00000260: 0000 0000 b839 5233 0000 0000 dd13 d036
00000270: 195d aa36 3768 a433 0000 0000 dd13 d036
00000280: 5e29 3d34 2d7e d635 3768 a434 dd13 d036
00000290: 0000 0000 f876 b436 c003 cc35 3bf5 3835
000002a0: 11b3 b834 8f08 6436 f026 6736 8285 a336
000002b0: 3768 a435 0000 0000 0000 0000 0000 0000
000002c0: 071d 9635 6e71 0036 0000 0000 0000 0000
000002d0: 0000 0000 0000 0000 dd13 d036 0000 0000
000002e0: 0000 0000 0000 0000 0000 0000 dd13 d036
000002f0: 0000 0000 0000 0000 0000 0000 0000 0000
00000300: dd13 d036 fb41 ec35 f5c7 e335 009f 1137
00000310: 3f58 1e36 4b23 b236 0000 0000 0000 0000
00000320: f54d 3b35 0000 0000 fff9 3333 0000 0000
00000330: 4b23 b236 da48 be35 37c0 8c33 0000 0000
00000340: 4b23 b236 8df1 2134 6e65 7436 37c0 8c34
00000350: 4b23 b236 0000 0000 887f 9a36 1ec0 1d35
00000360: 3f58 1e35 991f 9e34 df38 4336 60e4 4536
00000370: da1e 9f36 37c0 8c35 0000 0000 0000 0000
00000380: 0000 0000 ebd2 9935 5fec db35 0000 0000
00000390: 0000 0000 0000 0000 0000 0000 4b23 b236
000003a0: 0000 0000 0000 0000 0000 0000 0000 0000
000003b0: 4b23 b236 0000 0000 0000 0000 0000 0000
000003c0: 0000 0000 4b23 b236 7e32 2b35 cbac bb36
000003d0: 7f51 4836 6b34 a535 f9da 3936 0000 0000
000003e0: 0000 0000 9172 8c35 0000 0000 0dc6 bb32
000003f0: 0000 0000 f9da 3936 8bb1 5a35 42d9 1233
5.1347982e-08 1.15532934e-07 0.0 0.0 3.6684828e-08 0.0 9.119179e-10 0.0
1.15532934e-07 2.5167822e-08 1.4263334e-09 0.0 1.15532934e-07 3.2821874e-09 3.2403626e-08 5.7053335e-09
1.15532934e-07 0.0 1.0020118e-07 2.8216599e-08 1.28369955e-08 6.4095307e-09 6.330658e-08 6.4172426e-08
4.457114e-08 2.2821334e-08 0.0 0.0 0.0 5.0404015e-08 3.5658328e-08 0.0
0.0 0.0 0.0 1.15532934e-07 0.0 0.0 0.0 0.0
1.15532934e-07 0.0 0.0 0.0 0.0 1.15532934e-07 3.0687012e-08 3.380912e-08
7.3108176e-08 3.9950234e-07 8.988802e-07 0.0 0.0 2.1668043e-07 0.0 7.094989e-09
0.0 8.988802e-07 3.561967e-07 1.1097292e-08 0.0 8.988802e-07 2.553638e-08 1.6976523e-07
4.4389168e-08 8.988802e-07 0.0 7.7959413e-07 6.885307e-07 9.9875585e-08 4.986801e-08 4.9254373e-07
4.992801e-07 2.4376754e-07 1.7755667e-07 0.0 0.0 0.0 1.7830236e-07 2.7743215e-07
0.0 0.0 0.0 0.0 8.988802e-07 0.0 0.0 0.0
0.0 8.988802e-07 0.0 0.0 0.0 0.0 8.988802e-07 6.63032e-07
2.10571e-07 7.342189e-07 4.940977e-06 1.1117203e-05 0.0 0.0 2.220565e-06 0.0
8.7749676e-08 0.0 1.1117203e-05 2.465158e-06 1.3724936e-07 0.0 1.1117203e-05 3.1582988e-07
7.767817e-06 5.4899743e-07 1.1117203e-05 0.0 9.641896e-06 3.8878998e-06 1.2352442e-06 6.167593e-07
6.091699e-06 6.175013e-06 4.591314e-06 2.1959897e-06 0.0 0.0 0.0 4.1151097e-06
3.4312334e-06 0.0 0.0 0.0 0.0 1.1117203e-05 0.0 0.0
0.0 0.0 1.1117203e-05 0.0 0.0 0.0 0.0 1.1117203e-05
5.7888383e-06 6.609047e-06 4.138028e-06 2.756088e-06 6.2011954e-06 0.0 0.0 1.3707013e-06
0.0 4.894693e-08 0.0 6.2011954e-06 5.077233e-06 7.655802e-08 0.0 6.2011954e-06
1.7617046e-07 1.5980964e-06 3.0623207e-07 6.2011954e-06 0.0 5.378268e-06 1.5200276e-06 6.89022e-07
3.440296e-07 3.397963e-06 3.4444347e-06 4.873321e-06 1.2249283e-06 0.0 0.0 0.0
1.1184319e-06 1.913951e-06 0.0 0.0 0.0 0.0 6.2011954e-06 0.0
0.0 0.0 0.0 6.2011954e-06 0.0 0.0 0.0 0.0
6.2011954e-06 1.7602573e-06 1.6971013e-06 8.679694e-06 2.35952e-06 5.308922e-06 0.0 0.0
6.977637e-07 0.0 4.1904055e-08 0.0 5.308922e-06 1.4177306e-06 6.554222e-08 0.0
5.308922e-06 1.5082169e-07 3.6417873e-06 2.6216887e-07 5.308922e-06 0.0 4.6044042e-06 5.8766625e-07
5.8988e-07 2.9452784e-07 2.9090368e-06 2.948822e-06 4.742161e-06 1.0486755e-06 0.0 0.0
0.0 1.1460774e-06 1.6385565e-06 0.0 0.0 0.0 0.0 5.308922e-06
0.0 0.0 0.0 0.0 5.308922e-06 0.0 0.0 0.0
0.0 5.308922e-06 6.377594e-07 5.59315e-06 2.984976e-06 1.2308714e-06 2.7694607e-06 0.0
0.0 1.0464156e-06 0.0 2.1859728e-08 0.0 2.7694607e-06 8.146969e-07 3.419087e-08

exp_avg f4 [128]
00000000: 7543 c8b6 1395 53b8 1c0c 05ba 407d f137
00000010: 2747 d9b9 b613 85b9 828d 6337 c8e5 97ba
00000020: 5a88 2db9 1a12 b0b9 3665 e7b9 6db3 09b9
00000030: ae4a 85b9 fe2a 3f37 db84 cbb9 c6d9 1938
00000040: 1bba 30ba 896e fdb9 05f5 b838 670b f1b7
00000050: 9893 23ba ba5f d5b7 b470 0939 1c41 05b9
00000060: 85d5 76b9 b616 88b9 25f7 19ba 5d37 e3b8
00000070: c672 ffb8 307e 17ba 5b73 99ba dabe cf38
00000080: 4c26 3538 b224 e4b9 4594 82ba 5290 28ba
00000090: 30df 0239 4aff d1b9 8a3e 5eb8 663b 4c39
000000a0: d9b9 1a38 6c8f 04b9 6bdd 09ba b4e8 9fb9
000000b0: 75f7 1bba add7 58ba d9e4 b4b9 44f3 19ba
000000c0: 73f8 3238 0021 0bba 4b88 b2b9 eaa8 53ba
000000d0: 1308 43ba 04f0 cdb9 f2ab 5bb8 02c2 7638
000000e0: 1f6f 03b9 c4f1 f7b9 1012 9433 de42 ecb8
000000f0: 023c 66b9 32d5 2b36 4794 b4b9 5a0d 7dba
00000100: 9858 d6b9 2199 a038 1519 d1b9 094b cfb9
00000110: 6519 8539 e75e 4fb9 1623 20ba 30de cbb6
00000120: 4aa6 96b9 7a30 7139 be0d 38b8 34a3 0337
00000130: b64e 69b9 a253 1339 8b70 c1b9 86a0 03b9
00000140: 2821 a9b8 9522 6638 ee94 beb9 a04f 78ba
00000150: 5083 82b9 cff5 18ba 6c3f 13ba 16fa 04b9
00000160: c3cd 73b9 976b 7bb9 b841 4fb5 2fb9 22ba
00000170: 60e0 e137 6cad 5db9 cedd 5a38 7a85 1ab9
00000180: 5b74 feb6 9fae 5a39 b3ef 6438 3cc5 d637
00000190: 659e 61b9 53d1 0d39 494d c7b8 5a1c 8a39
000001a0: d2d0 b1b9 6727 eeb7 3c67 6dba 972f 08b9
000001b0: c26a 44ba 0e22 51b9 b8d6 69b9 0149 e9b9
000001c0: 61b8 cfb7 e9e6 f8b8 696d 41b9 4dd0 a1b8
000001d0: caca 4539 7cd1 24b9 6ef4 0cba 9a6a 4eb9
000001e0: d97d 2bb9 fc26 ffb9 bcd9 e0b7 54eb 1eba
000001f0: 3936 8c38 024f 09b8 1215 50b9 8278 6737
-5.9683175e-06 -5.0445156e-05 -0.0005075352 2.8787763e-05 -0.00041442478 -0.00025382423 1.3563202e-05 -0.0011588866
-0.0001654936 -0.00033582823 -0.0004413516 -0.0001313218 -0.00025423378 1.1394497e-05 -0.00038818162 3.668086e-05
-0.0006741599 -0.00048338276 8.819442e-05 -2.8734748e-05 -0.000623995 -2.5436155e-05 0.00013107323 -0.00012708124
-0.0002353993 -0.00025956862 -0.0005873314 -0.00010834516 -0.00012180726 -0.0005778996 -0.0011707352 9.906078e-05
4.318943e-05 -0.0004351489 -0.0009962401 -0.0006430197 0.0001248091 -0.00040053792 -5.298717e-05 0.00019477084
3.6889545e-05 -0.0001264193 -0.0005259129 -0.0003050022 -0.0005949655 -0.0008271884 -0.0003450278 -0.0005872736
4.2669893e-05 -0.00053073466 -0.00034052352 -0.00080741814 -0.0007439863 -0.00039279473 -5.2373805e-05 5.8831654e-05
-0.0001253453 -0.0004729164 6.8950726e-08 -0.00011265812 -0.00021956864 2.5605082e-06 -0.0003444275 -0.00096531736
-0.00040883268 7.657917e-05 -0.00039882274 -0.00039538022 0.00025386657 -0.00019776412 -0.0006108744 -6.0757375e-06
-0.00028734124 0.0002300161 -4.3881817e-05 7.846207e-06 -0.00022249934 0.00014050168 -0.0003689568 -0.00012552933
-8.064724e-05 5.486848e-05 -0.00036350585 -0.0009472314 -0.00024893368 -0.0005834968 -0.00056170556 -0.00012681665
-0.00023250938 -0.00023977306 -7.720914e-07 -0.0006207404 2.6926573e-05 -0.00021140807 5.2181822e-05 -0.00014736308
-7.5833354e-06 0.00020855152 5.4582673e-05 2.5602632e-05 -0.00021516679 0.00013524787 -9.503455e-05 0.00026342535
-0.00033915654 -2.8390159e-05 -0.00090562156 -0.000129877 -0.0007492715 -0.0001994448 -0.000223006 -0.00044495615
-2.4762181e-05 -0.00011868572 -0.00018446673 -7.715877e-05 0.00018862929 -0.00015718298 -0.0005376999 -0.00019685403
-0.00016354713 -0.00048666436 -2.6804271e-05 -0.00060622883 6.68582e-05 -3.2736927e-05 -0.00019844275 1.3796731e-05

exp_avg_sq f4 [128]
00000000: e91a f833 954a 7135 0684 3a37 df13 d036
00000010: 4b23 b236 f5da 3936 7adb 9f33 2d7c b637
00000020: 9041 2137 dddb 8f36 0893 7336 de21 c936
00000030: 04e5 2836 9f85 c632 9be7 9036 a782 6b36
00000040: d53a 4037 76b0 0c37 d9dc 9b35 bbab a733
00000050: bea1 9936 24a1 8f36 9377 f536 caf4 a336
00000060: 942b 0137 8dbf 7636 15ad 7936 91cc 3937
00000070: 2fdc da36 6780 cc36 20a7 5e37 d370 a436
00000080: eeb9 8e33 5129 5637 98b9 5e37 8451 e336
00000090: d7c0 1337 654f ad36 0ffb 8036 5d74 dd36
000000a0: e0d8 cb33 c6fd 4035 ed6a 7536 68b5 1737
000000b0: 7d75 dd36 f848 c836 d37a ba36 de6e d036
000000c0: 7642 9233 67a0 5a36 cabe bd36 51d4 e636
000000d0: dd70 1837 e23c 6436 02ba e433 86f6 c936
000000e0: 0278 b136 7d3f 4236 d8f4 9d2f e823 1a36
000000f0: 91b1 ca36 7bd6 df2e cd4d c936 f982 4437
00000100: d3b7 3e36 2c53 fb34 d8fa a936 4f4c 5636
00000110: 40d6 d136 3a20 c136 0f42 de36 d9a2 7437
00000120: 5632 c036 5fb3 5f36 c0aa b636 652e 4337
00000130: 33a4 2e36 357a 7c37 a381 8836 0fd3 0537
00000140: 9e65 e436 ea7e d334 f8f3 a536 94bf b837
00000150: e52e e836 47ef 6e36 2dcf ee36 7335 0335
00000160: 68fa b636 1a5f 3436 d48b f030 8912 9736
00000170: 2032 d936 ff69 5036 8b27 1f34 f15c 3837
00000180: 156e a231 9f62 4a37 b325 d333 7472 2137
00000190: 85f4 1d35 eca1 8737 1001 b233 e7b3 7336
000001a0: 34ea 0536 dbfa 0436 b603 0f37 da7a 5036
000001b0: 387a 9e36 5f57 5836 f52b b936 2d59 0f37
000001c0: 15fe eb32 26da 3637 3771 4f36 1e25 2a34
000001d0: 4e40 6736 9223 9634 7d37 2837 d8d5 2036
000001e0: bbba 1836 c9b7 8636 79c5 9736 2c65 b036
000001f0: c8d8 ed33 b3ce 9f36 41fe 9036 9330 9336
1.1553295e-07 8.988803e-07 1.1117203e-05 6.2011964e-06 5.308922e-06 2.7694598e-06 7.443937e-08 2.1753915e-05
9.611613e-06 4.2873276e-06 3.6295405e-06 5.9942095e-06 2.5167255e-06 2.3110998e-08 4.318497e-06 3.5093778e-06
1.145779e-05 8.385736e-06 1.1612675e-06 7.807781e-08 4.5785846e-06 4.2804913e-06 7.3154893e-06 4.8862757e-06
7.6991455e-06 3.6768354e-06 3.7204638e-06 1.1074489e-05 6.522539e-06 6.0946218e-06 1.3271143e-05 4.9007153e-06
6.646211e-08 1.2765014e-05 1.3275443e-05 6.774617e-06 8.806782e-06 5.1650445e-06 3.8439243e-06 6.5998597e-06
9.4923735e-08 7.189486e-07 3.6570084e-06 9.042538e-06 6.5999907e-06 5.968959e-06 5.5575306e-06 6.2117897e-06
6.810744e-08 3.2577898e-06 5.6548497e-06 6.879251e-06 9.086184e-06 3.4010086e-06 1.0650912e-07 6.018966e-06
5.288982e-06 2.8945208e-06 2.8732106e-10 2.2968688e-06 6.0407406e-06 1.0178965e-10 5.999324e-06 1.1713005e-05
2.8419206e-06 4.681291e-07 5.0657945e-06 3.1932902e-06 6.2536274e-06 5.7556e-06 6.623806e-06 1.4581449e-05
5.727906e-06 3.3333997e-06 5.4439006e-06 1.1633708e-05 2.6023597e-06 1.5048824e-05 4.0682075e-06 7.976559e-06
6.8067593e-06 3.9394155e-07 4.945785e-06 2.202372e-05 6.919598e-06 3.5604041e-06 7.117071e-06 4.887908e-07
5.453174e-06 2.6877447e-06 1.750204e-09 4.5023085e-06 6.4729393e-06 3.1056113e-06 1.4822415e-07 1.0988894e-05
4.7273354e-09 1.20631e-05 9.8323106e-08 9.622996e-06 5.884288e-07 1.6168655e-05 8.288964e-08 3.6314539e-06
1.9954869e-06 1.981555e-06 8.524328e-06 3.1065924e-06 4.722995e-06 3.2237365e-06 5.518547e-06 8.544227e-06
2.7473144e-08 1.0898837e-05 3.0911303e-06 1.5845987e-07 3.4459113e-06 2.7965558e-07 1.00265e-05 2.3966331e-06
2.2758456e-06 4.0149066e-06 4.5231395e-06 5.2569867e-06 1.1075605e-07 4.762632e-06 4.3211335e-06 4.386596e-06
