Assets/ML-Agents/results/color-chooser1/Color Chooser/Color Chooser-584.pt (torch, 173955 bytes, 11 tensors)

network_body._body_endoder.seq_layers.0.weight f4 [128, 28]
0.20887655 -0.2903068 0.051602047 -0.110550754 -0.053350866 -0.14025997 0.08221895 0.1493275
-0.052031983 0.17946793 -0.00081886613 0.11228873 0.13834165 -0.25175253 -0.03391454 -0.45848808
0.05245304 0.11562523 -0.059748318 0.041142438 0.037709683 0.039306026 0.017345874 0.13152212
-0.20305169 0.026652096 0.24678622 0.30446452 -0.12638643 0.25334036 -0.24706507 0.15660973
-0.3366243 0.03243244 0.1388974 0.15480527 0.09516241 -0.08490991 -0.22940555 -0.01995574
-0.049424995 -0.39525735 -0.085279696 -0.15184973 -0.24103345 -0.014567815 -0.054360844 0.009288133
-0.19088314 -0.07180876 -0.32226306 0.14692661 0.35819572 0.24158283 -0.17638405 -0.1601141
0.5550037 0.11431672 0.3525822 -0.19449088 -0.072059184 0.17223582 0.54314476 -0.016746227
-0.12833337 -0.0059276586 0.2203004 -0.10170433 0.17144999 -0.11172212 0.0154275615 0.058478497
0.05856078 0.23181501 0.18899666 -0.21938089 -0.15211399 0.13196868 -0.15298195 -0.04940898
-0.11993988 0.045345742 -0.22761677 0.11681415 -0.21483028 -0.05469134 0.20379843 -0.028948693
-0.06088974 -0.0611955 -0.30359718 -0.06109653 0.1420326 0.140904 0.013130577 -0.37054762
0.22693357 0.20457132 0.23874658 -0.09988767 -0.08138341 -0.020760087 -0.3532247 0.15253489
-0.2523225 -0.059930414 0.08733833 -0.15207735 0.19653746 0.42604822 0.02692183 -0.23394589
0.19507585 -0.20933193 0.29524222 0.03782954 -0.11883924 -0.06360645 -0.12294993 0.19155784
0.0037897388 -0.14035584 -0.13768545 -0.27269292 0.050266672 -0.08222436 -0.13786753 -0.18237461
-0.23152602 -0.046447635 0.068268806 0.21664743 0.2001722 0.3290913 -0.093211986 0.0009116115
-0.09430334 -0.019556325 -0.17365505 -0.16700688 0.25035685 -0.26191702 0.1435383 -0.05850262
-0.087466426 -0.007160999 -0.051505793 0.08949737 -0.311032 -0.15112717 0.37950835 -0.080169074
0.0940352 0.16746402 -0.1561525 0.13775453 -0.05243544 -0.15133029 0.0074883034 -0.4726792
0.022856936 -0.07867921 -0.10540554 0.27944976 0.17419371 0.033750445 0.12921144 -0.035115715
-0.23129852 0.18457726 0.0054382035 0.04598 -0.059815183 -0.064491436 0.16685688 -0.09105434
-0.061412923 -0.19515343 -0.27090916 -0.05982643 -0.19254664 0.02925005 0.23702137 -0.079287134
0.07539133 -0.16144781 0.07304049 -0.12849332 0.22488418 0.11672584 -0.0832295 -0.26498315
0.15297313 -0.050138187 0.16885228 0.008476148 0.45813984 0.14603385 -0.2396012 -0.28144038
0.1504442 -0.073387 0.10385554 0.23430413 -0.3955772 -0.03045055 -0.07278754 -0.10008925
0.05744126 -0.0077745575 0.24749027 0.19406499 0.15361401 0.17521943 0.11670856 -0.4431105
0.13182637 0.13064857 -0.03399061 -0.008079534 -0.085746184 0.17013927 0.08959921 0.21458434
-0.14551733 -0.18547152 -0.20803563 0.1547684 0.084535986 -0.28648186 -0.11390121 0.07622296
-0.1900748 -0.13155156 -0.13520549 0.24958973 -0.037025288 0.039665468 0.36137503 -0.26062942
-0.036372878 0.14923742 -0.18787184 -0.15943564 -0.065035805 -0.2824713 -0.20863447 -0.058992963
0.40500823 0.09964558 0.10657924 0.3758971 -0.14901777 -0.1987739 0.2638783 -0.021532563
00000000: bce3 553e 18a3 94be ab5c 533d 6f68 e2bd
00000010: 7086 5abd 4fa0 0fbe 6962 a83d 4fe9 183e
00000020: 7d1f 55bd 71c6 373e 2da9 56ba a2f7 e53d
00000030: 6fa9 0d3e b5e5 80be f9e9 0abd f3be eabe
00000040: 00d9 563d eccc ec3d a7ba 74bd f984 283d
00000050: 7875 1a3d 5bff 203d ef18 8e3c bcad 063e
00000060: c8ec 4fbe 7f55 da3c 87b5 7c3e c6e2 9b3e
00000070: 726b 01be d4b5 813e a0fe 7cbe 4d5e 203e
00000080: 055a acbe e1d7 043d 1f3b 0e3e 4685 1e3e
00000090: 82e4 c23d 3fe5 adbd 4ae9 6abe 387a a3bc
000000a0: dd71 4abd 2c5f cabe 1fa7 aebd 7f7e 1bbe
000000b0: 79d1 76be d8ad 6ebc 7aa9 5ebd 412d 183c
000000c0: df76 43be 7910 93bd aaff a4be ee73 163e
000000d0: 6e65 b73e 7d61 773e 059e 34be f3f4 23be
000000e0: b914 0e3f e21e ea3d a785 b43e 9e28 47be
000000f0: c493 93bd 965e 303e 890b 0b3f 622f 89bc
00000100: d369 03be ce3c c2bb 6e96 613e 5c4a d0bd
00000110: 9690 2f3e 91ce e4bd e2c3 7c3c 2687 6f3d
00000120: 6edd 6f3d ea60 6d3e 5788 413e 62a5 60be
00000130: c5c3 1bbe cc22 073e 4da7 1cbe 1261 4abd
00000140: 0aa3 f5bd 75bc 393d 5f14 69be 423c ef3d
00000150: 78fc 5bbe 0704 60bd 89b0 503e cf25 edbc
00000160: 8567 79bd 22a8 7abd 1771 9bbe 5b40 7abd
00000170: fe70 113e 2349 103e a221 573c 6bb8 bdbe
00000180: 4661 683e 257b 513e fc79 743e e891 ccbd
00000190: 58ac a6bd 0f11 aabc ded9 b4be 1b32 1c3e
000001a0: 6a30 81be 9879 75bd 70de b23d 2aba 1bbe
000001b0: 1e41 493e fe22 da3e 2b8b dc3c 838f 6fbe
000001c0: f7c1 473e 1c5b 56be fd29 973e 26f3 1a3d
000001d0: fd61 f3bd 1944 82bd 2ccd fbbd bd27 443e
000001e0: 445d 783b 71b9 0fbe 6afd 0cbe 689e 8bbe
000001f0: 6de4 4d3d 3f65 a8bd 252d 0dbe 69c0 3abe
00000200: 2815 6dbe e03f 3ebd 84d0 8b3d d3d8 5d3e
00000210: f1f9 4c3e a87e a83e ede5 bebd 36f9 6e3a
00000220: 1c22 c1bd 9634 a0bc a1d2 31be da03 2bbe
00000230: c62e 803e fd19 86be b4fb 123e 71a0 6fbd
00000240: 9921 b3bd d0a6 eabb bdf7 52bd 664a b73d
00000250: 963f 9fbe 15c1 1abe eb4e c23e af2f a4bd
00000260: 8795 c03d b07b 2b3e 71e6 1fbe 860f 0d3e
00000270: 8bc6 56bd 54f6 1abe 7160 f53b 0203 f2be
00000280: 783e bb3c 9122 a1bd dcde d7bd 0a14 8f3e
00000290: d65f 323e e83d 0a3d 0150 043e 7fd5 0fbd
000002a0: 85d9 6cbe d201 3d3e f532 b23b 8655 3c3d
000002b0: c400 75bd 1614 84bd 88dc 2a3e b37a babd
000002c0: 1e8c 7bbd 4dd6 47be 9bb4 8abe 8f0c 75bd
000002d0: f22a 45be cd9d ef3c bbb5 723e 4b61 a2bd
000002e0: c566 9a3d 9352 25be 4196 953d c193 03be
000002f0: 0a48 663e f50d ef3d 3a74 aabd dfab 87be
00000300: fda4 1c3e b35d 4dbd 9de7 2c3e 8bdf 0a3c
00000310: 4e91 ea3e e689 153e 045a 75be f418 90be
00000320: 0b0e 1a3e ec4b 96bd 37b2 d43d 6ced 6f3e
00000330: 1889 cabe 6f73 f9bc a211 95bd 98fb ccbd
00000340: 8747 6b3d b7c1 febb 176e 7d3e f9b8 463e
00000350: fe4c 1d3e b96c 333e e604 ef3d 61df e2be
00000360: 7efd 063e bdc8 053e bd39 0bbd 0660 04bc
00000370: b29b afbd fd38 2e3e ca7f b73d ffbb 5b3e
00000380: 7f02 15be 3fec 3dbe 4b07 55be 9c7b 1e3e
00000390: 3421 ad3d c0ad 92be 0a45 e9bd c91a 9c3d
000003a0: f8a2 42be 74b5 06be 4f73 0abe 7394 7f3e
000003b0: d4a7 17bd 4278 223d 2606 b93e 3871 85be
000003c0: bafb 14bd b2d1 183e 7a61 40be 1943 23be
000003d0: 7e31 85bd 14a0 90be 46a4 55be 9ba2 71bd
000003e0: 3d5d cf3e fb12 cc3d 3746 da3d 9675 c03e
000003f0: 1d98 18be 638b 4bbe 0e1b 873e 0f65 b0bc

network_body._body_endoder.seq_layers.0.bias f4 [128]
0.0 0.0 0.0 0.0 0.0 0.0 0.0 0.0
0.0 0.0 0.0 0.0 0.0 0.0 0.0 0.0
0.0 0.0 0.0 0.0 0.0 0.0 0.0 0.0
0.0 0.0 0.0 0.0 0.0 0.0 0.0 0.0
0.0 0.0 0.0 0.0 0.0 0.0 0.0 0.0
0.0 0.0 0.0 0.0 0.0 0.0 0.0 0.0
0.0 0.0 0.0 0.0 0.0 0.0 0.0 0.0
0.0 0.0 0.0 0.0 0.0 0.0 0.0 0.0
0.0 0.0 0.0 0.0 0.0 0.0 0.0 0.0
0.0 0.0 0.0 0.0 0.0 0.0 0.0 0.0
0.0 0.0 0.0 0.0 0.0 0.0 0.0 0.0
0.0 0.0 0.0 0.0 0.0 0.0 0.0 0.0
0.0 0.0 0.0 0.0 0.0 0.0 0.0 0.0
0.0 0.0 0.0 0.0 0.0 0.0 0.0 0.0
0.0 0.0 0.0 0.0 0.0 0.0 0.0 0.0
0.0 0.0 0.0 0.0 0.0 0.0 0.0 0.0
00000000: 0000 0000 0000 0000 0000 0000 0000 0000
00000010: 0000 0000 0000 0000 0000 0000 0000 0000
00000020: 0000 0000 0000 0000 0000 0000 0000 0000
00000030: 0000 0000 0000 0000 0000 0000 0000 0000
00000040: 0000 0000 0000 0000 0000 0000 0000 0000
00000050: 0000 0000 0000 0000 0000 0000 0000 0000
00000060: 0000 0000 0000 0000 0000 0000 0000 0000
00000070: 0000 0000 0000 0000 0000 0000 0000 0000
00000080: 0000 0000 0000 0000 0000 0000 0000 0000
00000090: 0000 0000 0000 0000 0000 0000 0000 0000
000000a0: 0000 0000 0000 0000 0000 0000 0000 0000
000000b0: 0000 0000 0000 0000 0000 0000 0000 0000
000000c0: 0000 0000 0000 0000 0000 0000 0000 0000
000000d0: 0000 0000 0000 0000 0000 0000 0000 0000
000000e0: 0000 0000 0000 0000 0000 0000 0000 0000
000000f0: 0000 0000 0000 0000 0000 0000 0000 0000
00000100: 0000 0000 0000 0000 0000 0000 0000 0000
00000110: 0000 0000 0000 0000 0000 0000 0000 0000
00000120: 0000 0000 0000 0000 0000 0000 0000 0000
00000130: 0000 0000 0000 0000 0000 0000 0000 0000
00000140: 0000 0000 0000 0000 0000 0000 0000 0000
00000150: 0000 0000 0000 0000 0000 0000 0000 0000
00000160: 0000 0000 0000 0000 0000 0000 0000 0000
00000170: 0000 0000 0000 0000 0000 0000 0000 0000
00000180: 0000 0000 0000 0000 0000 0000 0000 0000
00000190: 0000 0000 0000 0000 0000 0000 0000 0000
000001a0: 0000 0000 0000 0000 0000 0000 0000 0000
000001b0: 0000 0000 0000 0000 0000 0000 0000 0000
000001c0: 0000 0000 0000 0000 0000 0000 0000 0000
000001d0: 0000 0000 0000 0000 0000 0000 0000 0000
000001e0: 0000 0000 0000 0000 0000 0000 0000 0000
000001f0: 0000 0000 0000 0000 0000 0000 0000 0000

network_body._body_endoder.seq_layers.2.weight f4 [128, 128]
0.04404803 0.07997783 -0.108357795 0.035609193 -0.06390111 0.028354 0.0020449571 -0.06959517
-0.13360135 0.009474724 -0.18189688 0.015660476 -0.054634664 0.005581202 -0.06742369 0.010391112
0.020506185 -0.078950725 0.108826704 0.013168891 0.018769825 0.07979207 -0.042865545 0.024187451
-0.04399029 -0.01975451 0.0899919 -0.13040835 0.19088468 0.056952436 0.1332574 0.09402843
-0.029355427 -0.12104094 0.07083296 0.10089847 -0.017238613 -0.009460514 -0.033679597 -0.084305204
-0.021049215 0.13917412 -0.10020491 -0.100167066 0.0066101872 -0.07113295 -0.006199098 -0.105282396
0.0020559363 -0.04274242 -0.0060096323 -0.014100452 0.0009769904 -0.03553101 0.0155744115 0.03752687
-0.03705847 -0.06386602 -0.18855475 0.07905673 0.10744971 0.09262696 0.13550055 -0.12729742
0.12362427 -0.07736409 -0.15313227 -0.016131653 -0.023451336 0.10331494 0.13781965 -0.16945228
0.04792174 0.11235009 0.06151866 -0.05828813 -0.09053568 -0.019600151 0.10271163 0.080011316
-0.069701254 0.0581391 0.10029744 0.010617193 -0.12813655 -0.07146186 0.13663855 0.06291693
-0.079728454 -0.0048217797 -0.012177137 -0.035905175 0.16400279 -0.037341405 -0.15579323 0.088821426
0.09489536 -0.03946647 -0.042568948 -0.11490924 -0.028476933 -0.01451931 0.03194349 -0.10957543
-0.046661757 -0.080962285 0.059643965 -0.083397545 0.043669038 -0.006710669 0.083421275 0.18488649
0.0036308013 -0.0028476636 -0.03101127 -0.10085788 0.05000535 -0.03636946 -0.1270953 -0.046329986
0.041110445 0.08268081 -0.05538177 0.080512695 0.017842172 -0.15653118 -0.023162117 0.026216744
-0.13254553 0.0776429 -0.15080494 0.09861905 -0.0097420765 -0.01962439 0.15659864 0.16610062
0.0957169 -0.055073164 -0.096830316 -0.18360478 -0.027435752 -0.040753823 0.21757545 -0.079720914
0.13606368 -0.17992331 -0.07181008 -0.13550591 0.04996716 0.061648205 -0.16192177 -0.09061372
-0.04211595 0.09154124 0.16201319 0.06055996 -0.07321751 0.037831526 0.06390047 4.421546e-05
-0.09881538 -0.12653714 -0.14339662 -0.14666934 0.09594914 -0.20125407 -0.074080005 -0.07704098
0.1552768 0.053436503 -0.09082833 0.24095894 -0.021585895 0.20891318 0.062254768 -0.053230155
-0.023782719 -0.066297784 0.032638703 0.10407896 -0.070569724 -0.05646244 0.020305214 -0.15605557
0.014375649 -0.15939869 -0.12012644 0.1312702 -0.10712903 -0.042216986 0.12916066 -0.09901726
0.05545187 0.047107976 0.0442285 -0.054217264 0.09802377 -0.040308572 -0.06464621 0.09877632
0.09421369 -0.1269858 0.024112687 0.07154623 0.040449876 -0.04171497 -0.04720027 0.016508378
0.04074118 0.15607804 0.13702239 0.009826106 0.18774647 -0.007855859 -0.05009427 0.118044965
0.08135673 -0.07039212 -0.033072278 -0.0019760467 -0.046391673 0.2091268 0.04844882 0.10479601
-0.046418257 0.011631967 0.06599419 0.027464267 -0.05729096 0.04783664 -0.028566286 0.020307295
0.032054015 -0.109056845 -0.037156124 -0.115810074 -0.16870034 -0.0007331489 -0.063041285 -0.024021298
-0.10536073 0.021473505 0.015671892 -0.042442795 -0.1181283 0.04223874 0.00023516921 0.033442702
-0.09761245 -0.09941802 -0.015598132 -0.062182423 0.111278795 0.10674678 0.09921919 -0.03899522
00000000: b56b 343d 6bcb a33d b1ea ddbd f2da 113d
00000010: 96de 82bd a646 e83c b004 063b ea87 8ebd
00000020: cbce 08be df3b 1b3c 2d43 3abe 664a 803c
00000030: 99c8 5fbd 84e2 b63b 6e15 8abd 7c3f 2a3c
00000040: 96fc a73c ebb0 a1bd 89e0 de3d 55c2 573c
00000050: 2dc3 993c 066a a33d c893 2fbd c324 c63c
00000060: 2a2f 34bd 36d4 a1bc ac4d b83d c489 05be
00000070: 4677 433e f546 693d a174 083e fa91 c03d
00000080: cb7a f0bc 50e4 f7bd df10 913d dba3 ce3d
00000090: fe37 8dbc 4600 1bbc 9ef3 09bd 35a8 acbd
000000a0: 676f acbc a983 0e3e 3b38 cdbd 6424 cdbd
000000b0: 459a d83b 27ae 91bd ce21 cbbb 4c9e d7bd
000000c0: e3bc 063b ad12 2fbd 73ec c4bb 9505 67bc
000000d0: 5c0e 803a f788 11bd d12b 7f3c c6b5 193d
000000e0: 9fca 17bd 30cc 82bd 7f14 41be 7fe8 a13d
000000f0: 980e dc3d 34b3 bd3d a8c0 0a3e 415a 02be
00000100: b92e fd3d 1071 9ebd b5ce 1cbe 8726 84bc
00000110: 041d c0bc c996 d33d 9820 0d3e e684 2dbe
00000120: 9649 443d ce17 e63d fefa 7b3d 89bf 6ebd
00000130: c56a b9bd 7f90 a0bc 7a5a d23d f9dc a33d
00000140: 88bf 8ebd 4423 6e3d bf68 cd3d bcf3 2d3c
00000150: 3a36 03be 985a 92bd faea 0b3e 97da 803d
00000160: ac48 a3bd 0500 9ebb 9d82 47bc 4e11 13bd
00000170: 59f0 273e 4df3 18bd 4388 1fbe 02e8 b53d
00000180: 8058 c23d 98a7 21bd c75c 2ebd 8955 ebbd
00000190: 7548 e9bc 66e2 6dbc 2dd7 023d 1569 e0bd
000001a0: 6620 3fbd 8ecf a5bd 3b4d 743d 55cc aabd
000001b0: 4ede 323d 2ce5 dbbb c6d8 aa3d e252 3d3e
000001c0: bdf2 6d3b de9f 3abb 590b febc 948e cebd
000001d0: 69d2 4c3d 25f8 14bd 4525 02be 83c4 3dbd
000001e0: 6d63 283d 8e54 a93d ffd7 62bd d7e3 a43d
000001f0: bf29 923c b649 20be 7bbe bdbc 7fc4 d63c
00000200: 04ba 07be 3e03 9f3d 9c6c 1abe c9f8 c93d
00000210: 3b9d 1fbc 54c3 a0bc 655b 203e 4816 2a3e
00000220: 3907 c43d 6694 61bd f94e c6bd e402 3cbe
00000230: f1c0 e0bc 7bed 26bd 19cc 5e3e b844 a3bd
00000240: 4754 0b3e d13d 38be 2a11 93bd 10c2 0abe
00000250: 5daa 4c3d d482 7c3d d2ce 25be b093 b9bd
00000260: c681 2cbd f979 bb3d c9e6 253e b80d 783d
00000270: 10f3 95bd 3bf5 1a3d 40de 823d fd73 3938
00000280: b85f cabd f492 01be 90d6 12be 7d30 16be
00000290: fc80 c43d 8c15 4ebe 42b7 97bd a9c7 9dbd
000002a0: e200 1f3e 3ce0 5a3d 3404 babd f1bd 763e
000002b0: e7d4 b0bc 56ed 553e dbfe 7e3d dd07 5abd
000002c0: fad3 c2bc 22c7 87bd 29b0 053d 5a27 d53d
000002d0: dc86 90bd 2945 67bd 1f57 a63c 08cd 1fbe
000002e0: d887 6b3c 6939 23be da04 f6bd b26b 063e
000002f0: 7766 dbbd b8eb 2cbd b142 043e 90c9 cabd
00000300: 8021 633d 4bf4 403d f228 353d ec12 5ebd
00000310: b0c0 c83d 9a1a 25bd 3b65 84bd 3d4b ca3d
00000320: 1bf3 c03d 9108 02be f887 c53c d486 923d
00000330: c5ae 253d 51dd 2abd 1255 41bd 943c 873c
00000340: 39e0 263d ecd2 1f3e 994f 0c3e adfd 203c
00000350: 9c40 403e dcb5 00bc a62f 4dbd 8fc1 f13d
00000360: 5b9e a63d be29 90bd cc76 07bd 9080 01bb
00000370: 3205 3ebd 5625 563e 4572 463d 4a9f d63d
00000380: 1221 3ebd 0194 3e3c f627 873d befc e03c
00000390: eda9 6abd 5af0 433d d803 eabc 7c5b a63c
000003a0: 124b 033d 3259 dfbd 0531 18bd d52d edbd
000003b0: c8bf 2cbe ca30 40ba ca1b 81bd 50c8 c4bc
000003c0: 5ec7 d7bd 34e9 af3c 5762 803c 7fd8 2dbd
000003d0: 40ed f1bd 8702 2d3d c197 7639 37fb 083d
000003e0: 09e9 c7bd ad9b cbbd 4f8f 7fbc ffb2 7ebd
000003f0: 23e6 e33d 0e9e da3d 6e33 cb3d 74b9 1fbd

network_body._body_endoder.seq_layers.2.bias f4 [128]
0.0 0.0 0.0 0.0 0.0 0.0 0.0 0.0
0.0 0.0 0.0 0.0 0.0 0.0 0.0 0.0
0.0 0.0 0.0 0.0 0.0 0.0 0.0 0.0
0.0 0.0 0.0 0.0 0.0 0.0 0.0 0.0
0.0 0.0 0.0 0.0 0.0 0.0 0.0 0.0
0.0 0.0 0.0 0.0 0.0 0.0 0.0 0.0
0.0 0.0 0.0 0.0 0.0 0.0 0.0 0.0
0.0 0.0 0.0 0.0 0.0 0.0 0.0 0.0
0.0 0.0 0.0 0.0 0.0 0.0 0.0 0.0
0.0 0.0 0.0 0.0 0.0 0.0 0.0 0.0
0.0 0.0 0.0 0.0 0.0 0.0 0.0 0.0
0.0 0.0 0.0 0.0 0.0 0.0 0.0 0.0
0.0 0.0 0.0 0.0 0.0 0.0 0.0 0.0
0.0 0.0 0.0 0.0 0.0 0.0 0.0 0.0
0.0 0.0 0.0 0.0 0.0 0.0 0.0 0.0
0.0 0.0 0.0 0.0 0.0 0.0 0.0 0.0
00000000: 0000 0000 0000 0000 0000 0000 0000 0000
00000010: 0000 0000 0000 0000 0000 0000 0000 0000
00000020: 0000 0000 0000 0000 0000 0000 0000 0000
00000030: 0000 0000 0000 0000 0000 0000 0000 0000
00000040: 0000 0000 0000 0000 0000 0000 0000 0000
00000050: 0000 0000 0000 0000 0000 0000 0000 0000
00000060: 0000 0000 0000 0000 0000 0000 0000 0000
00000070: 0000 0000 0000 0000 0000 0000 0000 0000
00000080: 0000 0000 0000 0000 0000 0000 0000 0000
00000090: 0000 0000 0000 0000 0000 0000 0000 0000
000000a0: 0000 0000 0000 0000 0000 0000 0000 0000
000000b0: 0000 0000 0000 0000 0000 0000 0000 0000
000000c0: 0000 0000 0000 0000 0000 0000 0000 0000
000000d0: 0000 0000 0000 0000 0000 0000 0000 0000
000000e0: 0000 0000 0000 0000 0000 0000 0000 0000
000000f0: 0000 0000 0000 0000 0000 0000 0000 0000
00000100: 0000 0000 0000 0000 0000 0000 0000 0000
00000110: 0000 0000 0000 0000 0000 0000 0000 0000
00000120: 0000 0000 0000 0000 0000 0000 0000 0000
00000130: 0000 0000 0000 0000 0000 0000 0000 0000
00000140: 0000 0000 0000 0000 0000 0000 0000 0000
00000150: 0000 0000 0000 0000 0000 0000 0000 0000
00000160: 0000 0000 0000 0000 0000 0000 0000 0000
00000170: 0000 0000 0000 0000 0000 0000 0000 0000
00000180: 0000 0000 0000 0000 0000 0000 0000 0000
00000190: 0000 0000 0000 0000 0000 0000 0000 0000
000001a0: 0000 0000 0000 0000 0000 0000 0000 0000
000001b0: 0000 0000 0000 0000 0000 0000 0000 0000
000001c0: 0000 0000 0000 0000 0000 0000 0000 0000
000001d0: 0000 0000 0000 0000 0000 0000 0000 0000
000001e0: 0000 0000 0000 0000 0000 0000 0000 0000
000001f0: 0000 0000 0000 0000 0000 0000 0000 0000

action_model._discrete_distribution.branches.0.weight f4 [6, 128]
-0.006324102 0.0029793712 0.0023142146 0.00089916785 -0.016722802 0.0065059112 0.0010911544 0.0011863502
-0.003198975 -0.005954579 -0.002575789 -0.009622276 0.0030148455 -0.0093159955 0.009564549 -0.0076979594
-0.0094978465 0.0050323275 0.012227055 -0.026427878 0.0068444656 0.001366324 0.0020692404 -0.021299776
-0.009389715 -0.001230203 -0.00047934926 0.00426085 0.0155436145 -0.00014586121 -0.01349531 0.0035208606
0.0072686113 0.00040515728 -0.012559585 0.008690802 0.0056924266 -0.009574398 0.008832882 0.004313324
0.0063150227 -0.0005742497 -0.00397787 -0.018257964 0.002706632 -0.0018211289 -0.0135945575 -0.008954051
-0.0017442333 0.0004340992 0.013195734 -0.0003084127 -0.0024485227 0.0070998766 0.014450349 0.0014604896
-0.009352471 0.017510332 0.031008283 -0.011174901 -0.018600129 0.0017899884 0.0014252843 -0.002160917
-0.011544913 0.013624745 -0.001790106 0.002341449 -0.0036836395 -0.013240607 -0.014544231 0.016838579
-0.009426193 -0.0122728115 0.003809207 0.001721434 0.0073344246 -0.009518203 -0.020607492 0.012661601
-0.0037570072 0.003396766 -0.0015841387 -0.0030371316 0.0030925702 0.0048958394 0.0013579322 -0.004416132
0.016409982 -0.01247679 -0.005103325 -0.0072062127 0.0042401454 -0.0015366432 -0.009265484 0.011155057
0.006752369 0.007047575 0.0026675484 0.007670928 0.0013338166 0.020742001 -0.003188875 0.000996997
0.0028529612 -0.005659417 -0.0031369587 -0.00065856945 0.009229428 -0.009054451 -0.00037424662 -0.0038407505
0.007169898 0.008187634 0.0035852012 -0.00076596846 0.011195219 -0.021682914 0.010593443 -0.010432096
-0.013171828 -0.0126583455 0.013595806 0.0014590721 -0.0047542863 0.002683612 -0.0042365803 0.004262624
-0.009153135 0.0035078921 -0.0025032924 -0.005721781 0.015802398 -0.015998824 0.006953095 0.0074768253
0.008933787 0.0020076812 -0.0005310074 -0.0042719464 0.00672185 -0.003518176 -0.0072182836 -0.0050422098
0.0020333405 -0.0036105644 0.011858448 0.0024221246 -0.0013539791 0.0053332453 -0.013048123 0.0084021585
-0.0107358545 0.0024690263 -0.0027905 0.018816808 -0.00044281175 -0.0002640983 0.012776452 -0.0050547244
0.0018077729 0.0100897215 5.6111517e-06 0.009022801 -0.013892295 -0.006290977 -0.0008807271 0.007316248
0.0014886692 0.0025148743 -0.010515793 0.0065892497 0.006332021 0.0048482823 0.005384529 -0.007096795
-0.013383037 0.008293774 -0.0022647015 -0.0070894375 -0.0007019727 -0.011507319 0.002034472 0.017668953
0.001470076 -0.0077535654 0.004355342 -0.0068943324 -0.012289162 0.0071226284 -0.005062048 -0.007951087
0.0036977497 0.0025728662 0.00030414524 -0.0038730667 0.011236184 0.0016594107 0.016269652 0.0035129886
0.0013958109 -0.0017473169 0.0022574277 0.004043089 -0.012118161 0.0027702132 0.016502632 -0.009666429
-0.004519723 0.00020483446 -0.016485805 -0.00025786177 -0.0030595136 0.0051476313 0.0023742046 -0.011486002
0.005185204 0.00015381475 0.0029751908 -0.004956683 0.0067235143 0.009457165 -0.0019666203 -0.012920717
0.0009009883 0.006273975 0.0061190096 0.002762085 -0.0029415214 0.0012822285 -0.0036201607 -0.0034042639
0.0055305962 -0.008262541 -0.0066812555 0.0010028955 -0.008311411 -0.0012133992 0.029912302 -0.008545022
0.0070925974 0.0116984835 -0.010514786 0.0012992452 -0.0006948824 -0.008408101 -0.010262924 0.002299464
0.0016946074 -0.014100161 -0.0007482925 0.0002581446 0.0048891543 -0.00130297 0.02044554 -0.0046253116
00000000: 6a3a cfbb 8e41 433b 14aa 173b 22b6 6b3a
00000010: 42fe 88bc 8a2f d53b 1105 8f3a 4f7f 9b3a
00000020: e5a5 51bb a11e c3bb 92ce 28bb c0a6 1dbc
00000030: b794 453b 1ea2 18bc a0b4 1c3c 2a3f fcbb
00000040: db9c 1bbc 39e6 a43b fc53 483c 477f d8bc
00000050: 8a47 e03b 3a16 b33a 189c 073b de7c aebc
00000060: 52d7 19bc c33e a1ba 2b51 fbb9 9a9e 8b3b
00000070: a5aa 7e3c 52f2 18b9 6f1b 5dbc 3dbe 663b
00000080: 882d ee3b 4a6b d439 b8c6 4dbc de63 0e3c
00000090: 8987 ba3b f0dd 1cbc cbb7 103c c956 8d3b
000000a0: 40ee ce3b 3f89 16ba cb58 82bb ba91 95bc
000000b0: c061 313b f2b2 eeba b5bb 5ebc 03b4 12bc
000000c0: c29e e4ba cf97 e339 eb32 583c 74b2 a1b9
000000d0: 6577 20bb 15a6 e83b 28c1 6c3c e66d bf3a
000000e0: 1b3b 19bc d471 8f3c 1505 fe3c ef16 37bc
000000f0: 4c5f 98bc 0b9e ea3a 9bd0 ba3a 2c9e 0dbb
00000100: e026 3dbc 533a 5f3c fda1 eaba ff72 193b
00000110: 3769 71bb 22ef 58bc ed4a 6ebc 0ff1 893c
00000120: 5270 1abc e713 49bc e3a3 793b bda1 e13a
00000130: 9d55 f03b 3df2 1bbc 0bd1 a8bc 9b72 4f3c
00000140: 1f38 76bb 479c 5e3b e0a2 cfba 9d0a 47bb
00000150: b8ac 4a3b 476d a03b a5fc b13a 33b5 90bb
00000160: 3a6e 863c 736b 4cbc cb39 a7bb 1822 ecbb
00000170: ebf0 8a3b 3169 c9ba 42ce 17bc b3c3 363c
00000180: fa42 dd3b 58ef e63b 09d2 2e3b 685c fb3b
00000190: 75d3 ae3a 21eb a93c 72fc 50bb abad 823a
000001a0: bff8 3a3b a172 b9bb 6f95 4dbb d9a3 2cba
000001b0: 0737 173c 1f59 14bc 8836 c4b9 1ab5 7bbb
000001c0: 77f1 ea3b 6d25 063c b2f5 6a3b 46cb 48ba
000001d0: 276c 373c 5ea0 b1bc 1f90 2d3c 62eb 2abc
000001e0: a7ce 57bc f364 4fbc f2c0 5e3c 563e bf3a
000001f0: d8c9 9bbb 8adf 2f3b 03d3 8abb 7bad 8b3b
00000200: 08f7 15bc aae4 653b 470e 24bb c77d bbbb
00000210: 0874 813c f70f 83bc cad6 e33b 2800 f53b
00000220: 055f 123c 4d93 033b 4e33 0bba affb 8bbb
00000230: f742 dc3b 3391 66bb 5a87 ecbb 1f39 a5bb
00000240: cb41 053b 389f 6cbb f049 423c 82bc 1e3b
00000250: 0078 b1ba 81c2 ae3b cbc7 55bc 35a9 093c
00000260: 70e5 2fbc 63cf 213b d2e0 36bb b525 9a3c
00000270: 3029 e8b9 ac76 8ab9 5354 513c 1aa2 a5bb
00000280: cbf2 ec3a 5c4f 253c 6d47 bc36 5fd4 133c
00000290: 829c 63bc 8a24 cebb 98e0 66ba 23bd ef3b
000002a0: 731f c33a 97d0 243b 6f4a 2cbc a2ea d73b
000002b0: d87c cf3b 57de 9e3b b470 b03b 3b8c e8bb
000002c0: 8744 5bbc 9ce2 073c 636b 14bb 834e e8bb
000002d0: 9704 38ba 3289 3cbc c754 053b 7bbe 903c
000002e0: 91af c03a 9f11 febb 42b7 8e3b dae9 e1bb
000002f0: 7b58 49bc f064 e93b 89df a5bb 4745 02bc
00000300: f255 723b 889d 283b af75 9f39 47d3 7dbb
00000310: f917 383c 9580 d93a ef47 853c 2b3a 663b
00000320: a4f3 b63a 3a06 e5ba 5af1 133b e47b 843b
00000330: 408b 46bc 778c 353b 8730 873c f15f 1ebc
00000340: 2f1a 94bb d5c8 5639 3d0d 87bc 9f31 87b9
00000350: 1f82 48bb 76ad a83b 8b98 1b3b c92f 3cbc
00000360: a5e8 a93b 5549 2139 6bfb 423b ac6b a2bb
00000370: ed50 dc3b 3af2 1a3c 6ae2 00bb 6ab1 53bc
00000380: 4d30 6c3a eb95 cd3b f981 c83b 1904 353b
00000390: 8ac6 40bb 7310 a83a 3840 6dbb 121a 5fbb
000003a0: 013a b53b 9c5f 07bc 6fee dabb 9773 833a
000003b0: 962c 08bc ec0a 9fba a50a f53c 6c00 0cbc
000003c0: 0569 e83b ffaa 3f3c 3546 2cbc 6f4b aa3a
000003d0: c528 36ba 22c2 09bc d325 28bc 9bb2 163b
000003e0: 971d de3a 5d04 67bc 0f29 44ba 9557 8739
000003f0: 3335 a03b 6bc8 aaba 687d a73c ed8f 97bb

action_model._discrete_distribution.branches.0.bias f4 [6]
0.0 0.0 0.0 0.0 0.0 0.0
00000000: 0000 0000 0000 0000 0000 0000 0000 0000
00000010: 0000 0000 0000 0000

network_body._body_endoder.seq_layers.0.weight f4 [128, 28]
0.05462037 -0.23209213 0.22444217 -0.06250157 -0.21315381 0.32560784 -0.16021997 0.39427182
0.105075054 0.1470479 -0.005267284 -0.1750564 0.13224697 0.076301344 0.036260113 0.17344001
-0.03954198 0.11466713 -0.31476074 0.13986818 -0.02756586 -0.020665765 -0.13911563 0.4245057
0.23704557 0.16894954 -0.049504295 -0.1398997 -0.08805949 0.08587144 -0.18351911 -0.01958398
-0.17670183 -0.07456339 -0.0034119787 0.2243613 -0.11394449 -0.08352825 0.25430295 0.052035622
0.064085834 -0.018181471 -0.14315332 0.0496949 -0.18130027 -0.2638573 0.104174845 0.35260165
-0.17627344 0.14214136 -0.16498977 0.21795915 -0.06068323 -0.22243296 0.08078969 -0.17559393
0.33595297 -0.11940426 -0.059875418 0.11565727 -0.010945992 -0.116557844 0.12204405 0.26784348
0.17062624 0.09298761 -0.011049665 -0.087803744 -0.13925532 0.38539672 -0.24814303 -0.028940938
0.029535573 -0.30456144 0.4651594 -0.09558269 -0.0973899 0.26439872 -0.23494692 -0.048560876
0.19369864 0.048729446 0.12504296 -0.057968423 0.26487425 0.07649408 0.337524 0.034267988
-0.08232812 -0.18346605 0.23549251 0.020364689 -0.12343486 0.10239217 -0.0053029982 0.26671708
0.22877455 -0.016655458 0.14028743 -0.25784016 -0.06623079 0.10158328 0.1788286 0.06961774
-0.17928785 0.08551953 0.27451608 0.045853686 0.25653136 0.057134666 0.120634295 -0.30238134
0.2096758 -0.36110985 -0.047268488 -0.04123089 0.5163358 0.022385264 -0.035825968 0.2672043
-0.22845478 0.02114766 0.11726121 0.22933607 0.17669596 0.11054786 -0.22433688 -0.41053262
0.19460657 0.22394873 -0.0027826596 0.14410889 -0.084515 -0.20521061 -0.16860397 -0.06916947
0.1801218 -0.01328198 -0.12895918 -0.19314425 0.13143714 -0.0155529445 -0.13598117 0.18403608
0.23766205 -0.16553673 -0.0019785282 -0.3117397 0.18210784 -0.35502476 0.046898384 0.22273287
0.08744319 -0.027219191 -0.33177942 0.018909648 0.001993517 0.18112507 -0.14321885 -0.18632756
0.28612918 -0.089835286 0.37568018 -0.23613763 -0.13311698 0.046745606 -0.13483542 -0.04580362
0.21930301 0.28063837 -0.15912479 -0.122110106 -0.32183442 -0.13740656 0.31746605 0.08963429
0.44665548 -0.0041275243 -0.21665075 -0.112900816 0.016399715 0.09793478 0.05925292 0.1094996
0.19910277 -0.33390993 0.3120041 0.08511745 -0.10931076 -0.050665442 -0.03821775 -0.10505707
0.46377888 -0.10821685 -0.12943688 -0.2800189 -0.18656377 -0.0032194806 -0.07551645 0.11882997
0.09817367 0.09285603 -0.13396782 0.34810337 0.22140001 0.28094038 -0.24095814 0.41096044
0.070053756 -0.3363113 0.012001732 0.122776225 0.04130439 0.1528264 -0.071590625 -0.045356225
0.06742468 0.15898158 0.15844378 0.3701465 0.05741744 -0.17214671 -0.167673 0.38963935
0.1466099 -0.104701735 -0.24805644 -0.035066698 -0.22129215 0.09132965 -0.09716868 -0.08741143
0.027970722 -0.20926587 0.09986729 -0.23949587 -0.03479999 -0.47737265 -0.1086887 0.24182591
0.05742433 -0.091739655 0.0056073503 -0.16414982 -0.22655664 -0.34914458 0.24581747 0.15204662
-0.15493219 0.17177036 -0.0042234883 -0.011229701 -0.2355191 -0.22875981 0.23551233 -0.3210977
00000000: 9cb9 5f3d 8fa9 6dbe 2bd4 653e d300 80bd
00000010: fe44 5abe 12b6 a63e b410 24be ffdd c93e
00000020: 9731 d73d ba93 163e 2e99 acbb fc41 33be
00000030: c06b 073e e143 9c3d 7c85 143d 429a 313e
00000040: c5f6 21bd 9ad6 ea3d 5228 a1be 9b39 0f3e
00000050: ccd1 e1bc 404b a9bc 5474 0ebe d058 d93e
00000060: 13bc 723e 1c01 2d3e 04c5 4abd de41 0fbe
00000070: 8958 b4bd 5edd af3d 6fec 3bbe 956e a0bc
00000080: 53f1 34be b1b4 98bd 819b 5fbb f8be 653e
00000090: bb5b e9bd dc10 abbd ff33 823e 4e23 553d
000000a0: 6f3f 833d 4ff1 94bc c996 12be e18c 4b3d
000000b0: c7a6 39be 4e18 87be 9f59 d53d 3488 b43e
000000c0: 0681 34be 818d 113e 14f3 28be af30 5f3e
000000d0: fb8e 78bd 77c5 63be 1175 a53d e5ce 33be
000000e0: 0702 ac3e 388a f4bd ed3f 75bd b8dd ec3d
000000f0: d156 33bc e1b5 eebd 3bf2 f93d c822 893e
00000100: a5b8 2e3e 4a70 be3d a709 35bc 73d2 b3bd
00000110: f298 0ebe b852 c53e 3519 7ebe 8c15 edbc
00000120: 96f4 f13c 7aef 9bbe 5f29 ee3e dbc0 c3bd
00000130: 5b74 c7bd 455f 873e ed95 70be c5e7 46bd
00000140: f058 463e 8798 473d 430b 003e 4c70 6dbd
00000150: 999d 873e eea8 9c3d f2cf ac3e 975c 0c3d
00000160: a59b a8bd 86de 3bbe f324 713e d9d3 a63c
00000170: 6acb fcbd fcb2 d13d c6c4 adbb 248f 883e
00000180: e043 6a3e 0771 88bc 82a7 0f3e a003 84be
00000190: 02a4 87bd e50a d03d d81e 373e bf93 8e3d
000001a0: 3c97 37be dd24 af3d 5f8d 8c3e 13d1 3b3d
000001b0: 1458 833e 0a06 6a3d 1d0f f73d bad1 9abe
000001c0: 41b5 563e 64e3 b8be 9a9c 41bd b9e1 28bd
000001d0: 952e 043f 4d61 b73c 40be 12bd 01cf 883e
000001e0: 0df0 69be dc3d ad3c a526 f03d 13d7 6a3e
000001f0: c9ef 343e eb66 e23d 91b8 65be 5531 d2be
00000200: f246 473e d152 653e 485d 36bb 4891 133e
00000210: 3316 adbd bb22 52be 85a6 2cbe b9a8 8dbd
00000220: d971 383e a99c 59bc e00d 04be 9bc7 45be
00000230: 7597 063e c7d1 7ebc a63e 0bbe f473 3c3e
00000240: ae5d 733e 7682 29be 32aa 01bb 599c 9fbe
00000250: 7a7a 3a3e cec5 b5be 8518 403d 1614 643e
00000260: 6a15 b33d c8fa debc fede a9be 68e8 9a3c
00000270: aaa5 023b da78 393e f6a7 12be a7cc 3ebe
00000280: 867f 923e 90fb b7bd 2759 c03e 10ce 71be
00000290: d14f 08be 5278 3f3d 4c12 0abe 949c 3bbd
000002a0: f890 603e d5af 8f3e 9cf1 22be dd14 fabd
000002b0: 7bc7 a4be 4eb4 0cbe e98a a23e 2f92 b73d
000002c0: 07b0 e43e 2f40 87bb b2d9 5dbe 8b38 e7bd
000002d0: b258 863c 0892 c83d 31b3 723d 5441 e03d
000002e0: 99e1 4b3e 3ef6 aabe 00bf 9f3e 0f52 ae3d
000002f0: 52de dfbd 9186 4fbd 378a 1cbd 2928 d7bd
00000300: 6d74 ed3e cca0 ddbd 1a8b 04be a35e 8fbe
00000310: 930a 3fbe ecfd 52bb 5ea8 9abd 215d f33d
00000320: 470f c93d 4d2b be3d dc2e 09be 9b3a b23e
00000330: afb6 623e 6bd7 8f3e bbbd 76be 6869 d23e
00000340: 5878 8f3d ff30 acbe eaa2 443c 1a72 fb3d
00000350: cb2e 293d 867e 1c3e 1b9e 92bd 73c7 39bd
00000360: f315 8a3d 11cc 223e 163f 223e d883 bd3e
00000370: 8d2e 6b3d 3a47 30be 79b2 2bbe cf7e c73e
00000380: e820 163e dd6d d6bd 8202 7ebe 19a2 0fbd
00000390: 699a 62be 0a0b bb3d 5f00 c7bd c404 b3bd
000003a0: db22 e53c cb49 56be 3987 cc3d 683e 75be
000003b0: 6f8a 0ebd 306a f4be 2e98 debd 36a1 773e
000003c0: c635 6b3d 00e2 bbbd ddbd b73b e416 28be
000003d0: 77fe 67be 14c3 b2be 93b7 7b3e 1cb2 1b3e
000003e0: 8ba6 1ebe 92e4 2f3e 3065 8abb c8fc 37bc
000003f0: eb2b 71be 0340 6abe 252a 713e eb66 a4be

network_body._body_endoder.seq_layers.0.bias f4 [128]
0.0 0.0 0.0 0.0 0.0 0.0 0.0 0.0
0.0 0.0 0.0 0.0 0.0 0.0 0.0 0.0
0.0 0.0 0.0 0.0 0.0 0.0 0.0 0.0
0.0 0.0 0.0 0.0 0.0 0.0 0.0 0.0
0.0 0.0 0.0 0.0 0.0 0.0 0.0 0.0
0.0 0.0 0.0 0.0 0.0 0.0 0.0 0.0
0.0 0.0 0.0 0.0 0.0 0.0 0.0 0.0
0.0 0.0 0.0 0.0 0.0 0.0 0.0 0.0
0.0 0.0 0.0 0.0 0.0 0.0 0.0 0.0
0.0 0.0 0.0 0.0 0.0 0.0 0.0 0.0
0.0 0.0 0.0 0.0 0.0 0.0 0.0 0.0
0.0 0.0 0.0 0.0 0.0 0.0 0.0 0.0
0.0 0.0 0.0 0.0 0.0 0.0 0.0 0.0
0.0 0.0 0.0 0.0 0.0 0.0 0.0 0.0
0.0 0.0 0.0 0.0 0.0 0.0 0.0 0.0
0.0 0.0 0.0 0.0 0.0 0.0 0.0 0.0
00000000: 0000 0000 0000 0000 0000 0000 0000 0000
00000010: 0000 0000 0000 0000 0000 0000 0000 0000
00000020: 0000 0000 0000 0000 0000 0000 0000 0000
00000030: 0000 0000 0000 0000 0000 0000 0000 0000
00000040: 0000 0000 0000 0000 0000 0000 0000 0000
00000050: 0000 0000 0000 0000 0000 0000 0000 0000
00000060: 0000 0000 0000 0000 0000 0000 0000 0000
00000070: 0000 0000 0000 0000 0000 0000 0000 0000
00000080: 0000 0000 0000 0000 0000 0000 0000 0000
00000090: 0000 0000 0000 0000 0000 0000 0000 0000
000000a0: 0000 0000 0000 0000 0000 0000 0000 0000
000000b0: 0000 0000 0000 0000 0000 0000 0000 0000
000000c0: 0000 0000 0000 0000 0000 0000 0000 0000
000000d0: 0000 0000 0000 0000 0000 0000 0000 0000
000000e0: 0000 0000 0000 0000 0000 0000 0000 0000
000000f0: 0000 0000 0000 0000 0000 0000 0000 0000
00000100: 0000 0000 0000 0000 0000 0000 0000 0000
00000110: 0000 0000 0000 0000 0000 0000 0000 0000
00000120: 0000 0000 0000 0000 0000 0000 0000 0000
00000130: 0000 0000 0000 0000 0000 0000 0000 0000
00000140: 0000 0000 0000 0000 0000 0000 0000 0000
00000150: 0000 0000 0000 0000 0000 0000 0000 0000
00000160: 0000 0000 0000 0000 0000 0000 0000 0000
00000170: 0000 0000 0000 0000 0000 0000 0000 0000
00000180: 0000 0000 0000 0000 0000 0000 0000 0000
00000190: 0000 0000 0000 0000 0000 0000 0000 0000
000001a0: 0000 0000 0000 0000 0000 0000 0000 0000
000001b0: 0000 0000 0000 0000 0000 0000 0000 0000
000001c0: 0000 0000 0000 0000 0000 0000 0000 0000
000001d0: 0000 0000 0000 0000 0000 0000 0000 0000
000001e0: 0000 0000 0000 0000 0000 0000 0000 0000
000001f0: 0000 0000 0000 0000 0000 0000 0000 0000

network_body._body_endoder.seq_layers.2.weight f4 [128, 128]
-0.05037502 0.07956828 0.0105337845 -0.044459958 -0.11665204 -0.09887149 -0.121021755 -0.060735136
0.07676281 0.031997047 0.074435726 0.009093275 0.017590778 0.020577712 -0.1002936 0.11171923
-0.023568498 0.033910457 0.06681566 -0.023174394 -0.004279404 0.19229697 0.0060928063 -0.032613996
0.020474415 0.03163022 0.2583766 0.022757478 -0.061206236 -0.160185 0.05054066 -0.05265256
0.044393685 -0.024811344 -0.124910034 0.021606704 -0.091190204 -0.08524633 0.06035937 -0.029653236
-0.10234165 0.118703604 0.013362909 0.0033699246 -0.009397165 -0.040246975 0.050181154 -0.010173777
0.023208767 0.009224809 0.0339507 -0.015953297 0.077077806 0.0063799317 -0.052501637 0.0458528
-0.072881274 0.07960797 -0.08671745 0.0547209 -0.14640513 0.055889122 0.0756871 -0.0789079
0.10073785 0.013077163 0.02939567 -0.10932842 0.13528578 0.12546432 0.07654906 0.066418424
0.0714312 0.08913006 0.03385874 -0.15477344 0.14326549 -0.083117865 -0.006445283 -0.029404368
-0.02306835 -0.07219263 -0.107584454 -0.13639875 0.076527245 0.04275297 0.021099284 0.02442713
0.0005883148 -0.070456885 0.004587216 -0.065939836 0.08205978 -0.15423197 -0.12348531 -0.028494414
0.02001073 -0.011902114 -0.0017156204 0.001695159 -0.06743472 0.021157455 0.15348524 0.09608321
-0.09195931 -0.049343094 -0.09367556 -0.38025168 -0.12872687 0.082994975 0.080328494 0.008097751
0.103369854 0.119303524 0.028498566 -0.09468771 0.061390847 -0.033596642 0.027986754 0.13510866
0.09491445 -0.0621927 0.0059416224 0.09938428 -0.05729704 0.015789028 0.051097456 -0.12944502
0.013685188 -0.15380594 0.0051229144 -0.10015949 -0.011835986 -0.06573025 -0.13484713 0.13283935
0.0028562844 -0.005914344 0.0054022046 0.18829851 -0.05660296 0.10302098 -0.12794617 -0.09629422
-0.07517527 0.099740684 0.10979318 -0.043878663 -0.023577226 0.0663539 0.06768356 -0.06272847
0.07010726 0.04348822 -0.07267305 -0.11496775 -0.14191855 0.056963664 0.005627923 0.08449526
-0.0779375 -0.1955482 -0.06821341 -0.06654196 0.06535834 -0.03504839 0.09616451 -0.008886002
0.020858264 -0.0026321465 0.1663226 -0.0552635 -0.05893102 0.09594329 0.07623994 -0.012771759
0.14467083 0.009582315 0.16737887 0.08247154 0.11571021 -0.02009768 -0.042682473 0.043922354
0.14757438 0.010088342 -0.099028856 -0.046502855 -0.042224795 0.14692539 0.0742355 0.15194903
-0.10428182 -0.09239539 0.095543936 -0.103775926 -0.049957827 -0.07119016 0.06657612 -0.052208606
-0.104897976 0.24246259 -0.047907416 -0.06246603 -0.086166665 0.10463023 0.040524732 0.011511172
0.0059620063 -0.1522482 0.023218198 -0.046972215 0.010738662 0.088002026 0.12782529 0.13913947
-0.022521352 0.035652377 -0.04297601 -0.16456841 -0.009500684 0.082716905 0.02889558 -0.08867388
0.112847395 0.056262635 0.0926588 0.08434552 -0.0028512431 0.051598784 0.0706411 -0.19415934
-0.011483489 -0.113389656 0.036629595 -0.034943134 -0.08265397 -0.03274024 -0.10380649 0.06917511
-0.060990512 0.166461 -0.010738152 -0.045956932 0.027945641 0.08040733 -0.15556243 -0.06066345
-0.09433592 -0.027763467 0.07952737 -0.04061742 -0.13096116 -0.021347847 -0.06295217 -0.010851098
00000000: 0956 4ebd b2f4 a23d e595 2c3c a51b 36bd
00000010: 44e7 eebd 237d cabd 41da f7bd 68c5 78bd
00000020: d235 9d3d 560f 033d c271 983d f6fb 143c
00000030: 891a 903c 9792 a83c bb66 cdbd 0dcd e43d
00000040: b912 c1bc b1e5 0a3d a6d6 883d 3ad8 bdbc
00000050: 3e3a 8cbb 7fe9 443e 2aa6 c73b 4196 05bd
00000060: f6b9 a73c b18e 013d f049 843e e46d ba3c
00000070: 64b3 7abd 8907 24be b903 4f3d 36aa 57bd
00000080: 27d6 353d 2941 cbbc d5d0 ffbd 8b00 b13c
00000090: eec1 babd a195 aebd 633b 773d 58eb f2bc
000000a0: 8098 d1bd e01a f33d 1af0 5a3c f4d9 5c3b
000000b0: 91f6 19bc 03da 24bd c18a 4d3d eaaf 26bc
000000c0: 5020 be3c a723 173c e40f 0b3d 7db0 82bc
000000d0: f8da 9d3d bf0e d13b f50b 57bd 25d0 3b3d
000000e0: c742 95bd 8109 a33d eb98 b1bd 0623 603d
000000f0: 3aeb 15be feeb 643d d701 9b3d 779a a1bd
00000100: a54f ce3d 9941 563c 30cf f03c 94e7 dfbd
00000110: 5b88 0a3e b879 003e c1c5 9c3d 6206 883d
00000120: 854a 923d d289 b63d 76af 0a3d ee7c 1ebe
00000130: 30b4 123e b339 aabd f432 d3bb 6ee1 f0bc
00000140: d6f9 bcbc bbd9 93bd 3d55 dcbd 1dac 0bbe
00000150: 51ba 9c3d bd1d 2f3d 68d8 ac3c 681b c83c
00000160: 2339 1a3a b34b 90bd 5b50 963b 770b 87bd
00000170: f50e a83d fcee 1dbe dee5 fcbd 1e6d e9bc
00000180: 8bed a33c 1601 43bc abde e0ba 1930 de3a
00000190: 371b 8abd 6652 ad3c 3c2b 1d3e 46c7 c43d
000001a0: 2a55 bcbd fc1b 4abd f9d8 bfbd 59b0 c2be
000001b0: fad0 03be 45f9 a93d 4483 a43d 6eac 043c
000001c0: 93b3 d33d 6855 f43d d375 e93c a1eb c1bd
000001d0: f874 7b3d a29c 09bd 7a44 e53c ed59 0a3e
000001e0: 8262 c23d c6bd 7ebd f1b1 c23b fc89 cb3d
000001f0: 4db0 6abd fe57 813c 914b 513d 3c8d 04be
00000200: d737 603c 4e7f 1dbe 1fde a73b 6b20 cdbd
00000210: b9eb 41bc 959d 86bd 5e15 0abe 0a07 083e
00000220: 8030 3b3b 1dcd c1bb fa04 b13b 53d1 403e
00000230: 81d8 67bd aafc d23d 5204 03be e735 c5bd
00000240: 7ef5 99bd d844 cc3d 3fdb e03d 1dba 33bd
00000250: 0725 c1bc 8ee4 873d ae9d 8a3d c977 80bd
00000260: 6594 8f3d b420 323d 9cd5 94bd 3674 ebbd
00000270: 1953 11be bb52 693d 716a b83b da0b ad3d
00000280: b29d 9fbd ca3d 48be 79b3 8bbd 2747 88bd
00000290: 98da 853d e78e 0fbd e6f1 c43d 9896 11bc
000002a0: f3de aa3c 1780 2cbb 7950 2a3e fb5b 62bd
000002b0: a761 71bd ea7d c43d b023 9c3d a440 51bc
000002c0: 9724 143e 24ff 1c3c 5e65 2b3e d7e6 a83d
000002d0: 79f9 ec3d e4a3 a4bc d1d3 2ebd ede7 333d
000002e0: bd1d 173e 9349 253c a4cf cabd c779 3ebd
000002f0: e8f3 2cbd 9c73 163e c808 983d 8798 1b3e
00000300: b591 d5bd cb39 bdbd 8aac c33d 7988 d4bd
00000310: 94a0 4cbd 26cc 91bd 1059 883d b1d8 55bd
00000320: c0d4 d6bd 1d48 783e 913a 44bd 61dc 7fbd
00000330: 2678 b0bd 6048 d63d 43fd 253d 5b99 3c3c
00000340: ef5c c33b f4e6 1bbe 1734 be3c f065 40bd
00000350: 37f1 2f3c 683a b43d a2e4 023e 947a 0e3e
00000360: b37e b8bc 3a08 123d 9d07 30bd 9f84 28be
00000370: c2a8 1bbc 7b67 a93d 6cb6 ec3c a79a b5bd
00000380: 891c e73d a673 663d e6c3 bd3d 58bd ac3d
00000390: ecdb 3abb 3f59 533d 48ac 903d b5d1 46be
000003a0: 3e25 3cbc d638 e8bd ea08 163d 8820 0fbd
000003b0: 7c46 a9bd a11a 06bd 7f98 d4bd aeab 8d3d
000003c0: 30d1 79bd c174 2a3e 13ef 2fbc 563d 3cbd
000003d0: 42ee e43c 99ac a43d c24b 1fbe 3d7a 78bd
000003e0: 3133 c1bd 3670 e3bc 3fdf a23d 745e 26bd
000003f0: af1a 06be aee1 aebc 11ed 80bd cec8 31bc

network_body._body_endoder.seq_layers.2.bias f4 [128]
0.0 0.0 0.0 0.0 0.0 0.0 0.0 0.0
0.0 0.0 0.0 0.0 0.0 0.0 0.0 0.0
0.0 0.0 0.0 0.0 0.0 0.0 0.0 0.0
0.0 0.0 0.0 0.0 0.0 0.0 0.0 0.0
0.0 0.0 0.0 0.0 0.0 0.0 0.0 0.0
0.0 0.0 0.0 0.0 0.0 0.0 0.0 0.0
0.0 0.0 0.0 0.0 0.0 0.0 0.0 0.0
0.0 0.0 0.0 0.0 0.0 0.0 0.0 0.0
0.0 0.0 0.0 0.0 0.0 0.0 0.0 0.0
0.0 0.0 0.0 0.0 0.0 0.0 0.0 0.0
0.0 0.0 0.0 0.0 0.0 0.0 0.0 0.0
0.0 0.0 0.0 0.0 0.0 0.0 0.0 0.0
0.0 0.0 0.0 0.0 0.0 0.0 0.0 0.0
0.0 0.0 0.0 0.0 0.0 0.0 0.0 0.0
0.0 0.0 0.0 0.0 0.0 0.0 0.0 0.0
0.0 0.0 0.0 0.0 0.0 0.0 0.0 0.0
00000000: 0000 0000 0000 0000 0000 0000 0000 0000
00000010: 0000 0000 0000 0000 0000 0000 0000 0000
00000020: 0000 0000 0000 0000 0000 0000 0000 0000
00000030: 0000 0000 0000 0000 0000 0000 0000 0000
00000040: 0000 0000 0000 0000 0000 0000 0000 0000
00000050: 0000 0000 0000 0000 0000 0000 0000 0000
00000060: 0000 0000 0000 0000 0000 0000 0000 0000
00000070: 0000 0000 0000 0000 0000 0000 0000 0000
00000080: 0000 0000 0000 0000 0000 0000 0000 0000
00000090: 0000 0000 0000 0000 0000 0000 0000 0000
000000a0: 0000 0000 0000 0000 0000 0000 0000 0000
000000b0: 0000 0000 0000 0000 0000 0000 0000 0000
000000c0: 0000 0000 0000 0000 0000 0000 0000 0000
000000d0: 0000 0000 0000 0000 0000 0000 0000 0000
000000e0: 0000 0000 0000 0000 0000 0000 0000 0000
000000f0: 0000 0000 0000 0000 0000 0000 0000 0000
00000100: 0000 0000 0000 0000 0000 0000 0000 0000
00000110: 0000 0000 0000 0000 0000 0000 0000 0000
00000120: 0000 0000 0000 0000 0000 0000 0000 0000
00000130: 0000 0000 0000 0000 0000 0000 0000 0000
00000140: 0000 0000 0000 0000 0000 0000 0000 0000
00000150: 0000 0000 0000 0000 0000 0000 0000 0000
00000160: 0000 0000 0000 0000 0000 0000 0000 0000
00000170: 0000 0000 0000 0000 0000 0000 0000 0000
00000180: 0000 0000 0000 0000 0000 0000 0000 0000
00000190: 0000 0000 0000 0000 0000 0000 0000 0000
000001a0: 0000 0000 0000 0000 0000 0000 0000 0000
000001b0: 0000 0000 0000 0000 0000 0000 0000 0000
000001c0: 0000 0000 0000 0000 0000 0000 0000 0000
000001d0: 0000 0000 0000 0000 0000 0000 0000 0000
000001e0: 0000 0000 0000 0000 0000 0000 0000 0000
000001f0: 0000 0000 0000 0000 0000 0000 0000 0000

value_heads.value_heads.extrinsic.weight f4 [1, 128]
-0.14184158 0.06202078 0.026380196 0.06953573 -0.06892514 0.19835061 0.0984171 -0.19027992
0.11812621 0.12181407 0.13370359 -0.10540054 -0.045406803 0.16761625 0.17954352 0.034975916
-0.059634402 -0.13611287 0.2048398 0.125332 0.16337574 -0.17119315 -0.08464301 0.07284802
0.057161182 0.14689991 0.02884227 -0.122668885 -0.14034608 0.10742095 0.01638934 0.20527825
0.09934804 0.12654072 -0.14742166 0.21279833 0.18013689 0.18859872 -0.00894016 -0.0814345
-0.07365823 -0.081628025 0.120101154 -0.029473335 0.052526444 0.061225295 0.040334165 0.116730094
0.11018923 0.16701835 -0.14337981 -0.008707032 -0.13031772 -0.10720624 0.11970475 0.06607878
-0.16359279 -0.123101264 0.12881696 0.13507709 -0.12338654 0.14971015 -0.008096948 0.076236874
-0.19686972 -0.19791096 -0.17961489 -0.15540427 -0.07056549 0.11895591 -0.19528244 0.12898856
0.17274699 0.14511466 0.059399128 0.05980003 -0.17718816 0.11337522 -0.021886155 -0.19710246
-0.014615089 -0.13274178 -0.16993995 0.16937408 -0.020933539 -0.21444197 0.044207633 0.053227603
0.20654103 -0.167857 -0.03847508 -0.07732752 0.17752728 -0.21366204 -0.0009328574 0.032170266
-0.13414964 -0.043080777 -0.19256783 0.046586215 -0.0071586818 0.061746985 0.10178232 0.085363746
0.047882676 0.14319846 -0.18411735 -0.20390962 0.18528756 -0.11935246 -0.13238043 0.08122823
0.13415688 0.16287097 0.052174926 0.007474482 0.020088807 -0.033499375 -0.10833927 0.21082845
0.20104352 -0.059537575 -0.14266828 -0.06515087 0.115769714 0.14446735 0.11488429 -0.15261272
00000000: eb3e 11be 8009 7e3d 481b d83c c068 8e3d
00000010: a028 8dbd 6c1c 4b3e e88e c93d bdd8 42be
00000020: 28ec f13d a879 f93d 98e9 083e 3ddc d7bd
00000030: 7cfc 39bd 98a3 2b3e 42da 373e e842 0f3d
00000040: 3443 74bd 2c61 0bbe 86c1 513e 0857 003e
00000050: f84b 273e 424d 2fbe 5059 adbd 5831 953d
00000060: d821 6a3d ee6c 163e a046 ec3c d339 fbbd
00000070: e2b6 0fbe 84ff db3d f042 863c 7634 523e
00000080: fc76 cb3d e493 013e b4f5 16be cee7 593e
00000090: ce75 383e 0620 413e c079 12bc 22c7 a6bd
000000a0: 20da 96bd 982c a7bd 98f7 f53d 1072 f1bc
000000b0: f825 573d 60c7 7a3d 7035 253d 3010 ef3d
000000c0: e4aa e13d dc06 2b3e 28d2 12be f0a7 0ebc
000000d0: 0272 05be f28e dbbd c427 f53d 5054 873d
000000e0: de84 27be 841c fcbd 98e8 033e a651 0a3e
000000f0: 15b2 fcbd 9e4d 193e 10a9 04bc 1422 9c3d
00000100: 3798 49be 2ca9 4abe f7ec 37be 4c22 1fbe
00000110: a484 90bd 289f f33d 1ff8 47be 9415 043e
00000120: 96e4 303e f098 143e 804c 733d e0f0 743d
00000130: d070 35be 4431 e83d 984a b3bc 3ad5 49be
00000140: 2074 6fbc 76ed 07be bd04 2ebe 6670 2d3e
00000150: d07c abbc ad96 5bbe 1013 353d 3005 5a3d
00000160: 7e7f 533e b5e2 2bbe 0c98 1dbd e45d 9ebd
00000170: b6c9 353e 39ca 5abe 008b 74ba f8c4 033d
00000180: 865e 09be 7875 30bd 8030 45be 30d1 3e3d
00000190: 6093 eabb 68ea 7c3d 4073 d03d 30d3 ae3d
000001a0: a020 443d 9ea2 123e 4289 3cbe afcd 50be
000001b0: 06bc 3d3e 106f f4bd bc8e 07be fc5a a63d
000001c0: 6c60 093e a6c7 263e 60b5 553d 80ec f43b
000001d0: 4891 a43c a436 09bd fbe0 ddbd 6ae3 573e
000001e0: 5ade 4d3e acdd 73bd a217 12be d26d 85bd
000001f0: ac18 ed3d 40ef 133e 7448 eb3d 8246 1cbe
