Assets/ML-Agents/results/color-chooser1/Color Chooser/Color Chooser-46904.pt (torch, 579189 bytes, 33 tensors)

network_body._body_endoder.seq_layers.0.weight f4 [128, 49]
000000 17 f5 2d 3d 9a 0c 97 3e e8 f8 8e bd b3 ba 6d be
       0.042470064 0.29501802 -0.06981069 -0.23215751
000010 ee 8d 49 be b2 49 d7 be e1 6c ec 3d f8 6f 5e 3e
       -0.19683048 -0.42048413 0.115442045 0.217224
000020 cf 3f 9a 3c 88 78 08 3e 2d 68 24 bd ee da 77 3d
       0.018829254 0.13327229 -0.040138412 0.060511522
000030 73 f7 ac 3d 49 c4 c3 3b 32 f2 f9 bc 43 1f 9b bd
       0.08445635 0.0059743267 -0.030510996 -0.07574322
000040 fc bb 01 be 60 76 9b 3d 0f 7c 2a be 34 7a 99 3d
       -0.12669367 0.075909376 -0.16648887 0.074940115
000050 a5 15 04 be 45 c0 87 bc e4 0d 7e be a8 68 77 bd
       -0.12898882 -0.016571173 -0.24809986 -0.060402542
000060 e4 42 43 3e ea 16 b5 bc 1f ec 07 3e 15 1d e8 bc
       0.19068485 -0.022105653 0.13273667 -0.02833418
000070 6e ff 57 bd e9 f3 7b be 6f c3 fc 3d 2c 80 0e 3e
       -0.05273383 -0.24604763 0.123419635 0.13916081
000080 8f c7 d8 3c 7b 46 da bd 4f 0c a3 3c 7d 0e f7 3d
       0.026462344 -0.10657974 0.01990333 0.1206331
000090 57 4a 29 3d 4a 2d 57 3d 94 c5 e2 3d ac 31 43 be
       0.04133066 0.052533425 0.11072841 -0.19061917
0000a0 52 e0 40 3e da 46 0f 3e be 98 b1 bd d4 01 ba 3c
       0.18835571 0.13991871 -0.086717114 0.02270595
0000b0 3c 77 b1 bb b2 19 72 3e 95 93 7f 3e 56 5f ee 3d
       -0.005415825 0.23642614 0.24958642 0.11639278
0000c0 ae f5 11 3d 15 e8 5e 3d 27 a6 d2 bd c5 b4 47 be
       0.03563469 0.05442055 -0.10285597 -0.19502552
0000d0 d4 26 b9 bd cd 37 e0 bc ea 67 8d be 7d 38 d2 3d
       -0.09040609 -0.027370358 -0.27618343 0.102646805
0000e0 f5 a7 e6 3d b3 67 31 3d ff 29 bb bc b2 84 96 bd
       0.11262504 0.043311786 -0.022847174 -0.07349528
0000f0 18 f3 e5 3d ee 5f ae 3c fc 41 1c bc a8 8c 0a be
       0.11228007 0.021285977 -0.009537216 -0.13530219
000100 65 d3 20 bd 3f 26 f5 3d d2 bb f4 3c cf fc bb bd
       -0.0392641 0.119701855 0.029874716 -0.09179079
000110 b4 13 79 3e b8 ba 3d bd 9b cc 8e bc 8b 4d 88 3d
       0.24323922 -0.046320647 -0.017431548 0.06655415
000120 38 a7 c2 bb 28 8e be bd 47 a3 5e be de c2 6f be
       -0.005940344 -0.09304458 -0.21741973 -0.2341418
000130 51 cd c3 bd 90 7f f2 3c e8 44 02 3e 0a da de 3d
       -0.09560645 0.029601842 0.12721598 0.108814314
000140 73 e2 00 3e 21 fd 32 3e cc 7c a6 3d b7 97 4c 3e
       0.12586384 0.17479374 0.08129272 0.1997975
000150 c1 10 76 be 09 2b 58 3d 14 89 8e bc 85 fa cd 3c
       -0.24029829 0.052775417 -0.017399348 0.025143871
000160 ed be b5 3d 8d 90 24 bc 22 d1 67 3d c3 41 62 3d
       0.08874307 -0.010044229 0.05659593 0.055238497
000170 0e 32 aa 3d 41 bd 51 3e 54 d9 8a 3d 75 f9 65 3e
       0.083103284 0.20482351 0.06779733 0.22458442
000180 4f 16 0d bf 45 86 84 3e 1a 9c 14 3e 2d 92 0d 3e
       -0.55112165 0.2588369 0.14512673 0.13825293
000190 02 a2 21 3e 9e 43 2e bd 17 8e 1f 3e a9 cd d4 38
       0.15784457 -0.042544954 0.15581547 0.00010147255
0001a0 e2 86 60 3e c8 b7 75 3d 4a 33 00 bd ea 60 70 3e
       0.21926454 0.05998972 -0.031298913 0.2347447
0001b0 24 53 4c be 87 dc c5 bc ef aa 4c 3e 99 d7 fe 3d
       -0.1995359 -0.024153007 0.19987081 0.12443466
0001c0 19 6e d5 3e d8 52 93 bd 9b ec c6 3d e6 51 cb 3d
       0.4168556 -0.071935356 0.09713098 0.0992773
0001d0 f8 6b 32 3e 4d eb f3 be ea eb 01 3e 97 ba ab 3e
       0.17424 -0.47640458 0.1268765 0.33540794
0001e0 25 ef a3 3d 23 24 80 3c 48 c7 47 bd e7 bd 7a 3e
       0.080045976 0.015642231 -0.048774034 0.24486504
0001f0 0a df 55 3e a2 6f 54 3e 4c 9a 1f 3c f9 79 d6 3c
       0.20885864 0.2074571 0.009741377 0.026181208
000200 9f e2 a0 3e ea 43 a8 3d 85 27 d5 3c d2 7e 7b 3c
       0.31422898 0.082160786 0.026019821 0.015350061
000210 74 4b ea bd 8c be 7c be ff 65 1a 3e 71 ae 90 3d
       -0.11440173 -0.24682063 0.15077971 0.07064522
000220 eb 0b f3 3c 2d 2f 8d bd 4f bc a9 3d 5c 19 6a 3e
       0.029668769 -0.06893764 0.0828787 0.22861236
000230 8a f8 35 bb 15 fc 39 bd 2b a1 1f 3d 27 93 64 3d
       -0.002776655 -0.04540642 0.03897206 0.055804398
000240 af fb 7d be ab 49 8e 3e fa 02 07 be a7 28 b8 3b
       -0.24803041 0.2779058 -0.13184729 0.0056200805
000250 fe e0 0d 3d 74 75 f7 3d f4 39 1d bd 09 a0 36 bd
       0.034638397 0.12082949 -0.038385347 -0.044586215
000260 15 85 32 bc 0a 83 0b 3e 2d 4e f6 3c 6a e9 a7 3c
       -0.010895987 0.13624206 0.030066574 0.020497043
000270 29 ef b6 3e 2c b1 a9 bc 41 d8 7d bd 71 b8 7c bb
       0.3572934 -0.020714365 -0.061973814 -0.0038562084
000280 94 75 15 3e 27 b3 e6 3d 17 fd 5d 3c 90 b7 2a bd
       0.14595634 0.11264639 0.013549111 -0.041678965
000290 b5 d1 26 3e e5 ea 40 be b5 68 a1 bc 35 12 c3 3d
       0.16290934 -0.18839605 -0.019703249 0.09524957
0002a0 f3 76 46 be c1 3a 0e bb a1 7a ca 3d 9d 84 1a 3e
       -0.19381313 -0.00217025 0.09886671 0.1508965
0002b0 60 10 24 3e 9f 6a 4d 3e cf bd 35 be bf 61 af 3a
       0.16021872 0.20060204 -0.17748187 0.0013380571
0002c0 1d f9 4a be 10 57 91 b9 af 19 84 bd f5 5a 7a 3d
       -0.19821592 -0.00027721422 -0.06450211 0.0611219
0002d0 1b 56 51 bd 76 4c 9b bd 46 20 39 bb 20 ed 8c 3d
       -0.051107507 -0.07582943 -0.0028247996 0.068811655
0002e0 7e fc 14 3e b6 f9 55 3d 3e a4 da 3d 99 b6 7f be
       0.14549443 0.052240096 0.10675858 -0.24971999
0002f0 64 d1 a5 3d 52 59 c9 bc 19 ee 55 3e 90 ea 5f be
       0.08096579 -0.024578724 0.20891608 -0.21866822
000300 0e 9c 4c bd 4c 42 e9 bd 03 12 1e 3d e7 a0 8c 3e
       -0.049953513 -0.11389598 0.038591396 0.2746651
000310 d2 90 91 3e 14 de c8 3d 70 1a fb bb e2 a0 c0 bd
       0.28430802 0.09807983 -0.0076630637 -0.09405686
000320 75 ba 65 be 37 b2 3b 3e 85 2d a3 bb 51 c4 57 3e
       -0.22434409 0.18329702 -0.0049797916 0.21070983
000330 d6 3f 2e 3d 64 9b 8e 3e 3f 54 22 bc 2f fd d3 bd
       0.042541347 0.2785293 -0.009907781 -0.10351025
000340 67 ea 19 be 71 22 d0 3d 8f b4 82 3e ae 0b da bc
       -0.15030824 0.10162819 0.2552838 -0.026616897
000350 fd d7 86 3e ee d5 f4 3d 9a 93 1f 3e 6d 4d 87 3c
       0.2633666 0.11954866 0.1558365 0.016516412
000360 28 5d 3d 3e 73 89 70 3c 0b 91 a0 3b 2c db 95 bd
       0.18492568 0.014681208 0.004900103 -0.07317194
000370 78 d5 ac bd 20 52 15 be e2 70 30 3e d3 30 ef bc
       -0.084391534 -0.1458211 0.17230561 -0.029198086
000380 60 a4 1c be 15 4b 06 bd 32 6f 28 3c 3b 58 5c be
       -0.15297079 -0.032786448 0.010280417 -0.21518032
000390 ea fd e6 bd 4a ce a0 3e 7a fe 03 be 38 7e 2f bd
       -0.11278899 0.31407386 -0.12890044 -0.04284498
0003a0 dc c0 2f 3d 62 ae 05 3e 9a 0a 29 be 0a 48 65 be
       0.042908534 0.13054803 -0.1650795 -0.22390762
0003b0 c4 bb 2a be d7 a2 28 bc 5b 9c db 3c 2e db 11 be
       -0.1667319 -0.01029273 0.026807955 -0.14243767
0003c0 25 38 6d be c3 eb f3 3c a6 06 29 3e 3e 2e b7 3e
       -0.23165949 0.029775506 0.16506442 0.35777467
0003d0 f8 a8 11 3e b9 5f 04 3c e8 16 39 bd f2 8a 6e 3c
       0.14224613 0.008079463 -0.04518786 0.014559494
0003e0 64 77 0e bd 36 7c 89 bc 12 aa 81 3d 07 3e 0a be
       -0.03478183 -0.016782861 0.063312665 -0.13500224
0003f0 df 65 b1 3c 6b c7 17 3e 55 2b 71 3c e0 7c 52 3e
       0.021655021 0.14822166 0.014719804 0.20555449

network_body._body_endoder.seq_layers.0.bias f4 [128]
000000 06 69 85 bc bc 36 b8 3d d5 c6 4c 3d 49 cb 51 3d
       -0.01628543 0.08994815 0.04999431 0.05121926
000010 d4 33 8f 3d bf c7 fc 3b 86 d4 37 bd 00 02 6b 3d
       0.06992307 0.0077142413 -0.044880413 0.057374954
000020 60 bf 6a 3d a0 5f 04 3d fa 44 54 3d 9f e7 0f 3d
       0.057311416 0.032317758 0.051823594 0.035133
000030 4b 43 a3 3c 03 97 0c bd c1 41 83 3d 89 1f 1f 3d
       0.019929549 -0.034323703 0.06409026 0.038848434
000040 d3 f7 2d 3d 49 c5 2d 3d 5c 2d e8 3c db 36 1e bc
       0.04247267 0.042424474 0.028341942 -0.009656633
000050 76 a5 8f 3d b7 49 04 3d 4b 6a 85 3d a0 96 94 3d
       0.07013981 0.032296862 0.065144144 0.07255292
000060 8b 20 b4 3d 76 0c a0 3d 6c 0f 0e 3d ce 6a 89 3d
       0.087952696 0.07814877 0.034682676 0.067098245
000070 88 22 1e 3d 2f aa 22 3d f5 8f 86 3d fd 6c 65 3d
       0.03860715 0.03971308 0.065704264 0.056012142
000080 27 65 08 bd 91 09 63 3d 42 7e 6e 3d 4a 99 83 3d
       -0.03329959 0.055429045 0.058225878 0.06425722
000090 ac 96 b5 3d d5 11 9a 3d 93 60 26 3d df f3 0a 3d
       0.08866629 0.075229324 0.040619444 0.03392398
0000a0 bc 5a 7d 3c a2 88 e3 3c 2f d0 a6 3d 93 a9 4f 3d
       0.015463527 0.027775113 0.081451766 0.050698828
0000b0 f8 f9 f7 3c d6 99 89 3d cf b2 0b 3d 20 f3 3a 3d
       0.030270562 0.06718795 0.034106072 0.04564202
0000c0 fc 55 7d bc 59 e8 75 3d 74 fe 5d 3d d8 b8 36 3d
       -0.015462395 0.060036037 0.054197744 0.044609874
0000d0 51 3f 84 3d 52 0c 76 3c 5e 27 2d 3c c0 71 7d 3d
       0.06457389 0.015017586 0.010568468 0.06187606
0000e0 fa 3b 46 3d 8c 7c 2b 3d 27 dc 79 bb 63 0e 7f 3d
       0.04839704 0.041866824 -0.0038125606 0.06226958
0000f0 db 33 ea 3c 0a 8d 81 ba 2b c4 11 3d 05 67 a7 3d
       0.02858918 -0.0009883952 0.03558747 0.08173946
000100 ff 1e 62 3d 26 0d 33 3c 12 91 ee 3c 6a 81 53 3d
       0.05520534 0.010928428 0.02912191 0.05163709
000110 01 42 af 3c b3 89 3c 3d 8b 9f 80 3d 5b 27 8b 3d
       0.021393778 0.046029758 0.062804304 0.06794616
000120 59 8d 99 3d ff c9 f1 3c 26 33 81 bb 34 d1 95 3d
       0.07497663 0.029515265 -0.003942865 0.07315293
000130 18 00 9f 3d 54 a4 88 3d 95 49 8b 3d 5f d2 87 3d
       0.0776369 0.06671968 0.06801144 0.06631922
000140 05 43 76 3d b9 58 84 3d c2 5b 56 3d 2c 12 87 3d
       0.06012251 0.06462235 0.0523336 0.06595263
000150 75 85 93 3d ba 8e 1f 3d 9a f8 60 3d 27 ae 9c 3a
       0.07203189 0.038954474 0.054924585 0.0011953757
000160 74 3c 50 3d 3a a3 75 3d 29 d4 c9 bc 6f 4b 3e 3d
       0.050838903 0.059970118 -0.024637299 0.046458658
000170 b4 fd 8b 3d b1 67 ac 3d 42 92 11 3d 3e 33 72 3d
       0.068354994 0.08418215 0.035539873 0.0591309
000180 4b 71 e7 bc 4a 78 58 3d 7d 1b d2 3c a8 8f 78 3d
       -0.028252264 0.05284909 0.025647873 0.060683876
000190 41 b6 22 3d 07 71 21 3d 87 25 52 3d b6 19 06 3d
       0.039724592 0.039414432 0.05130532 0.032739364
0001a0 79 b7 71 3d 3c 8a f6 3c 69 67 3a 3d bf e5 19 3d
       0.059012864 0.030095212 0.045508776 0.03757262
0001b0 da 7d ce 3c 69 09 b1 3c 51 c0 8f 3d 93 12 11 3d
       0.025206495 0.021610932 0.07019103 0.035418104
0001c0 a5 6c 8e 3c 07 05 8b 3d 90 ad 8c 3d 72 c4 21 3d
       0.01738579 0.06788068 0.06869042 0.039493985
0001d0 b0 fd cd 3c c9 21 27 3d 0c 7e 74 3d 35 8e 29 3d
       0.025145382 0.040803704 0.05969052 0.041395385
0001e0 f9 5f 62 3d 69 71 76 3d 30 e5 e5 3c 8a 66 45 3d
       0.055267308 0.06016675 0.028063387 0.048193492
0001f0 8d 2d 98 3c 01 c7 f1 3c 57 4b 4b 3d 74 af 28 3d
       0.018576408 0.029513838 0.049632397 0.04118295

network_body._body_endoder.seq_layers.2.weight f4 [128, 128]
000000 ef 4d 11 3d 6b 12 df bc 56 d7 57 bd d6 05 d8 3d
       0.035474714 -0.027230462 -0.052695595 0.10547988
000010 de 08 f8 3c c3 67 bf bd c0 20 a8 bc 4c f6 6c bd
       0.030277666 -0.09345963 -0.020523429 -0.057852075
000020 fd c4 e0 bc 9d 95 b7 3d 2e 7f 82 be 30 36 b7 3d
       -0.027437681 0.08964083 -0.25487655 0.08945882
000030 7f 1d 32 be 1f 0c 19 bd 21 22 7c bd 2a 56 62 bb
       -0.17394064 -0.037365075 -0.061555985 -0.003453622
000040 dc 6f 03 3b 51 62 47 be 6d 67 09 3d 63 2e 2f bc
       0.0020055687 -0.19471098 0.0335459 -0.010692212
000050 9d 55 9a 3d 92 82 71 3d ff 59 0b be bf c2 e8 bd
       0.07535861 0.058962412 -0.1360855 -0.1136527
000060 85 64 89 bd 97 bd e3 bd 5e ad 19 3e 07 58 d5 bd
       -0.06708626 -0.11120146 0.1500754 -0.104171805
000070 99 c2 8c 3e 74 19 29 3e 7c e0 84 3e 0c 74 11 3e
       0.27492216 0.16513616 0.25952518 0.14204425
000080 c8 ef 9e bd 58 51 ee bd 80 72 0b 3e 7c 34 35 3e
       -0.077605784 -0.11636609 0.13617897 0.17695802
000090 29 a1 18 be 9b fe fd bd df 9b 87 3d 9a 7f 4f be
       -0.14905228 -0.12402078 0.06621527 -0.2026352
0000a0 a0 12 1e bd 90 1c 4e 3e 40 89 27 bd 62 69 27 be
       -0.03859198 0.20128083 -0.040902376 -0.16348794
0000b0 25 3b ce 3d d7 cf 27 3c 29 88 cc 3d 6a dc 42 bd
       0.10069875 0.010242424 0.09986908 -0.047573484
0000c0 a7 59 12 bd 6a c3 b9 3c ac 12 8a 3d d0 fc 8a 3d
       -0.03573003 0.022676188 0.06741843 0.067865014
0000d0 1a 80 f9 3d 36 f4 3f 3d bb fa ba 3a 4c 42 21 3d
       0.121826366 0.046863757 0.0014265397 0.039369866
0000e0 f4 ec f3 bd 1a 51 a9 3c 26 a2 63 be 0d ca 00 3e
       -0.119104296 0.020668555 -0.22229823 0.12577076
0000f0 bd 48 72 3e fd a2 70 3d e5 90 6f 3e e1 21 1f be
       0.2366056 0.058749188 0.23395117 -0.15540268
000100 59 92 88 3e 16 6f 30 be 65 55 9a bd 01 e4 01 be
       0.26674154 -0.17229876 -0.07535819 -0.12684633
000110 64 65 f9 bc 0b 92 3c 3e 7a 1e 5b 3e 8d cf 02 be
       -0.030443855 0.18415086 0.21398345 -0.12774487
000120 79 e2 63 3d bc ea 7e bc ce 41 0c 3e bd fc 2c be
       0.055635903 -0.015558895 0.13696977 -0.16893287
000130 d2 d3 54 be 4a 36 0b be e4 0e 5c 3e b2 3c e3 3d
       -0.20783928 -0.13594928 0.21490055 0.11095561
000140 25 48 dc bd 73 b6 72 bd e4 73 43 3d 60 56 88 3d
       -0.10755948 -0.05925603 0.047717944 0.066571
000150 92 67 6f be 43 25 12 bc a6 9c 71 3e 71 01 86 3c
       -0.23379353 -0.008920017 0.23594913 0.01635811
000160 0f be 0b bd d7 23 2d bd 20 25 39 bd 50 34 7d bd
       -0.0341168 -0.042270508 -0.04520142 -0.061817467
000170 5d 2f 45 3e 1c dc f8 bb 50 24 37 be a4 ed 2e 3e
       0.19256349 -0.0075945985 -0.17884946 0.1708284
000180 ef 3a 66 3d b8 f8 e9 bb 93 d9 06 be c3 7c a3 bd
       0.056208547 -0.0071402453 -0.13168935 -0.07982781
000190 f6 c3 b7 bd 2f 98 88 bb 5c c2 63 3c 0e 89 12 be
       -0.089729235 -0.0041685323 0.013901319 -0.14310095
0001a0 09 2d bf bd 74 ec a3 bc 0c cf 4d 3e cc 1a 44 be
       -0.09334762 -0.02001021 0.20098513 -0.19150847
0001b0 e6 b5 f4 3d f5 d7 95 3d 84 8b f8 3d 2c 53 85 3e
       0.11948757 0.07316581 0.121359855 0.26040018
0001c0 3a a5 bf bc 02 13 34 bc 92 1c 13 be 82 0f d8 bd
       -0.023394216 -0.01099086 -0.14366367 -0.10549833
0001d0 9b b9 97 bd 90 11 db bd 91 8b 26 be 1c 52 82 3c
       -0.07408448 -0.10696709 -0.16264178 0.015908293
0001e0 b8 3f d0 3d 7c 70 23 3e 54 91 8b bd a3 57 29 3e
       0.101684034 0.15960878 -0.068148285 0.16537337
0001f0 ad 64 9c bd 1c 8c 2b be 60 95 b9 3c 0a ff ae 3d
       -0.0763639 -0.16752666 0.022654235 0.085447386
000200 bf 8f 29 be dc 8a 35 3e 03 b8 4a be a4 e3 13 3e
       -0.16558741 0.17728752 -0.19796757 0.14442307
000210 67 d5 06 3d 90 5a aa bd 4f 04 fd 3d d1 fb 6f 3e
       0.03291836 -0.08318055 0.123543374 0.23435904
000220 6f 57 11 3e 21 be e6 bd 60 e0 48 be b1 2d 2d be
       0.1419351 -0.11266733 -0.19616842 -0.16911961
000230 1e 8b b1 bd 32 57 9a bd 97 de 9b 3e 73 75 ee 3c
       -0.086691126 -0.075361624 0.3044326 0.029108739
000240 7c 9b 2c 3e b7 84 84 be d1 c3 da 3c 00 c7 1d be
       0.16856188 -0.25882503 0.0267047 -0.15407944
000250 c0 96 34 bd 33 9d 9a 3d 60 9d 85 bd e1 27 1f be
       -0.04408908 0.075495146 -0.065241575 -0.15542556
000260 d8 87 69 3c 5f 14 55 3e b1 81 72 3e 89 c1 1d 3e
       0.014253579 0.20808552 0.23682286 0.15405859
000270 b2 d4 26 3c 49 de 15 bd 13 05 0d 3e 20 ca 8c 3d
       0.010182546 -0.03658894 0.13771467 0.0687449
000280 22 38 f9 bd 46 3e 79 bc 98 cc 23 be c8 71 81 be
       -0.121689096 -0.015212601 -0.15996015 -0.2528212
000290 91 f5 2d 3e a1 6e 17 be b9 58 90 bd c5 51 20 3d
       0.16988207 -0.14788295 -0.070481725 0.03914048
0002a0 0a f3 b8 3d 6d 8b a9 3d 41 da 91 bc cf e8 87 3e
       0.09030731 0.082785465 -0.017804267 0.26544806
0002b0 82 24 5d bd 39 0e 95 3e ea f3 db bc d5 f2 13 bd
       -0.053989895 0.29112414 -0.026849706 -0.036120255
0002c0 26 18 55 bd 40 44 35 be 3f 05 eb 3d 43 e1 35 3e
       -0.052024983 -0.17701817 0.1147561 0.17761712
0002d0 69 de 49 3a 59 7f 01 3c a5 5e 64 bd 4d 61 e5 bd
       0.0007700683 0.007903897 -0.055754323 -0.11200199
0002e0 92 f5 04 3e f2 e1 2f be c5 dc 25 be 7b 00 e9 3d
       0.12984303 -0.17176035 -0.16197498 0.11377045
0002f0 5c b5 0e be 6b f7 ae bd c0 cf 6c 3d 3b c8 1c be
       -0.1393637 -0.08543285 0.057815313 -0.15310757
000300 30 e3 50 bd 09 12 ee ba a6 c4 97 bc fb 58 53 3d
       -0.050997913 -0.0018163334 -0.018526386 0.05159853
000310 9b 35 27 3e 96 6a 56 bd dc 28 31 be 7d 97 64 3d
       0.16329043 -0.052347742 -0.17300743 0.055808533
000320 55 0e 36 3e e2 e5 53 bc 74 f4 fc 3d 95 b6 40 3e
       0.17778905 -0.012933226 0.12351313 0.1881965
000330 9e bb 7c 3d 12 a5 9f bc 99 ad 21 be 0b 88 56 bc
       0.061702363 -0.019487891 -0.15788879 -0.013093959
000340 ac 5d 0d 3e 1b 9a 3b 3e 54 c4 7c 3e db 11 3f bd
       0.13805264 0.18320505 0.24684268 -0.046647888
000350 68 47 80 3e b8 87 43 3d 38 5a bf bd d4 85 1b 3d
       0.2505448 0.047736853 -0.0934338 0.037969425
000360 f3 1b 4d 3c 67 03 a5 3c 31 c0 9a bd 40 35 d3 3d
       0.012518871 0.020143224 -0.07556189 0.10312891
000370 2c 15 3c bd d4 9d 4c 3e ee ad 4a bc b5 17 55 3e
       -0.04591863 0.19982082 -0.01237057 0.20809825
000380 8e ce be bd 9f 1f 7c 3d 7d 7d b9 3c 12 bd c7 3d
       -0.09316741 0.061553594 0.022642845 0.09752859
000390 04 8b ba bd a5 45 15 3e 04 b7 c7 bd 24 e3 31 3b
       -0.091085464 0.14577349 -0.09751704 0.0027143443
0003a0 a8 d8 8a bd db 87 de bd 68 71 29 bd 76 5b f3 3b
       -0.06779605 -0.10865756 -0.04136792 0.0074266745
0003b0 b3 46 e0 bd bc 5a a2 bc ef 49 ed bb 29 8a 9f bd
       -0.10950985 -0.019818656 -0.0072414796 -0.07790024
0003c0 47 30 17 be f8 70 f0 3d 4f 71 0d 3e ea d9 e5 bd
       -0.1476451 0.11740297 0.13812755 -0.112232044
0003d0 5e 0f 33 bc 73 c5 83 3d cc 7b b8 3d 33 71 37 bd
       -0.010928957 0.06434145 0.090079874 -0.04478569
0003e0 7b b2 6c bd 7f be 88 bd 1d 51 23 3d de b4 c5 bd
       -0.0577874 -0.06676959 0.039872278 -0.09653638
0003f0 34 73 d5 3d b5 04 6e 3e 08 4c 12 3c 6e a8 52 bd
       0.10422364 0.23243983 0.00892926 -0.05143016

network_body._body_endoder.seq_layers.2.bias f4 [128]
000000 f6 5d 09 3d 29 a3 30 3d cd ef 54 3d b4 9a 29 3d
       0.033536874 0.04312435 0.051986504 0.041407302
000010 af 9e 19 3c 0d 52 09 3d 82 11 01 3d 7b 7e 44 3d
       0.009376212 0.033525515 0.031510837 0.047972184
000020 b7 74 15 3d 56 aa fa 3c c5 09 3f 3d 93 fb dc 3c
       0.03648826 0.0305988 0.046640176 0.026975429
000030 0c d5 31 3d 1a f1 af 3c de 47 80 3c 40 dd 95 3c
       0.043416068 0.02147727 0.015659269 0.018293977
000040 df 04 08 3d 9e b9 37 3d 5e dd e1 3c 32 17 d2 3c
       0.03320777 0.044854753 0.027571376 0.025645826
000050 b0 01 cc 3c 16 fa 41 3d 66 8f 51 3d 8e 1b 15 3d
       0.024903148 0.04735764 0.051162146 0.03640323
000060 2b 12 2d 3d f1 01 7b 3c 73 6b 76 3d 82 89 f9 3c
       0.042253654 0.015320287 0.060161065 0.030461077
000070 43 d0 0c 3d 38 ad 1a 3d ae 46 0b 3d d0 d9 3a 3c
       0.0343783 0.03776285 0.034002952 0.01140447
000080 be 64 57 3d 68 4e d4 3c db fa 7a 3d 38 f0 b0 3c
       0.05258631 0.025916293 0.06127439 0.02159892
000090 83 71 5a 3d 38 7e 8c 3d e7 ce e6 3c 56 ae ab 3c
       0.05333091 0.06860012 0.02817483 0.020957153
0000a0 98 99 79 3d 40 49 2f 3d ad 48 f9 3c 00 a2 19 3d
       0.060937494 0.042794466 0.030430162 0.03750801
0000b0 17 c8 b7 3c 1d 4a 22 3d 11 83 c1 3c 2c 28 05 3d
       0.022434277 0.03962146 0.023622068 0.032509014
0000c0 8b 4e 80 3d 27 5d f0 3c 18 e9 51 3d 23 c1 07 3c
       0.06264981 0.029341293 0.051247686 0.0082857935
0000d0 33 42 bf 3c 5a d7 16 3d 3c ff 39 3d ca e0 06 3d
       0.023346996 0.03682647 0.045409426 0.03292922
0000e0 e3 1d 5a 3d 32 ea 07 3d 1d 4f 0b 3d 62 2c 8d 3c
       0.05325116 0.03318233 0.034010995 0.017233077
0000f0 b6 f3 83 3c 94 8e 47 3d fa 2d 66 3d f0 d3 10 3d
       0.016107421 0.048719957 0.05619619 0.03535837
000100 5a f3 10 3d 55 35 fb 3c 44 b8 e5 3c 53 20 2a 3d
       0.035388328 0.03066508 0.028041966 0.041534733
000110 78 61 14 3d 48 d9 39 3d ce 33 3d 3d c8 d9 46 3d
       0.036225766 0.04537323 0.046191983 0.048547536
000120 cf 80 50 3d a8 cf 25 3d 19 e8 cc 3c 7b bb 49 3d
       0.05090409 0.04048124 0.025013017 0.04925106
000130 66 28 20 3d 54 f8 f4 3b 75 ca 38 3d 33 0c 04 3d
       0.039101027 0.007475892 0.045114953 0.032238197
000140 a5 e8 62 3d 67 40 86 3c a8 32 70 3c ca a0 62 3d
       0.05539765 0.016388131 0.014660515 0.05532912
000150 f6 b7 52 3d be 43 07 3d 34 b2 79 3d 39 37 b3 3c
       0.05144497 0.03302359 0.060960963 0.021876918
000160 46 34 28 3d 98 91 43 3d 88 00 14 3d 40 ea 38 3d
       0.041065477 0.04774627 0.03613332 0.045145273
000170 70 06 ba 3c cf 14 11 3d 18 a5 55 3d dd 10 28 3d
       0.022708148 0.035420235 0.0521594 0.041031707
000180 81 63 ec 3c 17 90 02 3d c7 59 32 3c c6 f9 1a 3d
       0.02885604 0.031875696 0.010885662 0.03783586
000190 19 42 27 3d 4b c1 63 3d e6 3c 59 3d 4f 83 3d 3d
       0.04083452 0.05560426 0.053036593 0.046267804
0001a0 7d ae ee 3c 80 1d 15 3d 63 f7 19 3d 04 05 3a 3d
       0.029135937 0.036405087 0.037589442 0.04541494
0001b0 61 c2 06 3d 10 e5 c2 3c 25 c1 10 3d fd 24 19 3d
       0.032900218 0.023790866 0.035340447 0.03738879
0001c0 97 f1 63 3d f7 a1 4c 3d 91 3c 66 3d 51 8d 43 3d
       0.05565032 0.04995915 0.056210104 0.04774219
0001d0 e7 19 47 3d 30 26 af 3c 0e ca c0 3c 9a ee 62 3d
       0.048608687 0.021380514 0.023533847 0.05540333
0001e0 84 f4 d4 3c 38 03 2e 3d 30 a7 1d 3d 6e 38 0d 3d
       0.0259955 0.04248354 0.03848952 0.034477644
0001f0 a4 d0 f0 3c 5f a5 44 3d 50 9f 13 3d ca e5 f6 3c
       0.029396363 0.048009273 0.036040604 0.030138869

action_model._discrete_distribution.branches.0.weight f4 [6, 128]
000000 c8 a8 a2 bd f0 83 81 3d 61 a2 1c 3d 0c 85 80 3d
       -0.07942349 0.06323993 0.038240794 0.06275377
000010 bb 59 9a bd 1b 89 bd 3d c0 d8 82 3d 9c 1c 78 3d
       -0.07536646 0.092546664 0.06388998 0.06057416
000020 80 66 dd bb a1 e3 43 3d d3 5d 8d 3d 68 f6 9e bd
       -0.0067566037 0.047824506 0.06902661 -0.07761842
000030 7b bb 23 bd 8b ec 76 bd 25 6a 88 bd ed 0b 42 bd
       -0.039973717 -0.06028418 -0.066608705 -0.047374655
000040 d0 4e 9a bd 01 26 3a 3d 41 43 78 3d 3c 2c e6 bd
       -0.075345635 0.0454464 0.060611013 -0.11238906
000050 23 96 d7 3c 46 11 40 3d e9 7a b5 bd c7 0e f6 bd
       0.026316708 0.046891473 -0.08861334 -0.12014537
000060 e5 51 4d 3d 40 dd 83 bd 9a 9f 08 3d 7b 5b 20 bd
       0.05012693 -0.064386845 0.033355333 -0.039149743
000070 4f 76 9f bd ab b6 a4 bd e4 45 d4 bd 05 cc a9 bc
       -0.077862374 -0.08042654 -0.10364893 -0.020727167
000080 58 91 b3 3d e5 44 8e bd 1d 0b c8 bd f1 f0 72 3d
       0.087679565 -0.06946734 -0.09767745 0.05931181
000090 81 80 73 bd a2 29 4f bd 49 31 ba 3d bd fc 89 3d
       -0.059448723 -0.050576814 0.09091432 0.06737659
0000a0 a4 96 12 bd 14 ae fa bc 72 c1 67 bd 6a 4a e6 bd
       -0.035788193 -0.030600585 -0.05658097 -0.11244662
0000b0 b6 fe d7 3c 4e b0 4b bd 1c 99 f3 bd c1 07 2c bd
       0.026366573 -0.049728684 -0.11894438 -0.041999582
0000c0 9f 48 8f 3d 78 0d c7 bd 86 8d 99 3c 6c 28 1f 3d
       0.06996273 -0.09719366 0.018744241 0.03885691
0000d0 fe 62 ad bd 66 77 86 3d 23 7f 67 bd ef 16 ba bd
       -0.08466147 0.06565742 -0.05651773 -0.090864055
0000e0 91 2d 86 bd 8c 3e 98 3d d6 bd c9 3d af 99 83 bd
       -0.0655166 0.07433805 0.098506615 -0.06425797
0000f0 97 3e a1 bd 5e 46 bc bd 0b a7 9f 3c 85 06 c2 bd
       -0.07873266 -0.09193109 0.019488832 -0.094739
000100 6f bb e0 bd ca 10 8f 3c 62 a7 9d 3c d0 42 f5 3c
       -0.1097325 0.01746406 0.019244853 0.029939085
000110 d0 5c 09 3d f5 e3 72 3d cd ea ba bd 14 ea 65 bd
       0.03353578 0.059299428 -0.09126816 -0.056131437
000120 db 2f 61 3d 58 0b de 3c a2 69 a9 3d 10 d5 5c 3d
       0.05497728 0.027105018 0.08272101 0.05391413
000130 4a 8d a9 3d 9d 48 13 bc ee dc a0 bd 7a 3d e0 bc
       0.08278902 -0.00898948 -0.07854639 -0.027373064
000140 2f 46 9e 3b f6 fe 97 bd 8d 7a 80 bd dd f1 3d 3d
       0.004830144 -0.07421677 -0.06273375 0.046373237
000150 05 f4 bc bc ee 7d 82 bd c7 08 6e 3d 1c ae 9d bd
       -0.023065576 -0.063716754 0.05811384 -0.07699224
000160 bc a4 c4 3d 1f 2c 6f 3d 28 75 dd bc 19 70 88 3d
       0.09601733 0.058391687 -0.027033404 0.06662006
000170 a2 de a0 3d b6 e0 a1 3d e7 bd 4a bd 65 2e ba 3d
       0.07854964 0.07904188 -0.04949751 0.0909088
000180 e4 6b 02 bc 70 15 d5 3c 27 07 2c bd cf eb 46 bc
       -0.007960293 0.026011199 -0.04199901 -0.012141182
000190 b0 0e b0 3d 93 cd ed 3d 7e b6 a5 bc 40 ec a1 3d
       0.085965514 0.11611476 -0.02022862 0.07906389
0001a0 33 37 04 bd ec d7 ba bd 7d 6b a2 bd 37 85 99 bd
       -0.032279205 -0.09123215 -0.07930658 -0.07496112
0001b0 36 1b 90 3b d8 1a ce bd 7e 4d a1 bc 75 c3 8f 3d
       0.004397775 -0.10063714 -0.019690271 0.07019702
0001c0 70 6f cd 3d 6d 28 60 3d f1 68 c7 3d e7 44 71 bd
       0.10031021 0.054726053 0.09736813 -0.0589036
0001d0 9f 7a b8 3d 1c c1 c3 bd 8a af 49 3d e2 03 d9 bd
       0.09007763 -0.09558317 0.049239673 -0.10596444
0001e0 a0 c8 57 bd cb 9a e5 bd 0a 98 48 bd 08 9e b1 bd
       -0.052681565 -0.11211165 -0.04897312 -0.0867272
0001f0 64 be c2 bd 04 9f c6 3d 85 4f ce bd 53 46 b0 3d
       -0.095089704 0.096982986 -0.10073761 0.08607163
000200 e4 7f d2 bd 51 7a 0f 3d d6 3f 73 3d e9 1d d7 bd
       -0.102782995 0.03502876 0.05938705 -0.10503752
000210 d8 a6 f7 3a e1 7c ad bd 36 f2 e0 bd be d3 39 3c
       0.0018894328 -0.084710844 -0.10983698 0.011341987
000220 94 d4 24 3c 61 9d 39 bd 73 21 ec bd eb f1 6a bd
       0.010060448 -0.045316104 -0.115298174 -0.057359617
000230 1f 45 b4 3d 08 ec c3 3b 05 c1 d7 3b 75 a3 1c 3c
       0.08802246 0.005979065 0.006584289 0.009560456
000240 51 60 97 bb 7e be f9 3b d6 ec 04 3d 0d ea 02 bc
       -0.004619636 0.0076215854 0.032452427 -0.007990372
000250 9a 72 10 3c 9b b6 9a 3d b4 63 79 3b 55 85 bf 3d
       0.008816386 0.075543605 0.0038053812 0.09351603
000260 79 56 1a 3c 19 c3 99 3d 73 c9 b0 bd cc fe c0 3d
       0.009420031 0.07507915 -0.086321734 0.09423599
000270 a1 1d 8b 3d d8 95 ee bc 7b 18 b2 3d 2e 5b d3 bd
       0.06792761 -0.029124185 0.086960755 -0.103201255
000280 8b a2 b6 bd c5 38 9c 3d 41 36 b5 3d e2 0d 47 bd
       -0.08917721 0.076280154 0.08848239 -0.048597224
000290 4e b3 b0 bd 37 3f cd bd 04 f3 d9 bd c6 4a d8 bd
       -0.0862795 -0.10021823 -0.10642055 -0.10561137
0002a0 8f 1c f5 bd cd e8 a6 3d 10 b6 dc bd f1 56 44 3d
       -0.11968338 0.08149872 -0.10776913 0.047934476
0002b0 53 2e 4a 3b e5 1d a0 3d 1e 8b d6 3d ea 52 5d 3c
       0.0030850365 0.07818202 0.10475753 0.013508538
0002c0 0f a8 08 be dc 45 b9 3d f6 02 18 bd fe 1d a4 bd
       -0.1334536 0.09046528 -0.0371122 -0.08013533
0002d0 93 3d 9e 3d 0a 7d 83 bd cf 2b 98 bb d2 2d e8 3d
       0.07726588 -0.06420334 -0.0046438943 0.113368645
0002e0 b5 59 9f 3d 63 72 e5 bd 4a 21 54 bd f3 81 4b 3d
       0.07780782 -0.11203458 -0.05178956 0.049684476
0002f0 ca 6d e3 bc af 68 d6 3d 62 32 88 3d d7 cb a8 3d
       -0.027762312 0.104691856 0.06650235 0.08242004
000300 c8 f2 3c 3d 06 36 e6 bd 17 74 6b 3d 5c 37 da bc
       0.04612997 -0.11240773 0.05748376 -0.026637726
000310 98 cc e7 bd 37 24 48 bd d7 21 5a bd 39 b1 de bc
       -0.1131832 -0.048862662 -0.05325493 -0.027184116
000320 36 df 9d bd d5 ec 3b 3d 23 6d a3 bd 5c 31 55 3c
       -0.0770859 0.045880158 -0.079798006 0.0130122565
000330 2d c3 e3 bd 57 84 3e bd 0d 54 e1 3d 13 18 0d be
       -0.11121211 -0.046512928 0.110023595 -0.13778715
000340 0a 12 01 be 6f 6d 66 3d ac f5 5e bd 5e 22 2b 3d
       -0.12604538 0.056256708 -0.05443351 0.041780822
000350 60 db c5 bd bd dd a1 bc 40 03 6e 3d 11 d5 f7 bb
       -0.09660983 -0.019759053 0.05810857 -0.0075632413
000360 fe c3 98 bd b2 40 82 bd b1 73 91 bd 71 d7 42 bd
       -0.074592575 -0.06359996 -0.071021445 -0.047568742
000370 3c 39 93 bd 31 ed 99 bd 20 3f b7 bd 14 0f bd bd
       -0.07188651 -0.07515944 -0.08947587 -0.092313915
000380 56 c9 07 bd c3 94 9f bc 5d 19 4d bd df 0e 87 3d
       -0.033150993 -0.019480115 -0.050073016 0.06594633
000390 76 34 e0 bd 93 30 e9 bd e1 a0 6a bd 25 b9 43 bd
       -0.10947506 -0.11386218 -0.057282332 -0.04778399
0003a0 24 9a 74 3d a1 75 aa 3c b5 79 b7 3d 7e c8 59 bd
       0.059717312 0.020808043 0.08958761 -0.05316972
0003b0 43 b0 6f bc 8d a5 6a 3d ed 70 91 3d e8 59 e2 bd
       -0.014629426 0.057286788 0.07101617 -0.110523045
0003c0 50 15 f2 bd d7 71 08 3d d1 aa fd bd 99 26 96 3d
       -0.11820471 0.03331169 -0.12386096 0.07331581
0003d0 10 9a 90 bd b4 34 f4 3a cb 9a e5 bd 4f 3b fb 3c
       -0.07060635 0.0018631429 -0.11211165 0.030667929
0003e0 38 36 31 3d 49 2c 1b 3d 60 c7 b6 3d 96 0b 89 3d
       0.043264598 0.03788403 0.089247465 0.06691663
0003f0 41 2b c1 3d b8 4f de bd b5 6c 93 3d 7c e1 0a be
       0.09432078 -0.10855049 0.071984686 -0.13562578

action_model._discrete_distribution.branches.0.bias f4 [6]
000000 bb 6f b7 3b 19 14 f3 ba de 34 02 bc f7 9e 56 bc
       0.005598036 -0.0018545418 -0.007947175 -0.013099424
000010 22 e5 a4 3a 09 40 4d 3c
       0.0012580494 0.012527474

exp_avg f4 [128, 49]
000000 83 d5 0e 37 42 40 56 37 00 00 00 00 00 00 00 00
       8.513572e-06 1.2770355e-05 0.0 0.0
000010 e9 d7 db 36 00 00 00 00 3d 47 98 35 00 00 00 00
       6.551844e-06 0.0 1.1345616e-06 0.0
000020 42 40 56 37 18 2e 8b 36 0c 72 be 35 00 00 00 00
       1.2770355e-05 4.147889e-06 1.4189295e-06 0.0
000030 42 40 56 37 b4 72 10 36 50 b1 9c 36 0c 72 3e 36
       1.2770355e-05 2.1524438e-06 4.669804e-06 2.837859e-06
000040 42 40 56 37 00 00 00 00 77 87 47 37 66 ce ad 35
       1.2770355e-05 0.0 1.1892865e-05 1.2949574e-06
000050 83 d5 8e 36 4b db 49 36 c2 98 1e 37 78 ad 1f 37
       4.256786e-06 3.007898e-06 9.453101e-06 9.517527e-06
000060 6c 54 1f 34 0c 72 be 36 00 00 00 00 00 00 00 00
       1.4838741e-07 5.675718e-06 0.0 0.0
000070 00 00 00 00 52 a5 87 37 84 0e ee 36 00 00 00 00
       0.0 1.6170237e-05 7.0946426e-06 0.0
000080 00 00 00 00 00 00 00 00 00 00 00 00 42 40 56 b7
       0.0 0.0 0.0 -1.2770355e-05
000090 00 00 00 00 00 00 00 00 00 00 00 00 00 00 00 00
       0.0 0.0 0.0 0.0
0000a0 42 40 56 b7 00 00 00 00 00 00 00 00 00 00 00 00
       -1.2770355e-05 0.0 0.0 0.0
0000b0 00 00 00 00 42 40 56 b7 94 a1 b7 b5 12 45 89 b6
       0.0 -1.2770355e-05 -1.3681588e-06 -4.090959e-06
0000c0 da b0 b5 b6 5b b6 3d b8 c9 48 8e b8 00 00 00 00
       -5.4148086e-06 -4.5230943e-05 -6.784645e-05 0.0
0000d0 00 00 00 00 4e ea 9a b7 00 00 00 00 8d 41 ca b6
       0.0 -1.8467337e-05 0.0 -6.0277002e-06
0000e0 00 00 00 00 c9 48 8e b8 91 72 1c b8 2a f3 fc b6
       0.0 -6.784645e-05 -3.7299997e-05 -7.5384933e-06
0000f0 00 00 00 00 c9 48 8e b8 2b db 3f b7 98 78 18 b8
       0.0 -6.784645e-05 -1.1435516e-05 -3.6351936e-05
000100 2a f3 7c b7 c9 48 8e b8 00 00 00 00 fa 81 84 b8
       -1.50769865e-05 -6.784645e-05 0.0 -6.3184605e-05
000110 a1 92 cd b7 5b b6 bd b7 a0 0d 86 b7 fc a5 52 b8
       -2.4506184e-05 -2.2615472e-05 -1.598039e-05 -5.0222487e-05
000120 82 15 54 b8 58 f4 82 b8 2a f3 fc b7 00 00 00 00
       -5.056477e-05 -6.2443956e-05 -3.0153973e-05 0.0
000130 00 00 00 00 00 00 00 00 ca 84 1a b8 fc 17 1e b8
       0.0 0.0 -3.684013e-05 -3.7692473e-05
000140 00 00 00 00 00 00 00 00 00 00 00 00 00 00 00 00
       0.0 0.0 0.0 0.0
000150 c9 48 8e 38 00 00 00 00 00 00 00 00 00 00 00 00
       6.784645e-05 0.0 0.0 0.0
000160 00 00 00 00 c9 48 8e 38 00 00 00 00 00 00 00 00
       0.0 6.784645e-05 0.0 0.0
000170 00 00 00 00 00 00 00 00 c9 48 8e 38 e0 7d 3c b7
       0.0 0.0 6.784645e-05 -1.1234981e-05
000180 b2 50 1d b8 2e 19 36 b8 a6 4c 60 b7 8d 39 a8 b7
       -3.750687e-05 -4.341563e-05 -1.33692865e-05 -2.005396e-05
000190 00 00 00 00 00 00 00 00 be 34 c3 b7 00 00 00 00
       0.0 0.0 -2.3270371e-05 0.0
0001a0 3b 21 ef b5 00 00 00 00 8d 39 a8 b7 7e 43 27 37
       -1.7816559e-06 0.0 -2.005396e-05 9.96969e-06
0001b0 53 88 15 b6 00 00 00 00 8d 39 a8 b7 60 d5 62 b6
       -2.2282081e-06 0.0 -2.005396e-05 -3.3800825e-06
0001c0 c8 a1 83 b5 53 88 95 b6 8d 39 a8 b7 00 00 00 00
       -9.807345e-07 -4.4564163e-06 -2.005396e-05 0.0
0001d0 39 aa 9c b7 44 55 97 37 a6 4c e0 b6 34 7e 9e b6
       -1.8675915e-05 1.8040308e-05 -6.6846433e-06 -4.723459e-06
0001e0 93 0d 79 b7 f4 bf 7a b7 5e 04 7c 38 53 88 15 b7
       -1.4844717e-05 -1.4945854e-05 6.008555e-05 -8.9128325e-06
0001f0 00 00 00 00 00 00 00 00 00 00 00 00 da 6c 99 b8
       0.0 0.0 0.0 -7.315884e-05
000200 54 ea 3a b7 00 00 00 00 00 00 00 00 00 00 00 00
       -1.1141023e-05 0.0 0.0 0.0
000210 00 00 00 00 8d 39 a8 37 00 00 00 00 00 00 00 00
       0.0 2.005396e-05 0.0 0.0
000220 00 00 00 00 00 00 00 00 8d 39 a8 37 00 00 00 00
       0.0 0.0 2.005396e-05 0.0
000230 00 00 00 00 00 00 00 00 00 00 00 00 8d 39 a8 37
       0.0 0.0 0.0 2.005396e-05
000240 2e f0 cc 37 5f 17 77 38 e2 4d aa 38 df 20 d1 b8
       2.4430537e-05 5.8911155e-05 8.1207385e-05 -9.972019e-05
000250 aa d8 1c b9 00 00 00 00 00 00 00 00 92 91 49 b8
       -0.00014958033 0.0 0.0 -4.8057707e-05
000260 00 00 00 00 bd f4 5e b7 00 00 00 00 aa d8 1c b9
       0.0 -1.3289214e-05 0.0 -0.00014958033
000270 a8 0f ad b8 40 6b 8b b7 00 00 00 00 aa d8 1c b9
       -8.252199e-05 -1.6620033e-05 0.0 -0.00014958033
000280 d8 7d d3 b7 76 c2 91 b8 40 6b 0b b8 aa d8 1c b9
       -2.521176e-05 -6.95036e-05 -3.3240067e-05 -0.00014958033
000290 00 00 00 00 a2 11 12 b9 f1 6d 5d b8 df 20 51 b8
       0.0 -0.00013930214 -5.2792897e-05 -4.9860097e-05
0002a0 d6 c5 13 b8 0c 35 e8 b8 2d ca e9 b8 bc c1 fb b8
       -3.523178e-05 -0.00011072503 -0.00011147964 -0.000120046985
0002b0 40 6b 8b b8 00 00 00 00 00 00 00 00 00 00 00 00
       -6.6480134e-05 0.0 0.0 0.0
0002c0 b2 17 c9 b8 10 46 ae b8 00 00 00 00 00 00 00 00
       -9.5888405e-05 -8.310017e-05 0.0 0.0
0002d0 00 00 00 00 00 00 00 00 aa d8 1c 39 00 00 00 00
       0.0 0.0 0.00014958033 0.0
0002e0 00 00 00 00 00 00 00 00 00 00 00 00 aa d8 1c 39
       0.0 0.0 0.0 0.00014958033
0002f0 00 00 00 00 00 00 00 00 00 00 00 00 00 00 00 00
       0.0 0.0 0.0 0.0
000300 aa d8 1c 39 b5 1a c0 b7 f1 65 6e b8 3a 40 a8 b8
       0.00014958033 -2.290062e-05 -5.6838562e-05 -8.0228274e-05
000310 84 d2 e3 37 de dd 2a 38 00 00 00 00 00 00 00 00
       2.7158538e-05 4.073779e-05 0.0 0.0
000320 30 53 a2 37 00 00 00 00 d4 e2 72 36 00 00 00 00
       1.9350642e-05 0.0 3.6192841e-06 0.0
000330 de dd 2a 38 a8 66 7f 37 a7 e1 97 36 00 00 00 00
       4.073779e-05 1.5223086e-05 4.52642e-06 0.0
000340 de dd 2a 38 9b 65 e6 36 db 2a 7e 37 a7 e1 17 37
       4.073779e-05 6.8663626e-06 1.5149558e-05 9.05284e-06
000350 de dd 2a 38 00 00 00 00 43 20 1f 38 76 42 dc 36
       4.073779e-05 0.0 3.79386e-05 6.564248e-06
000360 84 d2 63 37 63 fb 20 37 ce f6 fc 37 2c b0 fe 37
       1.3579269e-05 9.595274e-06 3.0155668e-05 3.0361196e-05
000370 aa a1 04 37 a7 e1 97 37 00 00 00 00 00 00 00 00
       7.9054535e-06 1.810568e-05 0.0 0.0
000380 00 00 00 00 b9 0a 46 38 ff d9 bd 37 00 00 00 00
       0.0 4.7216865e-05 2.2632068e-05 0.0
000390 00 00 00 00 00 00 00 00 00 00 00 00 de dd 2a b8
       0.0 0.0 0.0 -4.073779e-05
0003a0 00 00 00 00 00 00 00 00 00 00 00 00 00 00 00 00
       0.0 0.0 0.0 0.0
0003b0 de dd 2a b8 00 00 00 00 00 00 00 00 00 00 00 00
       -4.073779e-05 0.0 0.0 0.0
0003c0 00 00 00 00 de dd 2a b8 be 3d 16 b6 a7 fa 01 b7
       0.0 -4.073779e-05 -2.238768e-06 -7.747359e-06
0003d0 52 da 16 b7 6e 15 61 b7 20 d0 a8 b7 00 00 00 00
       -8.991528e-06 -1.3416035e-05 -2.0124076e-05 0.0
0003e0 00 00 00 00 36 fc b2 b7 00 00 00 00 53 f7 ef b5
       0.0 -2.1336698e-05 0.0 -1.7878868e-06
0003f0 00 00 00 00 20 d0 a8 b7 52 59 18 37 4c 0e 16 b6
       0.0 -2.0124076e-05 9.0807025e-06 -2.2360064e-06

exp_avg_sq f4 [128, 49]
000000 a7 26 de 35 6b eb 79 36 00 00 00 00 00 00 00 00
       1.6551538e-06 3.7240923e-06 0.0 0.0
000010 fc 07 19 35 00 00 00 00 dd 7f fc 32 00 00 00 00
       5.700856e-07 0.0 2.9394807e-08 0.0
000020 6b eb 79 36 c9 e7 8f 35 b4 77 45 33 00 00 00 00
       3.7240923e-06 1.0721789e-06 4.5976506e-08 0.0
000030 6b eb 79 36 30 33 e3 33 fe 05 c1 35 b4 77 45 34
       3.7240923e-06 1.0579822e-07 1.4381365e-06 1.8390602e-07
000040 6b eb 79 36 00 00 00 00 07 c1 58 36 ce 62 86 35
       3.7240923e-06 0.0 3.2298865e-06 1.0012534e-06
000050 a7 26 de 34 27 d7 5d 34 ac f1 08 36 2e d1 0a 36
       4.1378846e-07 2.0660501e-07 2.040625e-06 2.068536e-06
000060 cf 33 d3 35 b4 77 45 35 00 00 00 00 00 00 00 00
       1.5735803e-06 7.356241e-07 0.0 0.0
000070 00 00 00 00 8b 23 4a 35 7d 45 9a 35 00 00 00 00
       0.0 7.5302586e-07 1.1494118e-06 0.0
000080 00 00 00 00 00 00 00 00 00 00 00 00 6b eb 79 36
       0.0 0.0 0.0 3.7240923e-06
000090 00 00 00 00 00 00 00 00 00 00 00 00 00 00 00 00
       0.0 0.0 0.0 0.0
0000a0 6b eb 79 36 00 00 00 00 00 00 00 00 00 00 00 00
       3.7240923e-06 0.0 0.0 0.0
0000b0 00 00 00 00 6b eb 79 36 42 94 7a 35 6c bc ca 35
       0.0 3.7240923e-06 9.3348e-07 1.5105011e-06
0000c0 d2 2b de 35 d8 31 03 39 16 98 93 39 00 00 00 00
       1.6553042e-06 0.00012511702 0.00028151338 0.0
0000d0 00 00 00 00 70 bd f9 37 00 00 00 00 15 1e 15 36
       0.0 2.9771327e-05 0.0 2.222024e-06
0000e0 00 00 00 00 16 98 93 39 74 69 34 39 23 3c 69 36
       0.0 0.00028151338 0.00017205422 3.475471e-06
0000f0 00 00 00 00 16 98 93 39 24 2d 06 37 28 9f 58 38
       0.0 0.00028151338 7.9975325e-06 5.164664e-05
000100 23 3c 69 37 16 98 93 39 00 00 00 00 eb 01 80 39
       1.3901884e-05 0.00028151338 0.0 0.00024415491
000110 c2 06 8a 38 d8 31 03 38 df 02 83 37 b7 bf 21 39
       6.5816115e-05 3.1279254e-05 1.5617754e-05 0.00015425576
000120 10 f6 23 39 fa e2 fd 38 23 3c 69 38 00 00 00 00
       0.00015636557 0.00012106258 5.5607536e-05 0.0
000130 00 00 00 00 00 00 00 00 b6 20 90 38 ff 36 b6 38
       0.0 0.0 6.872548e-05 8.68868e-05
000140 00 00 00 00 00 00 00 00 00 00 00 00 00 00 00 00
       0.0 0.0 0.0 0.0
000150 16 98 93 39 00 00 00 00 00 00 00 00 00 00 00 00
       0.00028151338 0.0 0.0 0.0
000160 00 00 00 00 16 98 93 39 00 00 00 00 00 00 00 00
       0.0 0.00028151338 0.0 0.0
000170 00 00 00 00 00 00 00 00 16 98 93 39 da 9c 09 38
       0.0 0.0 0.00028151338 3.2809425e-05
000180 7e 0c 52 38 70 d4 4f 39 15 6a 6d 39 a0 8b 05 3a
       5.0079536e-05 0.00019820197 0.000226416 0.0005094353
000190 00 00 00 00 00 00 00 00 73 18 5f 38 00 00 00 00
       0.0 0.0 5.3190113e-05 0.0
0001a0 8b ec 86 36 00 00 00 00 a0 8b 05 3a b0 bf 16 39
       4.0210484e-06 0.0 0.0005094353 0.00014376524
0001b0 fd 08 d3 36 00 00 00 00 a0 8b 05 3a 65 cf 72 37
       6.2893364e-06 0.0 0.0005094353 1.4472612e-05
0001c0 15 c5 76 39 fd 08 d3 37 a0 8b 05 3a 00 00 00 00
       0.00023533807 2.5157346e-05 0.0005094353 0.0
0001d0 a2 a5 e7 39 41 27 c3 38 15 6a 6d 38 26 15 ed 37
       0.0004418316 9.305636e-05 5.6604e-05 2.826245e-05
0001e0 71 5a 92 39 da 5a 94 39 2c 5f 9c 39 fd 08 d3 38
       0.00027914674 0.0002829645 0.00029825547 0.00010062938
0001f0 00 00 00 00 00 00 00 00 00 00 00 00 3c 20 d6 38
       0.0 0.0 0.0 0.00010210319
000200 01 df 24 39 00 00 00 00 00 00 00 00 00 00 00 00
       0.00015723334 0.0 0.0 0.0
000210 00 00 00 00 a0 8b 05 3a 00 00 00 00 00 00 00 00
       0.0 0.0005094353 0.0 0.0
000220 00 00 00 00 00 00 00 00 a0 8b 05 3a 00 00 00 00
       0.0 0.0 0.0005094353 0.0
000230 00 00 00 00 00 00 00 00 00 00 00 00 a0 8b 05 3a
       0.0 0.0 0.0 0.0005094353
000240 27 d0 96 38 0b 70 8a 39 9f 77 64 39 ed 27 3c 39
       7.191329e-05 0.0002640489 0.00021788337 0.0001794395
000250 e4 ac d3 39 00 00 00 00 00 00 00 00 61 61 13 38
       0.0004037387 0.0 0.0 3.5138222e-05
000260 00 00 00 00 41 dc 55 36 00 00 00 00 e4 ac d3 39
       0.0 3.1867678e-06 0.0 0.0004037387
000270 5f 7b ec 38 e1 3f a7 36 00 00 00 00 e4 ac d3 39
       0.000112763366 4.9844243e-06 0.0 0.0004037387
000280 aa 6e 40 37 16 69 47 39 e1 3f a7 37 e4 ac d3 39
       1.1469858e-05 0.00019017266 1.9937697e-05 0.0004037387
000290 00 00 00 00 c1 95 b7 39 8c 2e b4 38 ed 27 3c 38
       0.0 0.00035016055 8.591739e-05 4.4859877e-05
0002a0 9b e4 bb 37 e1 f9 67 39 11 26 6b 39 4a 02 8a 39
       2.239859e-05 0.00022122964 0.00022425527 0.00026323117
0002b0 e1 3f a7 38 00 00 00 00 00 00 00 00 00 00 00 00
       7.975079e-05 0.0 0.0 0.0
0002c0 f6 c4 7d 38 ec a9 02 39 00 00 00 00 00 00 00 00
       6.0503335e-05 0.00012461067 0.0 0.0
0002d0 00 00 00 00 00 00 00 00 e4 ac d3 39 00 00 00 00
       0.0 0.0 0.0004037387 0.0
0002e0 00 00 00 00 00 00 00 00 00 00 00 00 e4 ac d3 39
       0.0 0.0 0.0 0.0004037387
0002f0 00 00 00 00 00 00 00 00 00 00 00 00 00 00 00 00
       0.0 0.0 0.0 0.0
000300 e4 ac d3 39 44 28 8b 38 43 a4 69 39 96 87 4e 39
       0.0004037387 6.6355366e-05 0.00022281804 0.000196962
000310 58 cb b6 38 aa a4 4d 39 00 00 00 00 00 00 00 00
       8.716312e-05 0.00019611666 0.0 0.0
000320 0a 97 67 37 00 00 00 00 0e c4 cf 35 00 00 00 00
       1.38038395e-05 0.0 1.5479761e-06 0.0
000330 aa a4 4d 39 fc 01 fe 38 da 7b 22 36 00 00 00 00
       0.00019611666 0.000121120334 2.4211972e-06 0.0
000340 aa a4 4d 39 e9 f2 ba 36 32 c5 5d 38 da 7b 22 37
       0.00019611666 5.5715104e-06 5.287416e-05 9.684789e-06
000350 aa a4 4d 39 00 00 00 00 89 5a 32 39 4e 72 07 38
       0.00019611666 0.0 0.0001700913 3.2292963e-05
000360 58 cb b6 37 f4 89 36 37 ab 5d e1 38 a4 72 e4 38
       2.179078e-05 1.0880165e-05 0.00010746283 0.00010893241
000370 bc 38 b0 38 da 7b 22 38 00 00 00 00 00 00 00 00
       8.4029016e-05 3.8739156e-05 0.0 0.0
000380 00 00 00 00 0b dd 61 38 6d e1 7d 38 00 00 00 00
       0.0 5.3850043e-05 6.0529845e-05 0.0
000390 00 00 00 00 00 00 00 00 00 00 00 00 aa a4 4d 39
       0.0 0.0 0.0 0.00019611666
0003a0 00 00 00 00 00 00 00 00 00 00 00 00 00 00 00 00
       0.0 0.0 0.0 0.0
0003b0 aa a4 4d 39 00 00 00 00 00 00 00 00 00 00 00 00
       0.00019611666 0.0 0.0 0.0
0003c0 00 00 00 00 aa a4 4d 39 63 93 c4 36 a4 2c 57 38
       0.0 0.00019611666 5.8584133e-06 5.130157e-05
0003d0 b8 1a 07 39 54 42 10 39 98 4a a2 39 00 00 00 00
       0.00012884557 0.0001375762 0.00030954625 0.0
0003e0 00 00 00 00 65 13 fe 37 00 00 00 00 6c f7 23 36
       0.0 3.028819e-05 0.0 2.4432911e-06
0003f0 00 00 00 00 98 4a a2 39 6a 01 8b 38 ed 3a 80 36
       0.0 0.00030954625 6.6283e-05 3.821557e-06

exp_avg f4 [128]
000000 42 40 56 37 cb 48 8e b8 86 39 a8 b7 aa d8 1c b9
       1.2770355e-05 -6.7846464e-05 -2.0053947e-05 -0.00014958033
000010 df dd 2a 38 19 d0 a8 b7 9e 35 40 37 83 7e 9a 39
       4.0737792e-05 -2.0124064e-05 1.14565755e-05 0.00029467428
000020 a9 77 60 b8 39 15 8a 38 03 48 78 b8 c8 b1 22 b8
       -5.3517204e-05 6.584306e-05 -5.9194874e-05 -3.878938e-05
000030 21 90 09 b8 99 bf 79 36 33 da 73 38 c9 24 13 b9
       -3.2797576e-05 3.7215416e-06 5.813893e-05 -0.00014032716
000040 b5 91 58 38 53 63 06 b9 3b 55 90 b8 d6 82 1e 38
       5.1634113e-05 -0.00012816237 -6.8823305e-05 3.7791986e-05
000050 35 19 17 39 68 ca 7a b9 5c e1 96 b9 69 2c ca b9
       0.00014409873 -0.0002391726 -0.00028778135 -0.0003856153
000060 05 cd 5c b9 36 e3 54 b7 dc 9a 69 39 bb 7e 1a b9
       -0.0002105721 -1.2689086e-05 0.00022278301 -0.00014733795
000070 67 3f 29 b8 c4 2d 49 39 b9 a5 d6 39 e0 af 32 b9
       -4.0351788e-05 0.00019185903 0.00040940734 -0.00017040921
000080 7e c9 3f b6 d8 61 41 38 5a 1a 62 39 31 2b e1 38
       -2.8578502e-06 4.610591e-05 0.00021562856 0.00010736881
000090 5f fe e9 b9 07 43 93 b8 4d 31 e6 b8 07 b4 88 b9
       -0.00044630744 -7.021991e-05 -0.000109764376 -0.00026074072
0000a0 85 c4 40 b7 70 39 19 39 8a a3 a7 38 54 c1 20 b9
       -1.1489848e-05 0.00014612614 7.993642e-05 -0.0001533081
0000b0 da 6d 3d 39 c5 50 d2 39 a8 e9 ff 38 aa c8 a6 38
       0.00018065367 0.000401145 0.000122028694 7.9528734e-05
0000c0 72 b9 22 b7 be ff 28 39 a7 1e 86 38 ac 6f ac 39
       -9.69913e-06 0.00016117 6.3953274e-05 0.00032889599
0000d0 7c c6 7d 39 bf 83 3b 39 4d 7a dd 37 11 65 b0 b9
       0.00024201901 0.00017882789 2.6402204e-05 -0.00033644636
0000e0 5d 4e 29 b7 2e bf c4 38 19 54 d3 34 b1 f1 38 b9
       -1.009143e-05 9.381618e-05 3.9363002e-07 -0.00017637644
0000f0 8f a9 9b 37 6c 9f 09 b6 f8 b3 59 38 f0 4c 3e 39
       1.8556397e-05 -2.0507387e-06 5.190444e-05 0.00018148473
000100 54 fd 49 39 51 cf f9 b8 5b dc 9d 38 06 64 b6 38
       0.00019263226 -0.00011911861 7.527388e-05 8.697067e-05
000110 d2 c6 8a b9 62 83 f5 b7 46 18 bc 38 30 2f c0 b9
       -0.00026469544 -2.9267456e-05 8.96906e-05 -0.0003665625
000120 35 11 a6 b8 4d 64 89 b9 f7 36 78 37 f4 c9 8f b9
       -7.918702e-05 -0.00026205406 1.4794749e-05 -0.00027425552
000130 7b 35 0f b9 86 e1 05 ba d0 14 89 38 a8 79 7c b9
       -0.00013657466 -0.0005107153 6.536546e-05 -0.00024077913
000140 61 25 a3 b8 4c 30 3a b9 51 c9 e1 38 df 29 a4 38
       -7.779408e-05 -0.00017756334 0.00010766334 7.8279285e-05
000150 de 5e 44 b9 f5 22 1f 39 b0 1d 08 39 90 23 88 37
       -0.00018727357 0.00015176444 0.0001298103 1.6229023e-05
000160 03 11 0c b9 b4 f8 3c b8 48 c9 e1 33 e2 ea a6 39
       -0.00013357778 -4.5054316e-05 1.0513992e-07 0.0003183699
000170 d7 a3 a7 b9 63 d0 0d b9 92 cc a5 b8 da 7d 47 b8
       -0.00031974792 -0.00013524438 -7.905917e-05 -4.7562506e-05
000180 47 80 e4 36 12 a8 9f b9 a2 5d e1 b8 cc 22 6d b9
       6.809863e-06 -0.00030452065 -0.000107462765 -0.00022615044
000190 1e 6c c2 38 08 64 65 b9 e6 10 8b 38 60 fd a9 b9
       9.270779e-05 -0.00021876406 6.631184e-05 -0.0003242297
0001a0 3f c8 95 b7 39 ca da b8 67 80 c4 39 a0 89 c2 35
       -1.7855431e-05 -0.00010432717 0.000374797 1.449418e-06
0001b0 71 c8 c7 39 bd 03 4b b5 f4 03 aa b8 bc 22 02 38
       0.00038105578 -7.5628833e-07 -8.106968e-05 3.1026764e-05
0001c0 b9 9a e9 37 c3 bb 29 b9 f8 66 bf b8 a1 1c 68 38
       2.7847813e-05 -0.00016187043 -9.126769e-05 5.5339773e-05
0001d0 5c a6 82 b9 09 b4 d5 38 39 6b b5 38 94 be b0 b8
       -0.0002491948 0.000101901656 8.650724e-05 -8.427832e-05
0001e0 6a 39 82 b8 23 33 94 38 48 15 4e b9 6c 38 1c 39
       -6.209577e-05 7.066715e-05 -0.00019653619 0.00014898338
0001f0 73 06 b0 b8 1c 65 00 b8 7e 8c 21 b9 8d 6e 24 b9
       -8.393535e-05 -3.0611744e-05 -0.00015406494 -0.00015681442

exp_avg_sq f4 [128]
000000 6f eb 79 36 18 98 93 39 9f 8b 05 3a e0 ac d3 39
       3.7240932e-06 0.00028151344 0.00050943525 0.00040373858
000010 ae a4 4d 39 99 4a a2 39 88 7d 27 35 c5 7d b2 39
       0.00019611671 0.00030954627 6.239502e-07 0.0003404451
000020 c2 f6 1b 3a d2 42 ba 39 55 9a 17 3a 15 73 87 39
       0.00059495505 0.0003552647 0.000578319 0.0002583495
000030 c3 55 7e 39 5d fd c6 33 e3 04 2b 39 72 dc e0 39
       0.00024255276 9.26618e-08 0.00016309651 0.00042888854
000040 ee 33 65 39 f1 31 0b 3a 99 76 43 39 db b4 df 36
       0.00021858487 0.0005309871 0.0001864083 6.6669722e-06
000050 ac 01 27 3a 88 4b 64 39 c6 c1 6c 3a ec 29 37 3a
       0.00063707936 0.00021771912 0.000903156 0.0006987143
000060 2a ba 69 39 a4 79 85 39 bc 42 4a 39 16 ae 45 3a
       0.00022289963 0.00025458366 0.00019289082 0.00075408944
000070 22 ff 11 3a 2e 78 29 3a df 26 77 3a 22 96 82 39
       0.0005569329 0.00064647465 0.00094280945 0.0002490739
000080 63 27 61 35 ce 2e 63 3a e1 3c 41 3a 0b cb 40 3a
       8.3876347e-07 0.0008666337 0.00073714374 0.00073544745
000090 d4 ac b9 3a ad e2 2e 39 67 a2 f4 39 68 2f 58 3a
       0.0014165887 0.00016678376 0.00046660306 0.000824681
0000a0 9c 02 ca 36 b7 2f 73 39 f4 ac 4b 39 4e 69 a9 39
       6.020373e-06 0.00023192061 0.00019424019 0.0003231265
0000b0 7a b5 fb 39 6f 03 0a 3a f4 e3 c7 39 12 d1 a7 39
       0.0004800966 0.0005264794 0.00038126076 0.00032008492
0000c0 2c bd 94 36 ec a4 42 3a 2d 31 c8 39 e4 65 fa 39
       4.432766e-06 0.0007425088 0.00038183611 0.0004775963
0000d0 da bf 38 3a 4c ca a2 39 f2 c7 f1 37 a6 fb 91 39
       0.0007047631 0.0003104977 2.8822546e-05 0.00027844048
0000e0 e3 0b cc 39 e6 00 72 39 b9 ed 1f 32 c7 3d 89 38
       0.00038918768 0.00023079253 9.30907e-09 6.544176e-05
0000f0 6c ad d4 39 09 c3 a1 31 a7 73 bc 39 c1 01 1d 3a
       0.00040565 4.7078896e-09 0.00035944322 0.0005989336
000100 cc 2f 13 3a 7a 65 8f 38 71 68 07 3a f0 70 1a 39
       0.0005614727 6.837673e-05 0.0005165404 0.00014728657
000110 8e d8 e6 39 a5 c2 21 39 75 7c 30 3a 40 e7 b8 39
       0.00044030364 0.00015426667 0.0006732413 0.0003526751
000120 62 13 8c 39 b2 02 51 3a 38 68 d3 39 4f a3 8f 3a
       0.00026717322 0.0007973119 0.00040322705 0.0010958704
000130 c0 13 87 39 73 25 98 3a 8f d2 e8 39 1c c9 87 39
       0.0002576392 0.001160784 0.00044407367 0.00025899045
000140 47 b8 e1 39 89 af 9a 39 45 f0 95 39 59 9e 83 3a
       0.00043052642 0.00029503953 0.0002859851 0.0010041698
000150 ee cf af 39 38 bf 25 39 12 c0 00 3a df 9d e4 38
       0.0003353352 0.00015806861 0.0004911433 0.00010901293
000160 59 d1 b1 39 46 78 35 39 60 6a 55 33 3a bb 91 39
       0.00033916047 0.0001730631 4.9689675e-08 0.0002779605
000170 4a fc 59 39 33 f1 c6 38 2c 91 a8 37 a7 96 4d 3a
       0.00020788718 9.4863026e-05 2.0094762e-05 0.00078425783
000180 7c 34 a4 34 bc e7 19 3a b9 73 51 38 86 84 00 3a
       3.0585568e-07 0.0005871018 4.9937258e-05 0.000490256
000190 85 c5 71 38 c8 cb 87 3a 47 4b 62 38 f1 f4 02 3a
       5.7642832e-05 0.0010360414 5.3952706e-05 0.00049956056
0001a0 2c cd 05 3a 9b 5f a1 38 39 1a 74 3a 73 5f 8c 39
       0.00051041204 7.694886e-05 0.0009311769 0.00026773996
0001b0 f6 50 f2 39 ed 2d 26 39 49 08 6e 39 f9 32 d0 39
       0.00046218158 0.00015848102 0.00022700535 0.0003971083
0001c0 2c 22 17 36 4f 40 3c 3a 8f 16 c9 39 f2 92 40 38
       2.2520644e-06 0.00071812136 0.00038354515 4.591322e-05
0001d0 47 f9 36 3a c4 70 f6 37 00 72 84 39 8c 8a 44 39
       0.0006979894 2.9377996e-05 0.0002526194 0.0001874363
0001e0 20 63 3c 38 66 a8 9b 39 de f3 30 39 83 b0 ea 39
       4.491501e-05 0.0002968937 0.00016875516 0.0004476347
0001f0 09 18 37 38 b2 bd f8 39 b3 12 ee 39 a3 56 fd 38
       4.3652984e-05 0.0004744358 0.0004540883 0.000120801174
