Assets/ML-Agents/results/color-chooser1/Color Chooser/Color Chooser-584.onnx (onnx, 88474 bytes, 5 tensors)

network_body._body_endoder.seq_layers.0.weight f4 [128, 28]
0	0x3e55e3bc	0.20887655
1	0xbe94a318	-0.2903068
2	0x3d535cab	0.051602047
3	0xbde2686f	-0.110550754
4	0xbd5a8670	-0.053350866
5	0xbe0fa04f	-0.14025997
6	0x3da86269	0.08221895
7	0x3e18e94f	0.1493275
8	0xbd551f7d	-0.052031983
9	0x3e37c671	0.17946793
10	0xba56a92d	-0.00081886613
11	0x3de5f7a2	0.11228873
12	0x3e0da96f	0.13834165
13	0xbe80e5b5	-0.25175253
14	0xbd0ae9f9	-0.03391454
15	0xbeeabef3	-0.45848808
16	0x3d56d900	0.05245304
17	0x3decccec	0.11562523
18	0xbd74baa7	-0.059748318
19	0x3d2884f9	0.041142438
20	0x3d1a7578	0.037709683
21	0x3d20ff5b	0.039306026
22	0x3c8e18ef	0.017345874
23	0x3e06adbc	0.13152212
24	0xbe4fecc8	-0.20305169
25	0x3cda557f	0.026652096
26	0x3e7cb587	0.24678622
27	0x3e9be2c6	0.30446452
28	0xbe016b72	-0.12638643
29	0x3e81b5d4	0.25334036
30	0xbe7cfea0	-0.24706507
31	0x3e205e4d	0.15660973
32	0xbeac5a05	-0.3366243
33	0x3d04d7e1	0.03243244
34	0x3e0e3b1f	0.1388974
35	0x3e1e8546	0.15480527
36	0x3dc2e482	0.09516241
37	0xbdade53f	-0.08490991
38	0xbe6ae94a	-0.22940555
39	0xbca37a38	-0.01995574
40	0xbd4a71dd	-0.049424995
41	0xbeca5f2c	-0.39525735
42	0xbdaea71f	-0.085279696
43	0xbe1b7e7f	-0.15184973
44	0xbe76d179	-0.24103345
45	0xbc6eadd8	-0.014567815
46	0xbd5ea97a	-0.054360844
47	0x3c182d41	0.009288133
48	0xbe4376df	-0.19088314
49	0xbd931079	-0.07180876
50	0xbea4ffaa	-0.32226306
51	0x3e1673ee	0.14692661
52	0x3eb7656e	0.35819572
53	0x3e77617d	0.24158283
54	0xbe349e05	-0.17638405
55	0xbe23f4f3	-0.1601141
56	0x3f0e14b9	0.5550037
57	0x3dea1ee2	0.11431672
58	0x3eb485a7	0.3525822
59	0xbe47289e	-0.19449088
60	0xbd9393c4	-0.072059184
61	0x3e305e96	0.17223582
62	0x3f0b0b89	0.54314476
63	0xbc892f62	-0.016746227
64	0xbe0369d3	-0.12833337
65	0xbbc23cce	-0.0059276586
66	0x3e61966e	0.2203004
67	0xbdd04a5c	-0.10170433
68	0x3e2f9096	0.17144999
69	0xbde4ce91	-0.11172212
70	0x3c7cc3e2	0.0154275615
71	0x3d6f8726	0.058478497
72	0x3d6fdd6e	0.05856078
73	0x3e6d60ea	0.23181501
74	0x3e418857	0.18899666
75	0xbe60a562	-0.21938089
76	0xbe1bc3c5	-0.15211399
77	0x3e0722cc	0.13196868
78	0xbe1ca74d	-0.15298195
79	0xbd4a6112	-0.04940898
80	0xbdf5a30a	-0.11993988
81	0x3d39bc75	0.045345742
82	0xbe69145f	-0.22761677
83	0x3def3c42	0.11681415
84	0xbe5bfc78	-0.21483028
85	0xbd600407	-0.05469134
86	0x3e50b089	0.20379843
87	0xbced25cf	-0.028948693
88	0xbd796785	-0.06088974
89	0xbd7aa822	-0.0611955
90	0xbe9b7117	-0.30359718
91	0xbd7a405b	-0.06109653
92	0x3e1170fe	0.1420326
93	0x3e104923	0.140904
94	0x3c5721a2	0.013130577
95	0xbebdb86b	-0.37054762
96	0x3e686146	0.22693357
97	0x3e517b25	0.20457132
98	0x3e7479fc	0.23874658
99	0xbdcc91e8	-0.09988767
100	0xbda6ac58	-0.08138341
101	0xbcaa110f	-0.020760087
102	0xbeb4d9de	-0.3532247
103	0x3e1c321b	0.15253489
104	0xbe81306a	-0.2523225
105	0xbd757998	-0.059930414
106	0x3db2de70	0.08733833
107	0xbe1bba2a	-0.15207735
108	0x3e49411e	0.19653746
109	0x3eda22fe	0.42604822
110	0x3cdc8b2b	0.02692183
111	0xbe6f8f83	-0.23394589
112	0x3e47c1f7	0.19507585
113	0xbe565b1c	-0.20933193
114	0x3e9729fd	0.29524222
115	0x3d1af326	0.03782954
116	0xbdf361fd	-0.11883924
117	0xbd824419	-0.06360645
118	0xbdfbcd2c	-0.12294993
119	0x3e4427bd	0.19155784
120	0x3b785d44	0.0037897388
121	0xbe0fb971	-0.14035584
122	0xbe0cfd6a	-0.13768545
123	0xbe8b9e68	-0.27269292
124	0x3d4de46d	0.050266672
125	0xbda8653f	-0.08222436
126	0xbe0d2d25	-0.13786753
127	0xbe3ac069	-0.18237461
128	0xbe6d1528	-0.23152602
129	0xbd3e3fe0	-0.046447635
130	0x3d8bd084	0.068268806
131	0x3e5dd8d3	0.21664743
132	0x3e4cf9f1	0.2001722
133	0x3ea87ea8	0.3290913
134	0xbdbee5ed	-0.093211986
135	0x3a6ef936	0.0009116115
136	0xbdc1221c	-0.09430334
137	0xbca03496	-0.019556325
138	0xbe31d2a1	-0.17365505
139	0xbe2b03da	-0.16700688
140	0x3e802ec6	0.25035685
141	0xbe8619fd	-0.26191702
142	0x3e12fbb4	0.1435383
143	0xbd6fa071	-0.05850262
144	0xbdb32199	-0.087466426
145	0xbbeaa6d0	-0.007160999
146	0xbd52f7bd	-0.051505793
147	0x3db74a66	0.08949737
148	0xbe9f3f96	-0.311032
149	0xbe1ac115	-0.15112717
150	0x3ec24eeb	0.37950835
151	0xbda42faf	-0.080169074
152	0x3dc09587	0.0940352
153	0x3e2b7bb0	0.16746402
154	0xbe1fe671	-0.1561525
155	0x3e0d0f86	0.13775453
156	0xbd56c68b	-0.05243544
157	0xbe1af654	-0.15133029
158	0x3bf56071	0.0074883034
159	0xbef20302	-0.4726792
160	0x3cbb3e78	0.022856936
161	0xbda12291	-0.07867921
162	0xbdd7dedc	-0.10540554
163	0x3e8f140a	0.27944976
164	0x3e325fd6	0.17419371
165	0x3d0a3de8	0.033750445
166	0x3e045001	0.12921144
167	0xbd0fd57f	-0.035115715
168	0xbe6cd985	-0.23129852
169	0x3e3d01d2	0.18457726
170	0x3bb232f5	0.0054382035
171	0x3d3c5586	0.04598
172	0xbd7500c4	-0.059815183
173	0xbd841416	-0.064491436
174	0x3e2adc88	0.16685688
175	0xbdba7ab3	-0.09105434
176	0xbd7b8c1e	-0.061412923
177	0xbe47d64d	-0.19515343
178	0xbe8ab49b	-0.27090916
179	0xbd750c8f	-0.05982643
180	0xbe452af2	-0.19254664
181	0x3cef9dcd	0.02925005
182	0x3e72b5bb	0.23702137
183	0xbda2614b	-0.079287134
184	0x3d9a66c5	0.07539133
185	0xbe255293	-0.16144781
186	0x3d959641	0.07304049
187	0xbe0393c1	-0.12849332
188	0x3e66480a	0.22488418
189	0x3def0df5	0.11672584
190	0xbdaa743a	-0.0832295
191	0xbe87abdf	-0.26498315
192	0x3e1ca4fd	0.15297313
193	0xbd4d5db3	-0.050138187
194	0x3e2ce79d	0.16885228
195	0x3c0adf8b	0.008476148
196	0x3eea914e	0.45813984
197	0x3e1589e6	0.14603385
198	0xbe755a04	-0.2396012
199	0xbe9018f4	-0.28144038
200	0x3e1a0e0b	0.1504442
201	0xbd964bec	-0.073387
202	0x3dd4b237	0.10385554
203	0x3e6fed6c	0.23430413
204	0xbeca8918	-0.3955772
205	0xbcf9736f	-0.03045055
206	0xbd9511a2	-0.07278754
207	0xbdccfb98	-0.10008925
208	0x3d6b4787	0.05744126
209	0xbbfec1b7	-0.0077745575
210	0x3e7d6e17	0.24749027
211	0x3e46b8f9	0.19406499
212	0x3e1d4cfe	0.15361401
213	0x3e336cb9	0.17521943
214	0x3def04e6	0.11670856
215	0xbee2df61	-0.4431105
216	0x3e06fd7e	0.13182637
217	0x3e05c8bd	0.13064857
218	0xbd0b39bd	-0.03399061
219	0xbc046006	-0.008079534
220	0xbdaf9bb2	-0.085746184
221	0x3e2e38fd	0.17013927
222	0x3db77fca	0.08959921
223	0x3e5bbbff	0.21458434
224	0xbe15027f	-0.14551733
225	0xbe3dec3f	-0.18547152
226	0xbe55074b	-0.20803563
227	0x3e1e7b9c	0.1547684
228	0x3dad2134	0.084535986
229	0xbe92adc0	-0.28648186
230	0xbde9450a	-0.11390121
231	0x3d9c1ac9	0.07622296
232	0xbe42a2f8	-0.1900748
233	0xbe06b574	-0.13155156
234	0xbe0a734f	-0.13520549
235	0x3e7f9473	0.24958973
236	0xbd17a7d4	-0.037025288
237	0x3d227842	0.039665468
238	0x3eb90626	0.36137503
239	0xbe857138	-0.26062942
240	0xbd14fbba	-0.036372878
241	0x3e18d1b2	0.14923742
242	0xbe40617a	-0.18787184
243	0xbe234319	-0.15943564
244	0xbd85317e	-0.065035805
245	0xbe90a014	-0.2824713
246	0xbe55a446	-0.20863447
247	0xbd71a29b	-0.058992963
248	0x3ecf5d3d	0.40500823
249	0x3dcc12fb	0.09964558
250	0x3dda4637	0.10657924
251	0x3ec07596	0.3758971
252	0xbe18981d	-0.14901777
253	0xbe4b8b63	-0.1987739
254	0x3e871b0e	0.2638783
255	0xbcb0650f	-0.021532563

network_body._body_endoder.seq_layers.0.bias f4 [128]
0	0x00000000	0.0
1	0x00000000	0.0
2	0x00000000	0.0
3	0x00000000	0.0
4	0x00000000	0.0
5	0x00000000	0.0
6	0x00000000	0.0
7	0x00000000	0.0
8	0x00000000	0.0
9	0x00000000	0.0
10	0x00000000	0.0
11	0x00000000	0.0
12	0x00000000	0.0
13	0x00000000	0.0
14	0x00000000	0.0
15	0x00000000	0.0
16	0x00000000	0.0
17	0x00000000	0.0
18	0x00000000	0.0
19	0x00000000	0.0
20	0x00000000	0.0
21	0x00000000	0.0
22	0x00000000	0.0
23	0x00000000	0.0
24	0x00000000	0.0
25	0x00000000	0.0
26	0x00000000	0.0
27	0x00000000	0.0
28	0x00000000	0.0
29	0x00000000	0.0
30	0x00000000	0.0
31	0x00000000	0.0
32	0x00000000	0.0
33	0x00000000	0.0
34	0x00000000	0.0
35	0x00000000	0.0
36	0x00000000	0.0
37	0x00000000	0.0
38	0x00000000	0.0
39	0x00000000	0.0
40	0x00000000	0.0
41	0x00000000	0.0
42	0x00000000	0.0
43	0x00000000	0.0
44	0x00000000	0.0
45	0x00000000	0.0
46	0x00000000	0.0
47	0x00000000	0.0
48	0x00000000	0.0
49	0x00000000	0.0
50	0x00000000	0.0
51	0x00000000	0.0
52	0x00000000	0.0
53	0x00000000	0.0
54	0x00000000	0.0
55	0x00000000	0.0
56	0x00000000	0.0
57	0x00000000	0.0
58	0x00000000	0.0
59	0x00000000	0.0
60	0x00000000	0.0
61	0x00000000	0.0
62	0x00000000	0.0
63	0x00000000	0.0
64	0x00000000	0.0
65	0x00000000	0.0
66	0x00000000	0.0
67	0x00000000	0.0
68	0x00000000	0.0
69	0x00000000	0.0
70	0x00000000	0.0
71	0x00000000	0.0
72	0x00000000	0.0
73	0x00000000	0.0
74	0x00000000	0.0
75	0x00000000	0.0
76	0x00000000	0.0
77	0x00000000	0.0
78	0x00000000	0.0
79	0x00000000	0.0
80	0x00000000	0.0
81	0x00000000	0.0
82	0x00000000	0.0
83	0x00000000	0.0
84	0x00000000	0.0
85	0x00000000	0.0
86	0x00000000	0.0
87	0x00000000	0.0
88	0x00000000	0.0
89	0x00000000	0.0
90	0x00000000	0.0
91	0x00000000	0.0
92	0x00000000	0.0
93	0x00000000	0.0
94	0x00000000	0.0
95	0x00000000	0.0
96	0x00000000	0.0
97	0x00000000	0.0
98	0x00000000	0.0
99	0x00000000	0.0
100	0x00000000	0.0
101	0x00000000	0.0
102	0x00000000	0.0
103	0x00000000	0.0
104	0x00000000	0.0
105	0x00000000	0.0
106	0x00000000	0.0
107	0x00000000	0.0
108	0x00000000	0.0
109	0x00000000	0.0
110	0x00000000	0.0
111	0x00000000	0.0
112	0x00000000	0.0
113	0x00000000	0.0
114	0x00000000	0.0
115	0x00000000	0.0
116	0x00000000	0.0
117	0x00000000	0.0
118	0x00000000	0.0
119	0x00000000	0.0
120	0x00000000	0.0
121	0x00000000	0.0
122	0x00000000	0.0
123	0x00000000	0.0
124	0x00000000	0.0
125	0x00000000	0.0
126	0x00000000	0.0
127	0x00000000	0.0

network_body._body_endoder.seq_layers.2.weight f4 [128, 128]
0	0x3d346bb5	0.04404803
1	0x3da3cb6b	0.07997783
2	0xbdddeab1	-0.108357795
3	0x3d11daf2	0.035609193
4	0xbd82de96	-0.06390111
5	0x3ce846a6	0.028354
6	0x3b0604b0	0.0020449571
7	0xbd8e87ea	-0.06959517
8	0xbe08cecb	-0.13360135
9	0x3c1b3bdf	0.009474724
10	0xbe3a432d	-0.18189688
11	0x3c804a66	0.015660476
12	0xbd5fc899	-0.054634664
13	0x3bb6e284	0.005581202
14	0xbd8a156e	-0.06742369
15	0x3c2a3f7c	0.010391112
16	0x3ca7fc96	0.020506185
17	0xbda1b0eb	-0.078950725
18	0x3ddee089	0.108826704
19	0x3c57c255	0.013168891
20	0x3c99c32d	0.018769825
21	0x3da36a06	0.07979207
22	0xbd2f93c8	-0.042865545
23	0x3cc624c3	0.024187451
24	0xbd342f2a	-0.04399029
25	0xbca1d436	-0.01975451
26	0x3db84dac	0.0899919
27	0xbe0589c4	-0.13040835
28	0x3e437746	0.19088468
29	0x3d6946f5	0.056952436
30	0x3e0874a1	0.1332574
31	0x3dc091fa	0.09402843
32	0xbcf07acb	-0.029355427
33	0xbdf7e450	-0.12104094
34	0x3d9110df	0.07083296
35	0x3dcea3db	0.10089847
36	0xbc8d37fe	-0.017238613
37	0xbc1b0046	-0.009460514
38	0xbd09f39e	-0.033679597
39	0xbdaca835	-0.084305204
40	0xbcac6f67	-0.021049215
41	0x3e0e83a9	0.13917412
42	0xbdcd383b	-0.10020491
43	0xbdcd2464	-0.100167066
44	0x3bd89a45	0.0066101872
45	0xbd91ae27	-0.07113295
46	0xbbcb21ce	-0.006199098
47	0xbdd79e4c	-0.105282396
48	0x3b06bce3	0.0020559363
49	0xbd2f12ad	-0.04274242
50	0xbbc4ec73	-0.0060096323
51	0xbc670595	-0.014100452
52	0x3a800e5c	0.0009769904
53	0xbd1188f7	-0.03553101
54	0x3c7f2bd1	0.0155744115
55	0x3d19b5c6	0.03752687
56	0xbd17ca9f	-0.03705847
57	0xbd82cc30	-0.06386602
58	0xbe41147f	-0.18855475
59	0x3da1e87f	0.07905673
60	0x3ddc0e98	0.10744971
61	0x3dbdb334	0.09262696
62	0x3e0ac0a8	0.13550055
63	0xbe025a41	-0.12729742
64	0x3dfd2eb9	0.12362427
65	0xbd9e7110	-0.07736409
66	0xbe1cceb5	-0.15313227
67	0xbc842687	-0.016131653
68	0xbcc01d04	-0.023451336
69	0x3dd396c9	0.10331494
70	0x3e0d2098	0.13781965
71	0xbe2d84e6	-0.16945228
72	0x3d444996	0.04792174
73	0x3de617ce	0.11235009
74	0x3d7bfafe	0.06151866
75	0xbd6ebf89	-0.05828813
76	0xbdb96ac5	-0.09053568
77	0xbca0907f	-0.019600151
78	0x3dd25a7a	0.10271163
79	0x3da3dcf9	0.080011316
80	0xbd8ebf88	-0.069701254
81	0x3d6e2344	0.0581391
82	0x3dcd68bf	0.10029744
83	0x3c2df3bc	0.010617193
84	0xbe03363a	-0.12813655
85	0xbd925a98	-0.07146186
86	0x3e0beafa	0.13663855
87	0x3d80da97	0.06291693
88	0xbda348ac	-0.079728454
89	0xbb9e0005	-0.0048217797
90	0xbc47829d	-0.012177137
91	0xbd13114e	-0.035905175
92	0x3e27f059	0.16400279
93	0xbd18f34d	-0.037341405
94	0xbe1f8843	-0.15579323
95	0x3db5e802	0.088821426
96	0x3dc25880	0.09489536
97	0xbd21a798	-0.03946647
98	0xbd2e5cc7	-0.042568948
99	0xbdeb5589	-0.11490924
100	0xbce94875	-0.028476933
101	0xbc6de266	-0.01451931
102	0x3d02d72d	0.03194349
103	0xbde06915	-0.10957543
104	0xbd3f2066	-0.046661757
105	0xbda5cf8e	-0.080962285
106	0x3d744d3b	0.059643965
107	0xbdaacc55	-0.083397545
108	0x3d32de4e	0.043669038
109	0xbbdbe52c	-0.006710669
110	0x3daad8c6	0.083421275
111	0x3e3d52e2	0.18488649
112	0x3b6df2bd	0.0036308013
113	0xbb3a9fde	-0.0028476636
114	0xbcfe0b59	-0.03101127
115	0xbdce8e94	-0.10085788
116	0x3d4cd269	0.05000535
117	0xbd14f825	-0.03636946
118	0xbe022545	-0.1270953
119	0xbd3dc483	-0.046329986
120	0x3d28636d	0.041110445
121	0x3da9548e	0.08268081
122	0xbd62d7ff	-0.05538177
123	0x3da4e3d7	0.080512695
124	0x3c9229bf	0.017842172
125	0xbe2049b6	-0.15653118
126	0xbcbdbe7b	-0.023162117
127	0x3cd6c47f	0.026216744
128	0xbe07ba04	-0.13254553
129	0x3d9f033e	0.0776429
130	0xbe1a6c9c	-0.15080494
131	0x3dc9f8c9	0.09861905
132	0xbc1f9d3b	-0.0097420765
133	0xbca0c354	-0.01962439
134	0x3e205b65	0.15659864
135	0x3e2a1648	0.16610062
136	0x3dc40739	0.0957169
137	0xbd619466	-0.055073164
138	0xbdc64ef9	-0.096830316
139	0xbe3c02e4	-0.18360478
140	0xbce0c0f1	-0.027435752
141	0xbd26ed7b	-0.040753823
142	0x3e5ecc19	0.21757545
143	0xbda344b8	-0.079720914
144	0x3e0b5447	0.13606368
145	0xbe383dd1	-0.17992331
146	0xbd93112a	-0.07181008
147	0xbe0ac210	-0.13550591
148	0x3d4caa5d	0.04996716
149	0x3d7c82d4	0.061648205
150	0xbe25ced2	-0.16192177
151	0xbdb993b0	-0.09061372
152	0xbd2c81c6	-0.04211595
153	0x3dbb79f9	0.09154124
154	0x3e25e6c9	0.16201319
155	0x3d780db8	0.06055996
156	0xbd95f310	-0.07321751
157	0x3d1af53b	0.037831526
158	0x3d82de40	0.06390047
159	0x383973fd	4.421546e-05
160	0xbdca5fb8	-0.09881538
161	0xbe0192f4	-0.12653714
162	0xbe12d690	-0.14339662
163	0xbe16307d	-0.14666934
164	0x3dc480fc	0.09594914
165	0xbe4e158c	-0.20125407
166	0xbd97b742	-0.074080005
167	0xbd9dc7a9	-0.07704098
168	0x3e1f00e2	0.1552768
169	0x3d5ae03c	0.053436503
170	0xbdba0434	-0.09082833
171	0x3e76bdf1	0.24095894
172	0xbcb0d4e7	-0.021585895
173	0x3e55ed56	0.20891318
174	0x3d7efedb	0.062254768
175	0xbd5a07dd	-0.053230155
176	0xbcc2d3fa	-0.023782719
177	0xbd87c722	-0.066297784
178	0x3d05b029	0.032638703
179	0x3dd5275a	0.10407896
180	0xbd9086dc	-0.070569724
181	0xbd674529	-0.05646244
182	0x3ca6571f	0.020305214
183	0xbe1fcd08	-0.15605557
184	0x3c6b87d8	0.014375649
185	0xbe233969	-0.15939869
186	0xbdf604da	-0.12012644
187	0x3e066bb2	0.1312702
188	0xbddb6677	-0.10712903
189	0xbd2cebb8	-0.042216986
190	0x3e0442b1	0.12916066
191	0xbdcac990	-0.09901726
192	0x3d632180	0.05545187
193	0x3d40f44b	0.047107976
194	0x3d3528f2	0.0442285
195	0xbd5e12ec	-0.054217264
196	0x3dc8c0b0	0.09802377
197	0xbd251a9a	-0.040308572
198	0xbd84653b	-0.06464621
199	0x3dca4b3d	0.09877632
200	0x3dc0f31b	0.09421369
201	0xbe020891	-0.1269858
202	0x3cc587f8	0.024112687
203	0x3d9286d4	0.07154623
204	0x3d25aec5	0.040449876
205	0xbd2add51	-0.04171497
206	0xbd415512	-0.04720027
207	0x3c873c94	0.016508378
208	0x3d26e039	0.04074118
209	0x3e1fd2ec	0.15607804
210	0x3e0c4f99	0.13702239
211	0x3c20fdad	0.009826106
212	0x3e40409c	0.18774647
213	0xbc00b5dc	-0.007855859
214	0xbd4d2fa6	-0.05009427
215	0x3df1c18f	0.118044965
216	0x3da69e5b	0.08135673
217	0xbd9029be	-0.07039212
218	0xbd0776cc	-0.033072278
219	0xbb018090	-0.0019760467
220	0xbd3e0532	-0.046391673
221	0x3e562556	0.2091268
222	0x3d467245	0.04844882
223	0x3dd69f4a	0.10479601
224	0xbd3e2112	-0.046418257
225	0x3c3e9401	0.011631967
226	0x3d8727f6	0.06599419
227	0x3ce0fcbe	0.027464267
228	0xbd6aa9ed	-0.05729096
229	0x3d43f05a	0.04783664
230	0xbcea03d8	-0.028566286
231	0x3ca65b7c	0.020307295
232	0x3d034b12	0.032054015
233	0xbddf5932	-0.109056845
234	0xbd183105	-0.037156124
235	0xbded2dd5	-0.115810074
236	0xbe2cbfc8	-0.16870034
237	0xba4030ca	-0.0007331489
238	0xbd811bca	-0.063041285
239	0xbcc4c850	-0.024021298
240	0xbdd7c75e	-0.10536073
241	0x3cafe934	0.021473505
242	0x3c806257	0.015671892
243	0xbd2dd87f	-0.042442795
244	0xbdf1ed40	-0.1181283
245	0x3d2d0287	0.04223874
246	0x397697c1	0.00023516921
247	0x3d08fb37	0.033442702
248	0xbdc7e909	-0.09761245
249	0xbdcb9bad	-0.09941802
250	0xbc7f8f4f	-0.015598132
251	0xbd7eb2ff	-0.062182423
252	0x3de3e623	0.111278795
253	0x3dda9e0e	0.10674678
254	0x3dcb336e	0.09921919
255	0xbd1fb974	-0.03899522

action_model._discrete_distribution.branches.0.weight f4 [6, 128]
0	0xbbcf3a6a	-0.006324102
1	0x3b43418e	0.0029793712
2	0x3b17aa14	0.0023142146
3	0x3a6bb622	0.00089916785
4	0xbc88fe42	-0.016722802
5	0x3bd52f8a	0.0065059112
6	0x3a8f0511	0.0010911544
7	0x3a9b7f4f	0.0011863502
8	0xbb51a5e5	-0.003198975
9	0xbbc31ea1	-0.005954579
10	0xbb28ce92	-0.002575789
11	0xbc1da6c0	-0.009622276
12	0x3b4594b7	0.0030148455
13	0xbc18a21e	-0.0093159955
14	0x3c1cb4a0	0.009564549
15	0xbbfc3f2a	-0.0076979594
16	0xbc1b9cdb	-0.0094978465
17	0x3ba4e639	0.0050323275
18	0x3c4853fc	0.012227055
19	0xbcd87f47	-0.026427878
20	0x3be0478a	0.0068444656
21	0x3ab3163a	0.001366324
22	0x3b079c18	0.0020692404
23	0xbcae7cde	-0.021299776
24	0xbc19d752	-0.009389715
25	0xbaa13ec3	-0.001230203
26	0xb9fb512b	-0.00047934926
27	0x3b8b9e9a	0.00426085
28	0x3c7eaaa5	0.0155436145
29	0xb918f252	-0.00014586121
30	0xbc5d1b6f	-0.01349531
31	0x3b66be3d	0.0035208606
32	0x3bee2d88	0.0072686113
33	0x39d46b4a	0.00040515728
34	0xbc4dc6b8	-0.012559585
35	0x3c0e63de	0.008690802
36	0x3bba8789	0.0056924266
37	0xbc1cddf0	-0.009574398
38	0x3c10b7cb	0.008832882
39	0x3b8d56c9	0.004313324
40	0x3bceee40	0.0063150227
41	0xba16893f	-0.0005742497
42	0xbb8258cb	-0.00397787
43	0xbc9591ba	-0.018257964
44	0x3b3161c0	0.002706632
45	0xbaeeb2f2	-0.0018211289
46	0xbc5ebbb5	-0.0135945575
47	0xbc12b403	-0.008954051
48	0xbae49ec2	-0.0017442333
49	0x39e397cf	0.0004340992
50	0x3c5832eb	0.013195734
51	0xb9a1b274	-0.0003084127
52	0xbb207765	-0.0024485227
53	0x3be8a615	0.0070998766
54	0x3c6cc128	0.014450349
55	0x3abf6de6	0.0014604896
56	0xbc193b1b	-0.009352471
57	0x3c8f71d4	0.017510332
58	0x3cfe0515	0.031008283
59	0xbc3716ef	-0.011174901
60	0xbc985f4c	-0.018600129
61	0x3aea9e0b	0.0017899884
62	0x3abad09b	0.0014252843
63	0xbb0d9e2c	-0.002160917
64	0xbc3d26e0	-0.011544913
65	0x3c5f3a53	0.013624745
66	0xbaeaa1fd	-0.001790106
67	0x3b1972ff	0.002341449
68	0xbb716937	-0.0036836395
69	0xbc58ef22	-0.013240607
70	0xbc6e4aed	-0.014544231
71	0x3c89f10f	0.016838579
72	0xbc1a7052	-0.009426193
73	0xbc4913e7	-0.0122728115
74	0x3b79a3e3	0.003809207
75	0x3ae1a1bd	0.001721434
76	0x3bf0559d	0.0073344246
77	0xbc1bf23d	-0.009518203
78	0xbca8d10b	-0.020607492
79	0x3c4f729b	0.012661601
80	0xbb76381f	-0.0037570072
81	0x3b5e9c47	0.003396766
82	0xbacfa2e0	-0.0015841387
83	0xbb470a9d	-0.0030371316
84	0x3b4aacb8	0.0030925702
85	0x3ba06d47	0.0048958394
86	0x3ab1fca5	0.0013579322
87	0xbb90b533	-0.004416132
88	0x3c866e3a	0.016409982
89	0xbc4c6b73	-0.01247679
90	0xbba739cb	-0.005103325
91	0xbbec2218	-0.0072062127
92	0x3b8af0eb	0.0042401454
93	0xbac96931	-0.0015366432
94	0xbc17ce42	-0.009265484
95	0x3c36c3b3	0.011155057
96	0x3bdd42fa	0.006752369
97	0x3be6ef58	0.007047575
98	0x3b2ed209	0.0026675484
99	0x3bfb5c68	0.007670928
100	0x3aaed375	0.0013338166
101	0x3ca9eb21	0.020742001
102	0xbb50fc72	-0.003188875
103	0x3a82adab	0.000996997
104	0x3b3af8bf	0.0028529612
105	0xbbb972a1	-0.005659417
106	0xbb4d956f	-0.0031369587
107	0xba2ca3d9	-0.00065856945
108	0x3c173707	0.009229428
109	0xbc14591f	-0.009054451
110	0xb9c43688	-0.00037424662
111	0xbb7bb51a	-0.0038407505
112	0x3beaf177	0.007169898
113	0x3c06256d	0.008187634
114	0x3b6af5b2	0.0035852012
115	0xba48cb46	-0.00076596846
116	0x3c376c27	0.011195219
117	0xbcb1a05e	-0.021682914
118	0x3c2d901f	0.010593443
119	0xbc2aeb62	-0.010432096
120	0xbc57cea7	-0.013171828
121	0xbc4f64f3	-0.0126583455
122	0x3c5ec0f2	0.013595806
123	0x3abf3e56	0.0014590721
124	0xbb9bc9d8	-0.0047542863
125	0x3b2fdf8a	0.002683612
126	0xbb8ad303	-0.0042365803
127	0x3b8bad7b	0.004262624
128	0xbc15f708	-0.009153135
129	0x3b65e4aa	0.0035078921
130	0xbb240e47	-0.0025032924
131	0xbbbb7dc7	-0.005721781
132	0x3c817408	0.015802398
133	0xbc830ff7	-0.015998824
134	0x3be3d6ca	0.006953095
135	0x3bf50028	0.0074768253
136	0x3c125f05	0.008933787
137	0x3b03934d	0.0020076812
138	0xba0b334e	-0.0005310074
139	0xbb8bfbaf	-0.0042719464
140	0x3bdc42f7	0.00672185
141	0xbb669133	-0.003518176
142	0xbbec875a	-0.0072182836
143	0xbba5391f	-0.0050422098
144	0x3b0541cb	0.0020333405
145	0xbb6c9f38	-0.0036105644
146	0x3c4249f0	0.011858448
147	0x3b1ebc82	0.0024221246
148	0xbab17800	-0.0013539791
149	0x3baec281	0.0053332453
150	0xbc55c7cb	-0.013048123
151	0x3c09a935	0.0084021585
152	0xbc2fe570	-0.0107358545
153	0x3b21cf63	0.0024690263
154	0xbb36e0d2	-0.0027905
155	0x3c9a25b5	0.018816808
156	0xb9e82930	-0.00044281175
157	0xb98a76ac	-0.0002640983
158	0x3c515453	0.012776452
159	0xbba5a21a	-0.0050547244
160	0x3aecf2cb	0.0018077729
161	0x3c254f5c	0.0100897215
162	0x36bc476d	5.6111517e-06
163	0x3c13d45f	0.009022801
164	0xbc639c82	-0.013892295
165	0xbbce248a	-0.006290977
166	0xba66e098	-0.0008807271
167	0x3befbd23	0.007316248
168	0x3ac31f73	0.0014886692
169	0x3b24d097	0.0025148743
170	0xbc2c4a6f	-0.010515793
171	0x3bd7eaa2	0.0065892497
172	0x3bcf7cd8	0.006332021
173	0x3b9ede57	0.0048482823
174	0x3bb070b4	0.005384529
175	0xbbe88c3b	-0.007096795
176	0xbc5b4487	-0.013383037
177	0x3c07e29c	0.008293774
178	0xbb146b63	-0.0022647015
179	0xbbe84e83	-0.0070894375
180	0xba380497	-0.0007019727
181	0xbc3c8932	-0.011507319
182	0x3b0554c7	0.002034472
183	0x3c90be7b	0.017668953
184	0x3ac0af91	0.001470076
185	0xbbfe119f	-0.0077535654
186	0x3b8eb742	0.004355342
187	0xbbe1e9da	-0.0068943324
188	0xbc49587b	-0.012289162
189	0x3be964f0	0.0071226284
190	0xbba5df89	-0.005062048
191	0xbc024547	-0.007951087
192	0x3b7255f2	0.0036977497
193	0x3b289d88	0.0025728662
194	0x399f75af	0.00030414524
195	0xbb7dd347	-0.0038730667
196	0x3c3817f9	0.011236184
197	0x3ad98095	0.0016594107
198	0x3c8547ef	0.016269652
199	0x3b663a2b	0.0035129886
200	0x3ab6f3a4	0.0013958109
201	0xbae5063a	-0.0017473169
202	0x3b13f15a	0.0022574277
203	0x3b847be4	0.004043089
204	0xbc468b40	-0.012118161
205	0x3b358c77	0.0027702132
206	0x3c873087	0.016502632
207	0xbc1e5ff1	-0.009666429
208	0xbb941a2f	-0.004519723
209	0x3956c8d5	0.00020483446
210	0xbc870d3d	-0.016485805
211	0xb987319f	-0.00025786177
212	0xbb48821f	-0.0030595136
213	0x3ba8ad76	0.0051476313
214	0x3b1b988b	0.0023742046
215	0xbc3c2fc9	-0.011486002
216	0x3ba9e8a5	0.005185204
217	0x39214955	0.00015381475
218	0x3b42fb6b	0.0029751908
219	0xbba26bac	-0.004956683
220	0x3bdc50ed	0.0067235143
221	0x3c1af23a	0.009457165
222	0xbb00e26a	-0.0019666203
223	0xbc53b16a	-0.012920717
224	0x3a6c304d	0.0009009883
225	0x3bcd95eb	0.006273975
226	0x3bc881f9	0.0061190096
227	0x3b350419	0.002762085
228	0xbb40c68a	-0.0029415214
229	0x3aa81073	0.0012822285
230	0xbb6d4038	-0.0036201607
231	0xbb5f1a12	-0.0034042639
232	0x3bb53a01	0.0055305962
233	0xbc075f9c	-0.008262541
234	0xbbdaee6f	-0.0066812555
235	0x3a837397	0.0010028955
236	0xbc082c96	-0.008311411
237	0xba9f0aec	-0.0012133992
238	0x3cf50aa5	0.029912302
239	0xbc0c006c	-0.008545022
240	0x3be86905	0.0070925974
241	0x3c3faaff	0.0116984835
242	0xbc2c4635	-0.010514786
243	0x3aaa4b6f	0.0012992452
244	0xba3628c5	-0.0006948824
245	0xbc09c222	-0.008408101
246	0xbc2825d3	-0.010262924
247	0x3b16b29b	0.002299464
248	0x3ade1d97	0.0016946074
249	0xbc67045d	-0.014100161
250	0xba44290f	-0.0007482925
251	0x39875795	0.0002581446
252	0x3ba03533	0.0048891543
253	0xbaaac86b	-0.00130297
254	0x3ca77d68	0.02044554
255	0xbb978fed	-0.0046253116

action_model._discrete_distribution.branches.0.bias f4 [6]
0	0x00000000	0.0
1	0x00000000	0.0
2	0x00000000	0.0
3	0x00000000	0.0
4	0x00000000	0.0
5	0x00000000	0.0
